PreConditional_LSTMs/models/model_2.pt (torch_old, 171470 bytes, 29 tensors)

encode_fc1.weight f4 [8, 7]
000000 28 03 0e 80 b3 db 0d 00 b6 60 0c 00 84 09 35 00
       -1.286829e-39 1.272675e-39 1.13672e-39 4.870695e-39
000010 77 44 34 80 c5 38 32 00 73 22 0a 80 04 0c 0a 00
       -4.800006e-39 4.61214e-39 -9.30713e-40 9.22665e-40
000020 bf cf 17 00 1a 65 05 80 c2 06 08 00 4b fe 06 80
       2.186742e-39 -4.95446e-40 7.37108e-40 -6.42236e-40
000030 66 db 05 80 1a 0b 01 80 7d af 10 80 88 90 44 00
       -5.37883e-40 -9.5818e-41 -1.532321e-39 6.296662e-39
000040 2d a3 0a 00 59 bc 05 80 8a db 10 80 5e 14 10 80
       9.76891e-40 -5.26744e-40 -1.548124e-39 -1.476674e-39
000050 39 52 10 80 47 06 0a 80 04 61 10 80 ce 07 03 00
       -1.498864e-39 -9.20607e-40 -1.50417e-39 2.78306e-40
000060 5f 18 0b 00 d2 10 35 80 9c 6a 0e 80 d9 4a 17 80
       1.018933e-39 -4.873315e-39 -1.323941e-39 -2.139067e-39
000070 59 26 0a 00 a0 ab 07 00 de 61 05 80 87 be 10 80
       9.32112e-40 7.04416e-40 -4.94286e-40 -1.537716e-39
000080 48 43 07 80 4d 03 1c 00 4b 4a 0c 00 bf b6 06 00
       -6.66984e-40 2.572578e-39 1.128677e-39 6.1657e-40
000090 75 4e 08 00 55 cc 10 80 5a b5 1e 00 78 c4 07 00
       7.62829e-40 -1.542668e-39 2.820122e-39 7.13328e-40
0000a0 49 cd 16 80 70 23 0c 00 67 b1 0c 80 6b 85 22 80
       -2.094023e-39 1.114739e-39 -1.165666e-39 -3.170268e-39
0000b0 bb 22 23 80 dc 70 03 00 04 fc 30 00 3c f0 0f 80
       -3.226701e-39 3.15993e-40 4.49851e-39 -1.463712e-39
0000c0 e5 c0 13 00 86 b7 34 80 a5 65 18 00 9e 79 00 80
       1.814072e-39 -4.841282e-39 2.240515e-39 -4.3628e-41
0000d0 66 0f 23 00 01 47 01 80 49 0a 01 00 5e e1 02 80
       3.219766e-39 -1.17307e-40 9.5525e-41 -2.64518e-40

encode_fc1.bias f4 [8]
000000 5f 2d 1b 00 b9 89 1e 00 e7 a4 09 00 0e db 0d 00
       2.495834e-39 2.80447e-39 8.85675e-40 1.272443e-39
000010 82 c6 01 00 4f 1c 2d 80 1f e5 03 80 86 ac 03 00
       1.63047e-40 -4.142753e-39 -3.577e-40 3.37396e-40

encode_bn1.weight f4 [8]
000000 15 ec 02 00 04 65 15 00 9d aa 02 80 11 2a 1b 80
       2.68361e-40 1.964783e-39 -2.44876e-40 -2.494649e-39
000010 73 38 16 00 21 7c 25 00 fb 4d 0d 00 a9 06 10 80
       2.040631e-39 3.442442e-39 1.221836e-39 -1.471757e-39

encode_bn1.bias f4 [8]
000000 36 7e 13 00 f1 6a 0c 00 1c 1a 0f 80 f7 d3 0a 00
       1.79015e-39 1.14039e-39 -1.386899e-39 9.94394e-40
000010 27 03 34 80 f2 89 14 00 f5 95 11 80 3d d4 01 80
       -4.776577e-39 1.886195e-39 -1.614998e-39 -1.67972e-40

encode_bn1.running_mean f4 [8]
000000 5c 2a 02 80 a0 d7 03 80 5b a2 01 80 1a d1 00 00
       -1.98867e-40 -3.52858e-40 -1.50078e-40 7.5012e-41
000010 0a 98 00 00 7f 4d 03 00 eb f3 02 80 68 74 01 00
       5.4541e-41 3.03307e-40 -2.71172e-40 1.33594e-40

encode_bn1.running_var f4 [8]
000000 04 00 00 00 04 00 00 00 04 00 00 00 04 00 00 00
       6e-45 6e-45 6e-45 6e-45
000010 04 00 00 00 04 00 00 00 04 00 00 00 04 00 00 00
       6e-45 6e-45 6e-45 6e-45

encode_fc2.weight f4 [35, 8]
000000 98 b0 06 00 59 77 18 00 b2 0b 11 80 2c f4 20 80
       6.14363e-40 2.246866e-39 -1.565399e-39 -3.026328e-39
000010 72 00 14 00 11 4c 32 00 b6 f4 0b 00 1d 2e 0d 80
       1.83687e-39 4.619062e-39 1.097976e-39 -1.210404e-39
000020 24 f2 01 80 4d 15 45 80 35 f7 1e 00 2c 8b 16 80
       -1.78699e-40 -6.34429e-39 2.843746e-39 -2.070306e-39
000030 3e 36 01 00 1a b2 12 00 c8 b0 18 00 0d 37 23 00
       1.11294e-40 1.71693e-39 2.267469e-39 3.233991e-39
000040 cc bf 34 00 6e de 02 00 b1 59 20 00 48 f9 04 00
       4.84425e-39 2.63464e-40 2.970911e-39 4.56767e-40
000050 a6 1a 1d 80 64 22 01 00 da 8f 11 80 c9 18 08 80
       -2.672789e-39 1.04173e-40 -1.612808e-39 -7.43575e-40
000060 90 3f 04 80 ac 6d 0f 00 98 ea 1c 00 95 1b 00 00
       -3.90144e-40 1.416875e-39 2.65555e-39 9.895e-42
000070 63 4c 0d 80 8b eb 35 80 9c a9 1f 80 cc c2 06 00
       -1.221264e-39 -4.951778e-39 -2.907745e-39 6.20893e-40
000080 2f 54 13 00 dc 09 00 80 54 39 1f 80 67 8b 15 00
       1.775074e-39 -3.537e-42 -2.867466e-39 1.978554e-39
000090 ff 8c 02 00 3c 07 14 80 40 5c 09 80 ce d8 0c 00
       2.34251e-40 -1.839305e-39 -8.59613e-40 1.179801e-39
0000a0 7c 61 1c 80 97 75 14 80 a7 76 14 80 92 84 44 00
       -2.606365e-39 -1.878893e-39 -1.879274e-39 6.292371e-39
0000b0 0e f6 18 80 73 ce 01 00 2a b9 03 00 73 20 0b 00
       -2.29232e-39 1.65896e-40 3.41931e-40 1.021831e-39
0000c0 1d 6f 0b 00 12 83 03 00 b4 db 02 00 2d 1f 03 80
       1.05005e-39 3.22526e-40 2.62486e-40 -2.8669e-40
0000d0 36 f8 10 80 c7 10 02 00 01 ee 1c 00 74 8f 2c 80
       -1.558409e-39 1.8969e-40 2.656774e-39 -4.092223e-39
0000e0 e8 ea 1b 80 16 66 05 00 49 73 00 80 52 79 10 80
       -2.563827e-39 4.95799e-40 -4.1357e-41 -1.51289e-39
0000f0 c2 05 11 80 71 8c 04 00 07 6b 0d 00 2f 95 1e 80
       -1.563269e-39 4.17723e-40 1.232256e-39 -2.808582e-39
000100 ff 03 35 00 66 4d 11 00 21 c5 07 80 80 45 00 00
       4.868715e-39 1.588969e-39 -7.13565e-40 2.4932e-41
000110 32 84 0f 80 8d 50 03 80 67 83 10 80 24 c8 01 80
       -1.424955e-39 -3.04403e-40 -1.516506e-39 -1.63632e-40
000120 6a 9b 14 00 22 6e 00 80 49 96 0e 00 0f ed 10 00
       1.892462e-39 -3.9508e-41 1.339609e-39 1.554409e-39
000130 5f 51 11 80 40 fc 32 00 89 a6 1d 00 df 58 07 00
       -1.590394e-39 4.682265e-39 2.722971e-39 6.7473e-40
000140 47 8b 0c 00 01 65 09 00 94 72 07 80 1e 49 08 80
       1.151989e-39 8.62753e-40 -6.83951e-40 -7.60913e-40
000150 a7 38 09 80 40 47 10 80 c1 a3 03 80 7b e0 00 80
       -8.46842e-40 -1.494928e-39 -3.3425e-40 -8.0528e-41
000160 dc a7 17 80 16 1a 07 00 f4 77 22 00 3d 5c 0b 80
       -2.172433e-39 6.52206e-40 3.165438e-39 -1.04328e-39
000170 90 89 01 00 61 63 37 00 58 52 21 00 35 f4 1d 80
       1.41184e-40 5.086603e-39 3.060111e-39 -2.750834e-39
000180 d3 14 10 00 3e 23 1e 00 10 10 11 00 72 18 14 00
       1.476838e-39 2.767707e-39 1.566966e-39 1.845479e-39
000190 2e 0b 21 00 8e 5d 10 80 32 60 19 00 db bb 02 80
       3.034582e-39 -1.502929e-39 2.330396e-39 -2.51061e-40
0001a0 7d 1b 2f 00 eb 6d 01 80 93 e8 2d 00 00 a5 04 80
       4.326129e-39 -1.31267e-40 4.216029e-39 -4.26533e-40
0001b0 98 7e 00 80 0d 44 0c 80 e8 54 08 00 45 94 09 80
       -4.5413e-41 -1.126438e-39 7.65143e-40 -8.79709e-40
0001c0 f6 6f 03 00 b6 75 07 80 3e 2a 1c 80 2a 12 33 80
       3.1567e-40 -6.85075e-40 -2.586548e-39 -4.690126e-39
0001d0 55 67 1d 80 42 84 0e 80 0e 77 01 80 5f 95 0d 80
       -2.700298e-39 -1.333142e-39 -1.34544e-40 -1.247446e-39
0001e0 6f c4 0a 00 53 fe 10 80 d3 7c 0b 80 3e 2f 00 00
       9.88822e-40 -1.560602e-39 -1.054969e-39 1.6947e-41
0001f0 66 1c 09 80 df f2 01 80 fc 3d 0e 80 e3 2a 18 80
       -8.36707e-40 -1.78961e-40 -1.307933e-39 -2.219437e-39
000200 da d7 00 00 d3 43 00 00 7e ba 13 00 32 ee 1e 00
       7.7433e-41 2.4331e-41 1.811775e-39 2.840513e-39
000210 79 b6 0e 00 ec f6 1b 00 6f 8a 45 80 8e 5d 1c 80
       1.351156e-39 2.568137e-39 -6.38631e-39 -2.604955e-39
000220 d4 54 16 80 39 25 22 00 4e 10 1e 80 33 bc 02 00
       -2.050812e-39 3.13576e-39 -2.760914e-39 2.51184e-40
000230 be a2 01 00 58 56 02 80 e0 ce 37 00 61 c4 00 80
       1.50216e-40 -2.14645e-40 5.125165e-39 -7.0447e-41
000240 9e 81 0e 00 fa 70 04 80 2b f8 1d 00 f2 77 0e 80
       1.332195e-39 -4.0787e-40 2.752255e-39 -1.328725e-39
000250 9a 0f 03 80 e6 13 08 80 2b 58 1d 00 a2 d0 18 00
       -2.81103e-40 -7.41822e-40 2.694858e-39 2.278895e-39
000260 1d 35 2f 00 8a 83 1b 80 35 34 00 00 cb 62 17 00
       4.335322e-39 -2.526746e-39 1.8728e-41 2.147657e-39
000270 82 29 02 00 9e de 0c 00 4c 94 18 80 99 53 11 80
       1.98561e-40 1.181886e-39 -2.257251e-39 -1.591193e-39
000280 9d d0 18 80 9b 8c 12 80 d4 de 12 80 6e 54 10 00
       -2.278888e-39 -1.703479e-39 -1.732975e-39 1.499656e-39
000290 41 03 05 00 c6 35 13 00 5e 65 0a 80 77 81 12 00
       4.60345e-40 1.764165e-39 -9.54719e-40 1.699482e-39
0002a0 62 40 02 80 3f 30 19 80 77 8a 18 00 22 2c 0e 80
       -2.06767e-40 -2.313195e-39 2.253724e-39 -1.301529e-39
0002b0 4f 2b 11 80 47 e6 00 80 c3 84 00 00 24 e5 16 00
       -1.57674e-39 -8.2608e-41 4.7626e-41 2.102581e-39
0002c0 ad c3 22 00 bf 8a 08 80 63 f7 0c 80 27 89 17 00
       3.192602e-39 -7.84457e-40 -1.190772e-39 2.161417e-39
0002d0 c0 4a 1f 80 5d fb 2e 00 76 c5 0f 00 1e ff 21 80
       -2.873716e-39 4.314605e-39 1.448368e-39 -3.12209e-39
0002e0 68 19 11 80 aa c2 06 00 5b 42 02 00 86 1e 07 80
       -1.570317e-39 6.20845e-40 2.07475e-40 -6.53798e-40
0002f0 5c 71 18 00 78 1a 03 00 aa 42 13 00 a8 81 07 00
       2.244718e-39 2.85002e-40 1.768789e-39 6.8936e-40
000300 a1 a6 19 00 a5 ff 22 00 16 7d 11 00 04 d3 12 00
       2.355663e-39 3.214115e-39 1.606076e-39 1.728737e-39
000310 06 d0 03 80 e7 33 16 00 d7 87 2d 00 92 b8 08 00
       -3.50131e-40 2.039e-39 4.181327e-39 8.00895e-40
000320 3e a3 07 80 50 f3 13 80 d5 ed 03 00 4e f9 2d 00
       -7.01409e-40 -1.832159e-39 3.60825e-40 4.222031e-39
000330 fd 6a 11 00 87 41 2e 00 4b 47 10 00 eb 69 08 00
       1.599584e-39 4.24794e-39 1.494943e-39 7.7268e-40
000340 4e 73 1b 00 24 aa 07 80 85 66 19 80 7f 38 11 80
       2.520922e-39 -7.03883e-40 -2.332664e-39 -1.58147e-39
000350 32 c2 02 80 aa 1b 02 00 8c 8d 12 00 7a 51 10 00
       -2.53335e-40 1.93595e-40 1.703816e-39 1.498596e-39
000360 d3 ac 17 80 cd ec 0f 80 1c f5 09 00 47 0e 06 00
       -2.174214e-39 -1.46248e-39 9.14448e-40 5.56135e-40
000370 6a d5 43 00 9b 28 01 00 31 77 07 00 ea 66 14 80
       6.229537e-39 1.06402e-40 6.85606e-40 -1.873629e-39
000380 03 96 09 80 6e 0e 00 00 4f 66 0a 80 6a ae 17 00
       -8.80334e-40 5.176e-42 -9.55056e-40 2.174784e-39
000390 f6 ee 03 80 58 3a 00 80 ed 6f 12 80 9d e0 32 80
       -3.6123e-40 -2.093e-41 -1.69319e-39 -4.672351e-39
0003a0 10 f0 01 00 4d dd 09 00 a4 72 18 00 bb f9 0a 00
       1.77954e-40 9.05907e-40 2.245177e-39 1.007941e-39
0003b0 3e 4b 11 00 0b bf 0e 00 01 d9 19 00 4a 58 24 00
       1.588195e-39 1.35423e-39 2.373734e-39 3.33775e-39
0003c0 af b0 0d 80 2e ff 16 00 37 27 30 80 d4 e8 18 00
       -1.257244e-39 2.111922e-39 -4.422171e-39 2.287575e-39
0003d0 7e 50 09 00 c7 d5 13 80 05 2c 23 80 d2 d5 0c 00
       8.55395e-40 -1.821563e-39 -3.230034e-39 1.17873e-39
0003e0 c0 ad 10 00 16 cc 07 80 13 03 0f 00 67 a0 17 80
       1.531698e-39 -7.16061e-40 1.378635e-39 -2.169758e-39
0003f0 de bc 22 80 0e 42 15 00 33 3c 0f 00 4b 7c 1a 80
       -3.19016e-39 1.952241e-39 1.399128e-39 -2.432311e-39

encode_fc2.bias f4 [35]
000000 a4 58 19 80 fd 2e 08 00 a2 6e 17 80 f5 56 00 80
       -2.327686e-39 7.5154e-40 -2.151904e-39 -3.1194e-41
000010 52 3a 12 80 50 f6 0a 80 22 02 15 80 b5 75 04 80
       -1.67396e-39 -1.006715e-39 -1.92931e-39 -4.09567e-40
000020 6b ad 14 80 f7 98 13 80 64 6f 03 00 06 95 24 80
       -1.89892e-39 -1.799748e-39 3.15466e-40 -3.359537e-39
000030 19 dc 21 80 61 91 23 00 f8 85 1e 80 ab 8d 1a 00
       -3.109528e-39 3.266394e-39 -2.803124e-39 2.438544e-39
000040 15 bd 08 00 87 17 04 00 34 90 15 80 51 a4 44 80
       8.02514e-40 3.75782e-40 -1.980276e-39 -6.30376e-39
000050 f2 d3 19 00 a9 12 19 00 0c 4d 08 00 84 15 24 80
       2.371919e-39 2.302581e-39 7.62323e-40 -3.313796e-39
000060 31 d8 10 80 47 21 17 00 ee dc 1c 80 c3 8f 21 00
       -1.546923e-39 2.124154e-39 -2.650649e-39 3.082143e-39
000070 06 b7 10 00 b8 4e 16 80 78 36 08 80 d4 90 0b 80
       1.535024e-39 -2.04862e-39 -7.54224e-40 -1.062145e-39
000080 eb ca 10 80 cf a9 18 80 2d 16 14 80
       -1.542161e-39 -2.264968e-39 -1.844665e-39

encode_bn2.weight f4 [35]
000000 5a 6d 0e 80 80 bf 13 00 e2 02 03 80 09 c5 32 00
       -1.324925e-39 1.813572e-39 -2.7654e-40 4.662458e-39
000010 39 a5 06 80 41 3e 1e 00 0a b9 0e 80 b3 c8 08 00
       -6.10284e-40 2.777397e-39 -1.352076e-39 8.06681e-40
000020 22 9c 00 80 50 b2 10 00 76 6c 0b 00 12 e7 12 80
       -5.601e-41 1.533334e-39 1.049099e-39 -1.735931e-39
000030 84 e7 02 00 f4 ef 19 00 f6 6a 08 80 5a 6d 0d 00
       2.66723e-40 2.381966e-39 -7.73054e-40 1.23309e-39
000040 42 c5 0d 80 25 53 00 80 4b 51 36 80 93 1b 23 00
       -1.264624e-39 -2.9827e-41 -4.988279e-39 3.224134e-39
000050 f1 7c 06 80 c1 33 0f 00 ee 05 07 00 49 8c 1f 00
       -5.95834e-40 1.396098e-39 6.44976e-40 2.897225e-39
000060 27 86 00 00 31 73 19 00 0f 11 08 00 a5 96 1f 00
       4.8125e-41 2.33721e-39 7.40803e-40 2.900941e-39
000070 07 74 0d 00 60 9b 04 80 98 d7 0d 80 11 ab 00 00
       1.235484e-39 -4.2308e-40 -1.271202e-39 6.1367e-41
000080 9e de 05 80 26 85 0f 80 4c 45 06 80
       -5.39037e-40 -1.425297e-39 -5.75872e-40

encode_bn2.bias f4 [35]
000000 85 16 b1 bd b5 c7 58 3c a4 a5 84 3d 4d fb 05 bc
       -0.086468734 0.013231208 0.06476906 -0.008177591
000010 0b 0f 15 b9 9d d9 b2 bd ae 61 6f bc ca 52 bb 3d
       -0.00014215351 -0.08732913 -0.014610691 0.0914665
000020 10 64 80 bd 40 78 80 bd 38 82 21 bd 9f 01 6d bd
       -0.062690854 -0.06272936 -0.039430827 -0.057862874
000030 7a 17 d8 bd 1f 9e f4 bd f9 1d d9 bd f9 7d 14 3e
       -0.10551353 -0.11944222 -0.1060142 0.1450118
000040 f9 0e 21 3d 37 a3 10 3d d3 1b 50 3c 7e 66 11 bd
       0.03932092 0.035311904 0.012701946 -0.035498135
000050 dd f5 62 3c 48 f0 13 3e 8f 29 e7 3b 1d f7 15 3e
       0.013852564 0.14447129 0.0070545147 0.14645047
000060 45 a7 82 bc d6 2e 0f 3d f9 da 14 be a1 3d d3 3d
       -0.015948901 0.034956776 -0.14536656 0.10314489
000070 b1 4c 72 3c 24 98 23 3d df 28 f1 3d da 63 7b 3c
       0.0147887925 0.039940014 0.11775374 0.015343631
000080 70 b2 b3 bd 0e 8a b1 bd 8c 62 d9 3d
       -0.087742686 -0.0866891 0.106144994

encode_bn2.running_mean f4 [35]
000000 38 38 02 80 20 6c 02 80 de d7 00 80 f0 56 00 80
       -2.03838e-40 -2.22459e-40 -7.7439e-41 -3.1187e-41
000010 9f 16 03 80 38 3c 06 00 12 e6 02 80 d0 c3 00 80
       -2.83621e-40 5.72615e-40 -2.66205e-40 -7.0244e-41
000020 85 41 03 00 52 d5 04 00 5e 11 03 00 83 1e 01 00
       2.9901e-40 4.43867e-40 2.81737e-40 1.02781e-40
000030 ba dc 01 00 7a a0 00 80 e8 07 03 00 84 f1 01 00
       1.71017e-40 -5.7568e-41 2.78343e-40 1.78475e-40
000040 8f 40 00 00 df 5d 01 80 28 18 01 00 2c 33 03 00
       2.3159e-41 -1.2551e-40 1.00501e-40 2.93863e-40
000050 73 c4 00 80 3d 71 01 00 0e 21 01 80 cf 25 03 00
       -7.0473e-41 1.32458e-40 -1.03693e-40 2.8907e-40
000060 c6 4d 00 80 e6 dd 00 80 7e d6 06 00 9f 70 01 00
       -2.79e-41 -7.9602e-41 6.27958e-40 1.32236e-40
000070 91 0e 04 80 86 8b 00 80 5a ff 00 00 9c c3 06 80
       -3.72567e-40 -5.0052e-41 9.1603e-41 -6.21184e-40
000080 d5 33 00 80 9b 2a 03 00 73 34 04 00
       -1.8594e-41 2.9079e-40 3.86157e-40

encode_bn2.running_var f4 [35]
000000 04 00 00 00 04 00 00 00 04 00 00 00 04 00 00 00
       6e-45 6e-45 6e-45 6e-45
000010 04 00 00 00 04 00 00 00 04 00 00 00 04 00 00 00
       6e-45 6e-45 6e-45 6e-45
000020 04 00 00 00 04 00 00 00 04 00 00 00 04 00 00 00
       6e-45 6e-45 6e-45 6e-45
000030 04 00 00 00 04 00 00 00 04 00 00 00 04 00 00 00
       6e-45 6e-45 6e-45 6e-45
000040 04 00 00 00 04 00 00 00 04 00 00 00 04 00 00 00
       6e-45 6e-45 6e-45 6e-45
000050 04 00 00 00 04 00 00 00 04 00 00 00 04 00 00 00
       6e-45 6e-45 6e-45 6e-45
000060 04 00 00 00 04 00 00 00 04 00 00 00 04 00 00 00
       6e-45 6e-45 6e-45 6e-45
000070 04 00 00 00 04 00 00 00 04 00 00 00 04 00 00 00
       6e-45 6e-45 6e-45 6e-45
000080 04 00 00 00 04 00 00 00 04 00 00 00
       6e-45 6e-45 6e-45

lstm.weight_ih_l0 f4 [140, 1]
000000 fd 9a 4f 3d 35 91 49 3d 5c b4 4c 3d bd 34 d2 33
       0.050684918 0.049210746 0.04997669 9.78848e-08
000010 43 4b 35 af 79 f5 4e 3d 95 e3 51 3d 69 48 53 3d
       -1.6488592e-10 0.05052707 0.05124243 0.051582728
000020 a0 14 97 35 14 3f 24 36 a9 9b 4c 3d 7b 51 54 3d
       1.1256379e-06 2.447462e-06 0.049953137 0.05183552
000030 68 dd 52 3d 16 2d 59 3d 23 dd 4e 3d f3 2b 53 3d
       0.05148068 0.053021513 0.05050386 0.051555585
000040 57 0d 4f 3d 9b 39 97 35 80 de 48 3d 08 20 9a 35
       0.05054983 1.1267142e-06 0.049040318 1.1483216e-06
000050 81 25 4c 3d c4 8a 4d 3d da c4 8e 33 29 63 56 3d
       0.049840454 0.050181165 6.6481974e-08 0.05234066
000060 81 c5 4d 3d 53 79 a2 35 72 0a 55 3d 5f e2 51 3d
       0.050237183 1.210525e-06 0.052011915 0.051241275
000070 c2 4a 4e 3d 3c 3c 53 3d 8b 35 55 3d 52 60 50 3d
       0.050364263 0.051571116 0.052053016 0.05087311
000080 88 43 53 3d 1d c0 4e 3d 13 44 52 3d fc d9 43 3d
       0.051578075 0.050476182 0.051334452 0.047815308
000090 7e 79 3e 3d ea fe 40 3d 96 8c 14 33 76 5f 6e af
       0.046502583 0.047118105 3.4586797e-08 -2.1679888e-10
0000a0 4e a0 43 3d 92 93 47 3d b8 68 47 3d 30 df fc 34
       0.0477603 0.04872472 0.048683852 4.7101048e-07
0000b0 96 b5 94 35 33 44 41 3d 5e 04 4a 3d 19 32 47 3d
       1.1079708e-06 0.04718418 0.04932057 0.04863176
0000c0 1e ff 4d 3d 21 01 44 3d df 0e 47 3d 3f 38 44 3d
       0.050292127 0.04785264 0.048598167 0.047905203
0000d0 82 be 18 35 33 5c 3d 3d c0 5e 92 34 8e d8 41 3d
       5.690164e-07 0.046230506 2.726356e-07 0.047325663
0000e0 25 a5 42 3d f0 60 d8 32 41 b1 4b 3d 78 ca 42 3d
       0.047520775 2.5189792e-08 0.04972959 0.04755637
0000f0 cb bf 4a 35 b9 89 49 3d 52 3b 47 3d c1 ec 43 3d
       7.552996e-07 0.04920361 0.048640557 0.047833208
000100 46 af 48 3d 41 62 4a 3d 81 0e 46 3d 11 b8 47 3d
       0.04899528 0.04941011 0.048353676 0.048759524
000110 34 62 43 3d c7 ca 46 3d 79 ee c8 bd 45 a7 c5 3d
       0.047701076 0.048533227 -0.0981111 0.09651045
000120 d4 3e c8 3d 63 54 15 39 83 3c be 37 60 b7 c8 bd
       0.097776085 0.00014241184 2.2677943e-05 -0.09800601
000130 3b 07 ca bd ca b0 cb 3d 7d a4 ec 39 00 03 1d 3a
       -0.0986466 0.09945829 0.0004513598 0.0005989522
000140 8a ca c7 bd 5a 8b cb bd 17 3d cb bd 15 6d ce bd
       -0.09755428 -0.099386886 -0.09923761 -0.100793995
000150 e5 c6 c8 bd 08 68 cb 3d 35 c5 c8 3d 76 34 ec b9
       -0.09803561 0.09931952 0.09803239 -0.00045052514
000160 fa 52 c5 3d fc a2 06 3a 31 fd c6 3d df 33 c8 3d
       0.09634967 0.0005135981 0.09716261 0.097755186
000170 fe ec d7 b8 9e 57 cc 3d 71 bc c8 bd 95 ef db b9
       -0.00010296142 0.09977649 -0.09801567 -0.00041949438
000180 08 3b cc bd 20 1a ca 3d 3f 56 c8 3d d1 ba ca 3d
       -0.09972197 0.09868264 0.09782075 0.09898914
000190 3d 2a cc 3d e3 37 c9 3d 92 5c cb bd 91 6e c8 bd
       0.09968994 0.09825113 -0.09929766 -0.09786714
0001a0 71 c9 ca 3d 81 37 a5 3d a0 29 a0 3d 48 bf a2 3d
       0.09901703 0.08067227 0.07820439 0.0794664
0001b0 04 e1 ee 33 46 c6 3d af 9a 9b a5 3d d1 b5 a6 3d
       1.1123669e-07 -1.7259891e-10 0.08086319 0.081401475
0001c0 5c c9 a9 3d c0 a2 9e 35 98 06 30 36 6a b6 a2 3d
       0.082903594 1.1819284e-06 2.6229882e-06 0.07944949
0001d0 23 35 a9 3d cc e5 a7 3d 81 6c ae 3d 61 31 a7 3d
       0.08262088 0.08198127 0.08516789 0.08163715
0001e0 00 57 a8 3d 89 24 a4 3d f9 53 a1 35 5e ec 9d 3d
       0.08219719 0.08014781 1.2019874e-06 0.07711099
0001f0 99 f6 b4 35 85 1c a2 3d 62 ca a3 3d 9d 70 a2 33
       1.3482814e-06 0.07915596 0.07997586 7.564197e-08
000200 75 91 ab 3d a5 22 a6 3d 15 32 ad 35 ba c3 a9 3d
       0.08377353 0.08112077 1.290408e-06 0.08289285
000210 a4 b3 a8 3d c4 13 a5 3d 00 47 a8 3d 8e 6a ab 3d
       0.08237389 0.080604106 0.08216667 0.08369933
000220 5d 55 a7 3d b9 e1 a8 3d 75 26 a4 3d 06 56 a8 3d
       0.08170579 0.08246178 0.080151476 0.08219533

lstm.weight_hh_l0 f4 [140, 35]
000000 4d 91 d3 bc 83 49 c8 3c 4d b5 ce 3c 3d 6e 0d b7
       -0.02582612 0.024449116 0.025232935 -8.429922e-06
000010 4a 07 72 b4 02 3d d4 bc 64 9f cb bc 58 e5 d7 3c
       -2.2540658e-07 -0.025907997 -0.024856277 0.026354477
000020 f5 ba 84 b8 a9 9a a9 b8 db 51 cc bc 4d 5d d1 bc
       -6.329074e-05 -8.087356e-05 -0.024941375 -0.025557185
000030 bf 41 d6 bc e9 03 dd bc 53 2a d8 bc 88 33 db 3c
       -0.026154397 -0.026979404 -0.02638737 0.02675797
000040 ff 05 cc 3c 23 1d b7 37 9d 85 c5 3c f8 14 6a b7
       0.024905203 2.1828868e-05 0.024111563 -1.3952369e-05
000050 89 7f c8 3c 4b 78 d7 3c 46 e6 7b 37 a5 ee dc 3c
       0.024474876 0.026302477 1.5014381e-05 0.026969263
000060 3e 1f ce bc e1 2f 95 b7 34 da db bc a4 c0 d7 3c
       -0.025161382 -1.778448e-05 -0.026837446 0.026336975
000070 9f 9b cb 3c db db cf 3c 2a c2 da 3c 58 2c ce 3c
       0.02485448 0.02537339 0.026703913 0.02516763
000080 68 ce d5 bc 74 e2 d1 bc 7f 70 d7 3c 69 44 d0 bc
       -0.026099399 -0.025620677 0.02629876 -0.025423246
000090 13 8c c5 3c 15 9f cb 3c 04 98 43 b7 06 fd 8c b4
       0.024114644 0.02485613 -1.16583e-05 -2.626113e-07
0000a0 17 ee d0 bc 1e db c8 bc a4 6e d4 3c 4d 2a b1 b8
       -0.025504155 -0.024518546 0.025931664 -8.447897e-05
0000b0 5b 90 ca b8 85 64 c9 bc a1 43 ce bc 3b d0 d2 bc
       -9.658999e-05 -0.024584064 -0.025178732 -0.025734058
0000c0 ba 53 d9 bc 38 a6 d4 bc 78 6e d7 3c d9 15 c9 3c
       -0.026529182 -0.025958166 0.026297793 0.02454655
0000d0 40 b1 17 38 b7 dc c2 3c 7c 85 f3 b7 b3 c4 c5 3c
       3.6166282e-05 0.023786886 -2.9030016e-05 0.024141645
0000e0 a7 c2 d3 3c 55 63 8c 37 89 21 d9 3c 06 44 cb bc
       0.025849653 1.6735556e-05 0.026505249 -0.02481271
0000f0 70 97 48 35 87 16 d8 bc 36 4b d4 3c 3f cc c8 3c
       7.4726177e-07 -0.02637793 0.02591477 0.024511455
000100 68 e9 cc 3c 8a 2d d7 3c a6 54 cb 3c ef 70 d2 bc
       0.02501364 0.026266832 0.024820637 -0.025688617
000110 17 8f ce bc f4 e8 d3 3c 9f 4c cf bc a1 29 c4 3c
       -0.025214715 0.025867917 -0.02530509 0.023945631
000120 e9 75 ca 3c b1 1e 70 b7 1f d3 e5 b4 3e f3 cf bc
       0.024714427 -1.4312261e-05 -4.2808185e-07 -0.025384542
000130 49 6b c7 bc 29 8b d3 3c 50 9c e8 b8 af fa 0a b9
       -0.02434315 0.025823193 -0.000110917375 -0.00013254092
000140 3c 29 c8 bc 94 20 cd bc 28 eb d1 bc ff 8c d8 bc
       -0.024433725 -0.025039949 -0.025624827 -0.02643442
000150 ea d5 d3 bc 24 cb d6 3c be d8 c7 3c d2 3d 4e 38
       -0.025858838 0.026219912 0.024395343 4.9171802e-05
000160 d5 6d c1 3c a1 be 20 b8 0e 61 c4 3c 28 23 d3 3c
       0.023611942 -3.832451e-05 0.02397206 0.0257736
000170 b7 75 aa 37 bb 7c d8 3c cb e8 c9 bc ec d9 cd 36
       2.0320394e-05 0.026426664 -0.024647137 6.1348455e-06
000180 ff 6e d7 bc 98 69 d3 3c 05 6b c7 3c b9 a2 cb 3c
       -0.026298044 0.025807187 0.024343023 0.024857866
000190 45 59 d6 3c a8 f6 c9 3c e5 7f d1 bc 6f a1 cd bc
       0.026165614 0.024653748 -0.02557368 -0.025101392
0001a0 6e 1b d3 3c c7 50 a8 b2 57 f1 73 32 14 5b 98 32
       0.025769915 -1.9594507e-08 1.4199336e-08 1.7736546e-08
0001b0 4f d0 b9 b0 d1 25 32 ae e5 b0 ae b2 bb b3 78 b2
       -1.3519726e-09 -4.0506102e-11 -2.0336708e-08 -1.4476366e-08
0001c0 ea 8f bb 32 48 3d a5 b2 45 ad 1d b2 fb 7a 90 b2
       2.183511e-08 -1.9236396e-08 -9.178e-09 -1.6819731e-08
0001d0 2b d3 9d b2 07 e3 ba b2 30 3e c7 b2 63 7a ba b2
       -1.8373234e-08 -2.175649e-08 -2.3194929e-08 -2.1708905e-08
0001e0 b2 f9 d4 32 e7 d5 8d 32 5b c5 1f 32 c1 6a 62 32
       2.4793597e-08 1.6511832e-08 9.2998915e-09 1.3179204e-08
0001f0 10 cb 00 b2 32 54 80 32 84 dc d0 32 36 69 a7 30
       -7.496752e-09 1.4939449e-08 2.4314666e-08 1.2180752e-09
000200 24 8d dc 32 20 ac 7e b2 66 a1 54 32 ca 95 d4 b2
       2.5675554e-08 -1.4823883e-08 1.2376722e-08 -2.4748164e-08
000210 cb 33 b9 32 fc f7 82 32 0e 21 95 32 82 c6 c6 32
       2.1560387e-08 1.5246762e-08 1.7360914e-08 2.3140505e-08
000220 bf ea 87 32 12 55 ae b2 34 54 aa b2 f8 d4 bf 32
       1.5822819e-08 -2.0294951e-08 -1.9828896e-08 2.2332173e-08
000230 27 db 1a 2f 7e 01 1a af c1 dd 19 af 04 58 2e 2a
       1.4084077e-10 -1.4006749e-10 -1.3994052e-10 1.5484841e-13
000240 66 52 ac a8 3c b5 1a 2f 18 58 1d 2f e4 a9 1b af
       -1.913157e-14 1.4070606e-10 1.4310364e-10 -1.4157525e-10
000250 38 af cf 2c e1 10 ae 2c 4a c8 19 2f 42 bd 1c 2f
       5.902747e-12 4.9472514e-12 1.3986426e-10 1.4255355e-10
000260 47 4e 1b 2f 5a 98 1e 2f d4 5f 1a 2f 50 ca 1a af
       1.4124978e-10 1.4424142e-10 1.4040263e-10 -1.4078094e-10
000270 1c 2e 1b af ae 09 c8 ab 0e 68 19 af 94 2e d7 2b
       -1.4113549e-10 -1.4213541e-12 -1.3952237e-10 1.5289597e-12
000280 85 c3 19 af 60 c3 19 af a8 4f 74 aa d1 1a 1c af
       -1.3984731e-10 -1.398468e-10 -2.169919e-13 -1.4197644e-10
000290 a4 a4 1a 2f 24 7a 1a ac 8b e2 1b 2f cd c8 1a af
       1.406471e-10 -2.1952518e-12 1.4177652e-10 -1.4077557e-10
0002a0 de 5e 1b af 6b bc 1c af 93 59 1c af 00 27 1c af
       -1.4130871e-10 -1.4255057e-10 -1.421994e-10 -1.4201973e-10
0002b0 9b 09 1c 2f 07 80 1a 2f 79 48 1b af a7 f5 d3 bc
       1.419153e-10 1.4051703e-10 -1.4122915e-10 -0.025873972
0002c0 3c 66 c8 3c 56 f9 ce 3c 7f d5 bc b7 b0 89 09 b5
       0.024462812 0.025265377 -2.2510763e-05 -5.123684e-07
0002d0 e5 97 d4 bc 74 b7 cb bc ea 40 d8 3c 69 4f 24 b9
       -0.025951335 -0.02486775 0.026398141 -0.00015669841
0002e0 58 9f 3a b9 6f 85 cc bc e4 99 d1 bc 13 a9 d6 bc
       -0.00017797702 -0.02496597 -0.025586076 -0.026203668
0002f0 0d 75 dd bc 5b 97 d8 bc ab b7 db 3c 01 30 cc 3c
       -0.027033353 -0.02643936 0.026820978 0.024925234
000300 67 24 9f 38 8e 99 c5 3c 4f cb 96 b8 7e 9f c8 3c
       7.588491e-05 0.024121072 -7.1904265e-05 0.024490114
000310 1e f3 d7 3c 47 72 df 37 2e 70 dd 3c 3b 49 ce bc
       0.026361044 2.6636886e-05 0.02703103 -0.025181403
000320 30 4e 26 38 72 60 dc bc 69 27 d8 3c d0 bb cb 3c
       3.9650302e-05 -0.026901457 0.02638598 0.02486983
000330 eb 0d d0 3c 4f 2f db 3c eb 57 ce 3c 14 29 d6 bc
       0.025397262 0.026755957 0.025188407 -0.026142634
000340 39 35 d2 bc 2c d5 d7 3c b3 96 da bc f5 78 cf 3c
       -0.025660144 0.026346765 -0.026683187 0.025326231
000350 30 ce d5 3c 76 82 8f b7 9c a7 9d b4 63 50 db bc
       0.026099294 -1.7107679e-05 -2.936548e-07 -0.02677173
000360 65 e2 d2 bc 4e d7 de 3c a4 38 18 b9 15 85 29 b9
       -0.025742719 0.027202275 -0.0001451695 -0.00016166673
000370 21 70 d3 bc 9c 87 d8 bc 00 49 dd bc 14 05 e4 bc
       -0.025810303 -0.026431851 -0.027012348 -0.027834453
000380 a8 1c df bc 7e 1e e2 3c 7f 26 d3 3c ed 16 88 38
       -0.027235344 0.02760243 0.025775192 6.4892556e-05
000390 42 b4 cc 3c d4 16 5d b8 83 a7 cf 3c 92 4f de 3c
       0.024988297 -5.2711766e-05 0.02534843 0.027137551
0003a0 b5 49 bc 37 95 d7 e3 3c 8e 3a d5 bc 61 6e d0 37
       2.2445669e-05 0.027812758 -0.026028898 2.4846931e-05
0003b0 4b d0 e2 bc ae c7 de 3c 3e c5 d2 3c c4 13 d7 3c
       -0.027687212 0.027194824 0.025728818 0.026254542
0003c0 b6 c5 e1 3c 71 58 d5 3c 92 d9 dc bc 65 da d8 bc
       0.027560096 0.026043149 -0.026959214 -0.026471326
0003d0 8c 59 de 3c 21 92 d4 bc dc b5 c8 3c 8a 76 cf 3c
       0.027142309 -0.025948586 0.02450078 0.025325079
0003e0 40 18 dc b7 d1 64 12 b5 94 3d d5 bc 19 0b cc bc
       -2.6237336e-05 -5.4535946e-07 -0.02603034 -0.024907636
0003f0 0d f5 d8 3c fc 47 54 b9 07 57 6c b9 f5 e9 cc bc
       0.026484037 -0.00020244712 -0.00022539134 -0.025013903

lstm.bias_ih_l0 f4 [140]
000000 a8 08 a8 3d 22 8c a2 3d d8 11 a5 3d 36 8f 52 34
       0.08204776 0.079368845 0.08060044 1.9609874e-07
000010 51 2a a5 af 77 a5 a8 3d 88 e5 a7 3d 19 08 ad 3d
       -3.0043393e-10 0.08234685 0.081980765 0.0844881
000020 a5 0a 10 36 28 86 81 36 c4 14 a5 3d ac cc a9 3d
       2.1463868e-06 3.8601174e-06 0.08060601 0.08290991
000030 03 fc a9 3d 64 cc b0 3d 9b 65 aa 3d 8b 00 ab 3d
       0.083000205 0.086327344 0.08320161 0.08349713
000040 da da a5 3d 07 d6 0b 36 9b d7 9f 3d 04 7e 18 36
       0.08098383 2.0837194e-06 0.07804795 2.2723116e-06
000050 7c 2b a3 3d b8 a3 a6 3d 0c 03 10 34 0d 2b ad 3d
       0.07967278 0.081366956 1.3412154e-07 0.08455477
000060 86 72 a8 3d 1d 59 0e 36 c0 41 ac 3d 74 5d aa 3d
       0.082249686 2.121152e-06 0.08410978 0.08318606
000070 8f ff a6 3d d5 aa a9 3d d5 9d ac 3d 17 b4 a9 3d
       0.08154213 0.08284537 0.084285416 0.082863025
000080 fd d9 aa 3d db f6 a6 3d a0 b7 ab 3d f5 a3 86 3d
       0.08342359 0.08152553 0.08384633 0.06574241
000090 c1 1b 83 3d e0 2b 84 3d fb e1 8a 33 28 46 bb af
       0.06401778 0.06453681 6.4672314e-08 -3.406495e-10
0000a0 30 24 87 3d ac 03 88 3d 17 12 8a 3d 2d f4 8f 35
       0.06598699 0.06641325 0.067417316 1.0725395e-06
0000b0 63 79 fe 35 f0 8e 84 3d 1f bf 89 3d 17 40 88 3d
       1.8959803e-06 0.06472576 0.067259066 0.06652849
0000c0 fe 81 8d 3d 25 39 88 3d 9b a7 88 3d f9 c0 85 3d
       0.0690956 0.066515245 0.06672593 0.06530947
0000d0 98 c7 8d 35 c6 d0 80 3d fd 2e 2d 35 33 9f 83 3d
       1.0563408e-06 0.062898204 6.45159e-07 0.06426849
0000e0 4d 94 85 3d 9e 1c 64 33 f7 09 8b 3d 2d d2 86 3d
       0.06522427 5.3111414e-08 0.0678901 0.065830566
0000f0 27 bd 8e 35 eb 2d 8a 3d be e6 88 3d 2d 17 86 3d
       1.0634875e-06 0.067470394 0.066846356 0.06547389
000100 1e 75 89 3d 3a b8 8a 3d a9 7b 88 3d 92 e8 88 3d
       0.067117915 0.0677342 0.06664211 0.06684984
000110 0a 7c 85 3d 91 21 89 3d 5d ea 3f be 0c 03 3c 3e
       0.06517799 0.066958554 -0.18741746 0.18360537
000120 a7 76 3d 3e 62 ef ac 39 02 91 80 38 c6 2d 40 be
       0.18502294 0.0003298475 6.1305254e-05 -0.18767461
000130 11 c8 3e be 4c 7a 43 3e 03 48 92 3a d6 16 9c 3a
       -0.18631007 0.19089621 0.0011160377 0.0011908661
000140 15 7e 3d be ea ca 3f be df ea 40 be 1b 56 45 be
       -0.18505128 -0.1872975 -0.18839596 -0.19271128
000150 72 ba 41 be a7 7d 41 3e b3 28 3e 3e 8a f5 8a ba
       -0.1891878 0.18895589 0.18570213 -0.0010601741
000160 52 bc 39 3e 6d bf 8c 3a 75 6e 3c 3e 05 67 3f 3e
       0.18138245 0.0010738202 0.18401511 0.18691643
000170 dc a2 9f b9 31 73 43 3e 6b 55 40 be b9 8a 8c ba
       -0.00030448183 0.19086911 -0.18782584 -0.0010722495
000180 79 24 42 be ce 37 41 3e 1b 15 3f 3e ba ac 3f 3e
       -0.18959226 0.18868944 0.18660395 0.18718234
000190 23 d4 42 3e 51 bd 40 3e 6a 6c 41 be 8b 9b 3f be
       0.19026236 0.18822218 -0.18889013 -0.18711679
0001a0 8d d8 42 3e d0 1f eb 3d f5 b7 e3 3d d8 08 e6 3d
       0.1902792 0.11480677 0.111190714 0.112321556
0001b0 fb f5 51 34 28 ff a9 af 7e b6 eb 3d 1d cc ea 3d
       1.9554129e-07 -3.092222e-10 0.11509417 0.11464713
0001c0 99 12 f2 3d 87 ed 08 36 59 ab 74 36 a2 79 e6 3d
       0.118199535 2.0403838e-06 3.645857e-06 0.11253668
0001d0 c6 b7 ed 3d 0f 39 ed 3d 15 50 f7 3d fd 92 ef 3d
       0.116073176 0.11583149 0.12075821 0.11697958
0001e0 5d f1 ed 3d 14 d8 e7 3d 9f 0e 06 36 0c b2 de 3d
       0.11618302 0.113205105 1.9976067e-06 0.108738035
0001f0 f2 ed 19 36 d1 bf e4 3d 59 08 e9 3d 95 00 0e 34
       2.293728e-06 0.111693986 0.11378545 1.3224992e-07
000200 2f d7 f2 3d 82 5e ed 3d 28 ec 0a 36 46 c9 ef 3d
       0.11857449 0.115902916 2.0701063e-06 0.11708312
000210 49 e4 ee 3d c5 41 ea 3d 9b 52 ed 3d bd 81 f2 3d
       0.11664636 0.11438326 0.11588021 0.11841152
000220 16 70 ee 3d e5 a9 ee 3d 39 f6 e8 3d 8d 56 f0 3d
       0.116424724 0.116534986 0.11375088 0.11735258

lstm.bias_hh_l0 f4 [140]
000000 a9 08 a8 3d 22 8c a2 3d d7 11 a5 3d 35 8f 52 34
       0.08204777 0.079368845 0.08060043 1.9609872e-07
000010 49 2a a5 af 78 a5 a8 3d 8a e5 a7 3d 1b 08 ad 3d
       -3.004337e-10 0.08234686 0.08198078 0.084488116
000020 a2 0a 10 36 2d 86 81 36 c4 14 a5 3d ab cc a9 3d
       2.1463861e-06 3.8601197e-06 0.08060601 0.082909904
000030 05 fc a9 3d 65 cc b0 3d 9c 65 aa 3d 8c 00 ab 3d
       0.08300022 0.08632735 0.08320162 0.08349714
000040 d7 da a5 3d 01 d6 0b 36 9d d7 9f 3d fe 7d 18 36
       0.08098381 2.083718e-06 0.07804797 2.2723102e-06
000050 7c 2b a3 3d ba a3 a6 3d 08 03 10 34 0d 2b ad 3d
       0.07967278 0.08136697 1.3412148e-07 0.08455477
000060 81 72 a8 3d 1c 59 0e 36 c1 41 ac 3d 73 5d aa 3d
       0.08224965 2.1211517e-06 0.08410979 0.08318605
000070 90 ff a6 3d d3 aa a9 3d d7 9d ac 3d 16 b4 a9 3d
       0.081542134 0.08284535 0.08428543 0.08286302
000080 ff d9 aa 3d db f6 a6 3d a3 b7 ab 3d f3 a3 86 3d
       0.08342361 0.08152553 0.08384635 0.065742396
000090 c0 1b 83 3d e0 2b 84 3d fb e1 8a 33 26 46 bb af
       0.06401777 0.06453681 6.4672314e-08 -3.4064945e-10
0000a0 2e 24 87 3d aa 03 88 3d 16 12 8a 3d 3a f4 8f 35
       0.065986976 0.06641324 0.06741731 1.072541e-06
0000b0 59 79 fe 35 f1 8e 84 3d 22 bf 89 3d 1a 40 88 3d
       1.8959792e-06 0.064725764 0.06725909 0.066528514
0000c0 fd 81 8d 3d 27 39 88 3d 9b a7 88 3d f5 c0 85 3d
       0.06909559 0.06651526 0.06672593 0.06530944
0000d0 9c c7 8d 35 c7 d0 80 3d 0b 2f 2d 35 34 9f 83 3d
       1.0563413e-06 0.06289821 6.451598e-07 0.0642685
0000e0 50 94 85 3d 9a 1c 64 33 f8 09 8b 3d 2c d2 86 3d
       0.06522429 5.31114e-08 0.06789011 0.06583056
0000f0 29 bd 8e 35 ed 2d 8a 3d be e6 88 3d 2d 17 86 3d
       1.0634877e-06 0.06747041 0.066846356 0.06547389
000100 1e 75 89 3d 38 b8 8a 3d ab 7b 88 3d 92 e8 88 3d
       0.067117915 0.06773418 0.06664213 0.06684984
000110 09 7c 85 3d 91 21 89 3d 5b ea 3f be 0d 03 3c 3e
       0.065177985 0.066958554 -0.18741743 0.18360539
000120 a8 76 3d 3e 34 ef ac 39 62 91 80 38 c5 2d 40 be
       0.18502295 0.00032984617 6.130595e-05 -0.1876746
000130 10 c8 3e be 4d 7a 43 3e 02 48 92 3a dd 16 9c 3a
       -0.18631005 0.19089623 0.0011160376 0.0011908669
000140 14 7e 3d be ec ca 3f be e0 ea 40 be 1c 56 45 be
       -0.18505126 -0.18729752 -0.18839598 -0.1927113
000150 72 ba 41 be a6 7d 41 3e b6 28 3e 3e 77 f5 8a ba
       -0.1891878 0.18895587 0.18570217 -0.0010601719
000160 55 bc 39 3e 67 bf 8c 3a 77 6e 3c 3e 04 67 3f 3e
       0.18138249 0.0010738195 0.18401514 0.18691641
000170 fa a2 9f b9 31 73 43 3e 69 55 40 be b4 8a 8c ba
       -0.0003044827 0.19086911 -0.18782581 -0.0010722489
000180 7b 24 42 be cf 37 41 3e 1d 15 3f 3e bc ac 3f 3e
       -0.18959229 0.18868946 0.18660398 0.18718237
000190 21 d4 42 3e 52 bd 40 3e 69 6c 41 be 8c 9b 3f be
       0.19026233 0.1882222 -0.18889011 -0.1871168
0001a0 8d d8 42 3e d2 1f eb 3d f3 b7 e3 3d d7 08 e6 3d
       0.1902792 0.114806786 0.1111907 0.11232155
0001b0 07 f6 51 34 2f ff a9 af 7f b6 eb 3d 1e cc ea 3d
       1.9554146e-07 -3.092224e-10 0.11509418 0.114647135
0001c0 98 12 f2 3d 7e ed 08 36 55 ab 74 36 a2 79 e6 3d
       0.11819953 2.0403818e-06 3.6458562e-06 0.11253668
0001d0 c7 b7 ed 3d 12 39 ed 3d 14 50 f7 3d fd 92 ef 3d
       0.11607318 0.11583151 0.120758206 0.11697958
0001e0 5c f1 ed 3d 11 d8 e7 3d a1 0e 06 36 0a b2 de 3d
       0.11618301 0.11320508 1.9976071e-06 0.10873802
0001f0 f1 ed 19 36 d1 bf e4 3d 59 08 e9 3d 93 00 0e 34
       2.2937277e-06 0.111693986 0.11378545 1.322499e-07
000200 33 d7 f2 3d 81 5e ed 3d 25 ec 0a 36 47 c9 ef 3d
       0.11857452 0.11590291 2.0701057e-06 0.117083125
000210 4a e4 ee 3d c8 41 ea 3d 9b 52 ed 3d bd 81 f2 3d
       0.116646364 0.11438328 0.11588021 0.11841152
000220 14 70 ee 3d e8 a9 ee 3d 3c f6 e8 3d 8d 56 f0 3d
       0.11642471 0.11653501 0.113750905 0.11735258

lstm.weight_ih_l0_reverse f4 [140, 1]
000000 e1 4e 0b 95 a3 c2 09 94 42 80 68 19 85 32 b9 90
       -2.813305e-26 -6.955118e-27 1.202002e-23 -7.304747e-29
000010 42 b3 7d 8b 18 2a 65 15 72 d8 af 13 92 a7 84 9a
       -4.8860886e-32 4.6279388e-26 4.4389642e-27 -5.4864645e-23
000020 b2 c6 0d 92 c4 31 28 94 41 a9 69 94 44 cd 88 95
       -4.4736666e-28 -8.491647e-27 -1.1796873e-26 -5.5253815e-26
000030 8f 83 43 96 15 ea 9d 1f 1d 1b 87 91 ee db 6b 15
       -1.5793487e-25 6.687934e-20 -2.1315954e-28 4.7631366e-26
000040 29 2b c1 15 fb 63 c3 92 f0 de 1c 91 4e 07 87 90
       7.8020174e-26 -1.2330877e-27 -1.2374928e-28 -5.3259366e-29
000050 a8 e5 82 90 8c 0c a3 94 50 90 02 2b 4a 2e 22 94
       -5.16298e-29 -1.6463743e-26 4.638555e-13 -8.188039e-27
000060 a7 84 2f 92 97 3d 41 94 68 ac d5 94 75 7e f2 93
       -5.538377e-28 -9.756156e-27 -2.1575506e-26 -6.1214085e-27
000070 f6 d9 ea 93 eb 8a fb 9d 0f 02 06 94 ff 84 0b 91
       -5.928483e-27 -6.6582785e-21 -6.765677e-27 -1.1006149e-28
000080 7a 2e 6c 95 6b d9 7a 95 d5 f4 44 95 da ea b9 14
       -4.7696484e-26 -5.065861e-26 -3.9775023e-26 1.8772859e-26
000090 63 5a a3 93 1e d8 d0 18 6f e9 36 90 13 5d 07 8b
       -4.1236113e-27 5.3984962e-24 -3.6073002e-29 -2.6070076e-32
0000a0 7f 20 e5 94 b6 25 ed 93 f8 51 cc 18 81 89 89 92
       -2.3135908e-26 -5.9864397e-27 5.281553e-24 -8.679813e-28
0000b0 35 09 d6 93 4f a6 2c 94 81 d2 36 95 48 53 59 14
       -5.4030274e-27 -8.7165794e-27 -3.6920666e-26 1.09721246e-26
0000c0 e0 6f 8f 9f c1 a0 80 92 ef 5c 55 95 12 57 ed 94
       -6.074794e-20 -8.117565e-28 -4.308832e-26 -2.3965228e-26
0000d0 14 39 ee 92 f1 5c 82 90 a5 39 87 12 4c 52 a3 90
       -1.5033982e-27 -5.141916e-29 8.533908e-28 -6.441896e-29
0000e0 1c f3 5c 93 eb 14 ac 2a 8d b7 db 92 3e 4f 49 91
       -2.7887766e-27 3.0567852e-13 -1.3866092e-27 -1.5880523e-28
0000f0 70 a4 07 94 72 78 58 94 54 c4 b0 90 69 e0 a0 93
       -6.848188e-27 -1.0928967e-26 -6.972225e-29 -4.0610964e-27
000100 23 5d 4e 9d a1 8a 9b 93 78 de e7 10 bd e8 3b 95
       -2.7312024e-21 -3.92642e-27 9.14562e-29 -3.7947947e-26
000110 57 89 fb 13 2b d4 0b 95 2e c2 f0 a8 e9 ab c8 a8
       6.3496735e-27 -2.8238197e-26 -2.6729565e-14 -2.2279015e-14
000120 6d 16 a9 ab 9a 50 ee a7 dd 47 f4 a4 30 fd 7f 29
       -1.2014397e-12 -6.614566e-15 -1.0593987e-16 5.684098e-14
000130 0c 8d 0a 29 a8 4d 0f 2b 26 b2 72 a9 d7 b9 27 a8
       3.0764494e-14 5.0911575e-13 -5.3889314e-14 -9.31066e-15
000140 fb 33 53 a9 2e 12 a8 a9 69 13 8f aa e0 8f c5 ad
       -4.6896498e-14 -7.4638524e-14 -2.541537e-13 -2.24602e-11
000150 d1 de 37 a9 b4 c4 2b 2a 05 9d 31 a9 30 1f d7 28
       -4.0827425e-14 1.5256096e-13 -3.9438088e-14 2.388332e-14
000160 b6 a6 47 28 8a 3f 94 28 f2 ed 60 27 5d 5f 02 2a
       1.1082869e-14 1.6458856e-14 3.1215235e-15 1.1579405e-13
000170 32 0a 78 33 e9 78 98 29 92 9e e8 a7 33 86 aa a8
       5.7751272e-08 6.7711306e-14 -6.4564858e-15 -1.8931991e-14
000180 b6 34 02 aa 14 96 02 2a 6b bc 3f 29 0e fc 94 2d
       -1.1564607e-13 1.1598388e-13 4.2573946e-14 1.6937587e-11
000190 42 2e ef 29 9a bb 94 27 61 7a 16 aa bd 13 45 a9
       1.06217566e-13 4.128165e-15 -1.3365135e-13 -4.3759907e-14
0001a0 08 26 5d 2a c9 a9 09 95 40 ec 07 94 29 63 4f 19
       1.9641938e-13 -2.7800867e-26 -6.86235e-27 1.07216744e-23
0001b0 f5 6f b0 90 fe ec 6c 8b 14 41 51 15 7c 5f 64 13
       -6.9592257e-29 -4.563024e-32 4.225855e-26 2.8824723e-27
0001c0 58 bb ae 99 89 7c 0a 92 68 8d 20 94 89 54 80 94
       -1.8066846e-23 -4.3698623e-28 -8.105823e-27 -1.295804e-26
0001d0 90 b3 7d 95 61 a5 00 97 51 de 9c 1f bf a2 52 91
       -5.1234593e-26 -4.156777e-25 6.643636e-20 -1.6616229e-28
0001e0 4f 96 f2 14 b6 06 19 15 03 68 9e 92 50 64 16 91
       2.4495042e-26 3.0903398e-26 -9.996843e-28 -1.1863825e-28
0001f0 e6 99 94 11 3e 6d 8c 90 46 bc a5 94 f8 21 04 2b
       2.344513e-28 -5.538858e-29 -1.6735003e-26 4.694296e-13
000200 2b b4 1d 94 26 52 25 92 f1 30 39 94 10 36 cd 94
       -7.962006e-27 -5.2166076e-28 -9.349765e-27 -2.0721034e-26
000210 97 be c2 93 37 cf dc 93 0f 41 f7 9d ef 0a 37 94
       -4.916042e-27 -5.5740137e-27 -6.5447625e-21 -9.241295e-27
000220 d9 0b e0 90 13 5f 63 95 37 b5 64 95 c8 f9 3d 95
       -8.8370676e-29 -4.5917285e-26 -4.6187187e-26 -3.836529e-26

lstm.weight_hh_l0_reverse f4 [140, 35]
000000 1f d8 83 12 85 9a f3 10 86 28 21 92 1e 53 d1 8f
       8.32054e-28 9.6084675e-29 -5.085259e-28 -2.0641007e-29
000010 1b bb 96 8d 62 94 81 12 56 62 6a 90 4c 35 38 92
       -9.289508e-31 8.177624e-28 -4.6224118e-29 -5.8125856e-28
000020 55 8f 59 92 f5 0d 28 92 60 7b 36 0f 9c 94 43 12
       -6.8649797e-28 -5.3028656e-28 8.997054e-30 6.1714326e-28
000030 a3 d6 5e 92 8f fd b5 12 55 bf 04 92 83 99 b4 92
       -7.031541e-28 1.1485213e-27 -4.188769e-28 -1.1397441e-27
000040 66 14 8d 11 71 b3 9d 90 ac 5b 9e 11 9a 99 c2 91
       2.225845e-28 -6.2202054e-29 2.4984502e-28 -3.0702467e-28
000050 81 20 91 90 00 4d 15 0f c0 54 18 10 fb af 1b 92
       -5.7242496e-29 7.361097e-30 3.0042003e-29 -4.912629e-28
000060 3a 73 97 91 c8 c8 e7 11 14 01 0c 93 02 df d4 92
       -2.3894613e-28 3.6569115e-28 -1.7671016e-27 -1.3434057e-27
000070 57 6f 91 91 25 46 f3 91 3a 5b b2 92 3c 5c 5a 91
       -2.2945585e-28 -3.838187e-28 -1.1255868e-27 -1.722559e-28
000080 63 11 0a 92 18 7d 68 12 1e d0 d2 11 06 8c 94 90
       -4.3566553e-28 7.336048e-28 3.326042e-28 -5.859145e-29
000090 45 eb c1 8e aa 6d 13 11 46 68 e0 8e 70 eb 92 8c
       -4.780473e-30 1.1630048e-28 -5.5320675e-30 -2.263656e-31
0000a0 5e a4 4d 90 84 12 98 8f a1 3f 4e 10 69 e5 ed 0f
       -4.0555745e-29 -1.4995489e-29 4.0675355e-29 2.345837e-29
0000b0 f4 13 09 10 04 42 b4 8f 39 06 d7 0f 0c 48 64 91
       2.7033857e-29 -1.7774799e-29 2.1203034e-29 -1.800823e-28
0000c0 df e1 fe 10 6f 57 47 91 5e a5 f4 10 3c 78 9f 0f
       1.00533344e-28 -1.5725275e-28 9.649582e-29 1.5724923e-29
0000d0 34 bc 9e 0f 55 bf be 8e 8c 0f 76 10 94 ed c3 0f
       1.5652496e-29 -4.7022862e-30 4.8526923e-29 1.9319996e-29
0000e0 b0 27 3d 90 0c 20 c8 0e fe e9 39 11 2e c4 ee 0e
       -3.7304252e-29 4.9334667e-30 1.4666031e-28 5.8860444e-30
0000f0 38 27 83 8f 0f 02 36 90 f8 53 a4 90 71 78 07 10
       -1.2932704e-29 -3.5894757e-29 -6.481597e-29 2.671684e-29
000100 c9 87 96 90 1a a1 e5 90 a8 f0 0a 10 72 03 59 90
       -5.937378e-29 -9.057279e-29 2.7401096e-29 -4.2798358e-29
000110 86 bf d7 90 b2 7b 52 90 2a f5 ba 16 0a cb 02 15
       -8.5097636e-29 -4.151049e-29 3.020464e-25 2.641346e-26
000120 7f fa 00 97 c2 f6 0f 15 7e 4f 49 91 e8 a6 f2 94
       -4.16752e-25 2.9073278e-26 -1.58806e-28 -2.4501588e-26
000130 39 a1 69 15 1d 83 08 97 0a 6f 6c 14 f0 f0 89 16
       4.7181158e-26 -4.410946e-25 1.1936854e-26 2.2285597e-25
000140 31 62 a6 96 05 81 0e 97 d1 f1 88 17 f9 1e 08 97
       -2.6880714e-25 -4.604552e-25 8.849837e-25 -4.3983063e-25
000150 55 5c 5c 97 58 9d cf 17 68 00 05 97 27 1d 6b 15
       -7.1202373e-25 1.3416781e-24 -4.297513e-25 4.748087e-26
000160 a4 a6 e5 15 56 75 1a 16 2a 97 5f 95 2e 11 bf 17
       9.2755276e-26 1.2477046e-25 -4.515374e-26 1.2347422e-24
000170 3a ae a8 94 e3 25 4a 17 75 ce 2c 15 2e 5e c9 94
       -1.7032385e-26 6.531754e-25 3.489799e-26 -2.033296e-26
000180 0f ce 82 17 d6 7c e9 96 3b 12 5c 15 9b f9 9e 96
       8.45307e-25 -3.7721963e-25 4.4443027e-26 -2.56838e-25
000190 57 ad 8e 17 c6 e5 a8 95 8d ec 2b 17 62 41 c4 96
       9.220292e-25 -6.821718e-26 5.555165e-25 -3.170677e-25
0001a0 11 05 88 97 97 cd 22 8e 6c ce 94 8c 82 49 09 0d
       -8.790073e-25 -2.006703e-30 -2.2927246e-31 4.2304866e-31
0001b0 64 77 d8 8a 0c a9 6d 89 72 02 0c 8e af fd 1c 8d
       -2.0844953e-32 -2.8607323e-33 -1.725751e-30 -4.837657e-31
0001c0 2e f8 06 8e 00 c0 c3 8d 17 2c e8 0d 3a 5f 8a 0d
       -1.663627e-30 -1.2064025e-30 1.4308718e-30 8.527832e-31
0001d0 1e f1 ae 8e 9f 4b 28 0e 0b bc 29 0e 3e ae 18 0d
       -4.31265e-30 2.0744009e-30 2.0921398e-30 4.7048353e-31
0001e0 82 07 66 0e 90 b4 b7 0d 03 28 7f 8d 78 99 a1 8c
       2.8353304e-30 1.1321715e-30 -7.8626104e-31 -2.4898343e-31
0001f0 4e 20 1d 0e d8 aa 47 8b b5 e2 c8 0e 94 d3 f9 0b
       1.9367298e-30 -3.8454534e-32 4.9522118e-30 9.622966e-32
000200 55 db 50 8e d1 d7 78 0c 1c 31 ac 0e 84 fa 8b 0d
       -2.5743584e-30 1.917017e-31 4.2448564e-30 8.626846e-31
000210 4f ca f5 0e 8f 63 55 8d ef f8 a2 8d 1e 7c 91 0e
       6.059198e-30 -6.575553e-31 -1.0043949e-30 3.586478e-30
000220 13 d1 cb 0c 46 0b 0f 0e a4 2c e1 8d a5 5c 2d 8f
       3.1402934e-31 1.7631539e-30 -1.3877442e-30 -8.547401e-30
000230 e6 c5 71 08 8e 0d 1c 87 9c 56 77 08 8e 57 80 05
       7.275593e-34 -1.1740119e-34 7.4430668e-34 1.2069225e-35
000240 f8 11 8c 04 3a 12 22 06 84 16 5b 88 a8 c5 03 88
       3.2930344e-36 3.0482204e-35 -6.592938e-34 -3.9653722e-34
000250 2e c7 0c 09 a4 1c 0b 08 7f c3 9f 08 e4 e8 24 87
       1.694554e-33 4.186246e-34 9.615425e-34 -1.2406429e-34
000260 30 e6 69 08 ff 48 50 09 ab f2 fd 09 32 e8 e1 09
       7.038647e-34 2.5071412e-33 6.113574e-33 5.4385135e-33
000270 30 fa 9b 87 39 bb d6 08 54 0f 95 87 ac 7b d4 07
       -2.3468855e-34 1.2923672e-33 -2.2428037e-34 3.1970902e-34
000280 d0 a9 6e 07 e0 b3 94 06 90 43 b5 06 46 87 37 8a
       1.7955033e-34 5.5935715e-35 6.8183907e-35 -8.8365716e-33
000290 aa a1 fa 06 d2 4b e6 87 e8 7e 22 88 c0 5d 9d 09
       9.427709e-35 -3.4651117e-34 -4.889928e-34 3.7884537e-33
0002a0 56 e1 60 87 e8 3f ff 07 64 65 b2 09 e4 31 c0 05
       -1.6918107e-34 3.8405696e-34 4.294729e-33 1.807392e-35
0002b0 ff f2 bc 08 f2 d3 43 89 62 a7 13 0a 41 82 80 92
       1.13719665e-33 -2.3571927e-33 7.109274e-33 -8.110046e-28
0002c0 1d 7d cb 90 64 c5 40 11 bd d7 c7 10 67 da ca 0d
       -8.026215e-29 1.5206955e-28 7.882406e-29 1.250179e-30
0002d0 05 59 ca 92 3b 6f db 10 72 63 8d 12 73 2a f3 11
       -1.2769937e-27 8.6551647e-29 8.922866e-28 3.8364801e-28
0002e0 74 8a 04 92 f6 22 8f 91 1e 5a 05 93 a5 f6 c6 12
       -4.1822512e-28 -2.2582968e-28 -1.6831391e-27 1.2556359e-27
0002f0 81 d1 17 93 c4 a4 99 90 de 6e 81 12 7a ad f3 91
       -1.9162173e-27 -6.060172e-29 8.168375e-28 -3.8445553e-28
000300 88 2a 58 90 1e 2e 90 11 e2 0d de 11 18 4d 52 90
       -4.2631254e-29 2.2747616e-28 3.503398e-28 -4.1474588e-29
000310 3c 03 46 93 78 df e4 0f ef 1a 37 13 3c 9e e4 91
       -2.4992708e-27 2.2568613e-29 2.3111127e-27 -3.6069577e-28
000320 98 ce 40 91 29 50 1c 13 31 40 26 93 70 4d d1 11
       -1.5209791e-28 1.972949e-27 -2.0983794e-27 3.302211e-28
000330 b9 3b 20 11 7d 5e c2 92 aa 14 94 11 90 61 db 11
       1.2640178e-28 -1.2266414e-27 2.3363018e-28 3.4612235e-28
000340 b9 42 fa 11 38 d0 f5 11 6c 78 30 12 94 1b e8 10
       3.9484166e-28 3.878251e-28 5.568424e-28 9.1550356e-29
000350 50 ec 85 91 f0 f3 b2 0f 5c 38 b8 8c eb 68 34 92
       -2.112934e-28 1.7646116e-29 -2.838361e-31 -5.6927307e-28
000360 e6 8b a2 0f 51 f6 c6 11 22 6c 1d 92 2a c3 d3 91
       1.602832e-29 3.1390696e-28 -4.967375e-28 -3.341021e-28
000370 4b 73 89 11 e6 a0 0c 91 98 02 61 92 a8 8b a0 92
       2.1685844e-28 -1.1093633e-28 -7.100068e-28 -1.01318475e-27
000380 6e 81 cd 91 a2 4f cf 11 ef 27 d7 90 4c a6 ba 91
       -3.2423064e-28 3.270792e-28 -8.4864075e-29 -2.9448114e-28
000390 70 67 eb 0f b8 17 d6 0e 7e e4 81 91 0d 14 c2 12
       2.3212632e-29 5.2777913e-30 -2.049343e-28 1.2248064e-27
0003a0 a4 81 13 91 b0 0e 9c 12 bc 09 a1 90 c7 d9 71 11
       -1.1636204e-28 9.848605e-28 -6.35183e-29 1.9078656e-28
0003b0 d0 45 f4 12 e7 35 2c 92 1e 79 fc 90 e3 aa 53 11
       1.5415775e-27 -5.434007e-28 -9.9583085e-29 1.6697624e-28
0003c0 70 c7 0a 12 a2 c7 2a 90 9a a8 16 13 e0 da 9a 0f
       4.379095e-28 -3.368038e-29 1.9015789e-27 1.526988e-29
0003d0 72 04 8e 12 32 f0 8c 97 b5 90 45 97 fe 8f 7d 98
       8.962556e-28 -9.107922e-25 -6.383678e-25 -3.2772181e-24
0003e0 a3 ab ca 16 7d 40 82 14 c5 18 52 97 83 f0 d2 96
       3.2743178e-25 1.3152082e-26 -6.7885923e-25 -3.4079114e-25
0003f0 3b 71 af 97 10 0f 57 17 c1 5e 19 18 10 df 03 97
       -1.1337693e-24 6.948926e-25 1.9822625e-24 -4.2609927e-25

lstm.bias_ih_l0_reverse f4 [140]
000000 e2 f1 c1 14 dd 02 ac 94 7a 73 7c 19 df 48 34 91
       1.9583426e-26 -1.7368691e-26 1.3051415e-23 -1.4221951e-28
000010 6d f0 cb 8b 53 68 60 95 e0 93 2c 94 f6 3b e5 1a
       -7.855451e-32 -4.5318737e-26 -8.712944e-27 9.480905e-23
000020 7e 17 f9 91 7a 51 41 95 6f fe 29 13 52 ac 26 96
       -3.9299751e-28 -3.9040313e-26 2.1456244e-27 -1.3463748e-25
000030 d2 49 2f 97 d2 d0 1b 9f 53 db f0 93 b2 2f b5 95
       -5.6638724e-25 -3.299526e-20 -6.0800788e-27 -7.318057e-26
000040 dd b2 16 96 0c 76 e7 11 a5 fb fd 91 4f 07 2b 92
       -1.2173343e-25 3.6518126e-28 -4.007145e-28 -5.3967094e-28
000050 83 ed 59 0f 63 4f 83 14 5c 02 5e ab 57 90 b7 14
       1.0744669e-29 1.3258932e-26 -7.887352e-13 1.853521e-26
000060 53 41 bf 92 63 3d 01 95 82 9b 37 95 72 3b 03 94
       -1.2069898e-27 -2.6099768e-26 -3.707923e-26 -6.625533e-27
000070 bd f9 66 94 c5 64 c4 1d 00 25 84 13 ae fc e6 90
       -1.1661285e-26 5.198496e-21 3.335797e-27 -9.110832e-29
000080 6b 05 ea 95 a9 3b c0 15 28 de 45 96 b3 96 94 13
       -9.4520395e-26 7.764231e-26 -1.5983633e-25 3.7509053e-27
000090 5d 78 40 94 ba 29 c1 19 d3 43 e4 90 eb 8f 98 8b
       -9.71726e-27 1.9972586e-23 -9.003464e-29 -5.8764814e-32
0000a0 ac ce 4c 15 69 46 fd 94 ec b7 6b 9a df fb e2 12
       4.1360507e-26 -2.5574243e-26 -4.8745432e-23 1.4324696e-27
0000b0 bf ea 97 94 69 f4 85 13 d5 3f e2 95 e5 33 0c 17
       -1.5339695e-26 3.3814927e-27 -9.138138e-26 4.530194e-25
0000c0 08 1c b7 1f 79 ef 3e 93 8f 3a 76 95 b0 a6 bc 93
       7.754989e-20 -2.409944e-27 -4.97255e-26 -4.762224e-27
0000d0 bf f8 ea 11 42 eb a7 91 f0 1d ea 92 7d 4d 8e 0f
       3.7071992e-28 -2.6492943e-28 -1.4774856e-27 1.4032128e-29
0000e0 df 81 8f 14 7a 73 fc 29 ce 7a 22 92 e1 8d 75 92
       1.4490535e-26 1.121108e-13 -5.1269555e-28 -7.748325e-28
0000f0 15 3a 95 94 b3 97 04 95 72 82 33 94 84 fb 2d 94
       -1.5068065e-26 -2.6776857e-26 -9.062916e-27 -8.783871e-27
000100 ec 03 38 1d b9 bf a0 14 ac 5f 45 91 cf ce a5 95
       2.4354225e-21 1.6231493e-26 -1.5570041e-28 -6.6969256e-26
000110 ca 85 58 95 01 c7 c6 95 7e 5a 1f a8 5c 59 8d a9
       -4.3726394e-26 -8.0285536e-26 -8.845895e-15 -6.277159e-14
000120 55 2e 99 2a f6 d9 d2 a7 57 7d 1c a5 b9 da 12 a9
       2.721041e-13 -5.8523023e-15 -1.357331e-16 -3.2608224e-14
000130 e4 2e 2f a8 9e 3c 71 ab 39 71 87 28 d4 f2 c9 29
       -9.724619e-15 -8.5704523e-13 1.5037113e-14 8.968317e-14
000140 5c 26 e8 28 93 8b 47 aa f4 09 23 2a 4e 5c 2d ac
       2.577381e-14 -1.7723175e-13 1.4480761e-13 -2.4636018e-12
000150 3c b9 a2 a6 59 7b 9c a9 7e 50 3d 29 a0 c0 1a a9
       -1.1291216e-15 -6.949189e-14 4.2036246e-14 -3.4361945e-14
000160 41 6d bc 27 78 a4 98 27 0f 87 36 a6 82 dd 0f a9
       5.2298935e-15 4.2366792e-15 -6.3326973e-16 -3.1944506e-14
000170 a8 a8 7e 32 f4 46 10 a9 96 ed 8f a8 8b 5d a8 a9
       1.4823094e-08 -3.2035965e-14 -1.5979226e-14 -7.476926e-14
000180 4e 22 44 a9 49 4e 95 a9 5a 9f 3c 29 75 34 92 ab
       -4.3550497e-14 -6.6305095e-14 4.18826e-14 -1.0388484e-12
000190 04 a5 0e a9 c1 eb 8e 26 19 be 1b aa c9 9f 06 29
       -3.1673462e-14 9.917131e-16 -1.3832719e-13 2.989257e-14
0001a0 cc 4d 0e 2a ac 76 35 14 21 ae ba 94 62 10 58 19
       1.2639125e-13 9.161569e-27 -1.8849882e-26 1.1170247e-23
0001b0 c6 8b 3f 91 f6 0b d0 8b 42 ec 46 95 10 d0 b6 91
       -1.5110314e-28 -8.013668e-32 -4.0172156e-26 -2.8842765e-28
0001c0 8c 22 0a 1a 08 ca ed 92 ae 4c 63 95 5c 7c 34 13
       2.8565638e-23 -1.5006607e-27 -4.5902775e-26 2.2780508e-27
0001d0 71 cc 35 96 9e 9a 64 97 28 1c 28 9f 31 50 1e 94
       -1.4685574e-25 -7.386593e-25 -3.5598674e-20 -7.9927764e-27
0001e0 3b cf 74 95 d5 4c 1d 96 d9 f8 2a 92 78 0c 00 92
       -4.9438884e-26 -1.2706603e-25 -5.394927e-28 -4.0405047e-28
0001f0 86 5f f2 10 0c 28 55 0f f2 05 19 14 91 43 69 ab
       9.5599347e-29 1.05094235e-29 7.7256985e-27 -8.2871996e-13
000200 46 12 b5 14 3e 30 e4 92 d2 b5 08 95 ab 3e 36 95
       1.8283537e-26 -1.4400716e-27 -2.7608412e-26 -3.6804044e-26
000210 ce c3 bb 93 2e f5 6b 94 1c 88 99 1d b0 ec a3 91
       -4.7398515e-27 -1.1912821e-26 4.0639497e-21 -2.5862735e-28
000220 36 3d 64 90 4e f8 fb 95 ea b6 d8 15 77 57 73 96
       -4.5012227e-29 -1.0176985e-25 8.753029e-26 -1.9656983e-25
