PreConditional_LSTMs/models/model_4.pt (torch_old, 171470 bytes, 29 tensors)

encode_fc1.weight f4 [8, 7]
4.479e-41 3.97439e-40 1.47625e-40 -2.120492e-39 8.95383e-40 1.609223e-39 -3.997079e-39 -7.63055e-40
-1.115326e-39 2.75975e-40 5.8145e-41 1.274239e-39 -3.94292e-40 8.00949e-40 2.261142e-39 7.30895e-40
1.342178e-39 -9.6657e-40 4.29812e-39 2.807252e-39 -4.661335e-39 9.3811e-41 8.86862e-40 -1.74858e-40
1.739248e-39 1.430081e-39 -3.613287e-39 2.208516e-39 1.720258e-39 -4.66857e-40 -1.111196e-39 -2.311062e-39
1.213153e-39 -3.654893e-39 -1.128509e-39 2.785173e-39 1.232879e-39 1.2292e-41 6.79484e-40 -1.136201e-39
2.958854e-39 -9.06173e-40 -3.609193e-39 -1.859548e-39 -1.180352e-39 9.26405e-40 1.811474e-39 5.72334e-40
-1.287845e-39 2.724793e-39 4.002986e-39 -1.53671e-39 2.23221e-39 1.119238e-39 -1.339405e-39 -6.932e-42
00000000: db7c 0000 e653 0400 859b 0100 1217 1780
00000010: f7bf 0900 dc85 1100 3b86 2b80 164f 0880
00000020: 1325 0c80 4e01 0300 16a2 0000 0fe0 0d00
00000030: 204b 0480 b8b8 0800 259f 1800 70f5 0700
00000040: 729d 0e00 6786 0a80 69cd 2e00 7a91 1e00
00000050: e8c1 3280 8205 0100 36a8 0900 6fe7 0180
00000060: 51f0 1200 7c92 0f00 6058 2780 720c 1800
00000070: 61bb 1200 6815 0580 9019 0c80 4d2a 1980
00000080: c735 0d00 5bcc 2780 d349 0c80 ee53 1e00
00000090: c46c 0d00 4422 0000 2066 0700 445f 0c80
000000a0: 1538 2000 0bde 0980 f64c 2780 aa3f 1480
000000b0: 57da 0c80 7116 0a00 a7b9 1300 6f3b 0600
000000c0: fd05 0e80 9dab 1d00 b296 2b00 b9bb 1080
000000d0: 7e4e 1800 fb2f 0c00 b795 0e80 5313 0080

encode_fc1.bias f4 [8]
-9.76116e-40 2.514462e-39 -1.60432e-40 1.986898e-39 1.44009e-39 2.95658e-39 -1.06794e-40 4.98934e-40
00000000: 04a1 0a80 4c61 1b00 38bf 0180 aaa2 1500
00000010: 63ae 0f00 be31 2000 b329 0180 d36e 0500

encode_bn1.weight f4 [8]
1.609012e-39 3.66609e-40 6.4261e-41 -3.03065e-39 2.233668e-39 -8.88251e-40 -1.373055e-39 -1.496532e-39
00000000: 4585 1100 f5fd 0300 22b3 0000 3800 2180
00000010: 8f52 1800 15ac 0980 85f3 0e80 b94b 1080

encode_bn1.bias f4 [8]
2.997176e-39 -1.716393e-39 8.79882e-40 -2.754275e-39 1.144993e-39 -5.34707e-40 -7.95577e-40 -8.29951e-40
00000000: e8a2 2000 9bb0 1280 c194 0900 ccfd 1d80
00000010: c677 0c00 8cd2 0580 bfa9 0880 9109 0980

encode_bn1.running_mean f4 [8]
-1.13137e-40 -3.51573e-40 -6.79064e-40 -4.51001e-40 7.2499e-40 -1.000817e-39 -2.82303e-40 2.75515e-40
00000000: 613b 0180 0bd4 0380 f464 0780 35e9 0480
00000010: fae4 0700 dfe5 0a80 f212 0380 0600 0300

encode_bn1.running_var f4 [8]
6e-45 6e-45 6e-45 6e-45 6e-45 6e-45 6e-45 6e-45
00000000: 0400 0000 0400 0000 0400 0000 0400 0000
00000010: 0400 0000 0400 0000 0400 0000 0400 0000

encode_fc2.weight f4 [35, 8]
-6.074962e-39 -1.067e-41 2.052104e-39 -2.310286e-39 -1.091627e-39 -8.30063e-40 7.10367e-40 2.230228e-39
3.92208e-40 -1.55085e-40 -8.79435e-40 2.106363e-39 1.539282e-39 -3.56988e-40 -2.59808e-40 1.224882e-39
-1.909135e-39 -9.205e-40 -2.208411e-39 -2.92473e-40 1.576354e-39 -7.11146e-40 -2.0951e-41 3.558e-42
3.89205e-39 -2.868932e-39 -2.05783e-40 3.85532e-39 -2.29018e-40 -1.35887e-39 2.66679e-39 -1.484946e-39
3.0567e-41 -9.77114e-40 3.086742e-39 -1.049756e-39 -1.271397e-39 1.112006e-39 3.66613e-40 -9.14052e-40
2.11431e-40 -2.292046e-39 4.378706e-39 -9.52273e-40 1.979729e-39 3.0955e-39 1.285152e-39 -1.275169e-39
1.52959e-40 2.023674e-39 2.89833e-39 -3.157e-40 -1.497855e-39 1.160185e-39 -5.46868e-40 2.061964e-39
-2.193939e-39 -3.127222e-39 -1.420153e-39 -3.074571e-39 1.644519e-39 -2.427925e-39 2.0581e-40 -6.52225e-40
1.542982e-39 1.104771e-39 -3.99552e-40 -1.180548e-39 8.565e-42 1.297305e-39 1.667066e-39 1.05093e-40
-3.981743e-39 4.01276e-40 1.24531e-39 1.162865e-39 2.981208e-39 -1.156489e-39 1.67148e-40 4.55266e-40
-1.730318e-39 1.843566e-39 2.088711e-39 8.52505e-40 -1.706454e-39 2.66802e-40 -2.524002e-39 -1.17438e-39
8.24018e-40 -6.45056e-40 2.72714e-39 -1.088323e-39 -3.829596e-39 1.149135e-39 1.653349e-39 -2.53994e-40
3.084566e-39 6.102e-41 -3.680725e-39 -1.439415e-39 -4.20248e-40 1.43028e-40 -1.594004e-39 1.327009e-39
-2.564281e-39 -2.833933e-39 1.617942e-39 3.738656e-39 -3.128127e-39 1.370372e-39 1.994638e-39 -1.622432e-39
1.00275e-39 1.530385e-39 -1.528665e-39 8.762e-42 1.8715e-40 1.8222e-41 3.203955e-39 -1.756047e-39
-1.159984e-39 -1.059323e-39 -3.762922e-39 2.008516e-39 1.621392e-39 -1.037212e-39 1.000543e-39 3.215984e-39
-5.4579e-41 1.063989e-39 -3.83428e-39 5.242e-41 2.112045e-39 -1.126361e-39 4.076967e-39 2.323126e-39
1.037999e-39 2.855688e-39 1.71328e-40 1.27689e-39 1.436624e-39 -2.594087e-39 -7.7646e-40 -1.5952e-41
-1.516363e-39 8.11834e-40 -1.3966e-39 -3.963259e-39 -3.971854e-39 3.003057e-39 -2.284975e-39 8.5126e-40
-3.04162e-40 -4.55636e-40 -1.923707e-39 1.369167e-39 1.195431e-39 -2.293082e-39 -1.55746e-40 -3.32989e-40
-1.383852e-39 2.271023e-39 2.890185e-39 6.66e-42 2.502639e-39 -3.688987e-39 -2.526898e-39 2.498092e-39
-1.16937e-39 -1.132272e-39 5.35432e-40 8.8192e-40 -1.73394e-40 -2.234841e-39 -1.28688e-40 4.47854e-40
-1.17308e-40 -1.04191e-40 2.145244e-39 -9.7382e-41 -1.046752e-39 1.0926e-41 2.773499e-39 -1.389449e-39
-1.25287e-40 1.169546e-39 4.211338e-39 -1.192644e-39 1.177622e-39 1.247827e-39 1.531612e-39 2.875626e-39
-1.7166e-40 1.794133e-39 8.4622e-41 2.79127e-40 -2.493207e-39 -1.185123e-39 -3.090966e-39 -1.148011e-39
2.349807e-39 -1.376481e-39 3.321e-42 -1.128795e-39 -3.973033e-39 -3.170173e-39 -6.49377e-40 -3.776624e-39
2.574716e-39 -3.137094e-39 2.687208e-39 3.923323e-39 -1.332108e-39 1.72874e-39 1.714377e-39 1.930304e-39
4.222198e-39 1.661849e-39 2.8734e-41 -1.349827e-39 -3.82752e-40 3.21754e-40 4.6683e-40 -1.349984e-39
-1.209413e-39 -5.8116e-41 -1.663194e-39 1.595275e-39 1.148835e-39 -6.42399e-39 -2.07434e-40 2.067424e-39
1.255161e-39 -1.388104e-39 9.57167e-40 -4.06903e-40 -1.672007e-39 1.0044e-40 -2.95513e-40 1.35534e-39
-3.35186e-40 9.69934e-40 5.83453e-40 1.098514e-39 1.759058e-39 9.37826e-40 -2.6715e-40 -2.31307e-39
2.296225e-39 -3.47043e-40 -1.426946e-39 -8.64527e-40 3.957286e-39 -1.597175e-39 -1.4625e-39 1.309966e-39
00000000: 8626 4280 be1d 0080 6e58 1600 2328 1980
00000010: 03e3 0b80 e109 0980 37bc 0700 f848 1800
00000020: 5145 0400 50b0 0180 8293 0980 afef 1600
00000030: e4c2 1000 23e3 0380 3dd4 0280 7956 0d00
00000040: e4c9 1480 fb05 0a80 270c 1880 4c2f 0380
00000050: 3c2a 1100 63be 0780 673a 0080 eb09 0000
00000060: 7461 2a00 6a3d 1f80 a43d 0280 10fb 2900
00000070: 697e 0280 facb 0e80 ed09 1d00 6d2b 1080
00000080: 3555 0000 cca3 0a80 959c 2100 4b6e 0b80
00000090: 23d8 0d80 d21b 0c00 f8fd 0300 01f4 0980
000000a0: 624d 0200 4bf5 1880 0dae 2f00 8d5e 0a80
000000b0: ae8e 1500 ffb4 2100 7bfe 0d00 a7e2 0d80
000000c0: 63aa 0100 2e09 1600 5d8f 1f00 0b70 0380
000000d0: 694f 1080 20a2 0c00 72f4 0580 eb73 1600
000000e0: cfe3 1780 6c0d 2280 cf76 0f80 a77a 2180
000000f0: 40e8 1100 1170 1a80 b73d 0200 231a 0780
00000100: 35cd 1000 a707 0c00 ca59 0480 e3da 0c80
00000110: e017 0000 5c20 0e00 1a27 1200 f524 0100
00000120: 7b5b 2b80 985e 0400 6b8f 0d00 98a9 0c00
00000130: 6576 2000 d297 0c80 f1d1 0100 19f5 0400
00000140: 6cd7 1280 1d13 1400 7abe 1600 7048 0900
00000150: e694 1280 bce7 0200 e47b 1b80 b2c9 0c80
00000160: 07f9 0800 2706 0780 28b2 1d00 cdd9 0b80
00000170: 5bb3 2980 5283 0c00 dd00 1200 08c4 0280
00000180: 8496 2100 19aa 0000 5d14 2880 81ac 0f80
00000190: 7b93 0480 b48e 0100 6f5b 1180 2973 0e00
000001a0: 2cec 1b80 dadb 1e80 2a9e 1100 dab5 2800
000001b0: f20f 2280 0aec 0e00 3db8 1500 aeaa 1180
000001c0: 42eb 0a00 17aa 1000 4ca5 1080 6d18 0000
000001d0: b309 0200 cc32 0000 53e3 2200 251f 1380
000001e0: 90a1 0c80 f688 0b80 7ff9 2880 edde 1500
000001f0: c8a7 1100 534b 0b80 1be5 0a00 db04 2300
00000200: 2598 0080 f895 0b00 6ac0 2980 2092 0000
00000210: 86ff 1600 d643 0c80 ed64 2c00 ee4b 1900
00000220: 854d 0b00 7f18 1f00 98dd 0100 73e7 0d00
00000230: b9a4 0f00 423f 1c80 7474 0880 782c 0080
00000240: 0183 1080 10d7 0800 2735 0f80 f427 2b80
00000250: ea3f 2b80 4db3 2000 95e1 1880 f744 0900
00000260: e14f 0380 21f6 0480 83f2 1480 aee8 0e00
00000270: 6004 0d00 2ef8 1880 28b2 0180 3da0 0380
00000280: 9e11 0f80 b0ba 1800 a978 1f00 9112 0000
00000290: 5740 1b00 652b 2880 f783 1b80 aa33 1b00
000002a0: babb 0c80 5054 0c80 91d4 0500 6f9a 0900
000002b0: 5ae3 0180 d455 1880 bb66 0180 6fe0 0400
000002c0: 0247 0180 7122 0180 115c 1700 760f 0180
000002d0: eb65 0b80 751e 0000 6333 1e00 3821 0f80
000002e0: 405d 0180 38bc 0c00 7fdb 2d00 9bfc 0c80
000002f0: bbd2 0c00 6f96 0d00 83ad 1000 1350 1f00
00000300: 85de 0180 5089 1300 e4eb 0000 180a 0300
00000310: 0c26 1b80 a4e7 0c80 5ba8 2180 3080 0c80
00000320: 4e96 1900 12fd 0e80 4209 0000 9f4a 0c80
00000330: 3343 2b80 2785 2280 3312 0780 b11f 2980
00000340: 4309 1c00 f128 2280 d842 1d00 a1b8 2a00
00000350: 6081 0e80 06d3 1200 fcaa 1200 e704 1500
00000360: c5f9 2d00 8f18 1200 1950 0000 c5b2 0e80
00000370: f52a 0480 eb80 0300 5515 0500 35b3 0e80
00000380: 5a2b 0d80 01a2 0080 4f1c 1280 fa5e 1100
00000390: 7c82 0c00 78f3 4580 3e42 0280 2383 1600
000003a0: e1aa 0d00 781d 0f80 316c 0a00 486e 0480
000003b0: e034 1280 fc17 0100 c537 0380 23c2 0e00
000003c0: 5da6 0380 c88f 0a00 6e5a 0600 36f6 0b00
000003d0: 8a27 1300 4736 0a00 b5e8 0280 e62f 1980
000003e0: f100 1900 6ac7 0380 bf89 0f80 f369 0980
000003f0: 4e17 2b00 4664 1180 dbec 0f80 a743 0e00

encode_fc2.bias f4 [35]
2.461766e-39 -3.731181e-39 -2.107019e-39 -4.232179e-39 2.095168e-39 -2.012143e-39 -1.779701e-39 -4.26837e-40
1.227277e-39 -1.300999e-39 -1.902839e-39 -1.195062e-39 -1.17775e-39 -1.12966e-39 1.246145e-39 -1.509884e-39
1.40905e-39 -3.594932e-39 2.899211e-39 -1.23627e-39 -2.492215e-39 -5.1284e-40 -2.120879e-39 4.077553e-39
1.627327e-39 1.082685e-39 -7.56516e-40 -1.216848e-39 -2.256585e-39 -2.569746e-39 1.318138e-39 -2.342614e-39
-2.367142e-39 -3.24387e-40 -1.86321e-39
00000000: 67ce 1a00 04a1 2880 83f1 1680 9815 2e80
00000010: 7ad0 1600 09e9 1580 1561 1380 d9a5 0480
00000020: 265d 0d00 a82a 0e80 57b8 1480 5903 0d80
00000030: 16d3 0c80 084d 0c80 bf91 0d00 f170 1080
00000040: dc57 0f00 3525 2780 d291 1f00 3876 0d80
00000050: 4823 1b80 9795 0580 2618 1780 8f66 2c00
00000060: 53b8 1100 16ca 0b00 dc3c 0880 1440 0d80
00000070: 7192 1880 68fb 1b80 6f5a 0e00 4182 1980
00000080: a1c6 1980 4288 0380 df49 1480

encode_bn2.weight f4 [35]
2.276442e-39 -1.9684e-40 2.091599e-39 1.078861e-39 -2.394236e-39 3.55785e-40 3.6156e-41 5.6332e-41
-2.845807e-39 1.637207e-39 3.806955e-39 -2.466525e-39 -2.169025e-39 8.23584e-40 -7.30029e-40 -1.819373e-39
-4.127871e-39 -1.32463e-40 2.7854e-39 4.253769e-39 -3.04517e-39 -1.380265e-39 -9.02331e-40 6.177816e-39
-4.281705e-39 3.04097e-39 -7.24525e-40 8.3449e-41 2.467814e-39 1.059476e-39 -8.69566e-40 2.40733e-39
-5.6244e-41 -4.01304e-40 3.004981e-39
00000000: cbc9 1800 b624 0280 87c6 1600 6dbf 0b00
00000010: 2812 1a80 c9df 0300 ca64 0000 089d 0000
00000020: f4fc 1e80 ded3 1100 3e74 2900 abdb 1a80
00000030: 5c9e 1780 d1f7 0800 06f3 0780 accf 1380
00000040: d3f2 2c80 4171 0180 9054 1e00 c751 2e00
00000050: b228 2180 9e07 0f80 55d3 0980 3d45 4300
00000060: a79f 2e80 fd1c 2100 aee3 0780 9fe8 0000
00000070: 43df 1a00 6389 0b00 ff77 0980 a836 1a00
00000080: c99c 0080 ac5e 0480 aab8 2000

encode_bn2.bias f4 [35]
-0.044418644 0.006112613 0.0712201 -0.006277407 0.035577115 -0.08557894 -0.0061456836 0.119730726
-0.06875726 -0.06815733 -0.040331233 -0.07171015 -0.11275716 -0.12307103 -0.111750245 0.1542057
0.037137747 0.068781085 0.0074130804 -0.036210183 0.0074392026 0.15422921 0.005006622 0.15502267
-0.003577834 0.06763518 -0.15792151 0.076775536 0.005683341 0.03791425 0.12193299 0.0041964725
-0.086374685 -0.08526905 0.110451736
00000000: 53f0 35bd 504c c83b d8db 913d b5b2 cdbb
00000010: 4fb9 113d 0344 afbd bb61 c9bb 6235 f53d
00000020: 9bd0 8cbd 1296 8bbd 5d32 25bd c5dc 92bd
00000030: 3aed e6bd aa0c fcbd 50dd e4bd 19e8 1d3e
00000040: c01d 183d 19dd 8c3d 6de9 f23b 2151 14bd
00000050: 8ec4 f33b 43ee 1d3e 970e a43b 43be 1e3e
00000060: 187a 6abb 5084 8a3d 2db6 21be 7e3c 9d3d
00000070: 523b ba3b f94b 1b3d 01b8 f93d 9082 893b
00000080: 36e5 b0bd 8aa1 aebd 8534 e23d

encode_bn2.running_mean f4 [35]
-2.58405e-40 3.28761e-40 -3.5105e-41 2.06376e-40 2.5672e-41 3.6743e-41 2.94224e-40 -4.6169e-40
5.6635e-41 1.06042e-40 -4.27e-42 1.95366e-40 2.13265e-40 1.30977e-40 -2.00543e-40 1.32315e-40
-1.57614e-40 -1.36074e-40 -2.00628e-40 -1.70251e-40 -2.135e-41 -4.65929e-40 -8.077e-42 -2.5537e-40
-1.33862e-40 -1.07845e-40 -8.7725e-41 -6.9055e-41 9.626e-41 2.95572e-40 2.98657e-40 -1.9142e-41
2.22941e-40 -1.28663e-40 1.97649e-40
00000000: 54d0 0280 7494 0300 dc61 0080 4b3f 0200
00000010: 9047 0000 6d66 0000 2d34 0300 0107 0580
00000020: e09d 0000 9a27 0100 e70b 0080 9a20 0200
00000030: 7f52 0200 1c6d 0100 082f 0280 d770 0100
00000040: 5db7 0180 527b 0180 452f 0280 97da 0180
00000050: 843b 0080 d212 0580 8416 0080 dec7 0280
00000060: 2775 0180 a12c 0180 8bf4 0080 7fc0 0080
00000070: 550c 0100 ef37 0300 8940 0300 5c35 0080
00000080: 786d 0200 a966 0180 f726 0200

encode_bn2.running_var f4 [35]
6e-45 6e-45 6e-45 6e-45 6e-45 6e-45 6e-45 6e-45
6e-45 6e-45 6e-45 6e-45 6e-45 6e-45 6e-45 6e-45
6e-45 6e-45 6e-45 6e-45 6e-45 6e-45 6e-45 6e-45
6e-45 6e-45 6e-45 6e-45 6e-45 6e-45 6e-45 6e-45
6e-45 6e-45 6e-45
00000000: 0400 0000 0400 0000 0400 0000 0400 0000
00000010: 0400 0000 0400 0000 0400 0000 0400 0000
00000020: 0400 0000 0400 0000 0400 0000 0400 0000
00000030: 0400 0000 0400 0000 0400 0000 0400 0000
00000040: 0400 0000 0400 0000 0400 0000 0400 0000
00000050: 0400 0000 0400 0000 0400 0000 0400 0000
00000060: 0400 0000 0400 0000 0400 0000 0400 0000
00000070: 0400 0000 0400 0000 0400 0000 0400 0000
00000080: 0400 0000 0400 0000 0400 0000

lstm.weight_ih_l0 f4 [140, 1]
0.05131954 0.05140347 0.05163966 2.140146e-08 8.211688e-07 0.05147489 0.05161008 0.05188699
2.9694982e-06 1.7399816e-06 0.051648222 0.050005164 0.05246132 0.053110383 0.051351376 0.052249193
0.05020789 4.3478885e-06 0.05199319 1.251617e-06 0.05196686 0.051201563 1.2185608e-08 0.051072024
0.05062157 2.2439597e-06 0.05505681 0.051842213 0.05001718 0.050562985 0.052874703 0.05243748
0.053136893 0.051404927 0.051198203 0.048762098 0.048742894 0.0490669 -1.17413474e-08 -1.8143352e-07
0.04868232 0.048877288 0.048757676 1.6261008e-06 9.1046263e-07 0.04888355 0.0470697 0.049790718
0.05017637 0.048389427 0.048962597 0.047537558 2.7413466e-06 0.049338453 4.2686742e-07 0.049512
0.04794848 -4.6522226e-09 0.047748808 0.047762986 -1.6991571e-07 0.0523403 0.049150422 0.047209483
0.047633775 0.049999774 0.049964655 0.050487857 0.048567407 0.048435926 -0.098923534 0.09927704
0.09915069 8.406951e-06 -0.00039621873 -0.09888819 -0.0993786 0.099781774 0.0006287189 0.0005450271
-0.09913482 -0.097731575 -0.10039299 -0.10117703 -0.09934328 0.10032517 0.0978257 -0.000580834
0.09951295 0.0004954597 0.09925476 0.09927829 -0.00011390916 0.0993189 -0.098253034 -0.0007266502
-0.10266234 0.09941479 0.097622976 0.09847614 0.10057934 0.100077346 -0.10074112 -0.09911855
0.09872988 0.081096664 0.08139965 0.08100386 3.11048e-08 1.1373559e-06 0.08081405 0.08093214
0.08093208 3.1895956e-06 1.8820758e-06 0.08092824 0.07818784 0.08319063 0.084314674 0.081105895
0.082191244 0.07868965 4.560308e-06 0.082071625 1.4562564e-06 0.08180034 0.080681115 1.7582137e-08
0.08058992 0.07833989 2.683717e-06 0.08739744 0.081010334 0.07834462 0.07855977 0.08371998
0.0821264 0.08429655 0.080750726 0.08010137
00000000: 7034 523d 728c 523d 1c84 533d 4fd6 b732
00000010: 4a6e 5c35 56d7 523d 1765 533d 7487 543d
00000020: 9747 4736 5089 e935 168d 533d 37d2 4c3d
00000030: aee1 563d 468a 593d d255 523d 4003 563d
00000040: caa6 4d3d 14e4 9136 d0f6 543d 3cfd a735
00000050: 34db 543d bbb8 513d df58 5132 e630 513d
00000060: 9058 4f3d ef96 1636 4083 613d 8058 543d
00000070: d1de 4c3d 221b 4f3d 2593 583d afc8 563d
00000080: 12a6 593d f98d 523d 35b5 513d c4ba 473d
00000090: a1a6 473d 60fa 483d feb6 49b2 11d0 42b4
000000a0: 1d67 473d 8d33 483d 21b6 473d 6640 da35
000000b0: 8466 7435 1e3a 483d 28cc 403d 5af1 4b3d
000000c0: bd85 4d3d fe33 463d 018d 483d beb6 423d
000000d0: faf7 3736 1e17 4a3d 362c e534 18cd 4a3d
000000e0: a065 443d 62d9 9fb1 4194 433d 1fa3 433d
000000f0: 1372 36b4 c862 563d f451 493d bb5e 413d
00000100: a21b 433d 90cc 4c3d bda7 4c3d 5bcc 4e3d
00000110: 9eee 463d c064 463d 6c98 cabd c351 cb3d
00000120: 840f cb3d 940b 0d37 94bb cfb9 e485 cabd
00000130: 0287 cbbd 635a cc3d 9cd0 243a 26e0 0e3a
00000140: 3207 cbbd 7e27 c8bd d79a cdbd e735 cfbd
00000150: 7d74 cbbd 4877 cd3d d758 c83d 1c43 18ba
00000160: 72cd cb3d bde1 013a 1446 cb3d 6b52 cb3d
00000170: 84e2 eeb8 b567 cb3d e338 c9bd ab7c 3eba
00000180: a240 d2bd fb99 cb3d 8eee c73d dcad c93d
00000190: 8afc cd3d 5af5 cc3d 5c51 cebd abfe cabd
000001a0: e432 ca3d 0216 a63d dcb4 a63d 5ae5 a53d
000001b0: 1798 0533 40a7 9835 d681 a53d c0bf a53d
000001c0: b8bf a53d d60c 5636 a29b fc35 b5bd a53d
000001d0: f220 a03d d95f aa3d 2cad ac3d d91a a63d
000001e0: e253 a83d 0a28 a13d bf04 9936 2b15 a83d
000001f0: 9774 c335 f086 a73d 243c a53d 8707 9732
00000200: 540c a53d aa70 a03d e819 3436 6efd b23d
00000210: bfe8 a53d 2573 a03d f2e3 a03d 6275 ab3d
00000220: e331 a83d aba3 ac3d a360 a53d 300c a43d

lstm.weight_hh_l0 f4 [140, 35]
-0.025511174 0.025070015 0.025692675 -1.273226e-05 5.6852692e-05 -0.02594544 -0.024873232 0.026329264
-0.00016981308 -0.00017605383 -0.025319489 -0.025291 -0.026796019 -0.02716271 -0.026431775 0.02715019
0.024877813 0.00018918827 0.025212677 -8.00676e-05 0.025108865 0.026976794 2.593726e-05 0.02697935
-0.02421722 1.0960055e-05 -0.028120322 0.025677068 0.024498958 0.024775311 0.027007228 0.024918407
-0.026650554 -0.025973856 0.02600053 -0.02553024 0.025082702 0.0257107 -1.2846699e-05 4.539972e-05
-0.025961857 -0.024888396 0.026345083 -0.00014601626 -0.0001522751 -0.025338512 -0.025309296 -0.026807558
-0.027178597 -0.026444737 0.02716532 0.02489412 0.0001643446 0.025230397 -6.5809334e-05 0.02512797
0.026990332 2.4552564e-05 0.026993677 -0.024238713 -4.8165075e-06 -0.028137747 0.025694221 0.024515575
0.024794932 0.027024243 0.024937233 -0.026667278 -0.025988687 0.026019672 -0.026410667 0.02597735
0.026584001 -2.5033953e-05 0.00011415665 -0.026824147 -0.025788462 0.027206488 -0.0002890367 -0.0002921385
-0.026219066 -0.026178218 -0.02766611 -0.028027238 -0.02730246 0.028019654 0.025780287 0.00030630198
0.02613152 -0.00013820159 0.026018944 0.027830224 3.3063257e-05 0.027831296 -0.02514246 0.00013785147
-0.028986268 0.026585946 0.025404416 0.025675764 0.027881714 0.025854899 -0.02754036 -0.026853576
0.026894143 2.3388925e-08 -2.5774389e-08 -2.2077284e-08 -1.3131315e-09 3.9531303e-09 2.0656408e-08 2.6272305e-08
-1.9098872e-08 -4.5815534e-09 -7.701589e-09 2.4032888e-08 2.1860755e-08 1.9952587e-08 1.8917026e-08 1.9218973e-08
-1.7071446e-08 -2.4138071e-08 1.246363e-09 -2.6142908e-08 3.0267786e-09 -2.6067877e-08 -1.698338e-08 2.881854e-10
-1.6788563e-08 2.6691914e-08 5.1222977e-09 1.726823e-08 -2.2242043e-08 -2.601077e-08 -2.4389411e-08 -1.8726912e-08
-2.7136553e-08 2.112105e-08 2.1149356e-08 -2.0063055e-08 4.7607946e-07 -5.2903647e-07 -4.6581692e-07 -2.475544e-08
2.0070424e-07 4.3875525e-07 5.4105396e-07 -3.851133e-07 -4.554586e-07 -3.755904e-07 5.040357e-07 4.6183112e-07
3.830533e-07 3.603193e-07 3.7651964e-07 -3.350685e-07 -5.129862e-07 4.5352672e-07 -5.3555215e-07 -2.3364795e-07
-5.498725e-07 -3.3512532e-07 2.565623e-08 -3.2877233e-07 5.804063e-07 4.7681405e-07 3.0231948e-07 -4.6531238e-07
-5.582112e-07 -5.269621e-07 -3.6633222e-07 -5.6963876e-07 4.0891152e-07 4.4231157e-07 -4.2306073e-07 -0.02579951
0.025356282 0.025981402 -1.5223791e-05 5.8857884e-05 -0.026224272 -0.025165636 0.026610512 -0.00018009065
-0.000186437 -0.025608338 -0.025580537 -0.027064005 -0.027429858 -0.02670588 0.027431233 0.025171744
0.00019681489 0.025507104 -7.9429316e-05 0.025400063 0.027246388 2.57282e-05 0.02725128 -0.024526954
4.372903e-05 -0.028388467 0.025975995 0.024792857 0.02506926 0.027284678 0.025222525 -0.02692999
-0.026251057 0.026298665 -0.02582079 0.02539452 0.025989091 -2.2969791e-06 -1.6928707e-06 -0.026233748
-0.025194328 0.02660119 -8.022409e-05 -8.4711726e-05 -0.025630644 -0.02558624 -0.02706914 -0.027431162
-0.026703158 0.027405094 0.025188738 0.00010131572 0.025543274 -2.7494512e-05 0.025435047 0.027229136
1.8374358e-05 0.027229043 -0.024550451 -0.00010981524 -0.028384047 0.02597731 0.024817899 0.025085045
0.02728011 0.025257647 -0.026941514 -0.026260424 0.026284982 -0.026029663 0.025590958 0.026212178
-2.49657e-05 0.00011270114 -0.026460283 -0.025398726 0.026838863 -0.00028178125 -0.00028358397 -0.025843034
00000000: cffc d0bc a25f cd3c 7279 d23c a49c 55b7
00000010: 1d75 6e38 888b d4bc f3c2 cbbc 78b0 d73c
00000020: da0f 32b9 179b 38b9 d16a cfbc 122f cfbc
00000030: 5383 dbbc 5584 debc 7387 d8bc 136a de3c
00000040: 8ecc cb3c d760 4639 d18a ce3c f7e9 a7b8
00000050: 1bb1 cd3c 70fe dc3c d793 d937 cc03 dd3c
00000060: 3163 c6bc 14e1 3737 975c e6bc b758 d23c
00000070: 0ab2 c83c 98f5 ca3c 433e dd3c b021 cc3c
00000080: 4352 dabc 20c7 d4bc 10ff d43c cb24 d1bc
00000090: 3d7a cd3c 3f9f d23c 2788 57b7 946b 3e38
000000a0: f6ad d4bc c0e2 cbbc a5d1 d73c f11b 19b9
000000b0: 09ac 1fb9 b692 cfbc 7155 cfbc 869b dbbc
000000c0: a6a5 debc a2a2 d8bc ce89 de3c c1ee cb3c
000000d0: eb53 2c39 faaf ce3c 1e03 8ab8 2cd9 cd3c
000000e0: d41a dd3c 3bf6 cd37 d821 dd3c 4490 c6bc
000000f0: 7c9d a1b6 2281 e6bc b07c d23c e3d4 c83c
00000100: be1e cb3c f261 dd3c 2b49 cc3c 5675 dabc
00000110: 3ae6 d4bc 3527 d53c 2f5b d8bc 74ce d43c
00000120: b1c6 d93c 0100 d2b7 6367 ef38 50be dbbc
00000130: 5342 d3bc 24e0 de3c d989 97b9 2a2a 99b9
00000140: 5ec9 d6bc b473 d6bc 0aa4 e2bc 6199 e5bc
00000150: 69a9 dfbc 7989 e53c 2e31 d33c 2897 a039
00000160: c511 d63c 35ea 10b9 ae25 d53c 36fc e33c
00000170: 67ad 0a38 75fe e33c 8ff7 cdbc 398c 1039
00000180: 9c74 edbc c5ca d93c ec1c d03c fb55 d23c
00000190: 3168 e43c a7cd d33c 529c e1bc 08fc dbbc
000001a0: 1b51 dc3c cae8 c832 7b66 ddb2 76a4 bdb2
000001b0: b579 b4b0 1ad4 8731 ec6f b132 69ad e132
000001c0: dd0e a4b2 c56b 9db1 f24f 04b2 e170 ce32
000001d0: 4fc8 bb32 3464 ab32 fb7e a232 f816 a532
000001e0: 82a4 92b2 2e58 cfb2 804c ab30 dd90 e0b2
000001f0: a7ff 4f31 deeb dfb2 d9e2 91b2 7d6e 9e2f
00000200: 7136 90b2 2448 e532 3500 b031 3d55 9432
00000210: c50e bfb2 4a6e dfb2 e280 d1b2 eadc a0b2
00000220: e919 e9b2 ae6d b532 edab b532 2057 acb2
00000230: dd97 ff34 1c03 0eb5 6415 fab4 caa5 d4b2
00000240: 2981 5734 108e eb34 f23c 1135 92c1 ceb4
00000250: c185 f4b4 c0a4 c9b4 124d 0735 96f1 f734
00000260: 72a6 cd34 e871 c134 7724 ca34 77e3 b3b4
00000270: 25b4 09b5 3d7c f334 ddc2 0fb5 a9e0 7ab4
00000280: f39a 13b5 46eb b3b4 a562 dc32 2082 b0b4
00000290: 38cd 1b35 d3fc ff34 794e a234 0cd0 f9b4
000002a0: fbd7 15b5 8f74 0db5 51ac c4b4 47e9 18b5
000002b0: 5f88 db34 d776 ed34 0621 e3b4 7e59 d3bc
000002c0: fab7 cf3c f3d6 d43c af69 7fb7 2cde 7638
000002d0: 49d4 d6bc 2a28 cebc 4afe d93c b7d6 3cb9
000002e0: 4d7e 43b9 94c8 d1bc 468e d1bc 55b5 ddbc
000002f0: 95b4 e0bc 4ac6 dabc 77b7 e03c f934 ce3c
00000300: 1860 4e39 46f4 d03c 4a93 a6b8 cb13 d03c
00000310: d133 df3c e4d2 d737 143e df3c c0ec c8bc
00000320: b069 3738 ee8e e8bc 9ccb d43c 641a cb3c
00000330: 0c5e cd3c 1e84 df3c 789f ce3c 489c dcbc
00000340: 750c d7bc 4c70 d73c 1f86 d3bc 2b08 d03c
00000350: 13e7 d43c cd25 1ab6 9836 e3b5 28e8 d6bc
00000360: 5664 cebc bdea d93c fb3d a8b8 43a7 b1b8
00000370: 5bf7 d1bc 3c9a d1bc 1ac0 ddbc 51b7 e0bc
00000380: 95c0 dabc a680 e03c 9d58 ce3c 7779 d438
00000390: 2140 d13c 04a4 e6b7 295d d03c a30f df3c
000003a0: a222 9a37 710f df3c 071e c9bc 9c4c e6b8
000003b0: a985 e8bc 5ece d43c e84e cb3c 277f cd3c
000003c0: 8a7a df3c 20e9 ce3c 73b4 dcbc 1a20 d7bc
000003d0: 9a53 d73c 293c d5bc 21a4 d13c ecba d63c
000003e0: 6f6d d1b7 f759 ec38 3cc3 d8bc fd10 d0bc
000003f0: 2ddd db3c 0abc 93b9 ffad 94b9 c5b4 d3bc

lstm.bias_ih_l0 f4 [140]
0.08230451 0.08279175 0.08279302 7.4645506e-08 2.2779002e-06 0.083146274 0.08188557 0.08292859
4.9333466e-06 2.6344865e-06 0.08278471 0.0808083 0.08478833 0.08657313 0.08311098 0.084702045
0.08023136 6.155927e-06 0.08325555 2.5841568e-06 0.08323493 0.08403822 4.0390866e-08 0.08374843
0.08000722 4.5875086e-06 0.08972494 0.08225147 0.0800525 0.080458805 0.085601486 0.082783066
0.08558922 0.08296933 0.081848584 0.06626718 0.06663192 0.066841334 -4.958557e-09 2.8585382e-07
0.06617619 0.06634294 0.066354476 2.659791e-06 1.2119572e-06 0.066336036 0.064412415 0.06817053
0.06894687 0.06613145 0.06709965 0.06466428 4.0602044e-06 0.06735453 9.0595427e-07 0.06739084
0.066318005 -4.7454946e-10 0.06615141 0.064697556 7.1054e-07 0.07174624 0.06657594 0.06450604
0.064798266 0.0681451 0.06751393 0.068973 0.06659052 0.0655597 -0.18848963 0.18856615
0.1888255 0.00020921785 -0.001635456 -0.1906932 -0.18630129 0.18936807 0.001760573 0.0017336565
-0.18958569 -0.18746103 -0.19142641 -0.19464953 -0.19012295 0.19243272 0.18541622 -0.0017861491
0.18877734 0.0014128519 0.18917105 0.19202958 -0.00051061827 0.19150221 -0.18424815 -0.0019187406
-0.19852452 0.18745548 0.18477632 0.18553726 0.19375572 0.18698476 -0.19228254 -0.18942934
0.18828827 0.11478955 0.11526183 0.11485636 7.4924486e-08 2.3007378e-06 0.115403354 0.113505974
0.114495546 4.775356e-06 2.5470026e-06 0.115090206 0.111857235 0.11796561 0.120680995 0.115217015
0.11696036 0.11122849 5.9635568e-06 0.11593615 2.555003e-06 0.11614547 0.11622396 3.594083e-08
0.11603822 0.110238574 4.3611735e-06 0.12488828 0.11371988 0.1111695 0.111326486 0.11933295
0.11467958 0.11909151 0.115146615 0.11333959
00000000: 448f a83d b98e a93d 638f a93d cd4c a033
00000010: 07de 1836 9848 aa3d 9fb3 a73d 77d6 a93d
00000020: 2089 a536 22cc 3036 088b a93d d27e a53d
00000030: 81a5 ad3d 414d b13d 1736 aa3d 4478 ad3d
00000040: 5750 a43d 038f ce36 e381 aa3d 7a6b 2d36
00000050: 1377 aa3d 3b1c ac3d 3a7a 2d33 4c84 ab3d
00000060: d3da a33d 66ee 9936 b6c1 b73d 7573 a83d
00000070: 91f2 a33d 96c7 a43d d54f af3d 2b8a a93d
00000080: 6749 af3d d3eb a93d 3ba0 a73d 16b7 873d
00000090: 5176 883d 1ce4 883d ee5f aab1 7377 9934
000000a0: 6287 873d cfde 873d dbe4 873d dd7e 3236
000000b0: 88aa a235 30db 873d a8ea 833d fe9c 8b3d
000000c0: 0434 8d3d ed6f 873d 8b6b 893d b56e 843d
000000d0: e43c 8836 2cf1 893d b430 7335 3504 8a3d
000000e0: bcd1 873d 7371 02b0 647a 873d 2780 843d
000000f0: f0bb 3e35 b1ef 923d f758 883d be1b 843d
00000100: f4b4 843d a88f 8b3d be44 8a3d b741 8d3d
00000110: 9c60 883d 2a44 863d 6d03 41be 7c17 413e
00000120: 795b 413e 7d61 5b39 cc5c d6ba 1445 43be
00000130: c4c5 3ebe b4e9 413e 07c3 e63a dc3b e33a
00000140: c022 42be c9f5 3fbe 4905 44be 3552 47be
00000150: 97af 42be 150d 453e c0dd 3d3e 381d eaba
00000160: d94e 413e 712f b93a 0eb6 413e 67a3 443e
00000170: 03db 05ba 2819 443e 8cab 3cbe 407e fbba
00000180: 034a 4bbe 54f4 3f3e 0136 3d3e 7bfd 3d3e
00000190: e667 463e ef78 3f3e b7e5 44be c4f9 41be
000001a0: a4ce 403e c916 eb3d 650e ec3d d039 eb3d
000001b0: 2ce6 a033 6066 1a36 9858 ec3d d275 e83d
000001c0: a47c ea3d ff3b a036 2ced 2a36 6ab4 eb3d
000001d0: 6815 e53d f497 f13d 9927 f73d e6f6 eb3d
000001e0: ea88 ef3d c3cb e33d 901a c836 ef6f ed3d
000001f0: 9e76 2b36 addd ed3d d406 ee3d 5c5d 1a33
00000200: 72a5 ed3d c3c4 e13d 3256 9236 6dc5 ff3d
00000210: f8e5 e83d d6ac e33d 24ff e33d d564 f43d
00000220: 21dd ea3d 40e6 f33d fdd1 eb3d 961e e83d

lstm.bias_hh_l0 f4 [140]
0.08230449 0.08279179 0.082793035 7.464553e-08 2.2779016e-06 0.08314628 0.08188559 0.0829286
4.9333516e-06 2.6344853e-06 0.08278472 0.08080828 0.08478832 0.086573124 0.083110966 0.084702045
0.080231346 6.155928e-06 0.08325553 2.5841587e-06 0.08323494 0.08403821 4.0390862e-08 0.08374843
0.080007195 4.5875067e-06 0.08972494 0.08225146 0.08005251 0.08045878 0.085601486 0.082783066
0.08558921 0.08296934 0.08184857 0.06626718 0.066631936 0.06684136 -4.958548e-09 2.858543e-07
0.0661762 0.06634294 0.06635448 2.6597916e-06 1.2119572e-06 0.06633605 0.06441243 0.06817054
0.06894687 0.06613146 0.06709964 0.064664274 4.0602026e-06 0.06735452 9.059527e-07 0.06739084
0.06631802 -4.7455645e-10 0.066151425 0.06469756 7.1053876e-07 0.07174625 0.066575944 0.06450604
0.06479825 0.06814509 0.06751391 0.06897298 0.066590525 0.06555972 -0.18848959 0.18856615
0.18882552 0.00020922006 -0.0016354579 -0.19069321 -0.1863013 0.18936807 0.0017605725 0.001733655
-0.18958569 -0.18746097 -0.19142643 -0.19464946 -0.19012292 0.19243273 0.18541624 -0.001786151
0.18877737 0.0014128491 0.18917109 0.19202963 -0.00051061914 0.19150224 -0.18424818 -0.0019187403
-0.19852455 0.18745546 0.18477629 0.18553722 0.19375569 0.18698475 -0.19228257 -0.18942936
0.18828829 0.114789575 0.1152618 0.11485636 7.492449e-08 2.3007365e-06 0.115403354 0.113506004
0.11449553 4.775358e-06 2.5470056e-06 0.11509019 0.11185726 0.11796563 0.120680995 0.11521703
0.11696033 0.11122849 5.963553e-06 0.115936145 2.5550037e-06 0.11614548 0.11622395 3.5940797e-08
0.116038196 0.110238574 4.3611735e-06 0.12488825 0.113719866 0.11116949 0.11132651 0.11933294
0.11467958 0.11909154 0.115146585 0.11333959
00000000: 428f a83d be8e a93d 658f a93d d04c a033
00000010: 0dde 1836 9948 aa3d a2b3 a73d 78d6 a93d
00000020: 2b89 a536 1dcc 3036 098b a93d d07e a53d
00000030: 80a5 ad3d 404d b13d 1536 aa3d 4478 ad3d
00000040: 5550 a43d 058f ce36 e081 aa3d 826b 2d36
00000050: 1577 aa3d 3a1c ac3d 397a 2d33 4c84 ab3d
00000060: d0da a33d 62ee 9936 b6c1 b73d 7473 a83d
00000070: 92f2 a33d 93c7 a43d d54f af3d 2b8a a93d
00000080: 6549 af3d d4eb a93d 39a0 a73d 16b7 873d
00000090: 5376 883d 1fe4 883d d95f aab1 8477 9934
000000a0: 6387 873d cfde 873d dce4 873d df7e 3236
000000b0: 88aa a235 32db 873d aaea 833d ff9c 8b3d
000000c0: 0434 8d3d ee6f 873d 896b 893d b46e 843d
000000d0: e03c 8836 2bf1 893d 9830 7335 3504 8a3d
000000e0: bed1 873d f171 02b0 667a 873d 2880 843d
000000f0: dabb 3e35 b3ef 923d f858 883d be1b 843d
00000100: f2b4 843d a78f 8b3d bc44 8a3d b541 8d3d
00000110: 9d60 883d 2d44 863d 6a03 41be 7c17 413e
00000120: 7a5b 413e 1562 5b39 dc5c d6ba 1545 43be
00000130: c5c5 3ebe b4e9 413e 03c3 e63a cf3b e33a
00000140: c022 42be c5f5 3fbe 4a05 44be 3052 47be
00000150: 95af 42be 160d 453e c1dd 3d3e 481d eaba
00000160: db4e 413e 592f b93a 11b6 413e 6aa3 443e
00000170: 12db 05ba 2a19 443e 8eab 3cbe 3e7e fbba
00000180: 054a 4bbe 53f4 3f3e ff35 3d3e 78fd 3d3e
00000190: e467 463e ee78 3f3e b9e5 44be c5f9 41be
000001a0: a5ce 403e cc16 eb3d 610e ec3d d039 eb3d
000001b0: 2de6 a033 5a66 1a36 9858 ec3d d675 e83d
000001c0: a27c ea3d 033c a036 39ed 2a36 68b4 eb3d
000001d0: 6b15 e53d f797 f13d 9927 f73d e8f6 eb3d
000001e0: e688 ef3d c3cb e33d 881a c836 ee6f ed3d
000001f0: a176 2b36 aedd ed3d d306 ee3d 535d 1a33
00000200: 6fa5 ed3d c3c4 e13d 3256 9236 69c5 ff3d
00000210: f6e5 e83d d4ac e33d 27ff e33d d464 f43d
00000220: 21dd ea3d 44e6 f33d f9d1 eb3d 961e e83d

lstm.weight_ih_l0_reverse f4 [140, 1]
2.1638898e-23 1.9533283e-22 -1.577173e-23 -1.5177218e-18 5.317725e-23 -8.905524e-19 2.3212425e-23 -8.093387e-21
2.7852347e-23 -1.1878009e-22 1.6505286e-23 -2.9014367e-23 1.4855295e-19 -1.00510674e-22 -1.5935538e-22 -1.9338719e-22
1.2600123e-23 -2.7210766e-23 -4.817688e-25 2.9025064e-23 -1.2077492e-10 -1.332366e-18 2.730321e-25 -5.1682626e-23
-2.5611854e-14 -1.860963e-23 -7.1932083e-22 -4.901764e-23 2.8750843e-12 4.25254e-23 4.079237e-14 1.2008342e-26
6.181454e-24 -5.6912906e-23 -5.2620386e-23 3.732937e-23 2.9766628e-23 -1.02456095e-23 -1.1959644e-18 2.8520332e-23
-6.240548e-19 5.9093925e-25 -7.9532786e-21 7.1277346e-24 -9.359105e-23 6.351848e-24 8.7926444e-24 8.33124e-18
-4.4442265e-23 -3.776439e-22 -1.7811597e-22 9.022175e-24 -1.6950587e-23 1.7197991e-25 1.0799884e-22 5.529532e-11
-1.3733789e-18 1.0911391e-25 -2.1523896e-23 -2.2499884e-14 -8.784565e-24 -5.058852e-22 -3.8397363e-23 2.9023142e-12
2.789186e-23 7.8369115e-15 3.155493e-26 2.83861e-23 -4.7668886e-23 2.1515022e-24 1.209067e-12 4.298011e-12
1.5356034e-12 3.2236086e-10 -2.1298612e-12 1.9156568e-10 -2.568396e-12 -1.6753375e-11 -3.4354637e-12 2.5690835e-13
3.8653886e-13 6.868517e-13 -8.7058144e-10 -1.3749707e-12 4.4904714e-12 -1.0562589e-12 -3.3681293e-13 1.0023863e-12
5.6232735e-14 -4.480713e-12 -6.5345253e-06 -2.6961847e-10 4.863026e-13 -3.5891839e-12 -3.4839573e-08 -5.001272e-13
1.9588077e-12 -1.5283242e-12 -6.7956006e-07 4.1146383e-12 9.81894e-08 -1.8582766e-13 -1.8282382e-13 2.401559e-12
-3.394649e-13 2.4253292e-23 1.6818297e-22 -1.3928395e-23 -1.4345623e-18 4.5483322e-23 -8.408859e-19 2.0458473e-23
-7.766266e-21 2.685441e-23 -1.1767875e-22 1.3612661e-23 -2.2558984e-23 2.482628e-18 -8.9202315e-23 -3.3432763e-22
-1.9704276e-22 1.26471995e-23 -2.6321407e-23 -1.7767514e-25 4.0654127e-23 -9.0816354e-11 -1.2808405e-18 3.111707e-25
-4.8614538e-23 -2.4952732e-14 -1.7205007e-23 -7.050553e-22 -5.171397e-23 2.9421478e-12 4.629404e-23 3.398492e-14
1.2760021e-26 1.3568029e-23 -5.7482565e-23 -4.9744767e-23
00000000: 5147 d119 9524 6c1b ea88 9899 e9f9 dfa1
00000010: 2093 801a 1e6c 83a1 2e7f e019 38e1 189e
00000020: 89af 061a a898 0f9b 1ca1 9f19 0c4e 0c9a
00000030: 6061 2f20 1805 f39a 1aa6 409b 70ca 699b
00000040: c9b8 7319 4c95 039a a819 1597 4a5b 0c1a
00000050: 1ecb 04af 5d9f c4a1 aaff a816 feeb 799a
00000060: eab0 e6a8 36fb b399 c166 599c e608 6d9a
00000070: ea50 4a2c e5a3 4d1a 67b6 3729 87d9 6d14
00000080: 2822 ef18 629b 899a e274 7e9a 8683 341a
00000090: 4df1 0f1a cd2d 4699 427e b0a1 76ea 091a
000000a0: 3f30 38a1 08e3 3617 b23b 169e d5de 0919
000000b0: 0e4a e29a a8b9 f518 1113 2a19 2baf 1923
000000c0: dce8 569a 9045 e49b 3954 579b a683 2e19
000000d0: 9fef a399 9ce6 5416 0690 021b ff30 732e
000000e0: caac caa1 9413 0716 962a d099 33a9 caa8
000000f0: 0feb 2999 f9e4 189c a2ad 399a 723b 4c2c
00000100: 73e0 061a 602d 0d28 a040 1c15 4a44 091a
00000110: 3983 669a e476 2618 3b29 aa2b 0b39 972c
00000120: f11d d82b 4238 b12f 2be0 15ac f2a0 522f
00000130: 1cbc 34ac 3f5d 93ad d0bf 71ac 65a0 902a
00000140: 1f9a d92a e254 412b b94d 6fb0 8a82 c1ab
00000150: 92fe 9d2c bda7 94ab dc9b bdaa c612 8d2b
00000160: ee3f 7d29 ada6 9dac 2543 dbb6 6d39 94af
00000170: cce1 082b fd90 7cac 84a2 15b3 f6c5 0cab
00000180: bed6 092c af17 d7ab 036b 36b5 5ec5 902c
00000190: 32dc d233 2d39 51aa 61d7 4daa a4fe 282c
000001a0: 0c1a bfaa 3e90 ea19 1c52 4b1b 09b5 8699
000001b0: 3bb4 d3a1 a0f1 5b1a 8b2f 78a1 badc c519
000001c0: 5cb3 129e 26dc 011a cf43 0e9b 51a7 8319
000001d0: 572d da99 842f 3722 8fad d79a b216 ca9b
000001e0: c835 6e9b e6a1 7419 a690 fe99 80f3 5b96
000001f0: 5f97 441a 10b5 c7ae c904 bda1 f79a c016
00000200: e215 6b9a 15c1 e0a8 8965 a699 0317 559c
00000210: cb12 7a9a 0609 4f2c 3fdd 5f1a f20d 1929
00000220: febc 7c14 d038 8319 fcfb 8a9a 0a8d 709a

lstm.weight_hh_l0_reverse f4 [140, 35]
1.4463501e-25 -1.3238219e-25 8.393752e-25 -4.3511022e-26 3.240485e-25 -7.382239e-25 -9.8545946e-26 -1.8822777e-24
1.4438128e-24 1.2757571e-24 1.4530464e-25 1.0685435e-25 -5.6622375e-25 -3.8750711e-25 -1.1590002e-24 -2.6044164e-25
1.4458013e-25 8.397053e-25 -1.6879066e-26 -2.2326336e-25 5.620829e-26 2.7292763e-25 -7.647997e-26 -1.8300143e-24
-3.8427948e-26 -9.658445e-25 2.352837e-24 7.267307e-25 -8.055245e-26 -3.4132582e-25 -1.9166356e-24 -1.27461495e-26
1.3560712e-24 9.759427e-26 1.0057444e-24 1.98387e-24 2.8502654e-25 1.928275e-24 3.6646893e-25 6.2630547e-25
6.7875454e-24 7.489869e-25 -9.675734e-25 -1.7566694e-24 2.3239793e-24 6.7875486e-25 6.795971e-24 2.8086444e-24
-9.667567e-25 -5.8377237e-24 1.048744e-23 -1.684429e-25 8.996868e-25 -1.2849455e-25 6.4430116e-25 3.7707046e-25
-1.539817e-25 3.705563e-25 -4.6594653e-24 -1.4309986e-26 -3.3715734e-24 -4.2019733e-24 3.1819472e-24 -6.137634e-25
1.52503e-24 -1.2588733e-24 4.0497604e-25 1.223518e-23 1.2940403e-23 7.115849e-25 -1.3768596e-25 8.007431e-27
-5.985525e-26 4.794545e-26 1.6562683e-25 -1.4449e-24 -2.8002923e-26 -1.4214465e-25 -2.7013112e-25 2.5124855e-25
-1.6829662e-25 1.2193906e-25 -5.494003e-25 -2.975416e-24 -5.004371e-25 4.3779165e-24 -2.288334e-25 3.2964742e-25
-1.045665e-26 1.4300632e-24 -4.1348095e-26 -4.8658933e-25 -4.0694604e-26 -9.0466864e-26 2.4287108e-26 -3.9261114e-26
-8.182456e-25 -8.0013816e-26 -8.997188e-27 1.1013031e-24 -7.48187e-25 -2.673454e-26 -1.5484446e-24 -3.655257e-25
-7.726784e-26 -1.03391906e-20 -3.75792e-21 -6.232502e-21 3.3699035e-21 3.2166062e-20 4.5717394e-20 -8.56553e-22
7.7128046e-20 9.461434e-21 3.8207266e-20 1.2396738e-20 1.9639042e-20 -1.0629074e-19 -1.6938242e-20 6.1592877e-20
-8.0741875e-20 -2.1695364e-20 -3.0245807e-20 -4.6353057e-21 2.1456844e-20 1.5930965e-21 6.5762797e-22 1.9928566e-21
1.0931626e-19 2.4815653e-21 -2.3524832e-20 9.723512e-20 -4.5547272e-20 9.333134e-22 3.1796164e-20 -3.920946e-21
1.1340157e-21 -6.8729015e-21 -3.9360452e-21 8.911753e-20 2.1709965e-25 -4.4925065e-26 -7.333462e-25 4.9353092e-26
3.3146535e-25 8.10916e-25 -3.4943876e-26 8.650127e-25 8.146318e-25 6.4526312e-25 -2.7782393e-26 -4.4794973e-26
-4.0034624e-25 2.3599888e-25 1.039217e-24 -6.635121e-25 -7.317069e-26 3.5899216e-25 -7.030982e-27 3.0561514e-25
4.0845914e-26 1.0472319e-24 -3.312176e-26 5.690925e-25 -1.619135e-26 -1.2779596e-25 -1.8758701e-26 -1.4223451e-24
-2.110201e-26 -1.14140284e-26 9.229788e-25 4.0074766e-26 1.4943725e-24 -7.2583585e-26 -1.4942497e-24 5.317308e-21
-1.2184328e-21 -1.4475932e-20 -9.74948e-22 -3.976853e-21 -3.531289e-21 1.7371168e-21 9.789796e-22 -1.3620639e-20
6.39215e-21 4.620816e-21 1.2758656e-20 1.8147147e-20 -9.768118e-21 1.30249976e-20 -2.5843958e-20 3.624422e-21
5.1663257e-21 -9.931845e-22 4.3528376e-21 7.882242e-22 -1.6915393e-20 -4.5688537e-22 1.2600429e-20 6.7242105e-22
-1.6437316e-20 -9.9026606e-21 -9.737216e-21 -5.1915247e-22 -2.68918e-21 -1.4263507e-20 3.064192e-22 1.1253012e-20
2.1301439e-20 -1.3609195e-20 4.453146e-25 -1.7212606e-27 -9.574395e-25 -4.926716e-26 1.4591585e-26 -7.41761e-26
7.5461873e-26 -2.9467244e-24 8.36355e-25 1.6638088e-24 5.253835e-25 7.9346766e-25 2.8055404e-24 2.573009e-24
3.9395102e-25 -1.7827505e-24 -4.7618474e-25 1.5505066e-25 -8.074017e-26 3.0525094e-25 -1.9353582e-25 -8.192833e-26
-5.2643264e-26 2.7962287e-24 3.3272655e-26 3.2039645e-25 -2.570128e-24 2.1080771e-24 -1.599002e-25 5.136247e-25
-2.5282414e-24 3.930287e-26 6.8256895e-25 1.0562895e-24 -2.4410354e-24 4.7069074e-23 1.5147e-23 1.2781437e-22
8.256019e-24 -4.848696e-23 7.201442e-23 8.0344805e-24 4.4380582e-23 -1.5610012e-22 2.7382182e-22 1.1793334e-22
00000000: aa0c 3316 97e1 2396 14e3 8117 c674 5795
00000010: 8993 c816 2078 6497 eafc f395 5aa2 1198
00000020: 516b df17 f269 c517 e1e0 3316 7f47 0416
00000030: de3c 2f97 f4da ef96 ba58 b397 a034 a196
00000040: 46fb 3216 27f0 8117 8429 a794 7e31 8a96
00000050: 3c2a 8b15 1cef a816 f15a bd95 2b97 0d98
00000060: 3649 3e95 0b75 9597 bd0a 3618 8ae9 6017
00000070: 2e70 c795 3c45 d396 e14a 1498 a876 7c94
00000080: 84d7 d117 b8a1 f115 a4a1 9b17 987e 1918
00000090: 426c b016 6c31 1518 52d5 e216 08d5 4117
000000a0: 4c4a 0319 dbcc 6717 88b9 9597 6cea 0798
000000b0: 27cf 3318 8010 5217 0574 0319 ef4e 5918
000000c0: 2e99 9597 04d6 e198 4adb 4a19 b085 5096
000000d0: 4438 8b17 8c11 1f96 cc66 4717 3365 e916
000000e0: c09e 3e96 fd5c e516 1c41 b498 20b8 8d94
000000f0: 726e 8298 548e a298 f530 7618 59f3 3d97
00000100: aafc eb17 1ccd c297 04ab fa16 ada9 6c19
00000110: c64d 7a19 9039 5c17 6c72 2a96 809a 1e14
00000120: c631 9495 146a 6d15 3d09 4d16 6396 df97
00000130: eca9 0a95 70f7 2f96 fc33 a796 ec83 9b16
00000140: 5457 5096 08f4 1616 fa07 2a97 3036 6698
00000150: b6e0 1a97 c95c a918 19a4 8d96 b80a cc16
00000160: 841d 4f94 a44a dd17 f0be 4c95 9497 1697
00000170: 8a82 4995 30fc df95 2287 f014 6069 4295
00000180: 183c 7d97 c81a c695 2a35 3294 1c6b aa17
00000190: 7b8d 6797 0e62 0495 369c ef97 dc3f e296
000001a0: 504e bf95 424d 439e 5ff8 8d9d 1075 eb9d
000001b0: 6a9f 7e1d 62e6 171f f0e4 571f 4a70 819c
000001c0: 0b1d b61f b0b8 321e c06d 341f f22a 6a1e
000001d0: 4a7c b91e cff8 fa9f 28fa 9f9e 9c6e 911f
000001e0: 78a5 be9f 2ce8 cc9e f0d4 0e9f ed1d af9d
000001f0: 77a7 ca1e f0bd f01c 80c1 461c 7493 161d
00000200: d00e 0120 7480 3b1d 8e2f de9e 0697 e51f
00000210: 4617 579f d009 8d1c 3427 161f 1021 949d
00000220: 1c5e ab1c 50d3 019e 18b3 949d 3e6c d21f
00000230: d060 8616 4975 5e95 acf5 6297 7a62 7415
00000240: c82a cd16 62f7 7a17 a008 2d95 afda 8517
00000250: c81d 7c17 03b3 4717 5e92 0995 60d0 5d95
00000260: 65cd f796 8413 9216 a0cf a017 d858 4d97
00000270: 6f29 b595 9434 de16 5043 0b94 a72a bd16
00000280: 5942 4a15 210d a217 d202 2495 2720 3017
00000290: f359 a094 2834 1e96 f5c6 b994 e518 dc97
000002a0: f4fb d094 0014 6294 f5d2 8e17 cd70 4615
000002b0: 323e e717 50b5 b395 5439 e797 d9e1 c81d
000002c0: d61f b89c a8b8 889e 7954 939c c33d 969d
000002d0: 8868 859d ba40 031d 70f0 931c afa4 809e
000002e0: 157d f11d ca91 ae1d 1301 711e 1c65 ab1e
000002f0: b883 389e 0609 761e db16 f49e 42ed 881d
00000300: a32d c31d f715 969c 1072 a41d e539 6e1c
00000310: e9c2 9f9e cb15 0a9c f003 6e1e 0f3a 4b1c
00000320: fe3e 9b9e 540e 3b9e 4aee 379e 7ae7 1c9c
00000330: 4e30 4b9d 0bb7 869e 1338 b91b 3a90 541e
00000340: b82f c91e 0489 809e 75d1 0917 505f 0893
00000350: 1628 9497 8cf5 7395 1082 9014 b0a6 b795
00000360: a5d5 ba15 e4fd 6398 6f6b 8117 21bb 0018
00000370: 2b99 2217 fc90 7517 7411 5918 b213 4718
00000380: 08d8 f316 03ef 0998 3e5f 1397 84f1 3f16
00000390: 2ae7 c795 f1f0 bc16 f395 6f96 40d8 ca95
000003a0: a256 8295 0459 5818 1ac2 2415 d850 c616
000003b0: a1da 4698 c51a 2318 65f2 4596 8bf5 1e17
000003c0: fb9c 4398 4f9e 4215 af3e 5317 f073 a317
000003d0: b0dd 3c98 b19c 631a 287e 9219 a284 1a1b
000003e0: d3b1 1f19 f377 6a9a c41e ae1a d268 1b19
000003f0: 809c 561a a6b6 3c9b e083 a51b 9a92 0e1b

lstm.bias_ih_l0_reverse f4 [140]
-2.3128039e-23 3.4545244e-22 -3.6986286e-23 -2.1040576e-18 7.841341e-23 -8.267835e-19 7.9076275e-23 -6.849645e-21
6.085509e-23 -1.05709905e-22 1.7551762e-23 -1.1835762e-22 -5.5453768e-17 -2.161723e-22 4.3974813e-22 -2.3336119e-22
-2.9811113e-24 -2.602065e-23 -2.284223e-24 -1.2714541e-22 -5.3512106e-10 -1.378734e-18 2.4694923e-25 -1.507579e-22
-2.403658e-14 -2.1416573e-23 -8.26341e-22 -7.9568026e-23 -1.1951757e-14 4.5595782e-23 1.0356687e-13 -1.9228354e-25
-7.7024713e-23 -8.3509566e-23 -1.9902005e-22 3.8407015e-24 2.9198274e-22 -2.599479e-23 -1.903431e-18 6.751071e-23
-8.2632846e-19 4.803263e-23 -5.9969056e-21 3.794746e-23 -9.6484706e-23 2.6429275e-23 -6.859977e-23 -3.3113542e-17
-1.4946386e-22 3.240843e-22 -1.5887028e-22 5.4349424e-24 -2.1001965e-23 -1.9812541e-24 -6.712147e-23 -3.453371e-10
-1.188335e-18 2.473039e-26 -7.661439e-23 -2.3814121e-14 -1.7642216e-23 -7.2263016e-22 -4.4473425e-23 1.0100997e-12
2.4877104e-23 7.1710426e-14 -6.668744e-26 -4.435324e-23 -5.678558e-23 -1.1656864e-22 1.2508555e-12 4.152997e-12
1.7649472e-12 3.0077438e-10 -2.0995844e-12 1.9542148e-10 -2.5533364e-12 -1.5863928e-11 -3.427451e-12 3.9754723e-13
4.4954784e-13 5.989017e-13 -8.261271e-10 -1.2753694e-12 4.2477775e-12 -1.6742479e-12 -4.1353002e-13 2.018103e-12
1.9229013e-14 -4.168457e-12 -6.956316e-06 -2.747892e-10 5.423398e-13 -4.7763312e-12 -3.604905e-08 -8.838794e-13
3.097563e-12 -6.775726e-13 -7.1032696e-07 4.5472415e-12 9.574547e-08 -2.318953e-13 2.0015456e-14 3.0867169e-12
7.769665e-14 -2.526894e-23 3.2985766e-22 -3.7450048e-23 -2.0754245e-18 7.668944e-23 -7.4443856e-19 7.66453e-23
-6.7438363e-21 6.242934e-23 -9.984472e-23 1.5634969e-23 -1.222856e-22 -5.809381e-17 -2.195982e-22 4.406525e-22
-2.368616e-22 -4.460989e-24 -2.5235282e-23 -2.221291e-24 -1.2964257e-22 -5.4567223e-10 -1.3729589e-18 2.555819e-25
-1.5575802e-22 -2.331926e-14 -2.1087066e-23 -7.911173e-22 -8.3328816e-23 -2.9773826e-13 4.5896596e-23 1.0371566e-13
-2.0906638e-25 -7.978438e-23 -8.5415644e-23 -2.0762395e-22
00000000: 40ae df99 2dd0 d01b ceda 329a 8640 1ba2
00000010: 8d97 bd1a ff05 74a1 d831 bf1a da62 019e
00000020: 7a23 931a 4397 ff9a 0fc0 a919 e915 0f9b
00000030: 41bc 7fa4 0bab 829b dde7 041c e50e 8d9b
00000040: fea6 6698 02a8 fb99 b3bb 3098 99b5 199b
00000050: cc17 13b0 1977 cba1 abda 9816 4f41 369b
00000060: 9480 d8a8 de20 cf99 0abf 799c 3962 c09a
00000070: c04d 57a8 d87c 5c1a 3c36 e929 1609 6e96
00000080: fd3b ba9a ebe9 c99a b999 709b 7794 9418
00000090: 247e b01b fc67 fb99 cc72 0ca2 1b3b a31a
000000a0: 9de3 73a1 8445 681a 838e e29d ae80 371a
000000b0: 2449 e99a b79b ff19 33dd a59a 92b5 18a4
000000c0: d3b0 349b 9ee5 c31b f80f 409b 1041 d218
000000d0: 591e cb99 c84a 1998 2d4a a29a e0d9 bdaf
000000e0: 075e afa1 fdea f414 033e b99a a07f d6a8
000000f0: 03a0 aa99 cd66 5a9c 6f0f 579a ad28 8e2b
00000100: ba98 f019 3f7a a129 301c a595 a77a 569a
00000110: 924c 899a 3fec 0c9b d20a b02b df1e 922c
00000120: ed64 f82b 3b5a a52f c0be 13ac 42de 562f
00000130: d2ac 33ac 648a 8bad 782f 71ac 98cc df2a
00000140: ac12 fd2a 6a93 282b 8715 63b0 067e b3ab
00000150: 9474 952c 23a1 ebab f5cb e8aa e902 0e2c
00000160: 1633 ad28 1faa 92ac 4d6a e9b6 2411 97af
00000170: b3a7 182b 5e0d a8ac 5ad4 1ab3 39ca 78ab
00000180: bcf8 592c 40b8 3eab 4cad 3eb5 e9fd 9f2c
00000190: a19c cd33 a38b 82aa 8048 b428 5935 592c
000001a0: 12f5 ae29 dd62 f499 0063 c71b ea18 359a
000001b0: a923 19a2 776c b91a 30b8 5ba1 2551 b91a
000001c0: 62c6 fe9d e4f1 961a e368 f19a 4f36 9719
000001d0: 8fd5 139b 88f4 85a4 2dbd 849b d62d 051c
000001e0: 8f2c 8f9b 7f93 ac98 880f f499 33dd 2b98
000001f0: 6fba 1c9b 45fe 15b0 ec9c caa1 9232 9e16
00000200: c64c 3c9b 8d0a d2a8 0cf1 cb99 bd19 6f9c
00000210: 0a7a c99a 9b9c a7aa 3cf1 5d1a 028c e929
00000220: e467 8196 24e8 c09a b985 ce9a 8000 7b9b

lstm.bias_hh_l0_reverse f4 [140]
-2.3128039e-23 3.4545264e-22 -3.6986283e-23 -2.1040582e-18 7.8413424e-23 -8.2678377e-19 7.907627e-23 -6.849647e-21
6.0855084e-23 -1.05709905e-22 1.7551759e-23 -1.1835762e-22 -5.5453732e-17 -2.161723e-22 4.3974843e-22 -2.333611e-22
-2.9811125e-24 -2.6020638e-23 -2.2842225e-24 -1.2714545e-22 -5.351213e-10 -1.3787337e-18 2.4694891e-25 -1.5075772e-22
-2.4036583e-14 -2.1416564e-23 -8.263411e-22 -7.956804e-23 -1.1951567e-14 4.5595794e-23 1.03566895e-13 -1.9228354e-25
-7.7024764e-23 -8.3509585e-23 -1.9902003e-22 3.8406916e-24 2.9198284e-22 -2.5994794e-23 -1.903431e-18 6.751075e-23
-8.263286e-19 4.803266e-23 -5.9969076e-21 3.794746e-23 -9.6484694e-23 2.6429251e-23 -6.859974e-23 -3.311351e-17
-1.4946386e-22 3.240842e-22 -1.5887029e-22 5.434941e-24 -2.1001962e-23 -1.981254e-24 -6.712142e-23 -3.4533715e-10
-1.1883356e-18 2.4730207e-26 -7.661444e-23 -2.3814113e-14 -1.7642216e-23 -7.2263026e-22 -4.4473378e-23 1.0101002e-12
2.4877117e-23 7.171044e-14 -6.6687374e-26 -4.435324e-23 -5.6785534e-23 -1.165686e-22 1.2508536e-12 4.1529974e-12
1.7649472e-12 3.007748e-10 -2.0995853e-12 1.954214e-10 -2.5533317e-12 -1.5863949e-11 -3.4274569e-12 3.975478e-13
4.4954223e-13 5.989031e-13 -8.261307e-10 -1.2753659e-12 4.2477905e-12 -1.6742467e-12 -4.1352978e-13 2.0181044e-12
1.9227743e-14 -4.168468e-12 -6.9563275e-06 -2.7478983e-10 5.423397e-13 -4.7763273e-12 -3.6049034e-08 -8.8388037e-13
3.0975738e-12 -6.7757453e-13 -7.103276e-07 4.5472406e-12 9.5745456e-08 -2.3189518e-13 2.0015375e-14 3.0867266e-12
7.770012e-14 -2.52689e-23 3.2985778e-22 -3.7450058e-23 -2.075425e-18 7.668945e-23 -7.4443867e-19 7.6645353e-23
-6.74384e-21 6.2429335e-23 -9.984473e-23 1.563499e-23 -1.2228558e-22 -5.809381e-17 -2.1959815e-22 4.406523e-22
-2.368617e-22 -4.460988e-24 -2.5235277e-23 -2.2212913e-24 -1.2964263e-22 -5.4567245e-10 -1.3729586e-18 2.5558198e-25
-1.5575807e-22 -2.331926e-14 -2.1087063e-23 -7.9111753e-22 -8.3328753e-23 -2.9774309e-13 4.589661e-23 1.0371568e-13
-2.0906638e-25 -7.9784376e-23 -8.541565e-23 -2.0762395e-22
00000000: 40ae df99 35d0 d01b cdda 329a 8940 1ba2
00000010: 8f97 bd1a 0406 74a1 d731 bf1a dc62 019e
00000020: 7923 931a 4397 ff9a 0dc0 a919 e915 0f9b
00000030: 36bc 7fa4 0bab 829b e3e7 041c e20e 8d9b
00000040: 04a7 6698 fba7 fb99 b0bb 3098 9cb5 199b
00000050: d017 13b0 1677 cba1 9eda 9816 4141 369b
00000060: 9680 d8a8 d820 cf99 0cbf 799c 3b62 c09a
00000070: e04c 57a8 dc7c 5c1a 4036 e929 1609 6e96
00000080: 053c ba9a eee9 c99a b799 709b 5e94 9418
00000090: 287e b01b fe67 fb99 cc72 0ca2 213b a31a
000000a0: a0e3 73a1 8e45 681a 888e e29d ae80 371a
000000b0: 2249 e99a a89b ff19 2fdd a59a 88b5 18a4
000000c0: d3b0 349b 9ae5 c31b f90f 409b 0c41 d218
000000d0: 571e cb99 c74a 1998 264a a29a e2d9 bdaf
000000e0: 0d5e afa1 86ea f414 0b3e b99a 9b7f d6a8
000000f0: 03a0 aa99 cf66 5a9c 600f 579a b228 8e2b
00000100: c298 f019 417a a129 251c a595 a77a 569a
00000110: 8b4c 899a 3cec 0c9b c00a b02b e01e 922c
00000120: ed64 f82b 4a5a a52f c4be 13ac 3cde 562f
00000130: bcac 33ac 708a 8bad 932f 71ac adcc df2a
00000140: dd11 fd2a 8493 282b c815 63b0 e67d b3ab
00000150: b274 952c 18a1 ebab eccb e8aa f002 0e2c
00000160: 2830 ad28 39aa 92ac 666a e9b6 3b11 97af
00000170: b2a7 182b 550d a8ac 55d4 1ab3 4bca 78ab
00000180: eef8 592c 64b8 3eab 57ad 3eb5 e7fd 9f2c
00000190: 9f9c cd33 9e8b 82aa 5048 b428 8635 592c
000001a0: 12f7 ae29 c462 f499 0563 c71b ed18 359a
000001b0: ab23 19a2 786c b91a 32b8 5ba1 2d51 b91a
000001c0: 6bc6 fe9d e3f1 961a e568 f19a 5c36 9719
000001d0: 8ed5 139b 88f4 85a4 2bbd 849b d22d 051c
000001e0: 932c 8f9b 7c93 ac98 850f f499 35dd 2b98
000001f0: 73ba 1c9b 49fe 15b0 e99c caa1 9532 9e16
00000200: ca4c 3c9b 8d0a d2a8 0af1 cb99 c119 6f9c
00000210: 007a c99a 4d9d a7aa 40f1 5d1a 058c e929
00000220: e467 8196 23e8 c09a ba85 ce9a 8000 7b9b
