PreConditional_LSTMs/models/model_1.pt (torch_old, 171470 bytes, 29 tensors)

encode_fc1.weight f4 [8, 7]
000000 a2 0b 00 00 47 0e 00 00 28 0e 05 80 c9 18 01 00
       4.173e-42 5.122e-42 -4.64256e-40 1.00727e-40
000010 55 2a 02 80 b5 a8 00 00 c9 55 00 00 cd 6e 00 80
       -1.98857e-40 6.052e-41 3.0774e-41 -3.9748e-41
000020 63 75 14 00 f7 14 04 00 ba 5c 30 00 5b e8 01 80
       1.87882e-39 3.74863e-40 4.441368e-39 -1.75189e-40
000030 b8 bc 00 00 fa 29 5b 00 58 28 01 00 24 c9 01 00
       6.77e-41 8.372089e-39 1.06308e-40 1.63991e-40
000040 7a 82 00 80 78 9e 05 80 36 b9 0e 80 8c d8 00 80
       -4.6806e-41 -5.16025e-40 -1.352138e-39 -7.7682e-41
000050 eb 0f 00 80 9f 6f 1b 00 b3 b9 16 80 be 3a 0a 80
       -5.71e-42 2.5196e-39 -2.086997e-39 -9.39428e-40
000060 01 0f 04 80 51 fe 26 80 eb 47 01 80 6a ae 02 00
       -3.72724e-40 -3.58098e-39 -1.17635e-40 2.46239e-40
000070 6d 7d 02 80 38 dd 00 80 83 b8 00 80 53 e5 01 80
       -2.28665e-40 -7.9358e-41 -6.619e-41 -1.74102e-40
000080 a5 8b 01 00 0d c7 14 00 3b 83 01 00 d7 63 01 00
       1.4193e-40 1.908116e-39 1.38912e-40 1.27651e-40
000090 2b 52 01 80 83 0a 02 00 f8 48 05 80 81 a2 04 00
       -1.21312e-40 1.87442e-40 -4.85354e-40 4.25637e-40
0000a0 22 f0 01 00 c2 9e 02 80 8d 14 00 80 2d 12 13 00
       1.77979e-40 -2.40623e-40 -7.372e-42 1.751395e-39
0000b0 f2 0e 00 00 2c 6d 02 80 23 75 12 80 a2 e6 01 00
       5.361e-42 -2.22834e-40 -1.69506e-39 1.74571e-40
0000c0 8f f7 1a 00 b4 45 02 80 24 18 00 80 a4 6c 10 80
       2.47653e-39 -2.08676e-40 -8.66e-42 -1.508341e-39
0000d0 11 a0 02 80 79 05 00 00 04 e0 02 80 01 3c 04 00
       -2.41092e-40 1.963e-42 -2.64033e-40 3.88867e-40

encode_fc1.bias f4 [8]
000000 52 aa 01 80 f1 35 03 80 5a 57 11 00 0d 03 00 80
       -1.52935e-40 -2.94857e-40 1.592539e-39 -1.094e-42
000010 fd bd 07 80 95 a9 06 80 5e e7 00 80 3b 14 02 00
       -7.11003e-40 -6.11848e-40 -8.2999e-41 1.90928e-40

encode_bn1.weight f4 [8]
000000 5d 0f 00 80 66 5b 00 80 8b 15 0e 80 6c 00 00 00
       -5.511e-42 -3.2788e-41 -1.293425e-39 1.51e-43
000010 cf 62 01 80 7e 1c 00 80 03 53 01 80 8f 63 01 80
       -1.27281e-40 -1.0221e-41 -1.21614e-40 -1.2755e-40

encode_bn1.bias f4 [8]
000000 80 07 01 80 fa 41 04 00 cd 75 05 80 86 db 01 80
       -9.4526e-41 3.9101e-40 -5.01436e-40 -1.70586e-40
000010 a2 b0 01 80 74 f4 0e 80 32 c9 00 00 0b 19 00 80
       -1.552e-40 -1.37339e-39 7.2175e-41 -8.984e-42

encode_bn1.running_mean f4 [8]
000000 98 6e 01 80 18 23 00 80 24 0c 03 80 44 f0 05 80
       -1.31509e-40 -1.2589e-41 -2.79862e-40 -5.45369e-40
000010 4e 56 07 80 c3 4a 03 00 a1 a3 01 80 bc 3e 00 00
       -6.73809e-40 3.02326e-40 -1.50534e-40 2.2505e-41

encode_bn1.running_var f4 [8]
000000 04 00 00 00 04 00 00 00 04 00 00 00 04 00 00 00
       6e-45 6e-45 6e-45 6e-45
000010 04 00 00 00 04 00 00 00 04 00 00 00 04 00 00 00
       6e-45 6e-45 6e-45 6e-45

encode_fc2.weight f4 [35, 8]
000000 c2 01 00 80 13 b9 1b 00 5f 15 00 80 df 76 21 00
       -6.3e-43 2.54595e-39 -7.667e-42 3.073214e-39
000010 41 00 00 00 8e e6 02 00 09 1d 02 80 44 a6 00 80
       9.1e-44 2.66378e-40 -1.94087e-40 -5.9645e-41
000020 e7 0e 00 80 20 b7 01 80 a5 6b 17 00 60 0a 00 80
       -5.346e-42 -1.57528e-40 2.150832e-39 -3.722e-42
000030 e1 18 00 00 ec 2f 3f 80 ca d9 02 00 08 d1 0f 80
       8.925e-42 -5.802827e-39 2.61799e-40 -1.452519e-39
000040 2c 04 00 00 2d 1c 14 80 bc 07 00 80 d9 2c 06 00
       1.497e-42 -1.846817e-39 -2.775e-42 5.67101e-40
000050 08 03 16 00 bc 04 00 80 26 4d 22 80 f1 02 00 80
       2.021468e-39 -1.698e-42 -3.150083e-39 -1.055e-42
000060 c6 00 01 80 f5 d4 14 00 26 31 06 00 48 a1 0e 80
       -9.2113e-41 1.913105e-39 5.68644e-40 -1.343554e-39
000070 fe db 00 80 71 12 02 00 8d 64 0f 80 0a af 28 80
       -7.8918e-41 1.90287e-40 -1.413603e-39 -3.736212e-39
000080 46 27 0a 00 a2 f7 01 80 ac d2 05 80 a6 ba 2b 80
       9.32444e-40 -1.8067e-40 -5.34752e-40 -4.015883e-39
000090 7b 01 01 80 41 84 0c 00 f1 2f 01 80 2f 15 00 80
       -9.2367e-41 1.14947e-39 -1.09034e-40 -7.599e-42
0000a0 80 47 00 00 11 40 06 80 09 e2 12 80 e3 08 18 00
       2.565e-41 -5.73996e-40 -1.734125e-39 2.20724e-39
0000b0 e3 73 05 00 ce fc 10 80 bc a6 07 00 81 d3 0e 00
       5.0075e-40 -1.560057e-39 7.02661e-40 1.36157e-39
0000c0 91 23 27 80 08 82 00 80 29 18 02 80 4d be 01 00
       -3.594343e-39 -4.6646e-41 -1.92338e-40 1.60103e-40
0000d0 e9 18 05 80 7d 2e 03 80 f5 09 00 00 28 ac 0f 80
       -4.68114e-40 -2.92183e-40 3.572e-42 -1.43929e-39
0000e0 ca cc 08 00 a0 0b 01 00 51 12 00 80 8a 04 08 00
       8.08148e-40 9.6006e-41 -6.57e-42 7.36312e-40
0000f0 3a 1c 01 80 1a 8b 01 80 b4 55 00 80 2b f8 0a 80
       -1.01961e-40 -1.41736e-40 -3.0744e-41 -1.007381e-39
000100 6c 0d 02 80 b6 26 29 80 3d fa 01 80 c2 bb 15 80
       -1.88486e-40 -3.779142e-39 -1.81604e-40 -1.9959e-39
000110 17 f1 14 80 4f eb 15 80 7b 27 05 00 20 8d 04 00
       -1.923197e-39 -2.012958e-39 4.7334e-40 4.17968e-40
000120 bb c7 18 80 74 80 01 00 e5 3d 04 00 42 17 00 00
       -2.275702e-39 1.37916e-40 3.89546e-40 8.343e-42
000130 af a7 1c 80 ea 6f 01 00 9e 4c 3f 00 18 a4 06 80
       -2.631547e-39 1.31983e-40 5.813121e-39 -6.09879e-40
000140 6d 0f 00 00 7a b8 32 00 92 f2 01 80 2c 10 01 80
       5.534e-42 4.657953e-39 -1.78853e-40 -9.7637e-41
000150 c6 44 01 80 ac 17 1d 80 94 f1 1a 00 97 0f 02 80
       -1.16507e-40 -2.671721e-39 2.474385e-39 -1.89264e-40
000160 11 2d 0d 00 0b a7 09 00 26 13 09 00 92 87 0a 80
       1.210028e-39 8.86443e-40 8.33389e-40 -9.66988e-40
000170 13 70 00 00 53 3c 01 00 34 40 02 80 f2 ec 01 80
       4.0205e-41 1.13476e-40 -2.06703e-40 -1.76835e-40
000180 9f 08 00 00 8d d4 08 00 e4 0a 02 00 14 06 00 80
       3.093e-42 8.10933e-40 1.87578e-40 -2.18e-42
000190 2f 39 04 00 20 52 01 80 68 d0 01 00 57 dc 0c 00
       3.87856e-40 -1.21296e-40 1.66598e-40 1.181069e-39
0001a0 f0 4f 21 00 5e d2 01 80 df 65 08 00 38 39 0b 80
       3.059248e-39 -1.67301e-40 7.71228e-40 -1.030717e-39
0001b0 47 40 01 80 bd 7b 01 00 2b 8f 1f 00 60 40 13 80
       -1.14894e-40 1.36224e-40 2.89826e-39 -1.767968e-39
0001c0 df c2 09 80 ca 71 01 80 be 5a 02 00 8a 88 02 80
       -8.96426e-40 -1.32655e-40 2.16223e-40 -2.32652e-40
0001d0 d3 34 01 80 13 68 00 00 e6 bb 00 80 ff ee 01 00
       -1.10785e-40 3.7335e-41 -6.7405e-41 1.77571e-40
0001e0 c5 14 02 00 25 9f 2d 00 02 4f 01 80 9c 4b 01 00
       1.91122e-40 4.189688e-39 -1.20178e-40 1.18959e-40
0001f0 2d 5d 01 00 13 04 00 80 6b 81 00 00 9c e4 02 00
       1.2526e-40 -1.462e-42 4.6426e-41 2.6568e-40
000200 d1 b5 03 00 4b 10 00 80 60 14 0e 00 e0 dc 07 00
       3.4073e-40 -5.845e-42 1.293006e-39 7.22083e-40
000210 d0 22 03 80 65 15 00 80 b8 e8 01 80 b6 13 00 00
       -2.87995e-40 -7.675e-42 -1.75319e-40 7.071e-42
000220 85 0e 00 80 22 ca 05 00 a2 64 12 00 99 6d 00 00
       -5.209e-42 5.31689e-40 1.689139e-39 3.9316e-41
000230 f2 11 06 80 4c 44 06 80 c4 69 1e 00 7f c8 00 00
       -5.5745e-40 -5.75513e-40 2.793006e-39 7.1924e-41
000240 fa b4 22 80 c8 13 0a 80 7e 05 07 00 4b c1 01 80
       -3.187329e-39 -9.25451e-40 6.44819e-40 -1.61176e-40
000250 0a 03 00 00 4f b9 15 80 f5 0d 00 80 49 03 01 80
       1.09e-42 -1.995022e-39 -5.007e-42 -9.3014e-41
000260 2b d1 0b 80 2d 5b 00 80 65 42 0b 80 6f a8 01 80
       -1.085226e-39 -3.2708e-41 -1.034008e-39 -1.52258e-40
000270 45 1c 00 00 84 75 19 00 70 34 02 80 b9 dc 0f 80
       1.0141e-41 2.338044e-39 -2.02482e-40 -1.456713e-39
000280 41 d7 1e 80 ab 13 00 80 76 97 17 80 98 9a 00 00
       -2.832283e-39 -7.056e-42 -2.16655e-39 5.5458e-41
000290 ff db 02 00 4d e1 12 00 e5 f8 02 00 e5 7c 00 80
       2.62591e-40 1.733862e-39 2.72958e-40 -4.4804e-41
0002a0 b9 14 01 00 1a ad 17 80 54 ed 07 00 c5 45 02 00
       9.927e-41 -2.174314e-39 7.27986e-40 2.087e-40
0002b0 85 ad 0c 00 3b 0f 00 00 37 d5 00 80 d8 0a 03 80
       1.164273e-39 5.464e-42 -7.6487e-41 -2.79396e-40
0002c0 da 12 00 80 08 50 08 80 de ce 0b 80 13 11 00 80
       -6.763e-42 -7.63394e-40 -1.0844e-39 -6.125e-42
0002d0 ee 06 00 00 ee 07 00 00 43 6d 2b 00 a9 65 02 80
       2.486e-42 2.845e-42 3.988122e-39 -2.2014e-40
0002e0 8d 07 00 00 52 97 04 80 f8 07 1e 00 25 15 01 80
       2.709e-42 -4.21625e-40 2.757924e-39 -9.9421e-41
0002f0 ed 13 01 80 00 d6 04 80 71 07 00 80 86 53 08 00
       -9.8984e-41 -4.44111e-40 -2.67e-42 7.64647e-40
000300 db 54 0e 00 f2 f7 03 00 e8 09 00 80 10 90 01 80
       1.316137e-39 3.64453e-40 -3.554e-42 -1.43515e-40
000310 f7 e8 15 80 b7 96 01 80 54 a9 18 80 0c 26 43 00
       -2.012117e-39 -1.45902e-40 -2.264795e-39 6.166627e-39
000320 9e a8 4b 80 d7 26 02 80 22 fa 01 80 db 13 00 00
       -6.94815e-39 -1.97604e-40 -1.81566e-40 7.123e-42
000330 ba f3 4a 80 7a 69 02 00 7a 31 02 80 8e ba 01 80
       -6.88326e-39 2.21509e-40 -2.0142e-40 -1.58759e-40
000340 34 18 00 80 38 47 01 00 e7 8b 02 00 fd 36 7f 80
       -8.682e-42 1.17384e-40 2.33858e-40 -1.1682834e-38
000350 b7 7b 01 00 3b da 02 80 be df 02 00 d2 81 0e 00
       1.36216e-40 -2.61957e-40 2.63935e-40 1.332268e-39
000360 44 f0 07 00 f5 23 06 00 92 66 02 00 f5 97 4f 00
       7.2904e-40 5.63912e-40 2.20466e-40 7.309516e-39
000370 b8 9d 04 00 16 7c 0a 80 32 72 03 80 1d 4b 07 00
       4.23921e-40 -9.62869e-40 -3.16472e-40 6.69794e-40
000380 c6 12 00 00 10 cf 08 00 2a 66 00 80 40 05 01 00
       6.735e-42 8.08964e-40 -3.665e-41 9.3719e-41
000390 1e e6 3a 80 36 04 05 00 45 7f 01 00 a0 0b 10 00
       -5.409009e-39 4.60688e-40 1.37491e-40 1.473538e-39
0003a0 88 80 08 80 c2 0d 00 00 7f e9 00 00 c7 d8 00 00
       -7.80792e-40 4.935e-42 8.3763e-41 7.7765e-41
0003b0 7d 80 20 80 93 a7 01 00 1c 27 15 80 8f 66 08 00
       -2.984829e-39 1.5195e-40 -1.942575e-39 7.71475e-40
0003c0 05 3d 01 80 dd 47 01 00 9a 03 00 80 84 7e 18 00
       -1.13725e-40 1.17615e-40 -1.292e-42 2.249437e-39
0003d0 63 d9 11 80 ac 9a 00 80 72 ea 11 80 77 06 00 80
       -1.639187e-39 -5.5486e-41 -1.645307e-39 -2.319e-42
0003e0 96 38 08 80 f8 35 20 80 0a c1 00 00 76 b8 0c 80
       -7.54983e-40 -2.958096e-39 6.925e-41 -1.168198e-39
0003f0 7f a1 00 80 a0 15 00 00 64 07 00 00 d7 2d 0e 80
       -5.7934e-41 7.758e-42 2.651e-42 -1.302141e-39

encode_fc2.bias f4 [35]
000000 2e 99 3b 80 b8 6b 00 00 11 f7 00 80 ca 16 00 00
       -5.473245e-39 3.8642e-41 -8.8631e-41 8.175e-42
000010 c9 0e 00 00 e5 5e 02 80 4a 08 00 00 25 df 00 00
       5.304e-42 -2.17713e-40 2.974e-42 8.0049e-41
000020 37 f6 00 80 72 d0 01 00 07 d3 1c 00 10 a9 56 80
       -8.8325e-41 1.66612e-40 2.647096e-39 -7.958501e-39
000030 8e f7 01 00 27 15 1a 00 0f a3 01 80 1e 9e 00 00
       1.80641e-40 2.395311e-39 -1.5033e-40 5.6722e-41
000040 61 15 00 00 a4 78 03 00 7e ee 2a 80 68 5f 12 80
       7.67e-42 3.18784e-40 -3.942646e-39 -1.687264e-39
000050 f8 06 00 80 46 f8 15 00 ef 68 16 80 9d 64 06 00
       -2.5e-42 2.017609e-39 -2.058024e-39 5.87106e-40
000060 33 15 00 80 6b 91 05 00 27 08 0b 00 a0 f8 04 80
       -7.605e-42 5.11344e-40 1.013115e-39 -4.56532e-40
000070 87 51 02 80 ad 23 01 00 74 df 09 00 db c0 0e 80
       -2.12917e-40 1.04634e-40 9.0668e-40 -1.35488e-39
000080 5e 83 2d 00 96 51 1e 80 c5 69 0b 00
       4.179723e-39 -2.784332e-39 1.048133e-39

encode_bn2.weight f4 [35]
000000 40 1e 02 80 b0 23 09 00 8c 0f 00 80 9c 1f 0a 80
       -1.94523e-40 8.39322e-40 -5.577e-42 -9.29694e-40
000010 97 f9 00 00 dd cd 12 80 5b aa 07 00 d4 de 00 00
       8.9536e-41 -1.726889e-39 7.0396e-40 7.9936e-41
000020 3b 6e 04 00 f4 16 00 00 e2 79 01 00 b8 14 01 00
       4.06885e-40 8.234e-42 1.35559e-40 9.9268e-41
000030 f8 c4 01 00 d7 a5 02 00 0b d8 00 80 bb ba 01 80
       1.62495e-40 2.43163e-40 -7.7502e-41 -1.58822e-40
000040 6d f2 0e 80 8b 6a 01 00 69 d4 10 80 7d 8b 0d 00
       -1.372663e-39 1.30056e-40 -1.545566e-39 1.2439e-39
000050 22 01 00 80 33 23 11 00 70 15 00 80 4e 39 09 80
       -4.06e-43 1.57383e-39 -7.69e-42 -8.47077e-40
000060 30 27 22 00 7f e8 00 80 72 98 01 00 5c b4 04 00
       3.136465e-39 -8.3404e-41 1.46523e-40 4.32043e-40
000070 23 04 00 00 8e a6 20 80 cb 14 02 00 f4 0b 00 80
       1.484e-42 -2.998484e-39 1.9113e-40 -4.288e-42
000080 77 eb 02 80 b9 33 01 80 46 e8 00 00
       -2.6814e-40 -1.1039e-40 8.3324e-41

encode_bn2.bias f4 [35]
000000 e5 68 b5 bd ab 49 bf 3b 03 b5 db 3d 33 89 55 3b
       -0.08857898 0.0058376393 0.107278846 0.0032582998
000010 9d 96 29 3d e8 22 b7 bd f4 0d 04 bc ca 26 c0 3d
       0.0414034 -0.08942205 -0.008059967 0.093823984
000020 1a 30 b7 bd 8e ce b3 bd 32 71 64 bd ab 0b de bd
       -0.089447215 -0.087796316 -0.055772014 -0.10842069
000030 15 53 1a be 0e 65 12 be 65 ae 18 be 60 ab 45 3e
       -0.15070756 -0.14296362 -0.14910276 0.19303656
000040 9d 03 63 3d e0 c7 b6 3d 71 e6 d1 3b dc 87 2f bd
       0.055423368 0.08924842 0.0064056446 -0.042854175
000050 38 bb c0 3b 6d 44 41 3e 0d d0 c6 bb ba 4f 42 3e
       0.005881693 0.18873759 -0.006067282 0.18975726
000060 42 a6 e6 bb 94 40 b4 3d cf 19 48 be 66 6e 1d 3e
       -0.0070388624 0.0880138 -0.19541095 0.15374145
000070 aa 94 b9 3b 74 81 60 3d 71 ec 0c 3e 9c 17 a5 3b
       0.005663474 0.054810956 0.1376207 0.005038215
000080 6a 91 b9 bd 2f e5 b2 bd bc c8 16 3e
       -0.09060939 -0.087351196 0.14725012

encode_bn2.running_mean f4 [35]
000000 00 4f 03 00 b4 6b 00 00 0c f7 00 80 c6 16 00 00
       3.03846e-40 3.8637e-41 -8.8624e-41 8.17e-42
000010 c4 0e 00 00 2e df 00 80 46 08 00 00 20 df 00 00
       5.297e-42 -8.0062e-41 2.968e-42 8.0042e-41
000020 32 f6 00 80 6e d0 01 00 bc 7c 00 00 63 75 06 00
       -8.8318e-41 1.66606e-40 4.4746e-41 5.93123e-40
000030 8a f7 01 00 39 33 02 80 0a a3 01 80 1a 9e 00 00
       1.80636e-40 -2.02046e-40 -1.50323e-40 5.6716e-41
000040 5c 15 00 00 ae 54 01 00 2b d3 00 80 ed 2b 00 80
       7.662e-42 1.22213e-40 -7.5753e-41 -1.5758e-41
000050 fd 06 00 80 3a a9 01 00 4c 1a 03 00 c8 1b 00 80
       -2.507e-42 1.52543e-40 2.8494e-40 -9.966e-42
000060 2e 15 00 80 da 2d 02 80 57 30 00 00 b7 e5 01 80
       -7.598e-42 -2.0012e-40 1.7341e-41 -1.74242e-40
000070 6a e0 02 00 a8 23 01 00 25 52 00 00 26 e1 00 80
       2.64176e-40 1.04627e-40 2.9468e-41 -8.0768e-41
000080 8d ec 00 00 a7 1f 00 00 d5 14 04 80
       8.4858e-41 1.1355e-41 -3.74815e-40

encode_bn2.running_var f4 [35]
000000 04 00 00 00 04 00 00 00 04 00 00 00 04 00 00 00
       6e-45 6e-45 6e-45 6e-45
000010 04 00 00 00 04 00 00 00 04 00 00 00 04 00 00 00
       6e-45 6e-45 6e-45 6e-45
000020 04 00 00 00 04 00 00 00 04 00 00 00 04 00 00 00
       6e-45 6e-45 6e-45 6e-45
000030 04 00 00 00 04 00 00 00 04 00 00 00 04 00 00 00
       6e-45 6e-45 6e-45 6e-45
000040 04 00 00 00 04 00 00 00 04 00 00 00 04 00 00 00
       6e-45 6e-45 6e-45 6e-45
000050 04 00 00 00 04 00 00 00 04 00 00 00 04 00 00 00
       6e-45 6e-45 6e-45 6e-45
000060 04 00 00 00 04 00 00 00 04 00 00 00 04 00 00 00
       6e-45 6e-45 6e-45 6e-45
000070 04 00 00 00 04 00 00 00 04 00 00 00 04 00 00 00
       6e-45 6e-45 6e-45 6e-45
000080 04 00 00 00 04 00 00 00 04 00 00 00
       6e-45 6e-45 6e-45

lstm.weight_ih_l0 f4 [140, 1]
000000 c0 6a 48 3d 91 6e 47 3d cd 38 4e 3d 14 23 30 b4
       0.04892993 0.04868943 0.05034714 -1.6404039e-07
000010 b5 c0 43 b6 9f 56 47 3d 5b 2e 47 3d c8 5a 4c 3d
       -2.9169435e-06 0.048666593 0.048628192 0.049891263
000020 b8 af 95 b6 97 27 ea b4 fe e7 49 3d 35 7b 4c 3d
       -4.4610024e-06 -4.3614702e-07 0.04929351 0.049922187
000030 86 21 55 3d 32 c3 56 3d 52 81 4f 3d 7b 40 51 3d
       0.052033924 0.052432247 0.05066044 0.051086884
000040 d0 71 51 3d cc 68 33 b6 4b a7 44 3d b4 fa c2 34
       0.05113393 -2.6734078e-06 0.048011106 3.6317726e-07
000050 db 42 47 3d 9b 62 4f 3d e4 94 b1 b4 71 97 4c 3d
       0.048647743 0.050631147 -3.307715e-07 0.049949113
000060 ba 32 4a 3d 6b 17 0c b7 1c 0b 56 3d 08 43 54 3d
       0.049364783 -8.350103e-06 0.05225669 0.05182174
000070 6e b9 44 3d 82 71 47 3d c7 0d 4e 3d 2a 50 47 3d
       0.048028402 0.048692234 0.050306108 0.048660435
000080 82 9e 4c 3d ae 8b 4b 3d 54 ff 4e 3d 49 1b 3b 3d
       0.049955852 0.049693756 0.05053647 0.045680318
000090 ea 57 3a 3d 11 fb 41 3d 21 73 5b b4 5f bd 21 35
       0.045493998 0.047358576 -2.0437848e-07 6.0252745e-07
0000a0 91 da 3b 3d 60 6f 3b 3d 3e 45 40 3d 65 33 35 b7
       0.045862738 0.045760512 0.046941034 -1.0800407e-05
0000b0 38 98 a3 b6 b2 b4 3c 3d 29 4d 3f 3d cb 52 49 3d
       -4.875499e-06 0.046070762 0.046704445 0.049151223
0000c0 14 fd 4a 3d fd a5 41 3d a6 0f 44 3d 7c e7 43 3d
       0.04955776 0.04727744 0.047866486 0.047828183
0000d0 d5 f6 ee b6 d2 2a 37 3d e4 9e cc b5 68 ea 3b 3d
       -7.1216878e-06 0.04471857 -1.5245428e-06 0.045877844
0000e0 ec 74 41 3d aa 41 dd b4 af 82 3e 3d 73 39 3d 3d
       0.047230646 -4.1212235e-07 0.04651135 0.046197366
0000f0 a5 c2 3f b7 5a 41 49 3d 8b ca 46 3d a8 d6 39 3d
       -1.1429806e-05 0.04913459 0.048533004 0.045370728
000100 48 79 39 3d a6 c4 40 3d 51 39 3b 3d 98 ac 3f 3d
       0.04528168 0.04706254 0.045708958 0.046795458
000110 26 6b 3e 3d 3f 2b 41 3d ea 3a c1 bd ac 8a c0 3d
       0.046488903 0.047160383 -0.09435065 0.094014496
000120 e1 6c c3 3d 11 f3 9d b8 82 60 45 b9 c0 58 bf bd
       0.095422514 -7.531618e-05 -0.00018823336 -0.093430996
000130 c0 22 c0 bd 2b 3f c2 3d bb 07 08 3a c8 27 fe 39
       -0.09381628 0.094847046 0.000518914 0.00048476295
000140 2f a0 c1 bd 9a 0c c3 bd 03 a2 c6 bd 93 6e c7 bd
       -0.09454381 -0.09523888 -0.0969887 -0.09737887
000150 6c 6e c4 bd 77 22 c5 3d fa 80 c5 3d fb c9 c4 b9
       -0.09591374 0.09625714 0.09643741 -0.0003753452
000160 e0 9b bf 3d 3e f4 f7 39 5f 7f bf 3d 4f a9 c4 3d
       0.09355903 0.00047293486 0.09350466 0.096026056
000170 9e 33 02 39 92 2c c3 3d 4f 00 c2 bd 23 4b 94 b9
       0.00012416995 0.095299855 -0.09472715 -0.0002828474
000180 f2 48 c7 bd ce ef c6 3d 54 b4 be 3d 0b d3 c0 3d
       -0.0973071 0.09713708 0.093117386 0.09415253
000190 92 89 c4 3d 92 c8 bf 3d 45 cc c2 bd 34 7e c2 bd
       0.09596552 0.093644276 -0.095116176 -0.094967276
0001a0 ab d4 c4 3d 93 a1 a2 3d 6c a8 a0 3d c1 cb a7 3d
       0.09610876 0.07940974 0.07844624 0.0819316
0001b0 87 f3 1b b4 1c 19 6f b6 8d c6 a1 3d 35 3f 9f 3d
       -1.4524095e-07 -3.562839e-06 0.07899199 0.07775728
0001c0 39 14 a5 3d 97 ad 58 b6 ba d6 34 b4 6b 63 a1 3d
       0.08060498 -3.228755e-06 -1.6841923e-07 0.078802906
0001d0 e7 f4 a5 3d 26 36 ae 3d 79 04 b0 3d 66 c5 a7 3d
       0.08103352 0.08506422 0.08594603 0.08191948
0001e0 9c 7c aa 3d 0f 9b a9 3d 4f 3a 0d b6 4d 16 9d 3d
       0.083245486 0.08281528 -2.1044577e-06 0.07670269
0001f0 1b 25 5e 35 3a 73 a0 3d 14 9c a7 3d b6 00 42 b4
       8.275544e-07 0.07834478 0.081840664 -1.8067917e-07
000200 db 31 a5 3d 31 25 a3 3d e8 d7 f4 b6 03 d5 af 3d
       0.0806615 0.07966078 -7.2969015e-06 0.08585551
000210 92 1d ad 3d 17 5c 9e 3d c1 02 a0 3d fb 8c a6 3d
       0.08452906 0.077324085 0.07813025 0.08132359
000220 96 e0 9f 3d e5 05 a6 3d 03 50 a4 3d 13 6e a8 3d
       0.07806508 0.08106593 0.080230735 0.0822412

lstm.weight_hh_l0 f4 [140, 35]
000000 b0 94 cd bc a9 d1 c0 3c d9 db d2 3c 2b bb 8f b8
       -0.025095314 0.023537474 0.025739597 -6.853634e-05
000010 d2 9e 00 ba 7b 98 cc bc aa f7 bd bc 87 cf ce 3c
       -0.00049064786 -0.024975052 -0.023189384 0.025245441
000020 e6 ac a4 b9 0a 84 8f b9 5a 62 c6 bc 39 99 d2 bc
       -0.00031409337 -0.00027373462 -0.02421682 -0.025707828
000030 55 f9 dc bc 56 8c dd bc 19 ec d7 bc 95 27 e0 3c
       -0.02697436 -0.027044456 -0.026357697 0.027362624
000040 a5 c0 cd 3c 2b f5 a2 39 2d 44 bd 3c d6 e4 84 39
       0.025116274 0.00031081712 0.023103798 0.00025347498
000050 81 42 c0 3c c9 4a dd 3c 47 7c 9d 38 88 4a db 3c
       0.023469212 0.0270132 7.509492e-05 0.026768938
000060 2c fb c2 bc b4 24 89 39 ba d7 e4 bc 0f 28 dd 3c
       -0.023801409 0.00026158022 -0.027934898 0.02699664
000070 7d 06 be 3c a4 37 c6 3c 44 b7 d4 3c f1 d8 bf 3c
       0.023196453 0.024196453 0.025966294 0.023418875
000080 4e c2 cf bc f7 9c cd bc 07 e0 d8 3c b9 d9 cf bc
       -0.025361206 -0.02509926 0.026474012 -0.025372373
000090 02 c5 c3 3c 1d 08 d5 3c 6c 3a 87 b8 8a 09 06 ba
       0.023897652 0.026004845 -6.4481836e-05 -0.0005113116
0000a0 f5 e5 ce bc 75 f4 c0 bc 8b 1e d1 3c fe 93 9c b9
       -0.025256136 -0.023554066 0.02552726 -0.000298649
0000b0 e5 cf 86 b9 75 f7 c8 bc 8e b6 d4 bc e1 c4 de bc
       -0.00025713365 -0.02453206 -0.025965955 -0.027193489
0000c0 c2 75 df bc 27 b6 d9 bc e1 92 e1 3c 87 60 d0 3c
       -0.027277831 -0.026576115 0.027535858 0.025436653
0000d0 2d da 9a 39 77 3e c0 3c 10 b2 88 39 b8 4e c3 3c
       0.00029535723 0.023467286 0.00026072608 0.023841247
0000e0 0a cb de 3c 05 de 98 38 cf c7 dc 3c 8f ec c5 bc
       0.027196426 7.289279e-05 0.026950745 -0.024160651
0000f0 3b 0f 81 39 83 41 e6 bc 18 e5 de 3c 6e 03 c1 3c
       0.00024616145 -0.02810741 0.02720885 0.023561206
000100 68 cc c8 3c fe a2 d6 3c c1 e0 c2 3c 53 12 d2 bc
       0.024511531 0.026200768 0.023788812 -0.025643503
000110 1f f6 cf bc 13 a9 da 3c 74 e4 d2 bc 75 78 c5 3c
       -0.025385914 0.026691949 -0.0257437 0.02410529
000120 e3 5a d8 3c ab 8c 9a b8 f2 ad e6 b9 92 e4 d1 bc
       0.026410526 -7.369494e-05 -0.00043998618 -0.025621686
000130 17 83 c2 bc a8 24 d4 3c e1 43 ea b9 b7 18 d4 b9
       -0.02374415 0.025896385 -0.00044682532 -0.00040454205
000140 be 56 cb bc 69 20 d8 bc 6c cf e2 bc d5 76 e3 bc
       -0.024821635 -0.026382642 -0.027686797 -0.027766624
000150 32 b1 dd bc 09 38 e6 3c c8 01 d3 3c dc 0b e9 39
       -0.027062032 0.028102892 0.025757685 0.0004445006
000160 63 d7 c1 3c 1e d4 60 39 e7 f2 c4 3c d6 58 e3 3c
       0.023662275 0.00021441324 0.024041606 0.027752321
000170 ee b0 ab 38 18 4c e1 3c a1 b6 c7 bc dd 8e cf 39
       8.186871e-05 0.027502105 -0.024379076 0.00039588558
000180 9c 19 eb bc 74 1d e3 3c d5 98 c2 3c fc 36 cb 3c
       -0.028698735 0.027724005 0.023754517 0.024806492
000190 c4 62 da 3c 99 84 c4 3c 54 24 d5 bc ed f9 d2 bc
       0.026658423 0.023989009 -0.0260183 -0.02575394
0001a0 4a a8 de 3c e1 48 1d 34 ab f5 2a b4 6b 64 1d b4
       0.027179856 1.4648278e-07 -1.5921857e-07 -1.4658296e-07
0001b0 5b c2 32 af 06 2b 98 31 85 bb 1d 34 97 f0 28 34
       -1.6258055e-10 4.4286734e-09 1.4689984e-07 1.5733745e-07
0001c0 86 04 1f b4 be 00 a2 b1 fb f6 c3 b1 78 f5 22 34
       -1.4809675e-07 -4.714905e-09 -5.7033254e-09 1.5176727e-07
0001d0 73 22 1d 34 1a ee 1b 34 a3 88 1c 34 cc 59 17 34
       1.4634297e-07 1.4522121e-07 1.457834e-07 1.4095639e-07
0001e0 c8 70 14 b4 bd 59 25 b4 47 08 92 31 da 9e 2a b4
       -1.3824604e-07 -1.5399469e-07 4.2501003e-09 -1.5890274e-07
0001f0 5b 1c f6 b0 93 02 29 b4 eb 89 14 b4 f0 26 2d 2e
       -1.7906915e-09 -1.5740288e-07 -1.3833748e-07 3.937023e-11
000200 c5 11 19 b4 81 02 29 34 cc 25 11 32 0e f7 14 34
       -1.42557e-07 1.5740262e-07 8.448705e-09 1.3873452e-07
000210 15 48 18 b4 37 bd 28 b4 b0 c6 22 b4 19 56 19 b4
       -1.4182326e-07 -1.5715055e-07 -1.5159708e-07 -1.4280558e-07
000220 f7 c8 28 b4 71 85 20 34 f1 d5 1e 34 81 87 18 b4
       -1.571933e-07 1.4949707e-07 1.4792728e-07 -1.4205399e-07
000230 03 ef f0 33 33 c7 a7 33 ee 85 54 b4 d0 07 2b b2
       1.1219347e-07 7.8127776e-08 -1.9792762e-07 -9.955286e-09
000240 0e b7 f9 33 ac 16 44 34 f6 5b 88 b3 5a b4 54 b4
       1.16282635e-07 1.826217e-07 -6.349721e-08 -1.980965e-07
000250 8b 79 f6 b3 1a 1d 41 34 7c 04 89 33 c2 ee 0a 34
       -1.1477376e-07 1.7985113e-07 6.380375e-08 1.2939111e-07
000260 21 17 aa 34 28 aa a0 34 a2 6d b2 34 6f 6c e2 b4
       3.1681796e-07 2.9926127e-07 3.3234852e-07 -4.2174676e-07
000270 70 54 56 b1 2b f0 2b b4 36 3e 3d 34 3e ab 7c 33
       -3.1189096e-09 -1.6012989e-07 1.7624629e-07 5.8829066e-08
000280 17 ec 86 33 44 27 9f b4 c9 3e be b2 af 11 2a b4
       6.282806e-08 -2.9644627e-07 -2.2147463e-08 -1.5838917e-07
000290 01 f8 14 b4 05 c6 36 34 02 0e d2 34 1f 06 a5 b4
       -1.3873797e-07 1.702211e-07 3.912574e-07 -3.07381e-07
0002a0 54 08 31 34 6c 01 74 32 90 48 25 b4 ec 9e bf 33
       1.648744e-07 1.4202993e-08 -1.539322e-07 8.923038e-08
0002b0 c6 04 92 33 c1 23 c9 33 d0 0e 93 b4 84 fb d0 bc
       6.799523e-08 9.3662955e-08 -2.739166e-07 -0.025510557
0002c0 04 66 c4 3c 79 3b d6 3c f7 e3 9a b8 0d e0 e8 b9
       0.023974426 0.026151406 -7.385754e-05 -0.0004441742
0002d0 d8 fd cf bc 0f 81 c1 bc d3 39 d2 3c 72 6e e2 b9
       -0.025389597 -0.02362111 0.025662338 -0.00043188367
0002e0 8d 5f ce b9 85 d7 c9 bc 8e f9 d5 bc 7c 30 e0 bc
       -0.00039362573 -0.0246389 -0.026119974 -0.02736687
0002f0 12 dc e0 bc 8c 2b db bc e0 40 e3 3c 35 4e d1 3c
       -0.027448688 -0.026754163 0.027740896 0.025549987
000300 a6 23 e3 39 33 d5 c0 3c cb ba 72 39 4a eb c3 3c
       0.00043323374 0.023539161 0.00023148504 0.023915906
000310 bd 7a e0 3c 9e 2e ad 38 9e 72 de 3c 7d 92 c6 bc
       0.027402276 8.257966e-05 0.027154263 -0.024239773
000320 00 c3 c5 39 50 02 e8 bc 0c 71 e0 3c 1d 9f c1 3c
       0.00037720054 -0.028321415 0.027397655 0.023635441
000330 37 b6 c9 3c a6 06 d8 3c 96 78 c3 3c d5 30 d3 bc
       0.02462302 0.026370358 0.02386121 -0.02578012
000340 a4 15 d1 bc 72 1e dc 3c a2 b6 d4 bc 37 f2 c8 3c
       -0.025523014 0.026869986 -0.025965992 0.02452956
000350 cd f1 d9 3c ce 25 66 b8 a8 5d c4 b9 59 e0 d3 bc
       0.026604557 -5.487148e-05 -0.00037453813 -0.025863813
000360 c5 29 c6 bc a9 1c d6 3c dc 2f 0f ba ed 33 04 ba
       -0.02418984 0.026136713 -0.00054621487 -0.0005043138
000370 20 0a ce bc a7 a1 d9 bc 76 7f e3 bc 22 47 e4 bc
       -0.025151312 -0.02656634 -0.027770739 -0.02786595
000380 68 69 de bc fe 17 e6 3c 2e 7b d5 3c 87 3b 0e 3a
       -0.027149871 0.028087612 0.026059713 0.00054257404
000390 73 73 c5 3c 06 af 0e 39 83 9b c8 3c 42 77 e3 3c
       0.024102902 0.00013607377 0.024488216 0.027766827
0003a0 4a 05 62 38 ca 70 e1 3c 87 15 cb bc 7d 37 00 3a
       5.3887525e-05 0.027519602 -0.024790538 0.0004891081
0003b0 db d2 ea bc 15 a2 e3 3c 7f 3e c6 3c 3d de cd 3c
       -0.028664997 0.027787248 0.024199722 0.025130386
0003c0 5d 7d db 3c 74 25 c8 3c d1 0e d7 bc 0e 06 d5 bc
       0.026793176 0.024431922 -0.026252182 -0.026003864
0003d0 5f 5f df 3c 8c 81 d6 bc 7b a8 c9 3c f2 f1 db 3c
       0.027267156 -0.02618482 0.02461647 0.026848767
0003e0 43 0a 9f b8 72 7a eb b9 7e 8c d5 bc 7f c8 c6 bc
       -7.583622e-05 -0.00044913922 -0.026067968 -0.024265526
0003f0 48 d3 d7 3c b9 18 bd b9 4b 5a a9 b9 d4 43 cf bc
       0.026345864 -0.0003606731 -0.00032301465 -0.025300898

lstm.bias_ih_l0 f4 [140]
000000 7f 8a ac 3d ff fe a9 3d ef da af 3d 6a ec 6b b3
       0.084248535 0.0830059 0.0858668 -5.493022e-08
000010 c4 45 d6 b6 b0 6a aa 3d 3b ed a5 3d 46 4c ad 3d
       -6.385819e-06 0.0832113 0.08101889 0.08461814
000020 5c b5 95 b6 75 2a b1 b5 01 c9 a9 3d 85 7e af 3d
       -4.461659e-06 -1.3199884e-06 0.082902916 0.085690536
000030 c2 76 b7 3d 77 69 b7 3d 88 7e b1 3d f2 e1 b4 3d
       0.08958198 0.08955663 0.08666712 0.08832158
000040 e2 69 b2 3d 9e a4 79 b6 61 78 a5 3d e0 95 29 36
       0.08711602 -3.7199711e-06 0.08079601 2.5270201e-06
000050 0e a6 a6 3d 08 a7 b1 3d 10 32 0f b3 a3 46 af 3d
       0.08137141 0.08674437 -3.3340314e-08 0.08558395
000060 52 03 ac 3d 72 28 37 b7 fc b8 b9 3d fa 36 b6 3d
       0.08399071 -1.0917067e-05 0.09068486 0.08897205
000070 c0 f6 a4 3d bf 59 a9 3d 4f 16 ae 3d ff ee a6 3d
       0.08054876 0.08269071 0.08500349 0.08151054
000080 2d 34 af 3d 71 2d ac 3d b1 37 b2 3d d9 f9 82 3d
       0.085548736 0.08407105 0.087020285 0.06395311
000090 8f 38 82 3d 01 35 86 3d ff a6 7b b4 4a 9b b7 b5
       0.06358444 0.065530784 -2.343695e-07 -1.3679758e-06
0000a0 b7 a1 82 3d d2 bb 80 3d 79 4b 85 3d 9c 65 2e b7
       0.06378501 0.06285824 0.06508536 -1.0394866e-05
0000b0 d9 39 94 b6 5b d6 81 3d 47 c6 85 3d a5 2e 8c 3d
       -4.417478e-06 0.06339713 0.06531959 0.06844834
0000c0 cd 1c 8d 3d 4e 2c 86 3d 14 e5 88 3d 0b 62 88 3d
       0.06890259 0.06551419 0.06684318 0.06659325
0000d0 e3 ff ef b6 99 1f 7e 3d 61 65 9d b5 f8 ee 81 3d
       -7.152544e-06 0.062041853 -1.1726917e-06 0.06344408
0000e0 db 03 87 3d 2b fe e9 b4 13 3f 84 3d 7d f1 83 3d
       0.06592532 -4.3584564e-07 0.06457343 0.064425446
0000f0 b7 c6 4a b7 60 a1 8c 3d f5 09 8a 3d 55 14 80 3d
       -1.2086405e-05 0.06866717 0.067401804 0.06253878
000100 65 ed 80 3d e1 f3 84 3d 28 77 81 3d 2e c9 85 3d
       0.062952794 0.06491829 0.063215554 0.065325126
000110 12 b1 83 3d 21 b8 86 3d 8a 1a 44 be 02 6b 41 3e
       0.06430258 0.065780886 -0.19150749 0.18888476
000120 a4 c0 45 3e a9 90 e3 b9 54 59 43 ba ef 99 42 be
       0.19311768 -0.00043404594 -0.00074519706 -0.19004034
000130 b6 eb 3d be eb ce 43 3e 36 36 f8 39 c8 b0 06 3a
       -0.18546948 0.19121902 0.00047342636 0.0005138037
000140 ad 62 41 be e1 5e 45 be 41 27 4b be 03 18 4a be
       -0.18885298 -0.19274475 -0.19839193 -0.19735722
000150 53 95 47 be 61 06 4a 3e c6 5d 46 3e 39 b3 b6 b9
       -0.19490556 0.19728996 0.19371709 -0.00034847276
000160 75 0a 3e 3e 2c b2 90 3a 45 f2 3d 3e 1a 14 47 3e
       0.18558677 0.0011039427 0.1854945 0.19441262
000170 3d bd 03 3a c1 3a 46 3e 45 48 42 be 9e 7b 83 b9
       0.0005025452 0.1935835 -0.18972881 -0.0002507837
000180 25 c2 4c be 84 02 4a 3e 76 84 3d 3e 21 85 41 3e
       -0.19995935 0.19727522 0.18507561 0.18898441
000190 64 2a 44 3e ba 3d 3e 3e 20 57 45 be a0 e8 42 be
       0.19156796 0.18578234 -0.19271517 -0.19034052
0001a0 ec 0e 48 3e 90 25 f0 3d d1 f0 eb 3d ce 6a f5 3d
       0.19536942 0.117259145 0.115205415 0.11983262
0001b0 6c 6d 27 b3 35 eb ce b6 5c dc ed 3d f0 12 e6 3d
       -3.8982236e-08 -6.16666e-06 0.11614296 0.11234081
0001c0 e2 b9 f0 3d 2e cf 9c b6 1c c1 fe b5 95 fb ea 3d
       0.11754204 -4.673281e-06 -1.8980677e-06 0.11473767
0001d0 96 ef f3 3d 8b 12 00 3e e3 7a 00 3e 12 1e f6 3d
       0.11910932 0.12507074 0.12546878 0.12017454
0001e0 5a a5 fb 3d 27 44 f7 3d 6a ba 80 b6 12 cc e4 3d
       0.12287398 0.12073546 -3.8363987e-06 0.11171736
0001f0 c2 17 17 36 4d 2c e8 3d 4d cc f5 3d ce 6b 57 33
       2.2514582e-06 0.11336575 0.12001858 5.0156636e-08
000200 98 9e f2 3d 21 ec ee 3d f8 13 33 b7 03 93 01 3e
       0.118466556 0.11666132 -1.0673881e-05 0.12653737
000210 30 59 fd 3d fa 9f e5 3d a4 4b ea 3d 3a 46 f1 3d
       0.12370527 0.11212154 0.114402086 0.11780973
000220 3e b8 e7 3d cc da f3 3d cf 93 ee 3d d8 7d f7 3d
       0.11314438 0.119069666 0.11649286 0.1208455

lstm.bias_hh_l0 f4 [140]
000000 7e 8a ac 3d fd fe a9 3d ef da af 3d 00 2d 6c b3
       0.08424853 0.08300588 0.0858668 -5.498896e-08
000010 81 45 d6 b6 b4 6a aa 3d 39 ed a5 3d 35 4c ad 3d
       -6.3857883e-06 0.08321133 0.08101887 0.08461801
000020 d2 b6 95 b6 e6 6a b2 b5 07 c9 a9 3d 82 7e af 3d
       -4.461829e-06 -1.3293145e-06 0.08290296 0.08569051
000030 be 76 b7 3d 74 69 b7 3d 83 7e b1 3d ea e1 b4 3d
       0.08958195 0.089556605 0.08666708 0.08832152
000040 e3 69 b2 3d b2 a3 79 b6 66 78 a5 3d e3 a7 29 36
       0.087116025 -3.7199175e-06 0.08079605 2.5280685e-06
000050 13 a6 a6 3d 02 a7 b1 3d 2e c7 0d b3 a2 46 af 3d
       0.08137145 0.08674432 -3.3010274e-08 0.08558394
000060 58 03 ac 3d 72 2b 37 b7 fe b8 b9 3d f9 36 b6 3d
       0.08399075 -1.0917765e-05 0.090684876 0.08897204
000070 bf f6 a4 3d c1 59 a9 3d 53 16 ae 3d 00 ef a6 3d
       0.080548756 0.08269072 0.08500352 0.081510544
000080 31 34 af 3d 6e 2d ac 3d b0 37 b2 3d d7 f9 82 3d
       0.085548766 0.084071025 0.08702028 0.063953094
000090 8e 38 82 3d fb 34 86 3d fb a5 7b b4 bf 97 b7 b5
       0.06358443 0.06553074 -2.343658e-07 -1.3678726e-06
0000a0 b6 a1 82 3d d6 bb 80 3d 6f 4b 85 3d 53 73 2e b7
       0.063785 0.06285827 0.065085284 -1.0398059e-05
0000b0 5a 0f 94 b6 64 d6 81 3d 43 c6 85 3d a5 2e 8c 3d
       -4.412531e-06 0.0633972 0.06531956 0.06844834
0000c0 c6 1c 8d 3d 4f 2c 86 3d 0d e5 88 3d 0c 62 88 3d
       0.06890254 0.0655142 0.06684313 0.06659326
0000d0 20 e1 ef b6 7d 1f 7e 3d 27 65 9d b5 f6 ee 81 3d
       -7.148963e-06 0.06204175 -1.1726851e-06 0.06344406
0000e0 d9 03 87 3d b1 c3 ea b4 1c 3f 84 3d 7c f1 83 3d
       0.06592531 -4.372828e-07 0.0645735 0.06442544
0000f0 1f a8 4a b7 5c a1 8c 3d f5 09 8a 3d 5a 14 80 3d
       -1.2079282e-05 0.06866714 0.067401804 0.06253882
000100 63 ed 80 3d e3 f3 84 3d 23 77 81 3d 2f c9 85 3d
       0.06295278 0.0649183 0.06321552 0.06532513
000110 15 b1 83 3d 1d b8 86 3d 81 1a 44 be ee 6a 41 3e
       0.0643026 0.065780856 -0.19150735 0.18888447
000120 73 c0 45 3e 5f 90 e3 b9 a1 59 43 ba d3 99 42 be
       0.19311695 -0.0004340438 -0.00074520154 -0.19003992
000130 bf eb 3d be f6 ce 43 3e a0 35 f8 39 e4 ac 06 3a
       -0.18546961 0.19121918 0.000473422 0.0005137457
000140 a8 62 41 be d4 5e 45 be 32 27 4b be 26 18 4a be
       -0.1888529 -0.19274455 -0.1983917 -0.19735774
000150 66 95 47 be 7b 06 4a 3e c1 5d 46 3e 93 b3 b6 b9
       -0.19490585 0.19729035 0.19371702 -0.00034847538
000160 95 0a 3e 3e be b2 90 3a 3c f2 3d 3e 0c 14 47 3e
       0.18558724 0.0011039597 0.18549436 0.19441241
000170 69 ba 03 3a d7 3a 46 3e 3c 48 42 be a3 76 83 b9
       0.00050250307 0.19358383 -0.18972868 -0.00025074658
000180 03 c2 4c be 85 02 4a 3e 97 84 3d 3e 18 85 41 3e
       -0.19995885 0.19727524 0.1850761 0.18898427
000190 51 2a 44 3e ba 3d 3e 3e 26 57 45 be 95 e8 42 be
       0.19156767 0.18578234 -0.19271526 -0.19034036
0001a0 eb 0e 48 3e 8d 25 f0 3d d0 f0 eb 3d d0 6a f5 3d
       0.19536941 0.11725912 0.11520541 0.119832635
0001b0 24 24 28 b3 02 f3 ce b6 62 dc ed 3d 0a 13 e6 3d
       -3.9148418e-08 -6.1675682e-06 0.116143 0.112341
0001c0 e0 b9 f0 3d ad df 9c b6 20 65 fe b5 9f fb ea 3d
       0.11754203 -4.6752016e-06 -1.8953906e-06 0.11473774
0001d0 92 ef f3 3d 87 12 00 3e ea 7a 00 3e 19 1e f6 3d
       0.11910929 0.12507068 0.12546888 0.120174594
0001e0 5b a5 fb 3d 29 44 f7 3d cf ba 80 b6 12 cc e4 3d
       0.122873984 0.120735474 -3.8364446e-06 0.11171736
0001f0 be 2e 17 36 48 2c e8 3d 56 cc f5 3d 4e f7 56 33
       2.252796e-06 0.11336571 0.120018646 5.005068e-08
000200 95 9e f2 3d 26 ec ee 3d 25 14 33 b7 fa 92 01 3e
       0.11846653 0.116661355 -1.0673922e-05 0.12653723
000210 3b 59 fd 3d f7 9f e5 3d a6 4b ea 3d 2a 46 f1 3d
       0.12370535 0.112121515 0.1144021 0.11780961
000220 3d b8 e7 3d d8 da f3 3d ba 93 ee 3d f9 7d f7 3d
       0.113144375 0.119069755 0.1164927 0.12084574

lstm.weight_ih_l0_reverse f4 [140, 1]
000000 04 6d bd a1 00 40 2b 9b 44 77 35 a3 d8 1d 43 9e
       -1.2835994e-18 -1.4165468e-22 -9.837285e-18 -1.03293856e-20
000010 f4 0c 0a 9f 03 bb e3 a2 05 5d 60 1c b6 d7 62 a3
       -2.923335e-20 -6.172648e-18 7.423561e-22 -1.2297163e-17
000020 3f e2 ce a2 2b db e6 a1 6b e4 4f a2 c4 c5 73 a3
       -5.607596e-18 -1.564342e-18 -2.8174655e-18 -1.3214935e-17
000030 85 60 65 a4 80 9b 40 a3 de 51 9a a1 52 f0 97 9f
       -4.9738215e-17 -1.0441269e-17 -1.0457116e-18 -6.4348564e-20
000040 ad fa c9 9c 15 d7 e2 a2 68 ef 6d 9f 5a 21 1b 9d
       -1.3365862e-21 -6.148515e-18 -5.0384734e-20 -2.0531322e-21
000050 35 e7 a0 9f 83 1a 44 9d 85 0e 89 9f f4 d2 82 1e
       -6.8145136e-20 -2.595409e-21 -5.804578e-20 1.3851534e-20
000060 d6 16 a0 ae ea 66 8f 1a 0c 6e cd 9e 28 49 55 a1
       -7.280014e-11 5.930968e-23 -2.1750734e-20 -7.226403e-19
000070 19 4d 4b a0 aa e3 87 a1 87 9e c3 a3 19 54 18 a0
       -1.7220278e-19 -9.208218e-19 -2.1209081e-17 -1.2902726e-19
000080 c8 69 25 a3 a8 fc 24 a2 63 40 cd a3 28 84 a4 a1
       -8.967068e-18 -2.23599e-18 -2.2253413e-17 -1.1148054e-18
000090 94 44 bf 9a d6 f5 f2 a2 1e ef 1b 9e 02 43 21 9f
       -7.910654e-23 -6.585452e-18 -8.25508e-21 -3.4148504e-20
0000a0 50 ce bc a2 42 6e fc 1c f7 db 3b a3 8d 75 b7 a2
       -5.1175944e-18 1.6704462e-21 -1.018387e-17 -4.972671e-18
0000b0 39 9a 58 a1 f0 53 29 a2 5e e0 1a a3 37 3e 40 a4
       -7.338776e-19 -2.2948207e-18 -8.395868e-18 -4.168606e-17
0000c0 d8 c4 19 a3 4c 98 7e 9f 33 72 a5 a0 e5 69 ab 9c
       -8.33583e-18 -5.391257e-20 -2.8027658e-19 -1.1343204e-21
0000d0 16 c4 ba a2 f3 ee 4f 9f fc 7c df 9b c5 07 85 9f
       -5.0623015e-18 -4.403161e-20 -3.6973025e-22 -5.6340545e-20
0000e0 78 8e a2 9d b7 5f 48 9f 5d c8 ea 1e 87 4f 0d af
       -4.3028352e-21 -4.243082e-20 2.4858582e-20 -1.2852129e-10
0000f0 e5 6b 92 1c f3 78 c4 9e 87 11 a0 a3 79 22 1d a0
       9.68936e-22 -2.080233e-20 -1.7354658e-17 -1.3309823e-19
000100 44 08 cf a0 ea 64 9c a3 8a 66 ff 9f e4 10 e0 a2
       -3.5072634e-19 -1.6956293e-17 -1.0816634e-19 -6.0733205e-18
000110 e0 48 fb a1 11 24 99 a3 dc 86 e9 af 23 87 88 2b
       -1.7027711e-18 -1.6603568e-17 -4.2478276e-10 9.700889e-13
000120 81 ee f2 af 46 dc 23 2d 8e 10 96 ae 8a c3 9c af
       -4.418901e-10 9.314388e-12 -6.824151e-11 -2.8515174e-10
000130 18 68 82 2e ee db ea 2f 23 83 3e b0 22 8a 16 30
       5.930206e-11 4.2720621e-10 -6.9307954e-10 5.476598e-10
000140 0b 65 b9 af 96 eb b1 2f 69 7d 91 b0 89 2e 27 b0
       -3.37231e-10 3.2363506e-10 -1.0585782e-09 -6.0820377e-10
000150 cb de 60 30 ac fa d3 af a7 9d f6 ab 40 a0 af 2f
       8.1807333e-10 -3.855879e-10 -1.7523109e-12 3.194618e-10
000160 e4 f3 ac 2e 07 9f a7 2e 3d 7e d5 2d 2c 12 aa 2d
       7.864978e-11 7.62253e-11 2.4271357e-11 1.9334832e-11
000170 27 71 34 ac b8 5e 3c ae a9 85 54 36 ca 6f 60 ae
       -2.564235e-12 -4.2830378e-11 3.1668262e-06 -5.1030992e-11
000180 8c c3 28 ae ed e4 a9 b0 90 d1 24 ac 43 8e dc af
       -3.8372458e-11 -1.2361433e-09 -2.3422132e-12 -4.011885e-10
000190 5f ac 2d 30 cf ee 4a 2e 33 d6 0c 2f c3 b2 d3 ae
       6.318199e-10 4.6141587e-11 1.2809025e-10 -9.6269236e-11
0001a0 e9 74 65 2f 92 69 ce a1 c4 44 26 9b 54 54 56 a3
       2.0868964e-10 -1.3987047e-18 -1.3753418e-22 -1.16188204e-17
0001b0 84 ae 40 9e 18 75 fe 9e 2c dd ce a2 a2 62 8b 9c
       -1.0200484e-20 -2.6941725e-20 -5.6070587e-18 -9.223744e-22
0001c0 8f 5c 57 a3 ef 82 b2 a2 b6 09 52 a2 bb 47 40 a2
       -1.1674773e-17 -4.838563e-18 -2.8465448e-18 -2.6058826e-18
0001d0 3d 1f 94 a3 1d 37 4b a4 0e b6 40 a3 aa e6 1b a2
       -1.6059422e-17 -4.406529e-17 -1.04468924e-17 -2.112853e-18
0001e0 8a b6 f9 9f aa 68 bc 9c 27 fd c1 a2 d9 69 56 9f
       -1.0575759e-19 -1.2467851e-21 -5.258079e-18 -4.5403818e-20
0001f0 15 06 b9 9c d3 08 a4 9f 06 38 34 9d 00 39 95 9f
       -1.2243845e-21 -6.94713e-20 -2.3851765e-21 -6.319825e-20
000200 d2 0c 79 1e be 04 25 ae 6d 01 b8 1b 8f 9c c3 9e
       1.31846014e-20 -3.752087e-11 3.0441168e-22 -2.071118e-20
000210 d8 30 15 21 24 d2 42 a0 ac 8c cf a1 74 26 c1 a3
       5.054781e-19 -1.6501969e-19 -1.4064101e-18 -2.0941387e-17
000220 5f b9 0f a0 1d 45 42 a3 1a ad 24 a2 2b 0c cf a3
       -1.2173905e-19 -1.0531396e-17 -2.2317784e-18 -2.2448138e-17

lstm.weight_hh_l0_reverse f4 [140, 35]
000000 2b 7d 23 1e 00 72 32 9b da 10 5e 9e a5 93 2a 9c
       8.655032e-21 -1.476065e-22 -1.1756067e-20 -5.643911e-22
000010 f8 b6 09 9f bd 05 2e 1e 63 3b d0 1c 2a d0 43 9e
       -2.9162227e-20 9.21267e-21 1.3779636e-21 -1.0366261e-20
000020 9c 90 26 1e 78 71 5c 1e 6d ba e8 1d 94 87 64 1e
       8.817871e-21 1.1670168e-20 6.160265e-21 1.2098256e-20
000030 c2 0d 96 1e 5c c8 93 1e 8c 78 ae 1e 5c 5f b4 9f
       1.5887558e-20 1.5647097e-20 1.8472824e-20 -7.6390724e-20
000040 5e 31 28 1f 0f 32 33 9e 42 e2 7f 9c 5d 7b 87 1e
       3.561622e-20 -9.486533e-21 -8.4664854e-22 1.4344703e-20
000050 cf 38 78 9c 1f 22 01 a0 7f a2 88 1c 2f 89 23 a0
       -8.212974e-22 -1.0938015e-19 9.041729e-22 -1.3852027e-19
000060 1c 50 a8 9d 78 e6 fd 9e 34 a6 05 20 76 b3 e7 1f
       -4.455206e-21 -2.6882737e-20 1.132053e-19 9.81292e-20
000070 f6 7e 73 9c 3c 76 05 9e 7f e4 87 9e 1a 72 5b 9c
       -8.056605e-22 -7.065412e-21 -1.4388185e-20 -7.2608494e-22
000080 8c a1 59 1e d6 5d 25 1e d9 03 92 9e cd d2 aa 17
       1.15212915e-20 8.754432e-21 -1.5459943e-20 1.1039206e-24
000090 cd e5 a1 16 7c 25 88 97 de 9c 3d 95 92 91 a7 17
       2.6155978e-25 -8.798256e-25 -3.8291992e-26 1.0828869e-24
0000a0 50 58 a6 17 a6 97 8f 14 ee a4 a0 97 ec a6 9d 17
       1.0749792e-24 1.4499125e-26 -1.0381392e-24 1.0188024e-24
0000b0 8f 8c 3b 17 64 01 3d 17 21 3c 4c 17 2f 11 e6 17
       6.060037e-25 6.107095e-25 6.599185e-25 1.4867739e-24
0000c0 8c 8a f8 17 cd 21 a3 17 d8 b7 93 99 5c db bc 17
       1.6061599e-24 1.0542161e-24 -1.5273698e-23 1.2204589e-24
0000d0 f6 62 a0 97 c9 f9 dd 95 a4 ad 35 97 a1 80 af 95
       -1.0364739e-24 -8.965528e-26 -5.870342e-25 -7.088488e-26
0000e0 7d 7d b2 18 9a 97 94 15 e6 f1 8d 18 c8 90 cb 14
       4.6138632e-24 6.001591e-26 3.66919e-24 2.0554868e-26
0000f0 34 b9 8c 17 a9 73 82 19 b8 53 da 17 6c a6 94 95
       9.09404e-25 1.34884e-23 1.4109053e-24 -6.003929e-26
000100 24 5c 12 97 f0 1a dc 97 78 b3 81 95 78 1b 42 17
       -4.729144e-25 -1.4223967e-24 -5.2385837e-26 6.271945e-25
000110 34 67 a8 17 b2 f3 f3 97 b5 01 68 1f dc d3 c8 9d
       1.0882798e-24 -1.5765024e-24 4.9129323e-20 -5.3158617e-21
000120 58 c7 4a 9f 72 b6 24 9d 2a 04 24 a0 b5 87 4a 1f
       -4.2940057e-20 -2.1799541e-21 -1.3892718e-19 4.2887418e-20
000130 8f d3 86 1c bf 0e 3a 9f ab fe 56 1f 95 aa ce 1e
       8.922063e-22 -3.939923e-20 4.552692e-20 2.188165e-20
000140 c4 ae e0 1e 45 c4 41 1f 19 c7 99 1f b8 39 8d 1f
       2.3789204e-20 4.103169e-20 6.51274e-20 5.981131e-20
000150 fe 18 31 1f 45 4a 3b 21 94 74 dd 1f 05 02 36 9f
       3.750188e-20 6.345636e-19 9.379e-20 -3.854167e-20
000160 7c fc 94 9d 7f 5f c0 1e 42 e2 6c 9d 30 2f 48 a1
       -3.9436337e-21 2.0368287e-20 -3.1351312e-21 -6.782509e-19
000170 b2 17 5a 1d 84 bf 1a a1 de c5 34 9e 4c 23 93 9f
       2.886431e-21 -5.24307e-19 -9.570039e-21 -6.2315315e-20
000180 34 ef 54 a1 91 51 cd 20 3d 1f 58 9d e5 3c 8d 9e
       -7.2144977e-19 3.4782327e-19 -2.8603512e-21 -1.4954141e-20
000190 e9 00 91 9f df 7c 56 9d 60 98 ee 1e 5e 0d 58 1f
       -6.1411394e-20 -2.8387221e-21 2.5262251e-20 4.5750836e-20
0001a0 54 37 9a 9f 4c 3e 9f 1a 0c a9 b2 99 32 d4 c5 9a
       -6.531307e-20 6.5861505e-23 -1.8473046e-23 -8.182011e-23
0001b0 e4 dd 8f 98 72 03 68 9b 86 2c a2 1a 19 4c 10 19
       -3.7188686e-24 -1.9191703e-22 6.707356e-23 7.459993e-24
0001c0 ef 8f ac 9a 05 66 9f 1a 94 0c a9 1a 34 55 4f 1a
       -7.137007e-23 6.592568e-23 6.991708e-23 4.2875423e-23
0001d0 c4 0f c9 1a 95 0e 09 1b 7f bf 02 1b 35 85 0e 1b
       8.315712e-23 1.1337086e-22 1.0815224e-22 1.1789006e-22
0001e0 f5 3e 4a 1c 14 00 6b 1b 45 ad a1 9a ce df e5 98
       6.6917564e-22 1.943877e-22 -6.686797e-23 -5.9421098e-24
0001f0 1a 0d 9c 1a d8 b1 d6 98 d2 d4 88 9c 47 58 e2 18
       6.4541254e-23 -5.549728e-24 -9.054738e-22 5.850877e-24
000200 b2 a6 61 9c 62 50 dc 99 c8 bd 21 9b 38 1e cf 9b
       -7.4661704e-22 -2.2779933e-23 -1.337893e-22 -3.4264806e-22
000210 72 b7 1a 1c 24 83 d0 98 a8 87 54 9a ab ba f9 9a
       5.1191423e-22 -5.3899158e-24 -4.3950155e-23 -1.03285565e-22
000220 1d 51 be 98 84 8f ad 1a d0 88 9d 1a 0f a4 05 9b
       -4.9195752e-24 7.1782985e-23 6.515471e-23 -1.1054512e-22
000230 af f7 20 1c 7c 44 ab 9a d4 d2 7b 9c 3f f6 d9 99
       5.3259683e-22 -7.0834585e-23 -8.332142e-22 -2.2536732e-23
000240 d6 53 0d 9c ae 20 2b 1c 91 aa a5 1a 03 54 41 9c
       -4.676134e-22 5.662139e-22 6.8517965e-23 -6.3966926e-22
000250 5b a3 30 1c 0b 82 53 1c 29 bd e7 1b ac f2 83 1c
       5.8444647e-22 6.998212e-22 3.8337986e-22 8.731582e-22
000260 78 97 a3 1c 2e 59 91 1c d5 4e b2 1c 40 39 db 9d
       1.0825589e-21 9.618348e-22 1.179943e-21 -5.8028012e-21
000270 85 94 b1 9c ac a3 2f 9c 30 ff 40 9a df 0f fe 1b
       -1.1751269e-21 -5.8114184e-22 -3.9910808e-23 4.2031032e-22
000280 e5 db 43 9a fb f8 17 9d 27 fe 57 1a 94 b5 14 9d
       -4.0502684e-23 -2.0113403e-21 4.466626e-23 -1.968151e-21
000290 64 76 2f 1b af 8f 80 9c 11 43 dc 1d 65 52 62 9d
       1.4513915e-22 -8.507471e-22 5.830286e-21 -2.9953448e-21
0002a0 3f dd 45 9a 54 98 fe 9b ae 0f 93 9c 64 54 31 9a
       -4.0917366e-23 -4.2119215e-22 -9.731697e-22 -3.6670912e-23
0002b0 cd ad 57 1c 1f 1d 21 1c c9 2f 9a 9c 9d 7d 56 1f
       7.1362165e-22 5.330807e-22 -1.0203217e-21 4.5420168e-20
0002c0 71 f6 da 9d 08 09 8c 9f f8 4e 44 9d f4 fa fe 9f
       -5.7958934e-21 -5.930725e-20 -2.598121e-21 -1.0798835e-19
0002d0 0e 39 60 1f 38 26 d7 1d 11 94 74 9f 91 f3 59 1f
       4.748104e-20 5.6949543e-21 -5.1791487e-20 4.615301e-20
0002e0 a4 89 78 1f e7 23 12 1f 0b 01 8f 1f 9f 2f c0 1f
       5.2629896e-20 3.09464e-20 6.056458e-20 8.1393945e-20
0002f0 b5 1d b9 1f 79 a0 ce 1f 1a 24 75 20 c6 5a 05 20
       7.8399694e-20 8.7509873e-20 2.0764252e-19 1.1295573e-19
000300 7d f4 62 9f ba 91 9c 9d 7c d9 69 1f e1 1b 95 9d
       -4.8059597e-20 -4.1443534e-21 4.9519568e-20 -3.9468798e-21
000310 5b 19 04 a1 f9 ed 9e 1d b3 ab 0d a1 1d cb 7e 9e
       -4.4756897e-19 4.206831e-21 -4.79999e-19 -1.3488651e-20
000320 18 0a e3 9f 00 0f fc 9d f6 ce ad 20 a5 3f 91 9d
       -9.615494e-20 -6.6719354e-21 2.9444295e-19 -3.8446987e-21
000330 8f 16 1a 9f 08 72 ae 9f d1 87 83 9d 24 f8 7c 1f
       -3.262943e-20 -7.3880515e-20 -3.4815842e-21 5.3568333e-20
000340 a5 03 57 1f dd f2 ba 9f 65 61 d9 99 f0 f7 5c 17
       4.5531036e-20 -7.917585e-20 -2.2476611e-23 7.1398775e-25
000350 41 ef af 19 f2 e8 86 17 d5 0d 80 9a 2c ad bd 99
       1.819121e-23 8.718351e-25 -5.2961906e-23 -1.9612086e-23
000360 12 b8 c2 97 04 f0 ad 19 88 66 c3 99 eb ae 5a 99
       -1.2583422e-24 1.7984722e-23 -2.020394e-23 -1.130566e-23
000370 d7 54 4f 99 d8 10 a7 99 73 7a 08 9a d2 b0 04 9a
       -1.07187824e-23 -1.7274198e-23 -2.8223055e-23 -2.7439795e-23
000380 55 7c b4 99 3e cd 01 9b ca 0e 85 99 23 e8 a8 19
       -1.8661781e-23 -1.0736947e-22 -1.3757851e-23 1.7464552e-23
000390 18 95 09 18 ac bd 04 99 cd 05 d9 17 a0 7a 99 9b
       1.7782108e-24 -6.862544e-24 1.4024761e-24 -2.5390971e-22
0003a0 ff 1d be 97 02 74 d7 9a 0e 06 00 98 69 7b cf 19
       -1.2286034e-24 -8.9109337e-23 -1.654667e-24 2.1453143e-23
0003b0 18 32 7d 1a d9 55 29 1a 2a 85 c1 17 9d 9e 11 19
       5.235964e-23 3.5017728e-23 1.2505948e-24 7.528356e-24
0003c0 8b a3 02 1a 1e 38 bf 17 14 a0 6d 99 5a b9 cd 99
       2.701548e-23 1.2357252e-24 -1.228494e-23 -2.1271366e-23
0003d0 5c 20 0d 1a 99 ec 8b 1f 07 cc 34 9e 7d 7a c6 9f
       2.9184256e-23 5.926021e-20 -9.5713125e-21 -8.40589e-20
0003e0 d3 e2 94 9d e6 47 4c a0 56 ef 97 1f 27 03 3c 1e
       -3.9409805e-21 -1.7303261e-19 6.4346936e-20 9.953289e-21
0003f0 98 c7 ab 9f 83 9f 90 1f f6 ce c4 1f 85 11 4d 1f
       -7.275152e-20 6.125026e-20 8.335162e-20 4.342493e-20

lstm.bias_ih_l0_reverse f4 [140]
000000 4d 59 2f a2 3b 6d 97 9b ee 78 a6 a3 6b bb 95 9e
       -2.3764198e-18 -2.5051443e-22 -1.8048972e-17 -1.5853503e-20
000010 64 00 0c 9f 02 f3 1c a3 f4 62 a2 9d c2 7a a5 a3
       -2.9646476e-20 -8.508236e-18 -4.298336e-21 -1.7941326e-17
000020 b7 56 05 a3 ea c8 bb a2 ae 60 99 a2 a3 3f f1 a3
       -7.228307e-18 -5.0899178e-18 -4.1573097e-18 -2.6156224e-17
000030 f1 e1 99 a4 fa 29 9a a3 9c 1a a4 a2 cc 14 14 21
       -6.673593e-17 -1.6714491e-17 -4.4480463e-18 5.0171875e-19
000040 ee ee 03 9d 86 70 17 a3 87 e0 a9 9f 23 ee ba 9c
       -1.746123e-21 -8.209554e-18 -7.1945733e-20 -1.2370004e-21
000050 07 4f fe 9f a2 ef d1 9d 0b 04 f3 9f c8 42 b6 1c
       -1.07703924e-19 -5.5569614e-21 -1.0292119e-19 1.2061012e-21
000060 96 9b 35 2e a5 2e b5 9c 2d 32 02 9f b1 87 97 23
       4.1292823e-11 -1.1989633e-21 -2.7570075e-20 1.642892e-17
000070 10 5c 97 a0 aa 7a 30 a2 b0 38 14 a4 05 4d 54 a0
       -2.5641317e-19 -2.3917386e-18 -3.21404e-17 -1.7982582e-19
000080 8f 50 9b a3 0c 71 84 a2 ad 18 24 a4 bc 1c 02 a2
       -1.6839252e-17 -3.5898365e-18 -3.5582732e-17 -1.7633497e-18
000090 d7 bc 72 9b e8 12 80 a3 52 70 81 9e 6a 68 0c 9f
       -2.0078788e-22 -1.3885795e-17 -1.3704861e-20 -2.9732522e-20
0000a0 96 f7 09 a3 54 75 4b 9c 68 c8 8f a3 a5 dd f6 a2
       -7.479213e-18 -6.731871e-22 -1.5588966e-17 -6.691311e-18
0000b0 a0 66 66 a2 84 97 82 a2 fe 48 b1 a3 c4 d8 8b a4
       -3.1225142e-18 -3.5396994e-18 -1.9221292e-17 -6.0648856e-17
0000c0 c9 0c 80 a3 36 a4 2a a2 c4 15 f8 20 a4 86 f5 9c
       -1.3883203e-17 -2.3126229e-18 4.2027237e-19 -1.6247544e-21
0000d0 35 ae 04 a3 d9 b3 9a 9f ff 1e 1c 9d 92 c0 dc 9f
       -7.192624e-18 -6.551907e-20 -2.0662453e-21 -9.3492205e-20
0000e0 1b 46 c8 9d 64 73 c3 9f 04 c5 6b 1e 72 0d 74 ae
       -5.3012047e-21 -8.277661e-20 1.2481538e-20 -5.549112e-11
0000f0 d6 ff 72 1b 90 0b fd 9e ec 74 5e 22 b6 4c 80 a0
       2.0100436e-22 -2.6792199e-20 3.0148508e-18 -2.1734806e-19
000100 08 ae e5 a1 28 58 f9 a3 f4 0a 3b a0 65 44 69 a3
       -1.5563709e-18 -2.703397e-17 -1.584314e-19 -1.26454384e-17
000110 d8 8d 54 a2 81 e8 05 a4 b8 38 87 b0 4b 14 15 2c
       -2.880645e-18 -2.9036716e-17 -9.838663e-10 2.1185438e-12
000120 1f 77 c7 30 8b 8b 80 2e d5 a1 a3 ae 31 60 ce b0
       1.4513012e-09 5.845554e-11 -7.441129e-11 -1.5015812e-09
000130 03 23 ea ad f7 51 18 31 23 2c e9 b0 bd f2 35 b0
       -2.6618268e-11 2.2165503e-09 -1.6965526e-09 -6.619237e-10
000140 12 a2 9e b0 8d e6 e8 b0 20 4c 8e b1 f9 c5 22 b1
       -1.1542076e-09 -1.6945748e-09 -4.1413983e-09 -2.3686637e-09
000150 0a 19 f3 af c1 fb fe af c8 bd 83 2d c8 1c b9 30
       -4.4219234e-10 -4.6381213e-10 1.4977256e-11 1.3468702e-09
000160 aa c9 4f 2f 6a 05 5c ae 96 91 31 2f 86 1c a6 2e
       1.8898186e-10 -5.0027017e-11 1.6149779e-10 7.553873e-11
000170 fe 9e 10 af 69 14 3d 2f bb 30 8e 36 9f cf 5a 2e
       -1.3153209e-10 1.7196701e-10 4.2376028e-06 4.9751866e-11
000180 87 47 2c ae b6 a5 f3 b0 b1 f6 4a 2f ca 29 98 2f
       -3.91718e-11 -1.7727675e-09 1.8459435e-10 2.7678332e-10
000190 a5 89 44 31 47 dd 7a 2f ae 0f e0 b0 9f b3 57 b0
       2.8599996e-09 2.2815981e-10 -1.6302601e-09 -7.84718e-10
0001a0 06 3a 27 31 30 34 ca a2 38 cc 91 9b a8 6f a2 a3
       2.433468e-09 -5.4807465e-18 -2.412021e-22 -1.7611363e-17
0001b0 a6 3e 9c 9e 85 45 ef 9e 82 74 05 a3 c3 f6 f4 9e
       -1.6543053e-20 -2.5333862e-20 -7.234616e-18 -2.5936563e-20
0001c0 ff ac 76 a3 6f 4c eb a2 31 19 12 a3 6d a1 86 a2
       -1.337232e-17 -6.3777805e-18 -7.92001e-18 -3.649169e-18
0001d0 f3 b4 f3 a3 e7 2b 60 a4 18 44 9a a3 91 8f 22 a3
       -2.6422748e-17 -4.8609444e-17 -1.6725552e-17 -8.812439e-18
0001e0 b1 10 0e 21 3e d3 e8 9c 00 c6 f9 a2 3f f7 c3 9f
       4.813356e-19 -1.5407077e-21 -6.7701226e-18 -8.2994747e-20
0001f0 56 d9 89 9d 5b 02 f0 9f a5 23 f9 9d 8f 14 e4 9f
       -3.648832e-21 -1.0164785e-19 -6.5946607e-21 -9.659577e-20
000200 c8 13 6a 1b 12 e4 8b 2e 2b f1 8c 9b df b0 fb 9e
       1.9362418e-22 6.3615016e-11 -2.3316908e-22 -2.6648811e-20
000210 3e 75 9b 23 ae 6f 79 a0 6a f2 6a a2 96 c5 fe a3
       1.6854788e-17 -2.1128072e-19 -3.1841246e-18 -2.7622416e-17
000220 2e f7 17 a0 e8 dc a8 a3 81 d9 c6 a2 ee 53 14 a4
       -1.2871982e-19 -1.8308154e-17 -5.38983e-18 -3.2163476e-17
