Encoder-Decoder-Models/models/model_cond_lstm4.pt (torch_old, 167164 bytes, 45 tensors)

encoder.lstm.weight_ih_l0 f4 [100, 1]
0	0x2f8792a6	2.4660557e-10
1	0x328a9f77	1.613783e-08
2	0x33a4f829	7.681985e-08
3	0x31c49a88	5.721919e-09
4	0x2b9a732c	1.0974325e-12
5	0x36285566	2.508366e-06
6	0xaca14327	-4.5833506e-12
7	0x28199f03	8.527686e-15
8	0x3273914c	1.4177498e-08
9	0xac0a0543	-1.96139e-12
10	0x28487666	1.1127904e-14
11	0x33b9784c	8.636616e-08
12	0x33385747	4.2920217e-08
13	0x32bd5787	2.2042299e-08
14	0x2b5965e5	7.7235294e-13
15	0x2b1763d3	5.378451e-13
16	0x2ea7c616	7.629468e-11
17	0x30c89887	1.4595266e-09
18	0x32e6bc80	2.6861244e-08
19	0x3074b222	8.9019825e-10
20	0x312f68e4	2.5525475e-09
21	0x2fd86a92	3.9365894e-10
22	0xaea53b04	-7.5138146e-11
23	0x2bd6f1f2	1.5272768e-12
24	0x335ad9d5	5.0955197e-08
25	0x2effff1e	1.16413754e-10
26	0x318a21de	4.020179e-09
27	0x3317c10e	3.533301e-08
28	0x312091b1	2.336588e-09
29	0x2b60abff	7.981948e-13
30	0x35c9d355	1.5037173e-06
31	0xac824100	-3.7020387e-12
32	0x278c7f31	3.8995707e-15
33	0x31f82b05	7.2226407e-09
34	0xacc8624d	-5.6952555e-12
35	0x281d1f05	8.721977e-15
36	0x335d0fee	5.147006e-08
37	0x32c524ca	2.2950548e-08
38	0x327e3efd	1.4799068e-08
39	0xaa56f55d	-1.9092146e-13
40	0x2a6a6d08	2.0821203e-13
41	0x2e3463b0	4.1015802e-11
42	0x302090a4	5.841321e-10
43	0x329cd855	1.8259167e-08
44	0x2feffef7	4.365501e-10
45	0x308209b5	9.461504e-10
46	0x2f815576	2.3525687e-10
47	0xaea6b464	-7.58085e-11
48	0x2b324079	6.3327777e-13
49	0x32ba39a3	2.167946e-08
50	0xb7e03725	-2.672856e-05
51	0xb9a42dfc	-0.0003131478
52	0xba289ef0	-0.0006432375
53	0xb940bed6	-0.00018381639
54	0xb60223cf	-1.9392353e-06
55	0xbb15a8b6	-0.0022836155
56	0x343d6441	1.7638469e-07
57	0xb43db92a	-1.7669359e-07
58	0x395744ec	0.00020529673
59	0x36f9eac9	7.448111e-06
60	0x3419d5dc	1.4327037e-07
61	0xb9ecfae6	-0.00045200362
62	0x39e7bd2d	0.000442007
63	0xb98c47ea	-0.0002675646
64	0x36342c93	2.6848036e-06
65	0x35f9a0c2	1.8598732e-06
66	0x37843e4e	1.576464e-05
67	0x38a635c4	7.9255115e-05
68	0x39ada724	0.0003312166
69	0xb86aa31d	-5.594186e-05
70	0x39078cff	0.00012927128
71	0xb829e936	-4.0509934e-05
72	0x373af660	1.1143828e-05
73	0x363a0e26	2.7724395e-06
74	0x3a0bc895	0.0005332318
75	0x2f7c511b	2.2948081e-10
76	0x3246ed49	1.1579069e-08
77	0x33808a99	5.985675e-08
78	0x318d8068	4.118238e-09
79	0x2b8d8887	1.0056547e-12
80	0x361fab49	2.3792547e-06
81	0xaccbd8ef	-5.7936915e-12
82	0x28043093	7.338005e-15
83	0x32564408	1.2471908e-08
84	0xaca24e6c	-4.6130235e-12
85	0x283e582d	1.0566239e-14
86	0x33ab71d2	7.983512e-08
87	0x3324875f	3.8307345e-08
88	0x32af283f	2.0390983e-08
89	0x2acc0975	3.6244242e-13
90	0x2ab7bd0a	3.2638502e-13
91	0x2e91a0b7	6.622385e-11
92	0x30b8bbd6	1.3441148e-09
93	0x32d02879	2.4232792e-08
94	0x305de0c4	8.0718743e-10
95	0x310fae06	2.090816e-09
96	0x2fb334df	3.2597477e-10
97	0xaed1f180	-9.5471187e-11
98	0x2ba7d8d9	1.1926251e-12
99	0x33220464	3.7722558e-08

encoder.lstm.weight_hh_l0 f4 [100, 25]
0	0xa71b4c2c	-2.1551864e-15
1	0xab770e5c	-8.7771956e-13
2	0xa7e1cdea	-6.2673298e-15
3	0xa6169455	-5.224273e-16
4	0xa513e77b	-1.2828646e-16
5	0xaab128f5	-3.1469936e-13
6	0x24c163ff	8.386981e-17
7	0xa38b85de	-1.5127105e-17
8	0x28995506	1.7023285e-14
9	0xac983e94	-4.3270474e-12
10	0x237526c3	1.3289685e-17
11	0xa9430bb5	-4.3308852e-14
12	0x2793e861	4.105264e-15
13	0xa90228e5	-2.890127e-14
14	0xae46ad52	-4.5173927e-11
15	0x245d94ab	4.8047663e-17
16	0x26c9a0b6	1.3990738e-15
17	0xac925af5	-4.159668e-12
18	0x289883bd	1.6932522e-14
19	0xa7329340	-2.4782287e-15
20	0xa6716d33	-8.3761664e-16
21	0xa7076b9e	-1.8793353e-15
22	0xa5e4da70	-3.9699714e-16
23	0x24d4e5c0	9.2329556e-17
24	0x28987204	1.6924836e-14
25	0xa9cc0c22	-9.0615246e-14
26	0x2f870d53	2.4565824e-10
27	0x2d0d0b47	8.017426e-12
28	0x2b92ce8e	1.0431254e-12
29	0x25da2c53	3.7847007e-16
30	0xad982c25	-1.7300003e-11
31	0x27b60f8f	5.0532016e-15
32	0xa4367d8b	-3.9571298e-17
33	0xa9f3bcdb	-1.0824129e-13
34	0x31197343	2.232995e-09
35	0x25b3f3cf	3.1216761e-16
36	0xab34b6ec	-6.42027e-13
37	0xace23a91	-6.4298085e-12
38	0xab2a7dbe	-6.0570635e-13
39	0x320aedc5	8.08672e-09
40	0xa813f4e3	-8.2132406e-15
41	0x289d26b5	1.7447288e-14
42	0xb125aa9d	-2.4107643e-09
43	0xab92bc8c	-1.0426256e-12
44	0x2a6d38db	2.1069554e-13
45	0xabe21bd7	-1.6065993e-12
46	0x29da855f	9.704281e-14
47	0xaa0a8408	-1.230267e-13
48	0xa81c6173	-8.6808705e-15
49	0xac184056	-2.1636213e-12
50	0xab5bf4a0	-7.8143915e-13
51	0x313f859b	2.7870104e-09
52	0x2d44bd70	1.1183374e-11
53	0x2c793429	3.5413983e-12
54	0xa73ef41e	-2.6500133e-15
55	0xaeaef8fc	-7.9568324e-11
56	0x29a14dbb	7.1633204e-14
57	0xa71a4347	-2.1408264e-15
58	0x2be8a2ff	1.6529832e-12
59	0x32242957	9.555456e-09
60	0x276f93cc	3.3248034e-15
61	0xad3a799d	-1.05998795e-11
62	0xad66f363	-1.3128029e-11
63	0xac9c1de0	-4.4371035e-12
64	0xb25c9a1b	-1.2840725e-08
65	0xa9460c48	-4.3975484e-14
66	0x2a82af8b	2.3214446e-13
67	0x3013bce2	5.3746707e-10
68	0xac24d2ae	-2.3422752e-12
69	0x2b8ed4d9	1.0148784e-12
70	0xacaca4d8	-4.9068354e-12
71	0x2a87a79c	2.409712e-13
72	0xab93ecd2	-1.0510709e-12
73	0xa9a9aeef	-7.535454e-14
74	0xad04fb11	-7.559079e-12
75	0xa98a71d0	-6.1481744e-14
76	0x2e230311	3.7064633e-11
77	0x2c70e426	3.42327e-12
78	0x2a78c47d	2.2094995e-13
79	0x26d218f2	1.4578439e-15
80	0xac8406c9	-3.752419e-12
81	0x27284407	2.3351561e-15
82	0xa582c9e0	-2.26882e-16
83	0x2a2aae28	1.5159456e-13
84	0x300ca776	5.116968e-10
85	0x26041adf	4.5833117e-16
86	0xabcd06d1	-1.4568018e-12
87	0xaaf592a9	-4.3622508e-13
88	0xaac7aaee	-3.5468107e-13
89	0x2fca9098	3.6846326e-10
90	0xa82e0db5	-9.6619126e-15
91	0x28da82a2	2.4259515e-14
92	0xb01d90c9	-5.732202e-10
93	0xab2568c3	-5.876516e-13
94	0x2a27f51d	1.491762e-13
95	0xab6e429e	-8.4647035e-13
96	0x298800c8	6.039749e-14
97	0xaa0f6e95	-1.2739317e-13
98	0xa804a150	-7.362451e-15
99	0xab1d7615	-5.5941476e-13
100	0xa3490e3c	-1.0899246e-17
101	0xa69bd85f	-1.0813933e-15
102	0xa4c38227	-8.4788256e-17
103	0xa3b067c8	-1.9125911e-17
104	0xa124983c	-5.576684e-19
105	0xa69a879c	-1.0722654e-15
106	0x20a71fc3	2.8311919e-19
107	0x9f8b81ee	-5.908374e-20
108	0x249b7db8	6.743351e-17
109	0x25b4e9da	3.1383487e-16
110	0x1f83dbe5	5.584444e-20
111	0xa550f869	-1.8125289e-16
112	0x2490ea63	6.284711e-17
113	0xa4e6b9d7	-1.00061425e-16
114	0xa927acfe	-3.7231496e-14
115	0x20c4fd01	3.3371115e-19
116	0x22cdfdfb	5.5834274e-18
117	0xa80095c5	-7.1379034e-15
118	0x24c0bced	8.358678e-17
119	0xa36f9018	-1.2986729e-17
120	0x23572709	1.1663439e-17
121	0xa341515f	-1.0479782e-17
122	0x2083654d	2.2259298e-19
123	0x212eac3c	5.9181443e-19
124	0x24fc32c5	1.09373586e-16
125	0xad8fdfbb	-1.6356574e-11
126	0x32adf808	2.0252642e-08
127	0xaf723cea	-2.2031413e-10
128	0xad1aac33	-8.792122e-12
129	0xab9ea084	-1.1271127e-12
130	0xb10af79b	-2.022239e-09
131	0x2ab441a3	3.2019968e-13
132	0xa9d7549d	-9.562596e-14
133	0x2ee11df7	1.0237138e-10
134	0x3229b558	9.8783275e-09
135	0x29d87ebf	9.614314e-14
136	0xaf939078	-2.6841795e-10
137	0x2e8c0f32	6.369162e-11
138	0xaf3a6fd5	-1.6956332e-10
139	0x3404a86a	1.2354727e-07
140	0x2b3b84af	6.661988e-13
141	0x2d24281f	9.331229e-12
142	0xb2f1f130	-2.8165772e-08
143	0x2f153988	1.357191e-10
144	0xadd652b8	-2.4365718e-11
145	0x2de99ba9	2.655816e-11
146	0xada404e7	-1.8646818e-11
147	0x2c29c6c0	2.4126673e-12
148	0x2b869227	9.561838e-13
149	0x2f60adf5	2.0434483e-10
150	0x239142fd	1.5749302e-17
151	0xa9fef421	-1.13222155e-13
152	0xa50a4bbe	-1.1995254e-16
153	0x24343bf8	3.9082074e-17
154	0x21bdc512	1.2859302e-18
155	0x26bf1a25	1.3260374e-15
156	0xa0b16fe7	-3.0059017e-19
157	0x9f884ee9	-5.7728786e-20
158	0xa50dd4a2	-1.2301843e-16
159	0xab06200d	-4.765084e-13
160	0x9dff9d1a	-6.7660377e-21
161	0x256069f2	1.9464799e-16
162	0xa57e9b22	-2.2083549e-16
163	0xa412ca83	-3.1830238e-17
164	0xab6135ae	-8.0010553e-13
165	0xa1631fb1	-7.6952535e-19
166	0xa31f5974	-8.63835e-18
167	0xab578e78	-7.658106e-13
168	0x241f3e9f	3.453067e-17
169	0x2389040a	1.485528e-17
170	0xa4a56f94	-7.1746364e-17
171	0x239543ea	1.6183375e-17
172	0xa2990345	-4.1474195e-18
173	0xa18cdbbb	-9.544931e-19
174	0xa56f3c15	-2.0750302e-16
175	0x9f8c6bfa	-5.947094e-20
176	0xa31e1ed7	-8.571728e-18
177	0xa0d9c3b9	-3.6890748e-19
178	0x9f5c1cb6	-4.661056e-20
179	0x9d5e7790	-2.9443268e-21
180	0xa2da738e	-5.9211367e-18
181	0x1c86b872	8.915054e-22
182	0x9bab7613	-2.836588e-22
183	0x20c12710	3.272132e-19
184	0xa4b0db35	-7.6699184e-17
185	0x1bbbed41	3.1089877e-22
186	0xa1808db1	-8.711123e-19
187	0x2091ae5c	2.4679337e-19
188	0xa1342b7e	-6.1043934e-19
189	0xa63cfd7e	-6.556915e-16
190	0x1ce4c8c5	1.5139672e-21
191	0x1f09c2d6	2.9172043e-20
192	0xa5126531	-1.2697766e-16
193	0x21038ac8	4.45682e-19
194	0x9f8cea54	-5.967997e-20
195	0x9d28a7aa	-2.2321295e-21
196	0x9f710a67	-5.104234e-20
197	0x9d4ef8de	-2.7392534e-21
198	0x1d465c9c	2.625296e-21
199	0x210337be	4.44583e-19
200	0xaa2333cc	-1.4495279e-13
201	0xae2cd94e	-3.9301278e-11
202	0xab95015b	-1.0587463e-12
203	0xaa417178	-1.7181211e-13
204	0xa7f2d5dd	-6.7400364e-15
205	0xad6287af	-1.28767405e-11
206	0x27cc6cbc	5.6739264e-15
207	0xa644ccb9	-6.827861e-16
208	0x2b5c1d14	7.8200055e-13
209	0xaf67a352	-2.106735e-10
210	0x2659cdee	7.5566086e-16
211	0xac0a8e3e	-1.968994e-12
212	0x2adbf27c	3.9070472e-13
213	0xabba1d64	-1.3224252e-12
214	0xb0176a54	-5.508458e-10
215	0x27803ce6	3.5593163e-15
216	0x29a3765f	7.259188e-14
217	0xb01f2172	-5.789139e-10
218	0x2b841230	9.384212e-13
219	0xaa1fc85a	-1.4191548e-13
220	0xa9970abe	-6.7076105e-14
221	0xaa00ba5d	-1.1433342e-13
222	0x278b74cf	3.8706894e-15
223	0x27e5f03e	6.382074e-15
224	0x2b97d60c	1.0788605e-12
225	0x244e8a66	4.4786358e-17
226	0x2a0aa753	1.2314914e-13
227	0x273501f9	2.5119865e-15
228	0x255e7992	1.929662e-16
229	0x222e2779	2.3602294e-18
230	0x27c9035d	5.5792353e-15
231	0xa2abe22f	-4.6589124e-18
232	0x2080024d	2.1685566e-19
233	0xa6003036	-4.447426e-16
234	0xaa0c7f3e	-1.2478644e-13
235	0x9fa8e6b0	-7.153241e-20
236	0x268d38e0	9.799256e-16
237	0xa5cadb99	-3.519022e-16
238	0x260f7811	4.977581e-16
239	0x2b5d9daf	7.87338e-13
240	0xa2911e8c	-3.933467e-18
241	0xa39a37f1	-1.6720406e-17
242	0xac2fc466	-2.4978019e-12
243	0xa5c82900	-3.4722252e-16
244	0x24fa60fa	1.085845e-16
245	0xa562f164	-1.9684162e-16
246	0x24a95e14	7.345144e-17
247	0xa402362e	-2.823515e-17
248	0xa2b0193d	-4.7731618e-18
249	0xa6b32b35	-1.2432331e-15
250	0xa01d3aae	-1.3317833e-19
251	0x231351db	7.9862195e-18
252	0xa199d826	-1.0424897e-18
253	0xa0aa6b07	-2.8869945e-19
254	0x9df67934	-6.524098e-21
255	0xa36589da	-1.2443306e-17

encoder.lstm.bias_ih_l0 f4 [100]
0	0x2f3e2268	1.7292623e-10
1	0x329693ae	1.7529455e-08
2	0x33fe1b85	1.18328025e-07
3	0x3236351c	1.060587e-08
4	0x2b744a7e	8.678959e-13
5	0x35f6a0ff	1.8375284e-06
6	0xadbab2e8	-2.1225202e-11
7	0x2624e157	5.720432e-16
8	0x325ac3e7	1.2733813e-08
9	0x2d347bed	1.02593324e-11
10	0x2810a390	8.029073e-15
11	0x33851c92	6.198492e-08
12	0x33ae9172	8.128963e-08
13	0x32be88a3	2.2181046e-08
14	0x2ba2dab0	1.157149e-12
15	0x28ace653	1.9195723e-14
16	0x2e833979	5.9673995e-11
17	0x3001d111	4.722703e-10
18	0x3317d9ae	3.5355406e-08
19	0x30a0fdbd	1.1713649e-09
20	0x31c042d9	5.595535e-09
21	0x2fabf8eb	3.1281586e-10
22	0xaf1a46f3	-1.4031425e-10
23	0x2b82652b	9.265135e-13
24	0x334271d3	4.5272667e-08
25	0x2eecf6fd	1.07759114e-10
26	0x32864cc9	1.5634571e-08
27	0x33fba726	1.17185024e-07
28	0x3210e367	8.4336085e-09
29	0x2b61d865	8.0236366e-13
30	0x359d57a7	1.1722922e-06
31	0xad1700f1	-8.583565e-12
32	0x2720319f	2.223136e-15
33	0x320e271d	8.274381e-09
34	0x2d48400d	1.1382906e-11
35	0x281fba00	8.866605e-15
36	0x33330134	4.167778e-08
37	0x33844eb8	6.161048e-08
38	0x32826ade	1.518259e-08
39	0x2b10e516	5.1477e-13
40	0x2a8320bd	2.329299e-13
41	0x2e1aaeae	3.5170693e-11
42	0x2dee1a37	2.7069109e-11
43	0x32e47cb5	2.6599404e-08
44	0x30670814	8.404879e-10
45	0x3190b605	4.211645e-09
46	0x2fa3d194	2.9798441e-10
47	0xaebe8e07	-8.665429e-11
48	0x2b7a9b3b	8.903327e-13
49	0x33343dcc	4.196572e-08
50	0xb53a1c9f	-6.933205e-07
51	0x38d13698	9.9760655e-05
52	0x393376ae	0.00017114982
53	0x3851a437	4.998242e-05
54	0x3484c7de	2.4732338e-07
55	0xb8e56f9f	-0.00010940362
56	0x34b20dd4	3.3165145e-07
57	0x324ced0e	1.1928263e-08
58	0xb763f1c5	-1.3586546e-05
59	0xb6281612	-2.5046797e-06
60	0xb188c885	-3.9809174e-09
61	0xb666b109	-3.4375719e-06
62	0xb8f65e94	-0.00011747811
63	0x378110b8	1.5385784e-05
64	0xb52d62c6	-6.4591256e-07
65	0xb4e5a937	-4.2777694e-07
66	0xb5884efd	-1.0155778e-06
67	0xb6b58c6b	-5.410567e-06
68	0xb85ff8bb	-5.339899e-05
69	0x3719f406	9.176327e-06
70	0xb824aad4	-3.9259743e-05
71	0x36bf33ee	5.698289e-06
72	0xb69de9b6	-4.706172e-06
73	0xb51460ec	-5.5275336e-07
74	0xb8ce0cc2	-9.825222e-05
75	0x2f3d2181	1.7201353e-10
76	0x3282a95c	1.5211008e-08
77	0x33fb2206	1.1694287e-07
78	0x32342432	1.0485609e-08
79	0x2b726e39	8.6128636e-13
80	0x35f446aa	1.8199983e-06
81	0xadbd4de0	-2.1521396e-11
82	0x25811af1	2.239619e-16
83	0x3259ed93	1.26850805e-08
84	0x2d33b994	1.0216179e-11
85	0x280bc261	7.758199e-15
86	0x338452a1	6.161759e-08
87	0x33ad118e	8.0591334e-08
88	0x32be8c55	2.2182727e-08
89	0x2b9f94ba	1.1338909e-12
90	0xa805b499	-7.422144e-15
91	0x2e7fe661	5.8184905e-11
92	0x2ffba4ea	4.5773813e-10
93	0x331781ab	3.527536e-08
94	0x309fd2bf	1.162867e-09
95	0x31bd9729	5.517809e-09
96	0x2fa4bfe4	2.9967773e-10
97	0xaf3ccd0c	-1.7171348e-10
98	0x2b76d89e	8.7697373e-13
99	0x334096fe	4.484081e-08

encoder.lstm.bias_hh_l0 f4 [100]
0	0x2f3e2265	1.7292619e-10
1	0x329693b9	1.7529475e-08
2	0x33fe1b8a	1.1832806e-07
3	0x32363518	1.0605866e-08
4	0x2b744a80	8.6789603e-13
5	0x35f6a0fb	1.837528e-06
6	0xadbab2e8	-2.1225202e-11
7	0x2624e162	5.720438e-16
8	0x325ac3e6	1.2733812e-08
9	0x2d347bf4	1.02593385e-11
10	0x2810a38f	8.029072e-15
11	0x33851c91	6.198491e-08
12	0x33ae9173	8.1289635e-08
13	0x32be88a3	2.2181046e-08
14	0x2ba2dab0	1.157149e-12
15	0x28ace618	1.9195623e-14
16	0x2e833977	5.967398e-11
17	0x3001d12a	4.7227167e-10
18	0x3317d9ad	3.5355402e-08
19	0x30a0fdbc	1.1713648e-09
20	0x31c042d7	5.5955343e-09
21	0x2fabf8ea	3.1281583e-10
22	0xaf1a46ed	-1.4031416e-10
23	0x2b826522	9.265126e-13
24	0x334271d0	4.5272657e-08
25	0x2eecf70c	1.0775922e-10
26	0x32864cc9	1.5634571e-08
27	0x33fba728	1.1718504e-07
28	0x3210e363	8.433605e-09
29	0x2b61d866	8.023637e-13
30	0x359d57a8	1.1722923e-06
31	0xad1700f0	-8.583564e-12
32	0x272031a3	2.2231369e-15
33	0x320e2720	8.274384e-09
34	0x2d48400c	1.1382905e-11
35	0x281fb9fe	8.866604e-15
36	0x33330136	4.1677787e-08
37	0x33844eb8	6.161048e-08
38	0x32826ade	1.518259e-08
39	0x2b10e51c	5.147703e-13
40	0x2a8320ba	2.3292983e-13
41	0x2e1aaead	3.517069e-11
42	0x2dee1a75	2.7069217e-11
43	0x32e47cb6	2.6599405e-08
44	0x30670815	8.4048796e-10
45	0x3190b608	4.211646e-09
46	0x2fa3d18f	2.9798428e-10
47	0xaebe8e0c	-8.665432e-11
48	0x2b7a9b35	8.9033235e-13
49	0x33343dc7	4.1965702e-08
50	0xb53a2c1a	-6.9354576e-07
51	0x38d1368a	9.976055e-05
52	0x39337684	0.00017114921
53	0x3851a244	4.9980605e-05
54	0x3484c2fb	2.4728783e-07
55	0xb8e57009	-0.00010940439
56	0x34b227b5	3.3183974e-07
57	0x324dd0d2	1.1980051e-08
58	0xb763f3ef	-1.358705e-05
59	0xb6281440	-2.5045738e-06
60	0xb18a67c0	-4.0281236e-09
61	0xb66699ab	-3.4362117e-06
62	0xb8f65def	-0.000117476906
63	0x378111ca	1.5386282e-05
64	0xb52def3d	-6.479566e-07
65	0xb4e5bcf8	-4.2792067e-07
66	0xb5884dfe	-1.0155488e-06
67	0xb6b59270	-5.411268e-06
68	0xb85ff99f	-5.339982e-05
69	0x3719fa9c	9.17786e-06
70	0xb824aafe	-3.9259896e-05
71	0x36bf39e0	5.698981e-06
72	0xb69de8a1	-4.706046e-06
73	0xb51466ad	-5.528371e-07
74	0xb8ce0c4e	-9.8251374e-05
75	0x2f3d217d	1.7201347e-10
76	0x3282a956	1.5210997e-08
77	0x33fb2204	1.1694286e-07
78	0x32342433	1.048561e-08
79	0x2b726e34	8.612861e-13
80	0x35f446b0	1.8199989e-06
81	0xadbd4de0	-2.1521396e-11
82	0x25811a2e	2.2395673e-16
83	0x3259ed96	1.2685083e-08
84	0x2d33b997	1.0216181e-11
85	0x280bc266	7.7582035e-15
86	0x338452a1	6.161759e-08
87	0x33ad118f	8.059134e-08
88	0x32be8c57	2.218273e-08
89	0x2b9f94c0	1.1338916e-12
90	0xa805b452	-7.422084e-15
91	0x2e7fe667	5.8184926e-11
92	0x2ffba4f0	4.577383e-10
93	0x331781ab	3.527536e-08
94	0x309fd2be	1.1628669e-09
95	0x31bd9728	5.5178084e-09
96	0x2fa4bfe7	2.996778e-10
97	0xaf3ccd0a	-1.7171345e-10
98	0x2b76d894	8.769732e-13
99	0x334096fd	4.4840807e-08

encoder.lstm.weight_ih_l0_reverse f4 [100, 1]
0	0x3888050d	6.485926e-05
1	0x3d26d09a	0.04072628
2	0x3d23d9cb	0.040002625
3	0x3d28ef07	0.04124358
4	0x3d195ea5	0.037443776
5	0x3d069f34	0.03286667
6	0x3d22f873	0.03978772
7	0x3d04a1b6	0.032380782
8	0x3cef4a06	0.029210102
9	0x3e8d8c50	0.27646112
10	0x3cf66359	0.03007667
11	0x3cf9ac70	0.030477732
12	0x3d4b7525	0.049672265
13	0x3d15d916	0.036583982
14	0x3dc21933	0.094774626
15	0x3cfe2df3	0.03102777
16	0x3d1baf0d	0.03800874
17	0x3d40ccfc	0.04707049
18	0x3d1649ff	0.036691662
19	0x3d07838a	0.03308443
20	0x3d206c11	0.03916556
21	0x3d262263	0.040560137
22	0x3cf4cff9	0.029884325
23	0x38dd0e94	0.000105408166
24	0x3d1bdef7	0.038054433
25	0x384d88a1	4.9003054e-05
26	0x3c802907	0.015644563
27	0x3c873d80	0.016508818
28	0x3ca3cf1f	0.019996224
29	0x3c79d0f1	0.015247569
30	0x3c35ac5f	0.01108846
31	0x3c942710	0.018085033
32	0x3c421c88	0.011847623
33	0x3c27011d	0.0101931365
34	0x3e9d87c1	0.30767635
35	0x3c838116	0.016052764
36	0x3c5e8e51	0.013583736
37	0x3c8c593e	0.017132398
38	0x3beabfdf	0.007163986
39	0x3cc11783	0.023570782
40	0x3c6fdc43	0.014639917
41	0x3c56c8ac	0.013109367
42	0x3c8048c2	0.015659694
43	0x3c9cbcf0	0.019133061
44	0x3c2ae75a	0.010431135
45	0x3c7f2a92	0.015574114
46	0x3c67a9c4	0.014139596
47	0x3c838e0d	0.016058946
48	0x38b863a3	8.7923625e-05
49	0x3c9556c2	0.018229846
50	0xbbc7b957	-0.0060950923
51	0xbec2fe50	-0.3808465
52	0xbec69872	-0.38788182
53	0x3ea28835	0.31744543
54	0x3ec1e1d6	0.37867612
55	0xbeaed0a8	-0.34143567
56	0x3ea7eb97	0.32796928
57	0x3eaf9491	0.34293035
58	0x3e93aa79	0.28840998
59	0x3faee51b	1.3663667
60	0xbe9a4e61	-0.30137923
61	0x3e722229	0.23645844
62	0x3ee840fa	0.45362073
63	0x3ebd2763	0.36944112
64	0xbf3b0052	-0.73047364
65	0xbeb228e0	-0.3479681
66	0x3ea7acb1	0.3274894
67	0xbeedca68	-0.46443486
68	0xbeb19ae5	-0.34688488
69	0x3eaffe13	0.3437353
70	0xbec8f97c	-0.3925284
71	0xbe98e294	-0.29860365
72	0x3e6acccb	0.22929685
73	0x3bd86c17	0.006604682
74	0x3eafd56b	0.34342512
75	0x386524fb	5.4632295e-05
76	0x3d2dd36f	0.042437967
77	0x3d311cee	0.04324048
78	0x3d2fc50d	0.04291253
79	0x3d2c3bc0	0.04204917
80	0x3d14ad71	0.03629822
81	0x3d32309b	0.043503385
82	0x3d03c527	0.03217044
83	0x3d0509eb	0.03248016
84	0x3e213a9c	0.15745014
85	0x3d0a1b9b	0.033717733
86	0x3cf80c4b	0.0302793
87	0x3d5fd571	0.054646913
88	0x3d1b6a61	0.037943248
89	0x3dd08c21	0.101829775
90	0x3d092f62	0.033492453
91	0x3d2a83ff	0.041629788
92	0x3d53221c	0.0515462
93	0x3d2953b8	0.041339606
94	0x3d15a1ae	0.036531143
95	0x3d3484e5	0.04407205
96	0x3d2bf8fd	0.0419855
97	0x3ceffffa	0.029296864
98	0x38b75966	8.742772e-05
99	0x3d290573	0.041264962

encoder.lstm.weight_hh_l0_reverse f4 [100, 25]
0	0xb5aaefe7	-1.2735808e-06
1	0xb81d9f8b	-3.7580303e-05
2	0xb8242adf	-3.9140574e-05
3	0x38213021	3.8430215e-05
4	0x38246a0c	3.919941e-05
5	0xb81561a8	-3.5615318e-05
6	0x3837ad36	4.3791915e-05
7	0x3812b0eb	3.497388e-05
8	0x380bf427	3.3367567e-05
9	0x38213ee3	3.844396e-05
10	0xb8108415	-3.4455286e-05
11	0x38029bfc	3.1139687e-05
12	0x3832bcb1	4.261424e-05
13	0x380785f7	3.2311273e-05
14	0xb835858b	-4.3278134e-05
15	0xb8269261	-3.971381e-05
16	0x3817337d	3.6049158e-05
17	0xb8191efa	-3.650689e-05
18	0xb828a44a	-4.0207327e-05
19	0x38180d68	3.625211e-05
20	0xb8278216	-3.9937055e-05
21	0xb80fc0e7	-3.427351e-05
22	0x3800ee53	3.0739535e-05
23	0x35f5e608	1.832087e-06
24	0x381fcb96	3.809816e-05
25	0xb9837ac0	-0.00025077723
26	0xbc061cdc	-0.008185592
27	0xbc17859e	-0.009248165
28	0x3c000487	0.007813579
29	0x3c112d56	0.008860907
30	0xbc03bac4	-0.008040134
31	0x3c15054b	0.0090955
32	0x3bf87639	0.0075824526
33	0x3bfae82a	0.0076570706
34	0x3cf35207	0.0297022
35	0xbbfb4451	-0.007668056
36	0x3bcc1ee1	0.006229267
37	0x3c1e70ec	0.009670477
38	0x3bfc3c6d	0.007697633
39	0xbbc72631	-0.006077551
40	0xbc10335e	-0.008801309
41	0x3c01f701	0.0079324255
42	0xbc1ad9a8	-0.009451307
43	0xbc0f6786	-0.008752709
44	0x3c090a11	0.008364216
45	0xbc1a0faf	-0.009403153
46	0xbbf11034	-0.007356668
47	0x3bcf77c3	0.0063314154
48	0x39a5793f	0.00031561588
49	0x3c0c5844	0.008565966
50	0xb93f2af6	-0.00018231184
51	0xbbfe85bc	-0.007767407
52	0xbc0b6823	-0.008508715
53	0x3beef38a	0.0072922157
54	0x3c09b93e	0.008405982
55	0xbbfeff6f	-0.007781915
56	0x3c0ccc67	0.008593655
57	0x3be26262	0.006908701
58	0x3bf54106	0.007484558
59	0x3cd95d82	0.026533846
60	0xbbec8242	-0.0072176764
61	0x3bb8a7f2	0.005635255
62	0x3c1408a9	0.009035268
63	0x3bf08afd	0.0073407874
64	0x3a2ec5c1	0.0006667041
65	0xbc014bb3	-0.007891583
66	0x3bf48d20	0.0074631125
67	0xbc10d081	-0.008838774
68	0xbc0bb258	-0.008526407
69	0x3c0151c4	0.00789303
70	0xbc117f38	-0.008880429
71	0xbbdb0e4d	-0.0066850544
72	0x3bbc555d	0.005747481
73	0x3972fcb1	0.00023173053
74	0x3c02cd14	0.007983465
75	0xb9c96c93	-0.00038418602
76	0xbc2d3e92	-0.010574
77	0xbc382f4d	-0.011241746
78	0x3c218bb9	0.009859973
79	0x3c312ea3	0.010814342
80	0xbc274f1e	-0.010211734
81	0x3c38cd10	0.011279359
82	0x3c150891	0.009096281
83	0x3c1bc408	0.009507187
84	0x3c918393	0.017762935
85	0xbc1c848e	-0.009553088
86	0x3bf5e720	0.007504359
87	0x3c4194c7	0.011815256
88	0x3c1b0fef	0.009464248
89	0xbbf6fb76	-0.0075373007
90	0xbc2a937b	-0.010411139
91	0x3c211cde	0.009833543
92	0xbc2eda59	-0.010672175
93	0xbc382682	-0.01123965
94	0x3c2abc08	0.010420807
95	0xbc3c33fb	-0.0114870025
96	0xbc1346bc	-0.008989032
97	0x3c00a57f	0.007851957
98	0x39f22d9a	0.00046191813
99	0x3c2ca57e	0.010537503
100	0xb9dd9007	-0.00042259714
101	0xbc2dbf3e	-0.010604678
102	0xbc412108	-0.01178766
103	0x3c2af074	0.010433305
104	0x3c3b085d	0.011415568
105	0xbc2cef92	-0.010555165
106	0x3c43db16	0.01195409
107	0x3c2381d3	0.009979683
108	0x3c252c35	0.010081341
109	0x3cfa6acb	0.030568501
110	0xbc259268	-0.010105707
111	0x3c0c8f15	0.008579035
112	0x3c48fb5d	0.012266961
113	0x3c23c8bc	0.009996589
114	0xbbcb0d21	-0.0061966334
115	0xbc3cdd21	-0.011527331
116	0x3c2d3f34	0.010574151
117	0xbc2d16b5	-0.010564496
118	0xbc360310	-0.011109129
119	0x3c3485f7	0.011018268
120	0xbc4386a2	-0.011933954
121	0xbc238577	-0.009980551
122	0x3c113036	0.008861592
123	0x39f7e235	0.0004728005
124	0x3c38fb76	0.011290422
125	0xb9a4b82d	-0.0003141774
126	0xbc19259f	-0.0093473485
127	0xbc264e55	-0.010150512
128	0x3c11243d	0.008858738
129	0x3c208540	0.009797394
130	0xbc1435aa	-0.009045998
131	0x3c23e3a8	0.010003008
132	0x3c066a00	0.008203983
133	0x3c0d8351	0.008637265
134	0x3ccb29d3	0.024800217
135	0xbc0cf678	-0.008603685
136	0x3bdc4e8c	0.0067232307
137	0x3c2c0a5c	0.010500517
138	0x3c0bf71c	0.008542802
139	0xbbd7e48b	-0.0065885237
140	0xbc1915e0	-0.009343594
141	0x3c0f3102	0.008739712
142	0xbc32b704	-0.010907892
143	0xbc25debe	-0.010123907
144	0x3c1702a5	0.009216939
145	0xbc297581	-0.0103429565
146	0xbc02bf50	-0.007980183
147	0x3be18026	0.0068817316
148	0x39c93e47	0.00038384108
149	0x3c1a9bcc	0.009436559
150	0xba18655a	-0.00058134424
151	0xbc407917	-0.01174762
152	0xbc5491dd	-0.01297423
153	0x3c4482bc	0.01199406
154	0x3c4d884f	0.0125447055
155	0xbc431d12	-0.011908786
156	0x3c5c6eb9	0.013454133
157	0x3c30fe28	0.010802783
158	0x3c3dafa8	0.011577524
159	0x3c7826e1	0.015145988
160	0xbc3d3340	-0.0115478635
161	0x3c22ed67	0.009944296
162	0x3c5ca3ce	0.013466788
163	0x3c391ebb	0.011298831
164	0xbc0a60b2	-0.0084459055
165	0xbc4bd29f	-0.012440353
166	0x3c424c79	0.011859053
167	0xbc474eb1	-0.012164758
168	0xbc518c06	-0.012789732
169	0x3c49f20f	0.012325778
170	0xbc58ea91	-0.013239519
171	0xbc398720	-0.01132372
172	0x3c26363d	0.010144767
173	0x3a25bb7e	0.0006322189
174	0x3c4e9501	0.0126087675
175	0xb9d8a586	-0.00041322055
176	0xbc1e258a	-0.009652505
177	0xbc3188b9	-0.01083582
178	0x3c20d786	0.00981701
179	0x3c2aa908	0.010416277
180	0xbc1c6008	-0.00954438
181	0x3c3669ac	0.011133593
182	0x3c1806bb	0.009278948
183	0x3c16de7d	0.009208319
184	0x3ce56aa0	0.028004944
185	0xbc19be02	-0.00938368
186	0x3c09b592	0.008405106
187	0x3c368dc5	0.011142199
188	0x3c1572db	0.009121622
189	0xbc3951df	-0.0113110235
190	0xbc315880	-0.010824323
191	0x3c22087c	0.009889718
192	0xbc2d256d	-0.010568005
193	0xbc23a179	-0.009987229
194	0x3c2544be	0.01008719
195	0xbc30aaf8	-0.01078295
196	0xbc1d2252	-0.009590702
197	0x3c0c6a28	0.0085702315
198	0x39f9ef13	0.00047671105
199	0x3c2b6e82	0.010463359
200	0xb992ba73	-0.00027986206
201	0xbbe817fd	-0.0070829378
202	0xbbf878db	-0.0075827665
203	0x3bdc231e	0.0067180535
204	0x3bf0682e	0.007336638
205	0xbbdb6cd6	-0.006696324
206	0x3bf6ee9c	0.0075357687
207	0x3bccc986	0.0062496094
208	0x3bcdf442	0.0062852213
209	0x3cdc1d1c	0.02686935
210	0xbbd04997	-0.006356429
211	0x3ba905da	0.0051581683
212	0x3c030b91	0.007998363
213	0x3bcc7a71	0.006240182
214	0xbbc4bc63	-0.0060039028
215	0xbbec68f7	-0.007214661
216	0x3bd6d224	0.0065558124
217	0xbc05ad1b	-0.008158947
218	0xbbf2c4a2	-0.0074086944
219	0x3bde4ee8	0.0067843087
220	0xbbf969de	-0.0076114973
221	0xbbc3d27a	-0.0059760185
222	0x3bac9d6b	0.005267789
223	0x39c60615	0.00037770034
224	0x3be88ec9	0.0070970994
225	0xba67a4df	-0.00088365184
226	0xbd4fac7c	-0.050701603
227	0xbd71afd5	-0.059005577
228	0x3d5008c8	0.050789624
229	0x3d72d050	0.059280694
230	0xbd5e25c3	-0.05423523
231	0x3d6b93b6	0.057513915
232	0x3d627dbf	0.055295702
233	0x3d4fb9d6	0.050714336
234	0x3e217a70	0.15769362
235	0xbd44b0e6	-0.048020266
236	0x3d36650d	0.044529963
237	0x3d887224	0.066623956
238	0x3d736339	0.059420798
239	0xbcef87ac	-0.029239498
240	0xbd691714	-0.056906775
241	0x3d605b94	0.054774836
242	0xbda762df	-0.08173155
243	0xbd57901f	-0.05262768
244	0x3d6957fc	0.056968674
245	0xbd785612	-0.060628958
246	0xbd53e112	-0.051728316
247	0x3d268280	0.0406518
248	0x3a78042b	0.00094610703
249	0x3d60aed0	0.054854214
250	0xb9ad96ce	-0.0003310949
251	0xbc01fe09	-0.007934102
252	0xbc10fb36	-0.008848956
253	0x3c00c555	0.007859548
254	0x3c0d401c	0.008621242
255	0xbc017da7	-0.007903493

encoder.lstm.bias_ih_l0_reverse f4 [100]
0	0x38ca7d62	9.655465e-05
1	0x3d8080f6	0.06274597
2	0x3d993434	0.0748066
3	0x3d8b34c9	0.06797177
4	0x3d89bf1c	0.06725904
5	0x3d60870f	0.054816302
6	0x3da47494	0.08030048
7	0x3d7db378	0.061938733
8	0x3d5dd78a	0.054160632
9	0x3e8bf0c0	0.27332115
10	0x3d3fd398	0.04683265
11	0x3d78e9ca	0.060769834
12	0x3dc804cd	0.09766541
13	0x3d8378db	0.06419536
14	0x3e3430a1	0.17596675
15	0x3d9ce288	0.07660395
16	0x3d93f687	0.07224756
17	0x3db4f638	0.08836025
18	0x3d67da53	0.056604695
19	0x3d8d6234	0.069034964
20	0x3d96c0ab	0.07360967
21	0x3d97f1d8	0.07419175
22	0x3d5a6044	0.053314462
23	0x39063192	0.00012797702
24	0x3d895bde	0.067069754
25	0x3886d644	6.429528e-05
26	0x3c9fef85	0.019523392
27	0x3cb8e68b	0.022570869
28	0x3cc656aa	0.024211247
29	0x3cc08b3f	0.023503898
30	0x3c8d2dea	0.017233808
31	0x3cfa1177	0.030525906
32	0x3c7dc819	0.0154896015
33	0x3c3cb2e9	0.011517265
34	0x3ec80fb2	0.39074475
35	0x3c905f48	0.017623559
36	0x3cb6f107	0.022331728
37	0x3cddce27	0.02707584
38	0x3c0a814f	0.008453681
39	0x3d77a137	0.06045648
40	0x3cdf5c69	0.027265744
41	0x3cac8ea4	0.02106411
42	0x3ce91d54	0.028456368
43	0x3ca1dfe1	0.019760074
44	0x3cbf83da	0.023378301
45	0x3cad9d98	0.02119331
46	0x3cc8396c	0.024441443
47	0x3cc91f49	0.02455105
48	0x38ba5ed1	8.886832e-05
49	0x3cdbe298	0.026841447
50	0x3abeecbb	0.0014566401
51	0x3c7f4eb3	0.015582728
52	0x3d125c89	0.03573278
53	0xbcf88e17	-0.030341191
54	0xbceb5b4c	-0.028730057
55	0x3c8018e9	0.015636878
56	0xbccba0fa	-0.024857033
57	0xbcfa968d	-0.030589366
58	0xbc9ed739	-0.019389736
59	0xbefd099c	-0.49421394
60	0x3cd89971	0.026440354
61	0xbd1678c5	-0.03673627
62	0xbd051498	-0.032490343
63	0xbcea4082	-0.028595213
64	0x3d285d6f	0.04110473
65	0x3d1b1581	0.037862305
66	0xbce8d496	-0.028421681
67	0x3c9b8697	0.018985076
68	0x3bebfce5	0.0072017782
69	0xbcce7ede	-0.02520698
70	0x3cd07bad	0.025449598
71	0x3d2371e2	0.03990353
72	0xbd043aec	-0.032282755
73	0xba8731bc	-0.0010314505
74	0xbd0dfaad	-0.03466289
75	0x38c7115c	9.492293e-05
76	0x3d916269	0.070988484
77	0x3dad9cdb	0.084771834
78	0x3d983677	0.07432263
79	0x3d9edcda	0.07756968
80	0x3d81e655	0.063427605
81	0x3db93884	0.090439826
82	0x3d8eca1c	0.06972143
83	0x3d7b2a13	0.061319422
84	0x3ee85c33	0.45382842
85	0x3d5aedea	0.05344955
86	0x3d85a345	0.06525282
87	0x3ddce550	0.107859254
88	0x3d9319e6	0.07182674
89	0x3e4fb793	0.20284872
90	0x3dafcbfc	0.08583829
91	0x3da483b7	0.08032935
92	0x3dce8c8e	0.100854024
93	0x3d81212e	0.06305157
94	0x3d9ff35d	0.0781009
95	0x3dac7110	0.084200025
96	0x3da6d6ef	0.08146464
97	0x3d6d0c9d	0.057873357
98	0x3904d762	0.00012668737
99	0x3d9b66ba	0.07587953

encoder.lstm.bias_hh_l0_reverse f4 [100]
0	0x38ca7d5e	9.655462e-05
1	0x3d8080f5	0.062745966
2	0x3d993434	0.0748066
3	0x3d8b34ca	0.06797178
4	0x3d89bf1f	0.067259066
5	0x3d60870a	0.054816283
6	0x3da47494	0.08030048
7	0x3d7db37d	0.06193875
8	0x3d5dd787	0.05416062
9	0x3e8bf0c4	0.27332127
10	0x3d3fd398	0.04683265
11	0x3d78e9c6	0.06076982
12	0x3dc804cc	0.0976654
13	0x3d8378dc	0.064195365
14	0x3e3430a0	0.17596674
15	0x3d9ce286	0.076603934
16	0x3d93f687	0.07224756
17	0x3db4f638	0.08836025
18	0x3d67da54	0.0566047
19	0x3d8d6233	0.06903496
20	0x3d96c0a7	0.07360964
21	0x3d97f1d9	0.07419176
22	0x3d5a6040	0.053314447
23	0x39063194	0.00012797705
24	0x3d895bdc	0.06706974
25	0x3886d644	6.429528e-05
26	0x3c9fef85	0.019523392
27	0x3cb8e68b	0.022570869
28	0x3cc656a3	0.024211233
29	0x3cc08b41	0.023503901
30	0x3c8d2ded	0.017233813
31	0x3cfa117f	0.03052592
32	0x3c7dc81f	0.015489607
33	0x3c3cb2dd	0.011517254
34	0x3ec80fb3	0.39074478
35	0x3c905f4d	0.017623568
36	0x3cb6f10a	0.022331733
37	0x3cddce2f	0.027075855
38	0x3c0a814f	0.008453681
39	0x3d77a137	0.06045648
40	0x3cdf5c6c	0.02726575
41	0x3cac8ea5	0.021064112
42	0x3ce91d68	0.028456405
43	0x3ca1dfe1	0.019760074
44	0x3cbf83dd	0.023378307
45	0x3cad9d8e	0.021193292
46	0x3cc8396d	0.024441445
47	0x3cc91f49	0.02455105
48	0x38ba5ed0	8.886831e-05
49	0x3cdbe298	0.026841447
50	0x3abeeca3	0.0014566373
51	0x3c7f4e61	0.015582652
52	0x3d125c92	0.035732813
53	0xbcf88e2f	-0.030341236
54	0xbceb5adc	-0.028729849
55	0x3c801872	0.015636656
56	0xbccba0f3	-0.02485702
57	0xbcfa964d	-0.030589247
58	0xbc9ed72e	-0.019389715
59	0xbefd080c	-0.49420202
60	0x3cd89976	0.026440363
61	0xbd1678d4	-0.036736324
62	0xbd051473	-0.032490205
63	0xbcea4036	-0.028595071
64	0x3d285d82	0.0411048
65	0x3d1b1593	0.03786237
66	0xbce8d4ad	-0.028421724
67	0x3c9b8638	0.018984899
68	0x3bebfce3	0.0072017773
69	0xbcce7ea7	-0.025206877
70	0x3cd07bb1	0.025449606
71	0x3d2371f5	0.0399036
72	0xbd043ae9	-0.032282744
73	0xba8731a6	-0.0010314479
74	0xbd0dfac0	-0.034662962
75	0x38c71160	9.492296e-05
76	0x3d91626a	0.07098849
77	0x3dad9cda	0.08477183
78	0x3d983676	0.074322626
79	0x3d9edcdb	0.077569686
80	0x3d81e657	0.06342762
81	0x3db93885	0.09043983
82	0x3d8eca1c	0.06972143
83	0x3d7b2a13	0.061319422
84	0x3ee85c33	0.45382842
85	0x3d5aedea	0.05344955
86	0x3d85a346	0.065252826
87	0x3ddce54f	0.10785925
88	0x3d9319e5	0.07182673
89	0x3e4fb792	0.2028487
90	0x3dafcbf9	0.085838266
91	0x3da483b8	0.08032936
92	0x3dce8c93	0.10085406
93	0x3d81212d	0.06305156
94	0x3d9ff35d	0.0781009
95	0x3dac710e	0.08420001
96	0x3da6d6f6	0.08146469
97	0x3d6d0c9e	0.05787336
98	0x3904d761	0.00012668736
99	0x3d9b66bd	0.07587955

encoder.lstm.weight_ih_l1 f4 [100, 50]
0	0x9a4df36e	-4.2589647e-23
1	0x1d0a7bdd	1.8328184e-21
2	0x1d3627f1	2.4108149e-21
3	0x1ca7de0a	1.1108529e-21
4	0x17fb2219	1.6229102e-24
5	0x9e03704c	-6.958305e-21
6	0x19a0d5c4	1.6629951e-23
7	0x168a4f57	2.2345173e-25
8	0x1be34429	3.7598047e-22
9	0x9a201e41	-3.3111663e-23
10	0x170901c3	4.426931e-25
11	0x9cf95572	-1.6499525e-21
12	0x9d0204b8	-1.7207796e-21
13	0x9c595ccb	-7.191921e-22
14	0x9914853d	-7.678328e-24
15	0x9938c71e	-9.5527884e-24
16	0x1a19cdf5	3.180603e-23
17	0x1b181fd8	1.2583435e-22
18	0x9b3454c1	-1.4916636e-22
19	0x1ab4eb0c	7.4825994e-23
20	0x1bb835eb	3.047509e-22
21	0x990f5b30	-7.411342e-24
22	0x9b1c6f93	-1.2940069e-22
23	0x976abb3a	-7.584579e-25
24	0x1c813702	8.550723e-22
25	0x1f57d3d8	4.5703254e-20
26	0xa079fb46	-2.117426e-19
27	0x21b920b2	1.2544742e-18
28	0xa11da9e3	-5.341851e-19
29	0x1fbfcffd	8.1235734e-20
30	0x2139137a	6.2706215e-19
31	0xa0880009	-2.303932e-19
32	0xa172688b	-8.213115e-19
33	0xa07c8f95	-2.1392738e-19
34	0xa32c9400	-9.355479e-18
35	0x20e25c08	3.834679e-19
36	0xa19fdee7	-1.0833261e-18
37	0xa063ebe8	-1.9305703e-19
38	0xa125dc2b	-5.6195564e-19
39	0xa00dddb5	-1.2016521e-19
40	0x212a1763	5.762919e-19
41	0xa11ebf93	-5.378603e-19
42	0xa195d4e3	-1.0152983e-18
43	0x20f616d0	4.1689117e-19
44	0xa0d9fb09	-3.692735e-19
45	0x9fe0ed6e	-9.5260485e-20
46	0x21bff2e3	1.3006955e-18
47	0xa1a9af1a	-1.1498234e-18
48	0x9f104021	-3.0546232e-20
49	0xa12d0960	-5.862709e-19
50	0xa2d3cf86	-5.741139e-18
51	0x238e0834	1.5399145e-17
52	0x244e20bf	4.4696867e-17
53	0x23933185	1.5958744e-17
54	0x2047cd9d	1.6923987e-19
55	0x257ba0c0	2.1825244e-16
56	0x9ee843d8	-2.4592015e-20
57	0x9d826dae	-3.452412e-21
58	0x2260bd96	3.0458027e-18
59	0xa10e477e	-4.820609e-19
60	0x1e422aec	1.02791505e-20
61	0x233e0a98	1.0302164e-17
62	0xa2fc5218	-6.8391657e-18
63	0xa3dfd1db	-2.4266586e-17
64	0xa03bbb27	-1.590144e-19
65	0xa00ebc97	-1.2090267e-19
66	0x217d73f5	8.58732e-19
67	0xa388db86	-1.4838121e-17
68	0x22e7b89b	6.2808134e-18
69	0x21b71445	1.2405928e-18
70	0xa2f71758	-6.69742e-18
71	0x223e62c6	2.5802092e-18
72	0xa1f7b92c	-1.6786386e-18
73	0x9f19b9e4	-3.2552775e-20
74	0xa3534478	-1.1452832e-17
75	0x26b9a6a2	1.288212e-15
76	0xa6389c90	-6.4050006e-16
77	0x28dff2b4	2.4863229e-14
78	0x278cf343	3.912155e-15
79	0x28fd2b00	2.810729e-14
80	0x281b3734	8.616199e-15
81	0xa84f1909	-1.1496237e-14
82	0xa66a7ade	-8.1351575e-16
83	0xa88a1da3	-1.533393e-14
84	0xaa21a80d	-1.4357977e-13
85	0x25076a10	1.1745319e-16
86	0xa896c1cb	-1.673739e-14
87	0xa81aa8f8	-8.5853565e-15
88	0xa87aaa4a	-1.3914713e-14
89	0x26265018	5.7701367e-16
90	0xa77ed270	-3.536366e-15
91	0xa80fa14b	-7.9730695e-15
92	0x28d50449	2.3649609e-14
93	0x27ec72ca	6.5627613e-15
94	0xa79a6d30	-4.2861968e-15
95	0x283dccd3	1.0536022e-14
96	0x26d8c0a9	1.5040231e-15
97	0x26dd347d	1.5349183e-15
98	0xa69b02ec	-1.0756078e-15
99	0x2865aa28	1.274895e-14
100	0x9ca4aab0	-1.0896731e-21
101	0x1ce8049d	1.5353665e-21
102	0x9e3ad8fa	-9.891628e-21
103	0x9dbba6ed	-4.9671085e-21
104	0x992cae18	-8.9273495e-24
105	0x1f658328	4.8601126e-20
106	0x9a25e5e4	-3.4306904e-23
107	0x9846275d	-2.5610774e-24
108	0x9c2b64ad	-5.6709274e-22
109	0x9a5a5b91	-4.515531e-23
110	0x179092ae	9.342809e-25
111	0x9de4bf64	-6.054899e-21
112	0x1dd19b69	5.548253e-21
113	0x1c4519a8	6.521499e-22
114	0x18f43093	6.312157e-24
115	0x1a1a7662	3.1942082e-23
116	0x1c76067d	8.140296e-22
117	0x9c02a56e	-4.3227205e-22
118	0x1daf4c9c	4.6401327e-21
119	0x1aa98000	7.010356e-23
120	0x9d1dfbb9	-2.0908915e-21
121	0x18c1b1e8	5.006897e-24
122	0x9abcdbe5	-7.8110236e-23
123	0x19ddccdc	2.2933606e-23
124	0x1e45a274	1.0462688e-20
125	0x9df74af2	-6.5457847e-21
126	0xa2ee1f5d	-6.4543236e-18
127	0xa2f01104	-6.5070146e-18
128	0x22e1d1bc	6.1208437e-18
129	0x22e1f2fa	6.1243634e-18
130	0xa2c42069	-5.316022e-18
131	0x22de08d2	6.018256e-18
132	0x2331a345	9.629763e-18
133	0xa17cc130	-8.5636603e-19
134	0xa37bcd27	-1.365018e-17
135	0xa3132c41	-7.978257e-18
136	0x21e6a729	1.5629653e-18
137	0x23bffce5	2.0815366e-17
138	0x220a6a6f	1.8758833e-18
139	0xa35d3d90	-1.199347e-17
140	0xa3346e80	-9.781219e-18
141	0x23283c3a	9.120052e-18
142	0xa1e3ac1c	-1.5427675e-18
143	0xa334fe19	-9.811627e-18
144	0x2309de68	7.473881e-18
145	0xa214cbe1	-2.0165673e-18
146	0xa330addc	-9.577795e-18
147	0x23570f51	1.1658417e-17
148	0xa01b27a0	-1.3142121e-19
149	0x236e8783	1.29307016e-17
150	0x9df5cbc4	-6.506165e-21
151	0x1e2497c0	8.713469e-21
152	0x9dc1688a	-5.1194765e-21
153	0x1d2b17bf	2.2643938e-21
154	0x1936d2f2	9.4517795e-24
155	0x1ff42840	1.0340461e-19
156	0x19cd6f6c	2.1241506e-23
157	0x999079f5	-1.4938509e-23
158	0x1e74738a	1.2941145e-20
159	0x9bf96261	-4.125717e-22
160	0x18877dee	3.502384e-24
161	0x9f8e3e54	-6.024245e-20
162	0x9e86a9dc	-1.4258054e-20
163	0x9e8e6ca0	-1.5079761e-20
164	0x9ab0b4f4	-7.308424e-23
165	0x19bb8847	1.9390389e-23
166	0x1d74d38c	3.2402498e-21
167	0x9e61752e	-1.1935633e-20
168	0x9e12ce1a	-7.7717964e-21
169	0x9c5c8074	-7.2957916e-22
170	0x9e3dee9c	-1.005492e-20
171	0x1cf0e0fd	1.5940026e-21
172	0x9d0d6dd4	-1.8717974e-21
173	0x19ce3298	2.1320335e-23
174	0x1f0eb649	3.0220452e-20
175	0x2084ac06	2.2475505e-19
176	0xa3d496d3	-2.3048963e-17
177	0xa3b047de	-1.9112395e-17
178	0x2401328e	2.8015238e-17
179	0x23c45279	2.1285291e-17
180	0x236549c8	1.2429739e-17
181	0xa2d77a5b	-5.8405416e-18
182	0x23c79bfb	2.1641684e-17
183	0x2299ad90	4.16545e-18
184	0xa48004cf	-5.55193e-17
185	0xa376d45d	-1.3380656e-17
186	0x225ab38f	2.9639567e-18
187	0x246dd8e8	5.157491e-17
188	0xa381a092	-1.4054212e-17
189	0x239beb61	1.690482e-17
190	0xa30c9f31	-7.623125e-18
191	0x22d8f353	5.8804547e-18
192	0x239d2c69	1.7040783e-17
193	0xa40af0ce	-3.012795e-17
194	0x21f62bf4	1.6681243e-18
195	0x231e987d	8.597488e-18
196	0xa32e3dfd	-9.4456854e-18
197	0x23f35f13	2.6386378e-17
198	0xa188c243	-9.267139e-19
199	0x2421cade	3.5083145e-17
200	0x23ad0607	1.875925e-17
201	0xa4783bfe	-5.3827243e-17
202	0xa4150f7c	-3.232234e-17
203	0xa316022d	-8.131977e-18
204	0x9fce2bf1	-8.731709e-20
205	0x25d33f9d	3.6645771e-16
206	0xa0f06ee8	-4.0730973e-19
207	0x1f7787d8	5.2416652e-20
208	0xa4a7c4c0	-7.275801e-17
209	0x21b0518c	1.1947809e-18
210	0x1e9ceba7	1.6614606e-20
211	0xa486bbaa	-5.843115e-17
212	0x23e9df7d	2.5356562e-17
213	0x23511169	1.13335994e-17
214	0x9e352137	-9.588929e-21
215	0x20316e0b	1.5028893e-19
216	0xa228d94a	-2.2883277e-18
217	0x234a7470	1.09750985e-17
218	0xa49b8a78	-6.745511e-17
219	0xa2d569de	-5.7845857e-18
220	0x22afd1d6	4.7656017e-18
221	0x229304f4	3.9849674e-18
222	0xa052b65e	-1.7848032e-19
223	0xa05166dd	-1.7737023e-19
224	0xa3c47535	-2.1300002e-17
225	0xa5983b20	-2.6407861e-16
226	0x28d6d1ea	2.3849808e-14
227	0x28736ec7	1.3513231e-14
228	0xa984149f	-5.865555e-14
229	0xa9750a89	-5.4410066e-14
230	0x2a1a5862	1.3708612e-13
231	0xa93eb361	-4.234406e-14
232	0xa93c80eb	-4.1856204e-14
233	0xa9218c65	-3.5870954e-14
234	0x298f2ad9	6.3579086e-14
235	0x28605727	1.2453396e-14
236	0xa86787a3	-1.28524875e-14
237	0xa9800132	-5.684549e-14
238	0x2892d4f4	1.630161e-14
239	0xa9923f89	-6.494724e-14
240	0x28f35d83	2.7018974e-14
241	0xa98e7a6d	-6.327304e-14
242	0xa6ddd42a	-1.5392463e-15
243	0x2a0528c9	1.1826923e-13
244	0xa9c529e6	-8.7558257e-14
245	0x29b2d08a	7.940964e-14
246	0x28fa7c9c	2.7809616e-14
247	0xa9a7574c	-7.4314334e-14
248	0xa6e88c59	-1.6136275e-15
249	0xa9a1d6c3	-7.1870915e-14
250	0x1a1716dc	3.1244534e-23
251	0x1c5ab49d	7.2363587e-22
252	0x1bc5e26e	3.2737243e-22
253	0x98c04dfc	-4.970958e-24
254	0x18b21e56	4.6042553e-24
255	0x9ed866e0	-2.2912438e-20

encoder.lstm.weight_hh_l1 f4 [100, 25]
0	0x9631e0fb	-1.4368937e-25
1	0x1c49d866	6.678501e-22
2	0x16c2789d	3.1418508e-25
3	0x97133e15	-4.757662e-25
4	0x19c44599	2.0294035e-23
5	0x16026975	1.0534593e-25
6	0x1ababd74	7.7233875e-23
7	0x98bb37a7	-4.839456e-24
8	0x151c671a	3.1585282e-26
9	0x1d7141e3	3.1930147e-21
10	0x9b9ae978	-2.5628039e-22
11	0x15e9a1d4	9.436327e-26
12	0x95928a12	-5.918677e-26
13	0x94d731a5	-2.1729033e-26
14	0x1eae722a	1.8470184e-20
15	0x979cc57c	-1.0131116e-24
16	0x121472c1	4.684201e-28
17	0x1e15fa1c	7.939716e-21
18	0x9b20603e	-1.3265987e-22
19	0x930a0e12	-1.7424986e-27
20	0x13bbf038	4.744231e-27
21	0x16b6fef7	2.9564591e-25
22	0x1393090f	3.711695e-27
23	0x956c8dfb	-4.7771823e-26
24	0x9855cf72	-2.7634338e-24
25	0x1b85ea80	2.2154546e-22
26	0x22b7ae82	4.9787017e-18
27	0x1d0c9091	1.8603585e-21
28	0x1d688264	3.0772355e-21
29	0x1e9de216	1.6716529e-20
30	0x1a94c5f3	6.153117e-23
31	0x20eee6ae	4.047142e-19
32	0x9ff58d60	-1.0399542e-19
33	0x1c60e01a	7.4405027e-22
34	0xa3a82c1a	-1.8233274e-17
35	0x214db98b	6.9702266e-19
36	0x1cc47610	1.300071e-21
37	0x9b359ae1	-1.5022013e-22
38	0x9b7ec231	-2.1073134e-22
39	0x25ce4f6c	3.5789122e-16
40	0x9eca6e38	-2.1433167e-20
41	0x193ddbd7	9.815467e-24
42	0x259fc103	2.7712893e-16
43	0x21794e23	8.4467895e-19
44	0x9a7491f9	-5.0575933e-23
45	0x1ae95a82	9.6512765e-23
46	0x1d150a71	1.9725384e-21
47	0x1a7ec45a	5.268458e-23
48	0x1bb0e056	2.9261731e-22
49	0x9fa3e296	-6.940804e-20
50	0x96aa4fea	-2.7515414e-25
51	0x1dc118ab	5.111218e-21
52	0x17cb5c0c	1.3141803e-24
53	0x9800a0fd	-1.662489e-24
54	0x1ae83583	9.6039404e-23
55	0x171532fa	4.820884e-25
56	0x1c02383f	4.308609e-22
57	0x99ac7add	-1.7834007e-23
58	0x160f2266	1.1562302e-25
59	0x1e505079	1.102807e-20
60	0x9cc70ed4	-1.3172548e-21
61	0x17084108	4.402605e-25
62	0x9695216c	-2.409334e-25
63	0x9664624d	-1.8448712e-25
64	0x1fa5443c	6.99931e-20
65	0x98f826a3	-6.414551e-24
66	0x13915bc1	3.6693622e-27
67	0x201383e4	1.2495023e-19
68	0x9c4665a3	-6.5644067e-22
69	0x94d80284	-2.1811419e-26
70	0x14f2cfea	2.4517763e-26
71	0x16bea2d8	3.0798924e-25
72	0x14fb4e3d	2.5375383e-26
73	0x96b44b78	-2.9128196e-25
74	0x9978e91d	-1.2868376e-23
75	0x97c417b6	-1.2672189e-24
76	0x1e9fa63e	1.6903536e-20
77	0x18a06931	4.1465247e-24
78	0x98f412c0	-6.3091454e-24
79	0x1bbbceab	3.107011e-22
80	0x1821100c	2.0816864e-24
81	0x1d02c941	1.7309403e-21
82	0x9ad62a9b	-8.857716e-23
83	0x171bd2b4	5.0349146e-25
84	0x1f6db539	5.0336606e-20
85	0x9dd7e2de	-5.71446e-21
86	0x17c99707	1.3027445e-24
87	0x97a32308	-1.0542471e-24
88	0x9760e8cb	-7.267213e-25
89	0x20aa9392	2.8896774e-19
90	0x9997a622	-1.5680135e-23
91	0x14856f79	1.3473536e-26
92	0x2173569a	8.244622e-19
93	0x9d101656	-1.9069789e-21
94	0x9541db84	-3.9149207e-26
95	0x15e4ca23	9.240738e-26
96	0x18140b6c	1.9134318e-24
97	0x15b5fe54	7.3506577e-26
98	0x9762e41c	-7.3312453e-25
99	0x9a573c31	-4.450958e-23
100	0x1d52cea4	2.79001e-21
101	0xa459b9fd	-4.7211912e-17
102	0x9bd670f4	-3.5476324e-22
103	0x9dab9314	-4.54154e-21
104	0xa3a4be42	-1.7861493e-17
105	0x9d8a95bd	-3.668312e-21
106	0xa226e1a6	-2.2616652e-18
107	0x201811ab	1.2880747e-19
108	0x9ccbf4ae	-1.3496661e-21
109	0xa53b87b4	-1.6265643e-16
110	0x2302800c	7.074429e-18
111	0x9d1056b8	-1.9103074e-21
112	0x1d4927d3	2.6622717e-21
113	0x1d276aed	2.2157545e-21
114	0xa475e309	-5.3318213e-17
115	0x9f6212c0	-4.787287e-20
116	0x9a2c77fb	-3.5665686e-23
117	0xa4ba40b0	-8.0774227e-17
118	0x22c1680f	5.242293e-18
119	0x9a072402	-2.7946433e-23
120	0x9b8529c1	-2.2029987e-22
121	0x9d547d99	-2.8122899e-21
122	0x9bafb244	-2.9066523e-22
123	0x1d28fc5b	2.236508e-21
124	0x9eeaa626	-2.4844431e-20
125	0x962df1ad	-1.4051088e-25
126	0x1c10c546	4.7900573e-22
127	0x16e5a8c0	3.7103442e-25
128	0x9704b405	-4.2878717e-25
129	0x1a2ad723	3.5328962e-23
130	0x950f107d	-2.8891627e-26
131	0x1b36b87a	1.5114295e-22
132	0x984c4600	-2.6401723e-24
133	0x15a52c8f	6.671327e-26
134	0x9d31db03	-2.3538981e-21
135	0x9c0bd4d6	-4.6266326e-22
136	0x166122a8	1.8186291e-25
137	0x9386fccc	-3.4075633e-27
138	0x13b688bf	4.60781e-27
139	0x1f4d2993	4.3444828e-20
140	0x97e4473d	-1.4752138e-24
141	0x120b6651	4.398678e-28
142	0x1f4183ae	4.0978263e-20
143	0x9b80643e	-2.1240604e-22
144	0x926ead35	-7.531305e-28
145	0x139f0883	4.0145636e-27
146	0x162fada5	1.419118e-25
147	0x140ad3eb	7.009013e-27
148	0x9606cf71	-1.0889891e-25
149	0x98e1f33c	-5.840674e-24
150	0x9e3bad76	-9.9355685e-21
151	0x2571ec1a	2.0983412e-16
152	0x1f25e724	3.5131304e-20
153	0x9fb790e4	-7.7743216e-20
154	0x22130c19	1.992862e-18
155	0x1f57d7c9	4.5706514e-20
156	0x246b34e8	5.1002315e-17
157	0xa105680e	-4.519987e-19
158	0x1d836863	3.4783345e-21
159	0x2372f220	1.3170118e-17
160	0xa3e8d9be	-2.5245708e-17
161	0x1de3aca6	6.0264914e-21
162	0x9d295dd2	-2.2415468e-21
163	0x9e1ef530	-8.415154e-21
164	0x268ad2de	9.632829e-16
165	0x9f795771	-5.280013e-20
166	0x1b8d87a9	2.3414162e-22
167	0x280f398a	7.950571e-15
168	0xa33824c8	-9.982449e-18
169	0x9c2bfc31	-5.6905104e-22
170	0x1ce0f8a5	1.488735e-21
171	0x1e34d936	9.574039e-21
172	0x1bbee6e3	3.158207e-22
173	0x9d0d9782	-1.8739522e-21
174	0xa09b559e	-2.6314678e-19
175	0x1b24344f	1.3582664e-22
176	0xa0f36db9	-4.123841e-19
177	0x9bd12092	-3.4597198e-22
178	0x1c4bbbd0	6.740981e-22
179	0x9e990634	-1.620207e-20
180	0x9ae431d5	-9.43791e-23
181	0xa0405ff9	-1.6294787e-19
182	0x1e0fe18c	7.616999e-21
183	0x9a92b35e	-6.067397e-23
184	0xa29c51be	-4.2370433e-18
185	0x20eb0ef9	3.9820457e-19
186	0x9affcc4c	-1.0579559e-22
187	0x1a1110ff	2.9999027e-23
188	0x1a26c2d4	3.4485376e-23
189	0xa2d1213c	-5.668475e-18
190	0x1d1041c2	1.9092237e-21
191	0x97707b1b	-7.7703563e-25
192	0xa234f6e8	-2.452526e-18
193	0x200a39b7	1.1708151e-19
194	0x188ff82d	3.7215227e-24
195	0x992639ed	-8.593697e-24
196	0x9b0e9092	-1.1792678e-22
197	0x9968da0b	-1.2038152e-23
198	0x1ac76ec0	8.24834e-23
199	0x1dc1e369	5.132181e-21
200	0x13be51e6	4.80435e-27
201	0x99078f4d	-7.008276e-24
202	0x141b9242	7.8543444e-27
203	0x9548287a	-4.042161e-26
204	0x97fdb570	-1.6395543e-24
205	0x93e6dd72	-5.8278525e-27
206	0x98ef9b5f	-6.1936937e-24
207	0x9693a0d5	-2.385063e-25
208	0x12a658b6	1.0497942e-27
209	0x9bbf6917	-3.1666212e-22
210	0x196fe906	1.2403069e-23
211	0x1392b81b	3.7037124e-27
212	0x93e7d57c	-5.852311e-27
213	0x93bfcbb6	-4.8416053e-27
214	0x1ba01978	2.6486238e-22
215	0x1527c7b7	3.388293e-26
216	0x104c57cd	4.0299545e-29
217	0x1d844741	3.5013784e-21
218	0x1929ee3e	8.785208e-24
219	0x11c5c592	3.1202882e-28
220	0x120a3c4d	4.361945e-28
221	0x93d25b78	-5.3101648e-27
222	0x91af0c82	-2.761784e-28
223	0x92f1df81	-1.5264336e-27
224	0x158e87c0	5.756752e-26
225	0x93a88360	-4.2538708e-27
226	0x1d279949	2.2181513e-21
227	0x94adf612	-1.7565594e-26
228	0x968c674e	-2.2683414e-25
229	0x99a2fbb0	-1.6852063e-23
230	0x166279cf	1.8294571e-25
231	0x1a607d70	4.6423442e-23
232	0x98c46907	-5.0770863e-24
233	0x14c560e6	1.9930136e-26
234	0x1da321bb	4.3180617e-21
235	0x9ae56210	-9.487061e-23
236	0x1602a940	1.0554722e-25
237	0x9612d3cc	-1.1860617e-25
238	0x95cf6a89	-8.377472e-26
239	0x1f39cb8c	3.9343644e-20
240	0x978029de	-8.282375e-25
241	0x1260868a	7.084777e-28
242	0x1fa7d3c0	7.107756e-20
243	0x1a39fe13	3.8462343e-23
244	0x93d5e7ca	-5.399732e-27
245	0x13e37df4	5.7427056e-27
246	0x14c050b1	1.9418873e-26
247	0x13c3d9e4	4.9439777e-27
248	0x953b8509	-3.7869295e-26
249	0x97333320	-5.790255e-25
250	0xa0a1dc91	-2.742042e-19
251	0x27980d72	4.2203052e-15
252	0x2206dd68	1.8277598e-18
253	0xa1ee8189	-1.6161795e-18
254	0x24d11c17	9.068689e-17
255	0x20c7e12b	3.3860915e-19

encoder.lstm.bias_ih_l1 f4 [100]
0	0xa1ce9688	-1.3998948e-18
1	0x283f8203	1.0630822e-14
2	0x24e3c765	9.8783345e-17
3	0x25b82259	3.1942187e-16
4	0x2b96213a	1.0667363e-12
5	0x2326f769	9.051269e-18
6	0x2d1638f2	8.539157e-12
7	0x270e0901	1.971134e-15
8	0x224c6aba	2.7703656e-18
9	0x23c3b9b3	2.1220589e-17
10	0x2f5ab429	1.989099e-10
11	0x236dbdcb	1.2887986e-17
12	0xa38d6ec7	-1.5334167e-17
13	0x216b3d02	7.970184e-19
14	0x2a9e910a	2.816708e-13
15	0xa58c4ca7	-2.433807e-16
16	0x9c2a39aa	-5.632281e-22
17	0x1ca9cdc8	1.1236675e-21
18	0xad0f1c0c	-8.1348366e-12
19	0x9e85feb9	-1.4187274e-20
20	0x1eca86a1	2.1443263e-20
21	0xa36cd69b	-1.283903e-17
22	0x1f64b295	4.8428598e-20
23	0x21c50ff1	1.3353459e-18
24	0x28ad5a4a	1.9246015e-14
25	0xa2351c70	-2.4545129e-18
26	0x28ba0497	2.0652139e-14
27	0x24e24b74	9.81397e-17
28	0x25b4671f	3.12949e-16
29	0x2b92f270	1.0441214e-12
30	0x233ebf43	1.0340422e-17
31	0x2d107b51	8.212834e-12
32	0x2704c8f1	1.842761e-15
33	0x2258f0e8	2.9400993e-18
34	0x23dff05e	2.4279508e-17
35	0x2f5cd4ef	2.0084533e-10
36	0x2374a8b0	1.32629875e-17
37	0xa3764737	-1.3350767e-17
38	0x217b4434	8.5132374e-19
39	0x2a9ec7c4	2.8205053e-13
40	0xa5a5f3c3	-2.8788117e-16
41	0x1cb94aef	1.2261643e-21
42	0x1cb60049	1.2043823e-21
43	0xad17a196	-8.6192355e-12
44	0x9e994d78	-1.6231545e-20
45	0x1ed6a334	2.272563e-20
46	0xa369ac30	-1.26674174e-17
47	0x1f8faeb2	6.0851865e-20
48	0x2136b670	6.190545e-19
49	0x28ad24fa	1.9222894e-14
50	0xb136a515	-2.6578324e-09
51	0x3539bbaf	6.9190986e-07
52	0x32098949	8.005665e-09
53	0xb28d71e9	-1.646636e-08
54	0x354ddb16	7.6687263e-07
55	0x31654d33	3.3367769e-09
56	0x366ee5a2	3.5598428e-06
57	0xb4326870	-1.6615536e-07
58	0x309f88e4	1.1607679e-09
59	0x313ea36e	2.7741538e-09
60	0xb73d037d	-1.126609e-05
61	0x315b6a6a	3.1929184e-09
62	0xb1151cb4	-2.169867e-09
63	0xb0ee39c1	-1.7333194e-09
64	0xb4b9cb3d	-3.460681e-07
65	0xb3350362	-4.2145423e-08
66	0x2d881856	1.5472217e-11
67	0x2e966039	6.838303e-11
68	0xb697a41b	-4.519255e-06
69	0xaf3db273	-1.7252848e-10
70	0x2f2ffcd9	1.6005987e-10
71	0x315194b4	3.049803e-09
72	0x2f4498e4	1.7880414e-10
73	0xb10d2841	-2.0541082e-09
74	0xb3f016d9	-1.1180027e-07
75	0x963eff3d	-1.5428617e-25
76	0x1ca34948	1.0805378e-21
77	0x9731d5d3	-5.746167e-25
78	0x96c18843	-3.1266825e-25
79	0xa0aaf1d0	-2.8959138e-19
80	0x95fac4f4	-1.01284933e-25
81	0x9e404313	-1.0178266e-20
82	0x15fcbb5c	1.0207759e-25
83	0x12a2988b	1.0261242e-27
84	0x1b07432d	1.1188644e-22
85	0xa0544e17	-1.7982936e-19
86	0x93cc2ece	-5.1542993e-27
87	0x157b6077	5.0765144e-26
88	0x941b6159	-7.844699e-27
89	0x9f053212	-2.8205263e-20
90	0x17c51485	1.2736006e-24
91	0x8aacb8a5	-1.6632453e-32
92	0x19ece3dd	2.4493861e-23
93	0x9ecca3f6	-2.1667153e-20
94	0x91055ff9	-1.0521424e-28
95	0x8f281de4	-8.288796e-30
96	0x150436ad	2.670032e-26
97	0x91c2a7b7	-3.0711165e-28
98	0x129888ed	9.626303e-28
99	0x9888451e	-3.5224967e-24
