Encoder-Decoder-Models/models/model_cond_lstm 1.pt (torch_old, 167164 bytes, 45 tensors)

encoder.lstm.weight_ih_l0 f4 [100, 1]
1.7222969e-12 5.860202e-11 -3.3736646e-12 1.0018681e-07 6.9871556e-12 7.0289513e-15 4.6603716e-07 8.792629e-12
9.777205e-11 1.8748889e-19 2.5962594e-12 -4.387363e-09 2.9048535e-09 -9.159657e-07 2.4847133e-13 1.0708709e-06
5.705193e-10 7.435056e-10 1.612232e-11 -8.0866997e-13 1.7041447e-10 8.742802e-11 1.8678982e-12 1.9836525e-11
1.8152572e-09 1.651023e-12 4.5500957e-11 2.3438293e-12 8.448747e-08 4.4817153e-12 6.63596e-15 9.284396e-07
6.3153146e-12 8.036441e-11 3.1474876e-18 1.9453059e-11 -1.0683121e-09 3.901983e-09 -4.585251e-07 2.4260317e-13
9.913747e-07 4.0710352e-10 4.5189433e-10 1.5248526e-11 2.619137e-12 1.4713324e-10 4.0434023e-10 4.7058837e-12
2.3442222e-11 2.672714e-09 -1.7699713e-06 1.357558e-05 -2.077202e-06 -0.00043219162 -3.820383e-06 -8.9823075e-08
0.0015409236 4.4410926e-06 1.5956059e-05 1.943342e-09 -3.957343e-06 -0.00020173888 9.215353e-05 0.0038468991
6.834991e-07 0.0017674014 -3.719664e-05 6.0010505e-05 -6.3296766e-06 -1.9336371e-06 -1.829606e-05 2.5532632e-05
-1.8564914e-07 -1.0480179e-05 9.170688e-05 1.99316e-12 6.2031144e-11 -1.820052e-13 1.10898576e-07 6.926315e-12
8.070112e-15 7.65947e-07 9.449567e-12 1.0512374e-10 1.5959374e-18 1.27471375e-11 -2.6756406e-09 3.811502e-09
1.1560928e-06 3.1602653e-13 1.1576565e-06 5.556272e-10 7.2380374e-10 1.806896e-11 9.071222e-13 1.7237893e-10
3.0025757e-10 4.064877e-12 2.5476444e-11 2.4104985e-09
00000000: 4964 f22b 01de 802e 8a66 6dac 4826 d733
00000010: b4d6 f52c a23e fd27 a933 fa34 7bae 1a2d
00000020: c500 d72e 0a59 5d20 0db2 362c a7bf 96b1
00000030: b99e 4731 afe0 75b5 7ee0 8b2a d8ba 8f35
00000040: bad2 1c30 8e5f 4c30 3dd0 8d2d d09e 63ab
00000050: 695f 3b2f 9a41 c02e 1071 032c e27b ae2d
00000060: af7c f930 5f5c e82b 861d 482e adee 242c
00000070: 7a6f b533 b4af 9d2c ee15 ef27 e239 7935
00000080: 4c33 de2c 24b9 b02e 5c3e 6822 651c ab2d
00000090: e4d3 92b0 3512 8631 362b f6b4 cd92 882a
000000a0: 600f 8535 bace df2f 796e f82f a120 862d
000000b0: 2d4e 382c 53c6 212f d449 de2f d592 a52c
000000c0: 3133 ce2d e2aa 3731 c08f edb5 acc2 6337
000000d0: 0f66 0bb6 c797 e2b9 d730 80b6 c2e4 c0b3
000000e0: d1f8 c93a b204 9536 60d9 8537 a28b 0531
000000f0: 51c9 84b6 de89 53b9 8d42 c138 421c 7c3b
00000100: b379 3735 26a8 e73a 9703 1cb8 cab3 7b38
00000110: 8263 d4b6 a2c3 01b6 7d7a 99b7 e92e d637
00000120: d956 47b4 07d4 2fb7 c252 c038 9441 0c2c
00000130: 6e68 882e 6deb 4caa 2327 ee33 b3b2 f32c
00000140: d360 1128 7a9b 4d35 113d 262d 682b e72e
00000150: cf84 eb21 0140 602d 5ede 37b1 53f6 8231
00000160: 0c2b 9b35 39e8 b12a c660 9b35 caba 1830
00000170: 29f5 4630 aeef 9e2d 0b55 7f2b 5b88 3d2f
00000180: 7f11 a52f 2805 8f2c da17 e02d f0a5 2531

encoder.lstm.weight_hh_l0 f4 [100, 25]
-1.5292826e-18 2.7147447e-18 -6.1634024e-19 -2.622982e-16 -8.682295e-19 -1.8324804e-20 8.637664e-16 3.8182086e-18
8.344345e-18 3.0577705e-21 -4.8752644e-18 -5.501832e-17 9.59487e-17 1.1834472e-12 -3.000078e-19 1.3127517e-15
-1.8260356e-17 2.356435e-17 -3.0577275e-18 -1.202673e-18 2.4435277e-13 2.6042892e-17 -2.772048e-18 -5.907791e-18
5.687333e-17 -1.7325786e-18 2.6667601e-16 -1.2016712e-16 -8.543787e-15 -4.623802e-18 -1.5434485e-18 4.259933e-14
3.182516e-17 2.0023209e-16 6.583389e-20 -1.6974777e-16 -7.0241723e-15 2.0339504e-15 7.5568135e-11 -3.911161e-18
3.0213245e-14 -3.4368285e-16 1.266883e-15 -1.3780072e-16 -7.727957e-17 1.7812724e-11 7.127124e-16 -5.955036e-17
-2.1900294e-16 1.558561e-15 3.5945353e-18 -6.065441e-18 4.0410747e-18 6.902262e-16 5.0215604e-18 -1.3358292e-19
-4.2761035e-15 -1.2179141e-17 -3.2751075e-17 -1.329456e-20 2.7885337e-17 5.4690816e-16 -3.625555e-16 1.2831783e-11
1.8961089e-18 -5.850764e-15 7.660381e-17 -1.0869995e-16 1.6900354e-17 1.578325e-17 4.9651797e-12 -1.1150184e-16
1.2245625e-17 3.310976e-17 -2.4949663e-16 -3.13088e-14 3.5348582e-13 -2.430371e-13 -1.3897788e-11 -2.360898e-14
-2.2777787e-15 7.405028e-11 1.09105514e-13 4.2869186e-13 1.5776953e-16 -3.1873018e-13 -9.467075e-12 3.5569334e-12
1.26091e-07 -1.5930487e-14 4.511013e-11 -6.6105053e-13 2.1798765e-12 -2.0002385e-13 -1.3188056e-13 2.5009857e-08
1.5219035e-12 -1.049613e-13 -3.7469366e-13 3.4921105e-12 -6.4001317e-18 3.894098e-17 1.4364979e-18 -1.5925299e-15
-1.0700544e-17 -5.9580563e-19 2.097147e-15 1.825319e-17 3.407006e-17 -1.0844717e-21 -8.9442485e-18 -5.5447306e-17
3.425165e-16 9.579885e-13 4.3270653e-19 5.5038664e-15 -8.5364874e-17 6.100267e-17 -1.8747446e-17 1.0405404e-18
-3.947058e-13 7.7194804e-17 -7.9483256e-18 -2.738999e-18 1.9943513e-16 -9.9819915e-21 5.9218875e-20 -1.4629187e-20
-2.184403e-18 -1.4505956e-20 -6.0032295e-22 7.228897e-18 2.3050477e-20 5.970905e-20 2.4605366e-24 -2.7013053e-20
-5.996795e-19 5.8033265e-19 8.570515e-15 -1.5798752e-21 8.441239e-18 -1.3807917e-19 1.732656e-19 -2.7255307e-20
-6.4593912e-21 1.5876273e-15 1.7649064e-19 -1.743493e-20 -1.4893582e-20 4.5512077e-19 -6.13598e-13 4.5575293e-12
7.2585124e-13 -1.2853567e-10 -9.969287e-13 -1.0588907e-13 5.662503e-12 1.4905632e-12 1.8121011e-12 -2.0174559e-15
-7.57115e-13 4.748698e-11 3.4344947e-11 2.3002392e-06 -1.9285558e-13 3.677318e-10 -3.2617418e-12 -1.8527072e-11
-1.6323156e-12 8.723346e-13 6.916222e-07 5.6349244e-12 -1.500271e-12 2.2800388e-12 6.158408e-12 -6.705837e-18
3.673057e-17 -2.2413875e-19 -2.0168092e-15 -1.0167189e-17 -4.770578e-19 4.282853e-15 1.85901e-17 4.0388073e-17
1.8140547e-20 -2.1278207e-17 3.9943837e-17 5.523955e-16 7.456392e-12 -1.734864e-18 7.391796e-15 -9.5663775e-17
2.0837577e-16 -2.9229618e-17 -2.1402153e-18 2.5137377e-12 1.2841185e-16 -1.6086143e-17 -2.070656e-17 2.866109e-16
-1.0433245e-16 6.10694e-16 1.1698442e-17 -2.4185708e-14 -1.5814024e-16 -7.201006e-18 5.0373124e-14 2.5015556e-16
4.5935094e-16 6.640156e-20 -2.640065e-16 -2.1786011e-15 5.8347572e-15 8.800243e-11 -1.1261239e-17 8.298405e-14
-1.1157151e-15 1.116989e-15 -3.2127777e-16 -3.340771e-17 2.2543524e-11 1.5244156e-15 -1.6629488e-16 -2.1135203e-16
3.6565e-15 5.964422e-25 -6.9468164e-24 9.6013326e-24 1.9082427e-22 7.135947e-26 1.6523459e-26 -3.2434642e-21
7.454966e-25 -1.2396292e-23 -4.182402e-27 9.143554e-24 5.195724e-22 -8.149718e-23 6.2223673e-18 7.722648e-25
-9.173046e-22 1.0817631e-23 -5.8248196e-23 4.3958383e-24 5.8746783e-24 2.4552482e-18 -5.0039675e-23 3.071538e-24
1.1119047e-23 -1.2966259e-22 3.2818337e-18 -1.8567038e-17 -3.4238976e-18 5.8807957e-16 7.850993e-18 2.75196e-19
00000000: aaae e1a1 1450 4822 5ae9 35a1 6234 97a5
00000010: c820 80a1 a812 ad9e b6f6 7826 f6dd 8c22
00000020: 0eed 1923 e209 671d 92dd b3a2 2bba 7da4
00000030: 1e3e dd24 2e8e a62b e617 b1a0 fd2f bd26
00000040: 0c6c a8a3 c057 d923 d79e 61a2 b47b b1a1
00000050: f28e 892a 0a34 f023 828a 4ca2 82f5 d9a2
00000060: 1724 8324 f8ae ffa1 6fba 9925 138b 0aa5
00000070: 43e9 19a8 9396 aaa2 d6c5 e3a1 afd9 3f29
00000080: 84c4 1224 15da 6625 2572 9b1f b3b4 43a5
00000090: 8e12 fda7 c38f 1227 142d a62e df4b 90a2
000000a0: 8011 0829 a31e c6a5 bc93 b626 98df 1ea5
000000b0: ce31 b2a4 b0ae 9c2d e56c 4d26 5450 89a4
000000c0: 427e 7ca5 c09c e026 6d9d 8422 78c6 dfa2
000000d0: df16 9522 b4f1 4626 4c43 b922 f6b4 1da0
000000e0: 1810 9aa7 5eaa 60a3 a509 17a4 8c20 7b9e
000000f0: 3299 0024 b3a2 1d26 c0ff d0a5 37bd 612d
00000100: 7ce8 0b22 c6cb d2a7 e8a2 b024 20a5 faa4
00000110: d5e0 9b23 2593 9123 5db2 ae2c 898d 00a5
00000120: 54e4 6123 1bb1 1824 34d3 8fa5 9700 0da9
00000130: adfe c62a 56d1 88aa 137e 74ad 9aa6 d4a8
00000140: 9a21 24a7 9ad6 a22e 0caf f529 0255 f12a
00000150: 59e5 3525 dc6d b3aa ea8b 26ad 044c 7a2c
00000160: a163 0734 347d 8fa8 7e65 462e b611 3aab
00000170: 2a65 192c f334 61aa fc7b 14aa 42d5 d632
00000180: 5a30 d62b 125a eca9 0cef d2aa 45bc 752c
00000190: 891f eca2 6595 3324 5bfd d321 fc81 e5a6
000001a0: e463 45a3 cdd9 2fa1 891d 1727 205b a823
000001b0: d41e 1d24 78e1 a39c 05fe 24a3 a0b4 7fa4
000001c0: 8472 c525 2cd3 862b c36c ff20 354c c627
000001d0: 87d6 c4a4 9fa9 8c24 28ea aca3 818e 9921
000001e0: 1a33 deaa c5ff b124 e89e 12a3 3a1a 4aa2
000001f0: dcee 6525 f38d 3c9e 9dd3 8b1f 342b 8a9e
00000200: 352e 21a2 4001 899e bd6f 359c 8059 0523
00000210: a2b4 d91e e8fb 8c1f f35f 3e18 8e21 ff9e
00000220: 80fe 30a1 b248 2b21 8664 1a28 76be ee9c
00000230: a0b6 1b23 de03 23a0 508e 4c20 a5b5 009f
00000240: 6607 f49d 1ccd e426 065d 5020 13ab a49e
00000250: 79aa 8c9e f453 0621 65b6 2cab 935a a02c
00000260: 184f 4c2b 9353 0daf 244e 8cab e570 eea9
00000270: 4b3b c72c 33c7 d12b d307 ff2b 7e5f 11a7
00000280: e31b 55ab 96d9 502e f90c 172e cf5d 1a36
00000290: d622 59aa a629 ca2f 5186 65ac 42f7 a2ad
000002a0: 5eba e5ab 558a 752b eaa7 3935 e342 c62c
000002b0: f624 d3ab 8771 202c 02ae d82c d766 f7a2
000002c0: ce63 2924 e44e 84a0 9053 11a7 318d 3ba3
000002d0: 78cd 0ca1 594e 9a27 a276 ab23 d241 3a24
000002e0: 2755 ab1e bf41 c4a3 5c35 3824 9837 1f26
000002f0: 9b2c 032d a802 00a2 a428 0528 ed95 dca4
00000300: ac3d 7025 3ecc 06a4 86eb 1da2 79e3 302c
00000310: 7d0c 1425 555e 94a3 fcfb bea3 4e38 a525
00000320: 0293 f0a4 4405 3026 55cc 5723 72d8 d9a8
00000330: c352 36a5 cad5 04a3 42dc 6229 7234 9025
00000340: 1e66 0426 48c9 9c1f 7c30 98a5 19fc 1ca7
00000350: 2338 d227 f784 c12e b3bb 4fa3 0cdd ba29
00000360: 9fca a0a6 9ff9 a026 3b34 b9a5 dd10 1aa4
00000370: 814b c62d 02b1 db26 96b9 3fa5 1cac 73a5
00000380: 43bd 8327 0597 3817 f85e 0699 7fb7 3919
00000390: 40b1 661b 70ad b015 f2a3 a314 b911 759d
000003a0: 53b8 6617 77c7 6f99 98ae a593 b0dc 3019
000003b0: f807 1d1c 500c c59a 9990 e522 1f01 6f17
000003c0: 819e 8a9c 503e 5119 e3d5 8c9a 460e aa18
000003d0: ff43 e318 542a 3522 1efa 719a 14a6 6d18
000003e0: db12 5719 a1c0 1c9b 1628 7222 2e40 aba3
000003f0: 99a3 7ca2 9d80 2926 44d3 1023 7272 a220

encoder.lstm.bias_ih_l0 f4 [100]
2.5479653e-12 9.123476e-11 7.2718255e-12 1.2302253e-07 7.0709263e-12 8.89491e-15 1.9796576e-06 9.428968e-12
9.7085874e-11 5.2830694e-18 4.43724e-11 1.3156712e-08 6.789988e-09 1.2390304e-05 7.5167975e-13 1.5726029e-06
5.3826077e-10 1.6311097e-09 2.0802571e-11 9.821532e-12 1.8084807e-10 7.5706247e-10 1.1805262e-11 5.585527e-11
3.6882915e-09 2.1664556e-12 5.3479655e-11 4.0786315e-12 8.2324846e-08 4.446423e-12 6.858376e-15 1.0820957e-06
6.0937613e-12 8.7173026e-11 4.384068e-18 2.7690673e-11 -2.1461328e-09 5.0819864e-09 8.749323e-06 4.2209893e-13
9.824205e-07 3.329787e-10 8.706733e-10 1.2689316e-11 6.0119795e-12 1.5019919e-10 4.783267e-10 7.652222e-12
4.2606578e-11 2.0530524e-09 -7.045327e-08 -5.187671e-07 1.2999744e-06 -9.269059e-06 -7.5710496e-08 -1.7547244e-08
-0.000418648 3.956401e-07 -1.5084017e-06 -1.0182133e-09 1.059456e-06 6.7322646e-05 9.471633e-08 -0.0024210208
-5.7158616e-08 -5.1549778e-06 1.7808931e-06 -1.267532e-05 3.059288e-07 1.0974065e-06 -1.0232278e-06 -3.3120414e-06
-3.6786727e-07 2.7235055e-06 -1.3568962e-05 2.5356787e-12 9.050305e-11 6.9238183e-12 1.2219083e-07 7.0347777e-12
8.810642e-15 1.9065047e-06 9.160405e-12 9.482409e-11 5.0990366e-18 4.3977426e-11 1.3036087e-08 6.7196773e-09
9.956023e-06 7.503301e-13 1.5605534e-06 5.311155e-10 1.6184252e-09 2.0645059e-11 9.665684e-12 1.7965417e-10
7.404392e-10 1.1771844e-11 5.488746e-11 3.4214291e-09
00000000: 104c 332c 9ba0 c82e c8da ff2c 2d18 0434
00000010: 3ec9 f82c 883c 2028 42da 0436 4ce0 252d
00000020: 7d7e d52e 2ee9 c222 e226 432e d507 6232
00000030: 5e4d e931 f3df 4f37 3c94 532b 3912 d335
00000040: bcf4 1330 922d e030 3afb b62d 3fc8 2c2d
00000050: 35d8 462f 8919 5030 2cae 4f2d 71a7 752e
00000060: 1c75 7d31 6573 182c bd34 6b2e 0c81 8f2c
00000070: 90ca b033 d171 9c2c 5a19 f727 863c 9135
00000080: b967 d62c 0db2 bf2e 5abe a122 da91 f32d
00000090: 2b7b 13b1 a09d ae31 0eca 1237 de9e ed2a
000000a0: b6db 8335 960e b72f 3054 6f30 993b 5f2d
000000b0: 1987 d32c 5025 252f 407b 0330 8b9e 062d
000000c0: be62 3b2e ae15 0d31 184c 97b3 6741 0bb5
000000d0: c87a ae35 4e82 1bb7 4996 a2b3 ccba 96b2
000000e0: fc7d dbb9 5c68 d434 4a74 cab5 32f1 8bb0
000000f0: a232 8e35 922f 8d38 da66 cb33 fda9 1ebb
00000100: 907e 75b3 ecf8 acb6 0507 ef35 16a8 54b7
00000110: 893e a434 9a4a 9335 d755 89b5 7044 5eb6
00000120: 4b7f c5b4 78c5 3636 3fa6 63b7 ba6e 322c
00000130: b004 c72e 369c f32c 8f33 0334 a583 f72c
00000140: eab7 1e28 01e3 ff35 cc26 212d 3885 d02e
00000150: 0a1f bc22 2e6a 412e 51f5 5f32 e8e2 e631
00000160: cb08 2737 fb32 532b 3574 d135 eefd 1130
00000170: 466f de30 8a98 b52d 5f0a 2a2d 2788 452f
00000180: c787 4b30 ac17 4f2d c965 712e 6b1e 6b31

encoder.lstm.bias_hh_l0 f4 [100]
2.547966e-12 9.123477e-11 7.271831e-12 1.2302252e-07 7.0709285e-12 8.8949115e-15 1.9796573e-06 9.428972e-12
9.708586e-11 5.283067e-18 4.437238e-11 1.315671e-08 6.7899903e-09 1.2390301e-05 7.5167975e-13 1.5726026e-06
5.3826066e-10 1.6311099e-09 2.0802568e-11 9.821528e-12 1.8084813e-10 7.5706247e-10 1.18052625e-11 5.5855275e-11
3.6882923e-09 2.1664554e-12 5.3479648e-11 4.078628e-12 8.232482e-08 4.446422e-12 6.8583766e-15 1.0820958e-06
6.0937566e-12 8.717302e-11 4.384067e-18 2.7690667e-11 -2.1461404e-09 5.0819833e-09 8.749319e-06 4.22099e-13
9.824203e-07 3.3297873e-10 8.7067287e-10 1.2689319e-11 6.0119817e-12 1.5019914e-10 4.7832693e-10 7.652224e-12
4.260657e-11 2.0530522e-09 -7.026378e-08 -5.1889936e-07 1.3004217e-06 -9.2691735e-06 -7.5902335e-08 -1.7565704e-08
-0.0004186559 3.9560888e-07 -1.5081458e-06 -1.0101674e-09 1.0593179e-06 6.732244e-05 9.522508e-08 -0.0024210142
-5.7076754e-08 -5.1552724e-06 1.781573e-06 -1.2674729e-05 3.062728e-07 1.0973765e-06 -1.0228885e-06 -3.3115612e-06
-3.6789405e-07 2.7235465e-06 -1.3568623e-05 2.5356793e-12 9.050307e-11 6.923811e-12 1.2219084e-07 7.0347803e-12
8.810644e-15 1.9065051e-06 9.160404e-12 9.482411e-11 5.0990345e-18 4.3977436e-11 1.3036084e-08 6.719678e-09
9.956022e-06 7.503301e-13 1.560554e-06 5.3111543e-10 1.6184254e-09 2.0645067e-11 9.665683e-12 1.7965428e-10
7.404395e-10 1.1771845e-11 5.4887463e-11 3.4214314e-09
00000000: 134c 332c 9ca0 c82e d5da ff2c 2c18 0434
00000010: 43c9 f82c 8a3c 2028 41da 0436 51e0 252d
00000020: 7b7e d52e 28e9 c222 dc26 432e d307 6232
00000030: 634d e931 f0df 4f37 3c94 532b 3712 d335
00000040: baf4 1330 942d e030 38fb b62d 3bc8 2c2d
00000050: 39d8 462f 8919 5030 2dae 4f2d 73a7 752e
00000060: 2075 7d31 6473 182c bb34 6b2e 0481 8f2c
00000070: 8cca b033 cf71 9c2c 5c19 f727 873c 9135
00000080: ae67 d62c 0cb2 bf2e 58be a122 d791 f32d
00000090: 4d7b 13b1 999d ae31 0aca 1237 e09e ed2a
000000a0: b4db 8335 970e b72f 2854 6f30 9d3b 5f2d
000000b0: 1e87 d32c 4d25 252f 447b 0330 8e9e 062d
000000c0: bc62 3b2e ad15 0d31 ece3 96b3 7e4a 0bb5
000000d0: 268a ae35 cc82 1bb7 c0ff a2b3 64e3 96b2
000000e0: 0b7f dbb9 1264 d434 7f6b cab5 1bd6 8ab0
000000f0: e32d 8e35 762f 8d38 8b7e cc33 e1a9 1ebb
00000100: 8e24 75b3 74fb acb6 621e ef35 8ca5 54b7
00000110: d06d a434 9249 9335 2e4a 89b5 303c 5eb6
00000120: f982 c5b4 2cc6 3636 cba4 63b7 bd6e 322c
00000130: b304 c72e 259c f32c 9033 0334 ab83 f72c
00000140: ecb7 1e28 04e3 ff35 cb26 212d 3a85 d02e
00000150: 051f bc22 316a 412e 4ef5 5f32 eae2 e631
00000160: ca08 2737 fb32 532b 3a74 d135 edfd 1130
00000170: 486f de30 8f98 b52d 5e0a 2a2d 2f88 452f
00000180: cc87 4b30 ad17 4f2d ca65 712e 751e 6b31

encoder.lstm.weight_ih_l0_reverse f4 [100, 1]
0.0013631323 1.2966253e-05 0.041657567 0.031389643 5.0977957e-05 0.04545068 9.5599835e-06 0.04727681
0.042742413 0.042857718 0.040323153 0.025705457 0.03264308 0.047082964 0.046392515 0.050213154
0.025619252 0.057015885 0.041470494 1.845201e-05 0.14900261 0.04902548 0.24189144 0.0010831496
0.043922797 0.0010932136 8.970063e-06 0.02319406 0.018442407 4.0993265e-05 0.024739064 8.442498e-06
0.018821789 0.027414503 0.019596675 0.019349407 0.017903853 0.018029528 0.02774438 0.019155376
0.02321492 0.010602864 0.026453452 0.020538948 1.4530067e-05 0.16042899 0.02150929 0.2763436
0.0010091235 0.025403464 0.019955 0.0017743398 -0.42062584 -0.3163051 -0.0019281546 0.5251964
-0.0013866423 0.4481098 0.25851926 -0.40429977 -0.47637656 0.16703646 -0.39360607 0.44224563
0.41633207 -0.5170202 0.30813372 -0.45618132 -0.40331227 0.0036822485 0.8305699 -0.4611539
-1.0825917 -0.018861054 0.4491746 0.00117784 1.1232453e-05 0.047135893 0.03179589 4.650894e-05
0.050255362 8.473256e-06 0.053131368 0.04650773 0.046616483 0.044828497 0.025012784 0.035246156
0.045202013 0.05110432 0.057483833 0.028878342 0.06349556 0.045233496 1.598876e-05 0.119432166
0.053847622 0.18311608 0.0009990631 0.05038931
00000000: 21ab b23a a289 5937 20a1 2a3d 6d92 003d
00000010: 2ad1 5538 7e2a 3a3d d163 2037 54a5 413d
00000020: ab12 2f3d 938b 2f3d e429 253d 4094 d23c
00000030: c0b4 053d 11da 403d 1406 3e3d 4fac 4d3d
00000040: 77df d13c 7d89 693d f7dc 293d 64c9 9a37
00000050: 2494 183e f1ce 483d 64b2 773e 78f8 8d3a
00000060: 64e8 333d 294a 8f3a 217e 1637 7801 be3c
00000070: 8814 973c 2ff0 2b38 94a9 ca3c 41a4 0d37
00000080: 2730 9a3c 6194 e03c 3589 a03c a682 9e3c
00000090: 1aab 923c a9b2 933c 2f48 e33c bceb 9c3c
000000a0: 372d be3c a3b7 2d3c e9b4 d83c 4c41 a83c
000000b0: 2ac6 7337 7f47 243e 4034 b03c e97c 8d3e
000000c0: 9144 843a ed1a d03c ab78 a33c f790 e83a
000000d0: 455c d7be bef2 a1be 22ba fcba 4573 063f
000000e0: ffbf b5ba a66e e53e a35c 843e 6100 cfbe
000000f0: a1e7 f3be 9b0b 2b3e bc86 c9be 056e e23e
00000100: 7a29 d53e 705b 04bf b4c3 9d3e 9990 e9be
00000110: f27e cebe e151 713b 3ba0 543f 5d1c ecbe
00000120: 5d92 8abf 7f82 9abc 37fa e53e c161 9a3a
00000130: 0573 3c37 9111 413d 683c 023d 9812 4338
00000140: 91d8 4d3d 5b28 0e37 47a0 593d e47e 3e3d
00000150: edf0 3e3d 169e 373d 9ce7 cc3c 465e 103d
00000160: bf25 393d c352 513d 2b74 6b3d 4692 ec3c
00000170: f609 823d c246 393d 9a1f 8637 da98 f43d
00000180: 538f 5c3d c882 3b3e fff2 823a 0565 4e3d

encoder.lstm.weight_hh_l0_reverse f4 [100, 25]
8.5509535e-05 7.280396e-06 -0.00067453715 -0.00057041453 -1.806008e-05 0.0007607348 -7.847933e-06 0.00070679176
0.00059102516 -0.0006255288 -0.00071311573 0.00044398455 -0.00065577036 0.0005455154 0.00064358 -0.00073064223
0.00052053796 -0.0007649046 -0.00063040253 1.0215207e-05 0.0005538324 -0.000688504 -0.00071685 -9.8403056e-05
0.0007190553 1.005982e-06 8.0743966e-08 -7.031387e-06 -6.164978e-06 -1.8109706e-07 7.661457e-06 -8.1900275e-08
7.150057e-06 5.996339e-06 -6.2710064e-06 -7.2656326e-06 4.993183e-06 -6.763993e-06 4.3665814e-06 6.410093e-06
-7.2175635e-06 5.3485146e-06 -7.83721e-06 -6.4928113e-06 1.1664532e-07 5.4688585e-06 -7.021983e-06 -8.400926e-06
-9.705092e-07 7.1762342e-06 0.0017165593 0.00015161093 -0.008302804 -0.0076572113 -0.00034295782 0.009114091
-0.00014500266 0.008523855 0.00886588 -0.008501562 -0.008814992 0.0067462437 -0.008320682 0.004581803
0.008794532 -0.008768024 0.007515134 -0.0092465 -0.008325398 0.00018820938 0.00032365785 -0.008489259
-0.0025106187 -0.0018699175 0.0093205515 0.0015671703 0.00012382938 -0.010431937 -0.008945626 -0.00027574028
0.011919188 -0.00011726639 0.010746836 0.010182912 -0.010177956 -0.0109592555 0.0072281477 -0.010412888
0.010064429 0.010203716 -0.011201042 0.008696024 -0.011603733 -0.010012828 0.00017282274 0.01448615
-0.010322131 -0.020677878 -0.0015412108 0.011540482 3.7213308e-06 3.38357e-07 -2.8030501e-05 -2.4052404e-05
-6.896054e-07 2.8781054e-05 -3.0814948e-07 2.8191194e-05 2.3734916e-05 -2.4369414e-05 -2.7916843e-05 2.0639038e-05
-2.645593e-05 1.9617793e-05 2.5236912e-05 -2.7946677e-05 2.106825e-05 -3.0059366e-05 -2.5269921e-05 4.698447e-07
3.0779498e-05 -2.7251066e-05 -3.9392e-05 -3.4365485e-06 2.7345182e-05 0.0009957136 8.6572014e-05 -0.0056626
-0.0048918687 -0.00021254837 0.005212283 -8.418479e-05 0.0058405497 0.004809927 -0.004790073 -0.0052713365
0.0045747734 -0.005561736 0.010101151 0.0048126588 -0.005344022 0.0041288766 -0.0053721713 -0.005164156
0.00011327322 0.016328422 -0.0052965474 -0.018614653 -0.0009178325 0.005359328 7.134503e-07 6.257766e-08
-5.2722744e-06 -4.5607435e-06 -1.288891e-07 5.6702906e-06 -5.7102262e-08 5.3664444e-06 4.5527454e-06 -4.76219e-06
-5.3823137e-06 3.6641761e-06 -5.075111e-06 3.7651014e-06 4.830928e-06 -5.564851e-06 4.0830273e-06 -5.790583e-06
-4.8808806e-06 8.458284e-08 5.1453962e-06 -5.189066e-06 -6.1149963e-06 -7.103367e-07 5.3990134e-06 0.0022341998
0.00020565983 -0.011567998 -0.01029079 -0.00042779383 0.011367029 -0.00017322056 0.011355975 0.010965235
-0.010424552 -0.011075983 0.0092750285 -0.0111154495 0.0060282876 0.0106647825 -0.011007968 0.009360438
-0.011849061 -0.010651304 0.00026153534 0.012822686 -0.011044939 -0.018121133 -0.0020946357 0.011618569
0.0013021971 0.00011744385 -0.010239881 -0.008192458 -0.0002539029 0.0119564785 -0.00010783637 0.010832908
0.008976598 -0.009684776 -0.010828859 0.0063616615 -0.010142165 0.01085318 0.00979006 -0.011380351
0.007895973 -0.011451544 -0.009613149 0.00015192557 0.013881069 -0.010243376 -0.01763686 -0.0012617501
0.01130522 0.0015473169 0.00014868674 -0.0072197095 -0.006241869 -0.00031388536 0.008838087 -0.00013455423
0.0077790925 0.0074025006 -0.007596568 -0.008156171 0.005201751 -0.0075350017 0.0029990831 0.0075869453
-0.008314679 0.0064664446 -0.008362856 -0.0073609957 0.00018255199 0.006972178 -0.0074395845 -0.011633205
-0.0015267455 0.008703332 0.001215642 7.950255e-05 -0.007483259 -0.00668403 -0.00024179481 0.0091932425
00000000: 9553 b338 204a f436 6cd3 30ba df87 15ba
00000010: ba7f 97b7 0c6c 473a 9eaa 03b7 fe47 393a
00000020: 07ef 1a3a 87fa 23ba 63f0 3aba 99c6 e839
00000030: 01e8 2bba eb00 0f3a ecb5 283a 9288 3fba
00000040: b674 083a e183 48ba 9941 25ba fb61 2b37
00000050: 102f 113a b97c 34ba fdea 3bba bd5d ceb8
00000060: fc7e 3c3a 4705 8735 7765 ad33 28ef ebb6
00000070: c2dc ceb6 9573 42b4 b589 0037 27e1 afb3
00000080: 86ea ef36 2934 c936 896b d2b6 4fcb f3b6
00000090: 1e8b a736 42f6 e2b6 a684 9236 4816 d736
000000a0: 662e f2b6 6477 b336 907c 03b7 d3dc d9b6
000000b0: 717e fa33 2381 b736 609e ebb6 b4f1 0cb7
000000c0: 7142 82b5 62cb f036 2cfe e03a c0f9 1e39
000000d0: 7c08 08bc 58e9 fabb 05cf b3b9 4553 153c
000000e0: db0b 18b9 a4a7 0b3c 3242 113c 234a 0bbc
000000f0: c26c 10bc 980f dd3b 7853 08bc f322 963b
00000100: f116 103c c2a7 0fbc 8341 f63b a27e 17bc
00000110: 4067 08bc 125a 4539 9fb0 a939 8816 0bbc
00000120: 3189 24bb 0518 f5ba 3ab5 183c 8269 cd3a
00000130: 32d8 0139 b7ea 2abc ad90 12bc 3c91 90b9
00000140: b348 433c eaec f5b8 7f13 303c 3bd6 263c
00000150: 71c1 26bc 738e 33bc 19da ec3b d19a 2abc
00000160: 46e5 243c 7d2d 273c 9384 37bc c579 0e3c
00000170: 951d 3ebc d80c 24bc c037 3539 5157 6d3c
00000180: 281e 29bc a764 a9bc 7402 caba 4a14 3d3c
00000190: fabb 7936 6fa7 b534 0b23 ebb7 25c4 c9b7
000001a0: 521d 39b5 d86e f137 be6f a5b4 217c ec37
000001b0: 581a c737 eb6c ccb7 f72e eab7 ff21 ad37
000001c0: aded ddb7 e490 a437 dbb3 d337 086f eab7
000001d0: b9bb b037 ff27 fcb7 befa d3b7 f73e fc34
000001e0: 3c19 0138 3899 e4b7 d738 25b8 749f 66b6
000001f0: 5563 e537 9b82 823a ff8d b538 558d b9bb
00000200: f84b a0bb 85df 5eb9 cdcb aa3b 5d8c b0b8
00000210: 1562 bf3b 989c 9d3b 0bf6 9cbb 2dbb acbb
00000220: fbe7 953b 393f b6bb 4c7f 253c 82b3 9d3b
00000230: e81c afbb 874b 873b 0a09 b0bb 1538 a9bb
00000240: 198d ed38 2fc3 853c a98e adbb c27d 98bc
00000250: b29a 70ba 4d9d af3b ee83 3f35 6f62 8633
00000260: 7ee8 b0b6 7d08 99b6 c464 0ab4 6d43 be36
00000270: 9a40 75b3 6811 b436 c9c3 9836 e7ca 9fb6
00000280: b999 b4b6 11e6 7536 df4a aab6 f3ab 7c36
00000290: 5b19 a236 b5b9 bab6 f000 8936 bb4c c2b6
000002a0: 72c6 a3b6 e8a3 b533 9ea6 ac36 bd1d aeb6
000002b0: 6b2f cdb6 f7ad 3eb5 2c29 b536 a76b 123b
000002c0: 64a6 5739 b387 3dbc b49a 28bc 8449 e0b9
000002d0: c63c 3a3c 8aa2 35b9 690e 3a3c 87a7 333c
000002e0: bdcb 2abc 0a78 35bc 4af6 173c 931d 36bc
000002f0: f188 c53b 57bb 2e3c c45a 34bc 865c 193c
00000300: 9022 42bc cf82 2ebc ae1e 8939 3e16 523c
00000310: d5f5 34bc c572 94bc 2846 09bb cf5b 3e3c
00000320: 7cae aa3a 304c f638 2dc5 27bc a939 06bc
00000330: 451e 85b9 1be5 433c 3626 e2b8 827c 313c
00000340: 9512 133c e5ac 1ebc 876b 31bc 7c75 d03b
00000350: 532b 26bc 89d1 313c 7d66 203c a774 3abc
00000360: 1c5e 013c 429f 3bbc 7880 1dbc 364e 1f39
00000370: 6c6d 633c d5d3 27bc 2d7b 90bc 4f61 a5ba
00000380: 8839 393c 57cf ca3a cbe8 1b39 5093 ecbb
00000390: 9888 ccbb fb90 a4b9 a0cd 103c 2017 0db9
000003a0: c2e7 fe3b ad90 f23b a2ec f8bb 76a1 05bc
000003b0: 7373 aa3b 2de8 f6bb 448c 443b e99b f83b
000003c0: 4b3a 08bc 78e4 d33b 5c04 09bc 8234 f1bb
000003d0: 6d6b 3f39 de76 e43b c2c7 f3bb 3399 3ebc
000003e0: 141d c8ba 6c98 0e3c 2d56 9f3a 9bba a638
000003f0: 2036 f5bb b505 dbbb 4d8a 7db9 419f 163c

encoder.lstm.bias_ih_l0_reverse f4 [100]
0.0016350881 1.5205444e-05 0.090971634 0.058160912 5.8743182e-05 0.09498599 1.1460048e-05 0.08683623
0.059464794 0.07131271 0.08436039 0.041326553 0.06692493 0.06536323 0.07412742 0.0908835
0.044630222 0.105593264 0.062785015 2.1034912e-05 0.16029635 0.09062141 0.24833705 0.00092273677
0.08135885 0.00106194 9.306171e-06 0.04093914 0.028019205 4.2101175e-05 0.046818264 8.881223e-06
0.024411239 0.028942423 0.027926583 0.032953802 0.021891186 0.032328818 0.030878369 0.024342187
0.039455228 0.015370591 0.036021397 0.026435973 1.2428081e-05 0.216648 0.036595803 0.35557625
0.00079391117 0.036694616 -0.001751073 -9.8072946e-05 0.05116094 0.03334766 -0.00044044227 -0.045798693
-0.00016032292 -0.035940453 -0.01684779 0.036632817 0.043915547 -0.016853161 0.030330176 -0.066178195
-0.037709393 0.041628648 -0.020174935 0.036500663 0.036312625 -0.00046532843 -0.30712533 0.045351434
0.40531677 -0.0019044923 -0.030982636 0.0015743878 1.4930151e-05 0.10411097 0.06574988 5.827337e-05
0.10989713 1.1345733e-05 0.100294344 0.065023094 0.08054404 0.098343804 0.044666674 0.07933502
0.07258823 0.083146095 0.10544665 0.051961087 0.11778812 0.07284818 2.0511727e-05 0.23655795
0.102968514 0.38433138 0.00090046856 0.09429354
00000000: 7450 d63a e21a 7f37 564f ba3d 233a 6e3d
00000010: 0363 7638 0488 c23d 8844 4037 31d7 b13d
00000020: 5b91 733d 660c 923d 24c5 ac3d 0846 293d
00000030: f00f 893d 28dd 853d 1ed0 973d 2121 ba3d
00000040: 2ece 363d 4841 d83d 6e95 803d 2174 b037
00000050: ba24 243e b897 b93d 114c 7e3e d1e3 713a
00000060: 789f a63d cb30 8b3a b321 1c37 cdaf 273d
00000070: 8888 e53c cb95 3038 82c4 3f3d 9000 1537
00000080: 14fa c73c a918 ed3c 4ac6 e43c 91fa 063d
00000090: 2555 b33c 396b 043d a2f4 fc3c 4469 c73c
000000a0: ce9b 213d eed4 7b3c 2c8b 133d 4190 d83c
000000b0: 3482 5037 f9d8 5d3e 7be5 153d 170e b63e
000000c0: 7a1e 503a 184d 163d 4384 e5ba 83ac cdb8
000000d0: 228e 513d 8e97 083d 29eb e6b9 6997 3bbd
000000e0: 5b1c 28b9 4c36 13bd 6004 8abc 4b0c 163d
000000f0: cae0 333d a40f 8abc fd76 f83c 6f88 87bd
00000100: 2a75 1abd cd82 2a3d e845 a5bc b881 153d
00000110: 8cbc 143d 53f7 f3b9 883f 9dbe 6dc2 393d
00000120: ae85 cf3e 28a0 f9ba 4ccf fdbc b05b ce3a
00000130: 837c 7a37 2238 d53d e0a7 863d 8e6a 7438
00000140: bf11 e13d 8d59 3e37 1f67 cd3d d42a 853d
00000150: 46f4 a43d 7a68 c93d 67f4 363d 667a a23d
00000160: 23a9 943d 8048 aa3d 6af4 d73d 26d5 543d
00000170: e63a f13d 6d31 953d 9910 ac37 3f3c 723e
00000180: 28e1 d23d 15c7 c43e 6c0d 6c3a f91c c13d

encoder.lstm.bias_hh_l0_reverse f4 [100]
0.0016350881 1.52054445e-05 0.09097161 0.0581609 5.8743204e-05 0.09498598 1.1460047e-05 0.08683623
0.059464786 0.07131271 0.08436035 0.041326553 0.06692494 0.06536322 0.07412743 0.090883486
0.044630222 0.105593264 0.06278502 2.1034915e-05 0.16029635 0.09062141 0.24833712 0.0009227368
0.08135884 0.0010619399 9.306169e-06 0.04093916 0.028019188 4.210116e-05 0.04681828 8.881224e-06
0.02441124 0.028942425 0.027926588 0.032953802 0.021891188 0.0323288 0.030878365 0.024342159
0.039455224 0.015370612 0.03602141 0.026435986 1.2428083e-05 0.216648 0.03659581 0.3555763
0.00079391117 0.036694594 -0.0017510732 -9.807714e-05 0.05116141 0.033348475 -0.00044044762 -0.04579889
-0.00016031988 -0.035940565 -0.01684782 0.03663329 0.043917555 -0.01685315 0.030330187 -0.06617952
-0.037709527 0.0416115 -0.020175094 0.036504526 0.03631253 -0.00046532642 -0.30712348 0.045350976
0.40527898 -0.0019044946 -0.030979466 0.0015743881 1.4930158e-05 0.10411096 0.06574986 5.827337e-05
0.10989712 1.13457345e-05 0.10029433 0.065023094 0.08054406 0.09834381 0.044666674 0.079335004
0.07258824 0.08314609 0.105446614 0.05196111 0.11778809 0.07284817 2.0511725e-05 0.23655792
0.10296849 0.38433135 0.0009004684 0.09429353
00000000: 7450 d63a e31a 7f37 534f ba3d 203a 6e3d
00000010: 0963 7638 0288 c23d 8744 4037 31d7 b13d
00000020: 5991 733d 660c 923d 1fc5 ac3d 0846 293d
00000030: f10f 893d 27dd 853d 1fd0 973d 1f21 ba3d
00000040: 2ece 363d 4841 d83d 6f95 803d 2374 b037
00000050: ba24 243e b897 b93d 164c 7e3e d2e3 713a
00000060: 779f a63d ca30 8b3a b121 1c37 d2af 273d
00000070: 7f88 e53c c795 3038 86c4 3f3d 9100 1537
00000080: 15fa c73c aa18 ed3c 4dc6 e43c 91fa 063d
00000090: 2655 b33c 346b 043d a0f4 fc3c 3569 c73c
000000a0: cd9b 213d 05d5 7b3c 308b 133d 4890 d83c
000000b0: 3682 5037 f9d8 5d3e 7de5 153d 190e b63e
000000c0: 7a1e 503a 124d 163d 4484 e5ba c3ae cdb8
000000d0: a08e 513d 6998 083d e1eb e6b9 9e97 3bbd
000000e0: 8a1b 28b9 6a36 13bd 7004 8abc ca0c 163d
000000f0: e5e2 333d 9e0f 8abc 0377 f83c 2189 87bd
00000100: 4e75 1abd d270 2a3d 3d46 a5bc c585 153d
00000110: 73bc 143d 0ef7 f3b9 4a3f 9dbe f2c1 393d
00000120: ba80 cf3e 3ca0 f9ba a6c8 fdbc b35b ce3a
00000130: 8a7c 7a37 2138 d53d dda7 863d 8e6a 7438
00000140: be11 e13d 8f59 3e37 1d67 cd3d d42a 853d
00000150: 49f4 a43d 7b68 c93d 67f4 363d 647a a23d
00000160: 25a9 943d 7f48 aa3d 65f4 d73d 2cd5 543d
00000170: e23a f13d 6c31 953d 9810 ac37 3d3c 723e
00000180: 25e1 d23d 14c7 c43e 690d 6c3a f71c c13d

encoder.lstm.weight_ih_l1 f4 [100, 50]
-1.1845089e-21 1.463244e-20 1.2568098e-21 -3.6697354e-20 -3.0397449e-22 -3.150034e-23 5.7902527e-20 2.0158416e-21
6.5906076e-21 1.0532667e-25 -1.1275667e-22 -1.3844305e-20 3.2274746e-20 -2.7307248e-20 1.5471964e-22 4.0905798e-19
-6.4899234e-21 1.1276016e-20 -1.3475982e-21 1.2500412e-22 -1.8314187e-21 9.979632e-21 -2.6828198e-22 -2.5397918e-22
1.4976341e-20 2.5986162e-17 2.035002e-18 -1.8304596e-16 -1.3282394e-16 -4.056101e-18 1.2299368e-16 -1.7020589e-18
5.2053053e-17 1.0949496e-16 -8.3931065e-17 -1.0273699e-16 7.833598e-17 -9.1393e-17 9.524966e-17 8.914451e-17
-1.0793546e-16 1.2589322e-16 -1.611493e-16 -1.6859856e-16 4.0244752e-18 1.579117e-16 -9.601879e-17 -2.1177793e-16
1.0746496e-18 1.0474152e-16 1.1227029e-20 1.0437622e-19 -1.17414936e-20 2.9877437e-18 2.726008e-20 1.5949721e-21
-1.2197338e-18 -2.7573264e-20 -2.2696154e-20 5.1876704e-24 1.966618e-21 1.3142664e-19 -5.7550714e-19 6.60401e-17
-2.480205e-21 -1.2860277e-17 2.2255884e-19 -3.7470745e-20 5.525989e-20 8.675273e-21 2.3450446e-19 6.7811976e-21
1.35082795e-20 1.8508426e-20 -5.335656e-19 4.6569693e-17 9.635216e-19 7.0283955e-17 3.3106775e-16 -2.5579543e-17
-7.5790846e-16 4.8767033e-19 -4.191157e-15 -1.3098879e-15 1.5654141e-15 7.649008e-16 -5.2615866e-16 2.0820612e-15
-7.599006e-16 -1.1953039e-15 2.7556475e-16 -1.504961e-15 5.891272e-16 2.3237984e-16 8.47115e-18 2.4814012e-15
8.035654e-16 -2.6716374e-15 3.8539896e-16 -1.5955651e-15 2.861465e-19 -6.6312526e-18 -6.127761e-18 -1.144977e-16
3.1030593e-18 -2.927677e-20 4.2066327e-16 -1.9486837e-18 -6.7599102e-18 5.02019e-21 -4.962743e-19 3.2314026e-17
-1.2860369e-16 7.313747e-15 2.24994e-20 -1.0836533e-15 1.0369044e-17 -2.425228e-17 -3.0784126e-19 -3.5847282e-18
2.9628776e-17 -8.58272e-18 -4.294463e-19 2.78197e-18 -1.6186558e-17 -2.8779693e-14 -1.859209e-15 2.183857e-13
1.3006953e-13 2.9758817e-15 -1.9455267e-13 2.7476618e-15 -1.0315872e-14 -8.208481e-14 1.1736456e-13 1.9823398e-13
-1.3107167e-13 7.920075e-14 -8.3663775e-14 -9.0736006e-14 1.1165443e-13 -8.253317e-14 2.0591734e-13 9.080386e-14
-3.7454255e-15 3.1983173e-13 2.6907879e-13 1.296788e-12 8.5247395e-15 -1.7291244e-13 4.081043e-23 -3.041828e-22
6.0432816e-23 9.8328195e-21 1.5264031e-22 1.8324892e-24 4.9585443e-21 -1.0310118e-22 1.3220251e-22 4.1479015e-26
2.922776e-23 2.3433082e-24 -2.3403852e-21 -4.5749353e-20 2.9981877e-25 -4.3910153e-20 1.7735516e-21 6.8141457e-22
1.1725033e-22 -1.586871e-23 2.1124289e-22 3.425798e-22 3.1889525e-23 2.405455e-22 -1.5662813e-22 -2.8458663e-19
8.438646e-21 -2.3145562e-18 1.2020356e-18 1.4919522e-20 -1.7456286e-18 -6.9457516e-20 -8.863801e-18 -9.669169e-19
2.5193378e-19 -1.5480702e-18 2.4769762e-18 6.5711174e-18 -8.766982e-20 -1.1368132e-18 7.494573e-19 -2.3944499e-18
-1.5924464e-18 -3.0007737e-18 7.007728e-20 9.6131366e-18 -2.8524076e-18 -1.4009574e-17 -2.6210113e-20 1.2463169e-18
-1.0512445e-23 -8.409186e-22 -1.2554844e-23 -1.5382015e-22 4.401328e-23 3.4941426e-24 -7.247688e-21 -3.9523162e-23
-4.4059984e-22 -5.4353145e-26 2.357194e-23 4.3955163e-22 -1.1339857e-21 -1.1545317e-19 -4.217611e-24 5.16619e-21
8.513067e-22 -2.48282e-22 1.5124277e-22 -5.553552e-23 5.80917e-23 -4.6201066e-22 1.37699e-23 1.3692374e-23
-6.575153e-22 -1.2785315e-18 -7.778561e-20 1.1047364e-17 9.044475e-18 1.450615e-19 -6.7170197e-18 8.833824e-20
2.6582967e-18 -5.236947e-18 2.480905e-18 6.8606877e-18 -3.944189e-18 2.3351383e-18 -4.6137136e-18 -6.2507078e-18
1.20465894e-17 -4.9183684e-18 5.785025e-18 6.3472422e-18 -8.76374e-20 -1.3123711e-17 4.4122625e-18 2.066178e-17
4.5502482e-20 -2.5267588e-18 -9.123615e-26 2.6046276e-24 -4.665276e-25 3.3374818e-23 3.9424007e-25 9.7812e-27
00000000: 78ff b29c 1233 8a1e 79ec bd1c 614c 2d9f
00000010: c6bd b79b 8853 189a eeb7 881f 0c50 181d
00000020: 72fc f81d 5b63 0216 8050 089b 7ac1 829e
00000030: c669 181f 70f4 009f 690b 3b1b 1877 f120
00000040: b02e f59d 78ff 541e aea4 cb9c e71e 171b
00000050: ca60 0a9d 8a82 3c1e a02a a29b 6085 999b
00000060: 9272 8d1e 17ae ef23 1a28 1622 a209 53a5
00000070: b522 19a5 caa4 95a2 54cd 0d25 f82d fba1
00000080: 660d 7024 6b7a fc24 2888 c1a4 37e5 eca4
00000090: 67a1 b424 e8bc d2a4 7aa1 db24 a18d cd24
000000a0: dae1 f8a4 1f25 1125 e1ca 39a5 8361 42a5
000000b0: 187a 9422 4f0f 3625 7d67 dda4 d029 74a5
000000c0: 1d97 9e21 7b84 f124 9512 541e 8e73 f61f
000000d0: 61ca 5d9e e274 5c22 6abb 001f 7f06 f11c
000000e0: 3d00 b4a1 0836 029f ef5b d69e 33b0 c818
000000f0: ed97 141d 4429 1b20 17dc 29a1 3247 9824
00000100: 2466 3b9d f13a 6da3 2460 8320 5af3 309f
00000110: 8e7a 821f 0cdf 231e 506d 8a20 dc17 001e
00000120: 082a 7f1e a1ce ae1e 147b 1da1 cac3 5624
00000130: d130 8e21 5310 a224 fad8 be25 fded eba3
00000140: c673 5aa6 54ef 0f21 9a00 97a7 55c6 bca6
00000150: 9699 e126 b877 5c26 a8a7 17a6 4007 1627
00000160: c406 5ba6 ee42 aca6 2eda 9e25 43e3 d8a6
00000170: eacd 2926 36f5 8525 e043 1c23 c6cd 3227
00000180: a99c 6726 0383 40a7 d92a de25 f6f1 e5a6
00000190: 3de9 a820 69a6 f4a2 1113 e2a2 c201 04a5
000001a0: 22f7 6422 7141 0a9f f17e f225 98c9 0fa2
000001b0: 8c65 f9a2 4ca8 bd1d 6d79 12a1 ab05 1524
000001c0: 1c45 14a5 b4c0 0328 3680 d41e c02b 9ca6
000001d0: 6d46 3f23 14b0 dfa3 a8b7 b5a0 cd40 84a2
000001e0: 7ca3 0824 c052 1ea3 1780 fda0 ed45 4d22
000001f0: 6e4b 95a3 ba9c 01a9 5af8 05a7 64e1 752a
00000200: fd71 122a 546f 5627 fd0b 5baa 6afd 4527
00000210: 90d5 39a8 acd6 b8a9 0824 042a 0e31 5f2a
00000220: d692 13aa 2058 b229 e264 bca9 bf51 cca9
00000230: 666c fb29 22d9 b9a9 a2d7 672a dd78 cc29
00000240: 74f1 86a7 9c0c b42a 577a 972a b681 b62b
00000250: 6c91 1928 9eae 42aa de58 451a 02de b79b
00000260: 1a1e 921a 99bc 391e e387 381b 30c8 0d18
00000270: 1954 bb1d 8a48 f99a b2d2 1f1b e664 4d15
00000280: 3756 0d1a 004e 3518 a2d5 309d 930b 589f
00000290: 2e94 b916 1e5c 4f9f 7a01 061d e6f1 4d1c
000002a0: 38bf 0d1b 0679 9999 8260 7f1b a813 cf1b
000002b0: 5235 1a1a 9d66 911b 0f5a 3d9b 84fd a7a0
000002c0: ca66 1f1e bbc8 2aa2 9f63 b121 31e9 8c1e
000002d0: fecd 00a2 7e00 a49f 1e82 23a3 16b1 8ea1
000002e0: 28b7 9420 7074 e4a1 c2c4 3622 736e f222
000002f0: 2801 cf9f 97c3 a7a1 6433 5d21 e1ad 30a2
00000300: ed00 eba1 036b 5da2 1e77 a51f c154 3123
00000310: 7578 52a2 2c37 81a3 2a8c f79e 85ec b721
00000320: 1b57 4b99 ed26 7e9c 94d8 7299 08f5 399b
00000330: cdd5 541a 502c 8718 abe7 089e 4e1f 3f9a
00000340: c329 059c 6692 8695 4cf9 e319 a9d8 041c
00000350: f25c ab9c 944d 08a0 3229 a398 532c c31d
00000360: 55a5 801c c713 969b 5fd7 361b d246 869a
00000370: 0575 8c1a 58a2 0b9c 9f2c 8519 ad6c 8419
00000380: c8b8 469c 8ead bca1 84aa b79f b4c9 4b23
00000390: 53d7 2623 2642 2b20 75d0 f7a2 3195 d01f
000003a0: ce25 4422 9135 c1a2 f80e 3722 5d1d fd22
000003b0: d083 91a2 844d 2c22 4b37 aaa2 449c e6a2
000003c0: 6938 5e23 ad74 b5a2 046e d522 022c ea22
000003d0: 8fed ce9f f916 72a3 a4c8 a222 4092 be23
000003e0: 20e1 561f 2071 3aa2 c8e3 e195 f785 4918
000003f0: 2062 1097 0664 211a d505 f416 94bc 4114

encoder.lstm.weight_hh_l1 f4 [100, 25]
1.433565e-23 -4.644023e-23 -4.6375777e-22 -3.498446e-24 -2.2516729e-24 -1.3216764e-26 2.7762116e-22 -3.6619242e-23
-1.4614674e-24 -6.9345206e-26 -1.320754e-21 -1.0129665e-23 -9.481019e-25 2.856546e-19 -4.3822463e-22 2.336722e-22
6.5369205e-23 1.6337274e-21 5.0702623e-26 3.080064e-23 2.030246e-19 -2.2248165e-24 -9.983062e-25 -1.5067862e-23
1.4942851e-23 -9.3076594e-23 5.619937e-22 1.4595891e-20 4.0583006e-23 3.173689e-23 1.5068922e-24 -4.993702e-21
8.300692e-23 6.622687e-23 1.4177577e-25 3.8673282e-20 2.5042113e-22 1.1832035e-24 -2.4120798e-18 7.9551535e-21
-3.5459803e-21 -1.0175252e-21 -4.750107e-20 -4.9295464e-25 -7.758733e-22 -5.0994283e-18 3.8552803e-23 1.5596175e-23
5.320982e-22 -6.364509e-23 -2.5318055e-20 2.0547929e-20 -2.8078946e-19 9.132375e-21 -5.357304e-21 -4.9885544e-22
-7.638289e-19 4.7188886e-20 2.7173904e-20 1.2234528e-22 6.421671e-18 2.60629e-20 3.8768453e-21 -1.8209637e-15
2.685596e-18 -1.1788914e-18 5.73804e-20 3.3044538e-18 -7.8785333e-22 1.9066812e-20 -2.6052487e-15 1.7343444e-20
1.3801143e-21 -1.0471655e-19 -1.890596e-20 -9.546273e-25 2.4071217e-24 2.7147215e-23 1.3520911e-25 -1.5092265e-27
1.25781814e-26 -1.7264095e-23 1.715832e-24 5.69626e-26 3.2720818e-27 1.7632341e-23 8.444161e-25 1.8780606e-26
6.138487e-20 1.6838563e-23 -4.3623164e-24 -4.000686e-24 -1.563633e-22 -8.162541e-27 -1.2936567e-24 2.7426973e-20
1.6182621e-25 4.7777385e-26 2.318259e-24 -4.477236e-25 -6.706798e-25 3.039288e-24 2.650564e-23 1.1695028e-25
1.855518e-28 -6.187191e-27 -1.26310026e-23 1.1538803e-24 5.509643e-26 1.4989303e-27 3.8417214e-23 4.2530775e-25
7.063157e-26 -1.8892137e-19 2.5578477e-23 -9.306047e-24 -1.7646191e-24 -5.104708e-23 2.1957137e-28 -1.2375705e-24
-1.2099809e-19 1.1152892e-25 1.06829485e-27 2.5889833e-25 -2.7578084e-25 3.1692302e-27 -1.9466315e-26 -4.701396e-25
1.5229953e-28 7.9555274e-28 1.7697044e-28 1.0919536e-25 -1.5372993e-26 -2.678449e-27 3.022878e-29 -3.0276141e-25
2.8204516e-27 -2.6046493e-29 -1.600071e-21 -1.3543354e-25 -5.240773e-26 1.2802614e-26 -1.474991e-24 -5.585382e-29
2.1189337e-26 -6.8507523e-22 -1.2382854e-27 1.4692939e-28 -1.1863559e-27 -2.9971274e-27 1.643222e-21 -1.1251204e-20
5.126399e-20 -3.3392889e-22 7.640719e-22 4.5289817e-23 6.015188e-21 -3.607317e-21 -1.3291771e-22 -1.0828508e-23
-8.589482e-20 9.072676e-22 5.259446e-23 2.8582245e-16 -6.826274e-20 1.8542161e-20 4.2523982e-21 6.0110944e-20
1.0079096e-23 9.092673e-22 2.4393826e-16 -2.3845831e-22 -7.537503e-23 2.8531026e-21 -4.1361858e-22 2.4550555e-22
-6.351988e-22 -1.5364668e-20 -3.9233937e-23 -6.9322364e-23 -3.286394e-24 5.200644e-21 -3.6700667e-22 -6.778903e-23
-4.7484644e-25 -1.704563e-20 -3.4080344e-22 -2.029909e-24 2.6978913e-18 -7.8419065e-21 4.4020573e-21 1.4792899e-21
6.567463e-20 1.3800668e-24 5.531454e-22 1.0910665e-18 -3.7268733e-23 -1.858747e-23 -9.440949e-22 1.6825836e-22
-1.413936e-24 3.6242755e-24 3.0621397e-23 1.0874651e-25 -2.142724e-25 -9.729367e-27 -1.5466068e-23 1.8400066e-24
-9.0182764e-26 1.9350018e-27 5.740031e-23 5.5807013e-25 1.3636084e-25 -3.0182027e-19 2.5831293e-23 -3.1249344e-25
1.0126537e-24 -9.257105e-23 1.0201077e-27 -5.2036155e-25 -1.0876818e-19 1.9279573e-25 5.437241e-26 4.3728686e-24
-3.0896647e-25 1.3283855e-28 -4.5080165e-28 2.1496317e-27 -5.598135e-29 -1.4980911e-28 -1.0516197e-29 1.9362371e-27
-5.162881e-29 -6.3992874e-29 -3.1932064e-31 1.1838152e-28 -6.4011664e-29 2.2535911e-29 -6.4972067e-24 -1.82421e-28
8.348672e-27 3.9123322e-28 6.877462e-27 3.679444e-31 -2.448138e-29 -2.751819e-24 -2.7249038e-29 -3.4300244e-29
2.8563065e-28 1.8729168e-28 -2.6949162e-19 1.8948803e-19 1.8144423e-17 1.733569e-20 8.0491756e-20 1.3079368e-21
00000000: 5aa5 8a19 3892 609a 8529 0c9c ee56 8798
00000010: fa36 2e98 7ae4 8294 cbcf a71b 6d14 319a
00000020: b026 e297 bfb0 ab95 3296 c79c acef 4399
00000030: 30b6 9297 e79e a820 fd71 049c 063f 8d1b
00000040: 940d 9e1a c4e1 f61c 3611 7b15 58f1 141a
00000050: 6cb0 6f20 0823 2c98 fc7a 9a97 38ba 9199
00000060: b584 9019 9f0b e19a 28da 291c b3da 891e
00000070: 543f 441a 5e78 191a 262e e917 1fa8 bc9d
00000080: cbb2 c81a 7220 a01a 8982 2f16 21a1 361f
00000090: cb5e 971b 8517 b717 e6fa 31a2 c344 161e
000000a0: 9ef6 859d 99c3 999c 4551 609f e48f 1897
000000b0: 4a7e 6a9c bd22 bca2 0f6e 3a1a 42d6 9619
000000c0: 1bd1 201c 67e2 999a 4d1f ef9e d811 c21e
000000d0: b4bf a5a0 7581 2c1e aa64 ca9d 12c5 169c
000000e0: 4871 61a1 ddd7 5e1f 3c53 001f 08e8 131b
000000f0: f8ea ec22 3a28 f61e 8c76 921d da36 03a7
00000100: 7929 4622 42f9 ada1 537c 871f 5ed3 7322
00000110: 331d 6e9c b914 b41e 5bba 3ba7 e0cd a31e
00000120: 968e d01c 4541 f79f ce8f b29e afb8 9397
00000130: f53d 3a18 a046 031a 7a61 2716 8025 ef92
00000140: f522 7914 d4f7 a699 8ec1 0418 5608 8d15
00000150: da9e 8113 9087 aa19 c5aa 8217 7efe b914
00000160: e1f0 901f 43da a219 4ac2 a898 e0c4 9a98
00000170: 1908 3d9b 00ad 2194 062f c897 2d85 011f
00000180: c654 4816 0895 6c15 da5d 3318 5190 0a97
00000190: ba90 4f97 4d27 6b18 652c 001a 06c7 1016
000001a0: 0037 6b11 9219 f593 b251 7499 e88d b217
000001b0: 8369 8815 d683 ed12 35c6 391a 5aa0 0317
000001c0: 13e0 ae15 fb09 5fa0 3e61 f719 5001 3499
000001d0: e287 0898 39d9 769a 7e2b 8b11 3881 bf97
000001e0: 6ed9 0ea0 ed10 0a16 3047 a912 1440 a016
000001f0: 38b3 aa96 a017 7b13 f9c8 c094 4c80 1197
00000200: 0610 4111 e81e 7c12 3156 6011 642d 0716
00000210: 2b3f 9894 6635 5493 3347 1910 7666 bb96
00000220: 8e75 5f13 4812 0490 c0cb f19c 9aa8 2796
00000230: 58c1 8195 f794 7d14 6a3e e497 349b 8d90
00000240: 5ad9 d114 210d 4f9c d336 c492 5041 3a11
00000250: 50fc bb92 f774 6d93 1251 f81c 7c87 549e
00000260: 5c16 721f fed8 c99b 33ed 661c 1402 5b1a
00000270: 543f e31d d447 889d 0ab0 209b 2d74 5199
00000280: 3cd0 ca9f 371a 891c ca54 7e1a f3c3 a425
00000290: 4b2e a19f 3220 af1e aca6 a01d d6ee 8d1f
000002a0: 44f5 4219 9367 891c ef9e 8c25 a323 909b
000002b0: e23e b69a 0893 571d 6004 fa9b 2566 941b
000002c0: 20fa 3f9c 7d1d 919e 43b9 3d9a 779c a79a
000002d0: bd45 7e98 8b79 c41d 88d7 dd9b 61e7 a39a
000002e0: 36f5 1297 cefd a09e c700 ce9b 7d0e 1d98
000002f0: ba11 4722 2221 149e 164e a61d 428b df1c
00000300: e111 9b1f 148e d517 8d2d 271c 5403 a121
00000310: 7538 349a 59c4 b399 e7aa 8e9c 7169 4b1b
00000320: c7cb da97 1635 8c18 7413 141a 259f 0616
00000330: d1a0 8496 c0b5 4094 2194 9599 165d 0e18
00000340: 1e48 df95 804e 1913 12c9 8a1a dfb6 2c17
00000350: 7ace 2816 ca29 b2a0 2fd3 f919 906c c196
00000360: 59b3 9c17 b4d2 df9a 7ca4 a112 4a0b 2197
00000370: 2a69 00a0 68ab 6e16 9c9e 8615 cb2a a918
00000380: b13d bf96 9364 2811 60dd 0e92 b64f 2a13
00000390: f9ed 8d90 d6e7 3d91 374b 558f 8e67 1913
000003a0: 03e5 8290 c03d a290 3e40 cf8c 0011 1611
000003b0: f249 a290 928a e40f 3859 fb98 003f 6791
000003c0: cc5c 2514 38f9 f711 e038 0814 40cf ee0c
000003d0: 4c45 f88f 64e9 5498 462b 0a90 43ec 2d90
000003e0: 390a b511 a06b 6d11 6c14 9fa0 3eb5 5f20
000003f0: 4f5a a723 20bb a31e 480e be1f 5ba6 c51c

encoder.lstm.bias_ih_l1 f4 [100]
6.130088e-16 -2.295155e-15 -1.7858704e-12 4.6109984e-18 -3.8087293e-17 -3.1368868e-19 1.3367183e-13 3.797544e-15
-3.595999e-17 2.6048301e-21 9.192546e-13 -4.2689444e-16 -1.5176683e-17 -1.1699485e-13 -1.1826548e-12 -9.0150326e-14
4.3489263e-15 -1.2323571e-11 -4.036802e-20 -1.9939848e-15 1.0008926e-14 -8.133724e-19 1.0499643e-18 1.7774012e-15
-5.336242e-16 5.353496e-16 -3.4921877e-15 -1.7912827e-12 -5.9549425e-19 -4.683074e-17 -3.8387154e-19 1.0355852e-13
2.165751e-15 -4.418466e-17 -6.198016e-21 7.7160104e-13 -4.538124e-16 -2.086992e-17 -1.1618315e-13 -1.3279998e-12
-8.5466824e-14 3.4152303e-15 -1.3154912e-11 -4.3915717e-20 -2.0279136e-15 9.8911315e-15 -3.6020386e-19 1.2157735e-18
3.1509792e-16 -1.233986e-15 1.1500808e-08 -2.8355949e-08 -7.749639e-07 -2.799672e-09 -3.786797e-09 -1.9336416e-10
3.3329982e-07 -2.9363525e-08 -3.709099e-09 -4.708028e-11 -1.1771228e-06 -1.0148288e-08 -5.0939846e-11 6.70923e-08
-3.4580668e-07 2.3229272e-07 8.1373166e-08 3.0002702e-06 1.2058245e-10 3.5112908e-08 -5.85837e-08 -3.0550986e-09
-1.0115725e-09 -4.670652e-08 1.4119551e-08 4.9493426e-27 1.9480537e-24 6.83108e-22 -4.322676e-26 -8.088456e-28
-6.455623e-30 -1.7260951e-24 1.4836265e-24 2.3643769e-25 -2.7970183e-30 -6.9878744e-23 2.631938e-24 6.460115e-29
7.601965e-21 -1.1010223e-23 -1.9101512e-22 3.6814612e-24 4.8806782e-21 1.3425669e-30 -6.270649e-26 2.5056247e-22
-4.5460078e-27 -4.3887845e-29 1.3337876e-24 -4.8093515e-26
00000000: 11b0 3026 2362 25a7 c356 fbab a61d aa22
00000010: 8aa5 2fa4 4b2b b9a0 4880 162a 29d2 8827
00000020: 10d6 25a4 bed0 441d a35f 812b 8016 f6a5
00000030: eefa 8ba3 78b9 03aa a171 a6ab 2000 cba9
00000040: c4af 9c27 6ecc 58ad f1a1 3e9f 87ae 0fa7
00000050: 064e 3428 ae10 70a1 88f2 9a21 4413 0027
00000060: 84ce 19a6 d44d 1a26 7ea3 7ba7 c319 fcab
00000070: 46c2 2fa1 fbf7 57a4 0799 e2a0 6c31 e929
00000080: 0e0f 1c27 0ac4 4ba4 8827 ea9d b72f 592b
00000090: 72cd 02a6 b57d c0a3 83cf 02aa 3ce6 baab
000000a0: 4574 c0a9 e117 7627 756c 67ad d862 4f9f
000000b0: 6720 12a7 cb2e 3228 78a0 d4a0 a06a b321
000000c0: 3fa4 b525 0cd6 b1a6 1795 4532 6493 f3b2
000000d0: 1d07 50b5 5a64 40b1 051d 82b1 2c9b 54af
000000e0: 61f0 b234 133b fcb2 29e3 7eb1 af0f 4fae
000000f0: a2fd 9db5 a558 2eb2 2b09 60ae 6214 9033
00000100: 4fa7 b9b4 236c 7934 5fbf ae33 4058 4936
00000110: f194 042f 0dcf 1633 769d 7bb3 ddf1 51b1
00000120: 8b07 8bb0 5d9a 48b3 7192 7232 4c10 c413
00000130: 2eb9 1618 ec74 4e1c 6e0c 5695 ad2a 8092
00000140: 83ef 028f d68c 0598 8094 e517 0c59 9216
00000150: cceb 628e d9f4 a89a e7a2 4b18 8bc8 a310
00000160: d998 0f1e fcf7 5499 51ec 669b 6d6b 8e18
00000170: 0663 b81d 0cd8 d90d f640 9b95 aa74 971b
00000180: ff15 b493 ae89 5e90 c564 ce17 c625 6e95

encoder.lstm.bias_hh_l1 f4 [100]
6.1300886e-16 -2.2951546e-15 -1.7858706e-12 4.6110025e-18 -3.8087283e-17 -3.1368865e-19 1.3367183e-13 3.797544e-15
-3.5959986e-17 2.6048315e-21 9.192541e-13 -4.2689444e-16 -1.5176686e-17 -1.1699485e-13 -1.1826546e-12 -9.0150326e-14
4.348926e-15 -1.2323572e-11 -4.0368004e-20 -1.9939846e-15 1.0008923e-14 -8.133734e-19 1.0499639e-18 1.7774014e-15
-5.336242e-16 5.353496e-16 -3.4921853e-15 -1.7912822e-12 -5.9549466e-19 -4.6830748e-17 -3.8387162e-19 1.0355856e-13
2.1657514e-15 -4.418466e-17 -6.1980147e-21 7.715991e-13 -4.538124e-16 -2.086992e-17 -1.1618315e-13 -1.3279998e-12
-8.546683e-14 3.4152315e-15 -1.3154914e-11 -4.391571e-20 -2.0279131e-15 9.891131e-15 -3.601987e-19 1.2157735e-18
3.150948e-16 -1.2339864e-15 1.1500805e-08 -2.8356041e-08 -7.749639e-07 -2.7996738e-09 -3.7867953e-09 -1.9336407e-10
3.3329974e-07 -2.936353e-08 -3.709104e-09 -4.7080163e-11 -1.1771224e-06 -1.0148302e-08 -5.0940113e-11 6.709239e-08
-3.458069e-07 2.3229292e-07 8.137316e-08 3.0002689e-06 1.2058243e-10 3.5112915e-08 -5.858369e-08 -3.0550964e-09
-1.0115725e-09 -4.6706536e-08 1.4119544e-08 4.9492748e-27 1.9623424e-24 6.831079e-22 -4.322678e-26 -8.135945e-28
-6.455629e-30 -1.7260945e-24 1.4852954e-24 2.36455e-25 -2.7970706e-30 -6.9878896e-23 2.6319275e-24 6.460141e-29
7.601986e-21 -1.1010227e-23 -1.9101525e-22 3.682981e-24 4.881127e-21 1.3427241e-30 -6.268466e-26 2.5056247e-22
-4.5493994e-27 -4.3887797e-29 1.3337853e-24 -4.809354e-26
00000000: 12b0 3026 2162 25a7 c556 fbab b01d aa22
00000010: 87a5 2fa4 4a2b b9a0 4880 162a 29d2 8827
00000020: 0fd6 25a4 c5d0 441d 9f5f 812b 8016 f6a5
00000030: f0fa 8ba3 78b9 03aa 9f71 a6ab 2000 cba9
00000040: c3af 9c27 6fcc 58ad eca1 3e9f 86ae 0fa7
00000050: 034e 3428 c210 70a1 84f2 9a21 4513 0027
00000060: 84ce 19a6 d44d 1a26 73a3 7ba7 be19 fcab
00000070: 4ec2 2fa1 fdf7 57a4 0a99 e2a0 7231 e929
00000080: 100f 1c27 0ac4 4ba4 8527 ea9d 932f 592b
00000090: 72cd 02a6 b57d c0a3 83cf 02aa 3ce6 baab
000000a0: 4674 c0a9 e717 7627 776c 67ad d662 4f9f
000000b0: 6520 12a7 ca2e 3228 b09f d4a0 a06a b321
000000c0: c9a3 b525 10d6 b1a6 1395 4532 9893 f3b2
000000d0: 1d07 50b5 6264 40b1 011d 82b1 269b 54af
000000e0: 5ef0 b234 163b fcb2 3fe3 7eb1 8d0f 4fae
000000f0: 9efd 9db5 b458 2eb2 7809 60ae 6e14 9033
00000100: 57a7 b9b4 316c 7934 5ebf ae33 3a58 4936
00000110: f094 042f 0fcf 1633 739d 7bb3 d3f1 51b1
00000120: 8b07 8bb0 619a 48b3 6992 7232 9c0f c413
00000130: 32d4 1718 ea74 4e1c 740c 5695 50eb 8092
00000140: 8bef 028f d38c 0598 9dd6 e517 ca5b 9216
00000150: e2ec 628e f1f4 a89a b2a2 4b18 b6c8 a310
00000160: f398 0f1e 01f8 5499 5bec 669b 7a7a 8e18
00000170: 5d67 b81d 94de d90d 2033 9b95 aa74 971b
00000180: 6438 b493 9e89 5e90 ae64 ce17 ce25 6e95
