Encoder-Decoder-Models/models/model_cond_lstm 0.pt (torch_old, 167164 bytes, 45 tensors)

encoder.lstm.weight_ih_l0 f4 [100, 1]
0	0xb195a52d	-4.355249e-09
1	0x2fa9784f	3.0826405e-10
2	0x2e3eac95	4.3354282e-11
3	0x2e3822e1	4.1867735e-11
4	0x30b470a8	1.3128743e-09
5	0x305e1b20	8.0801676e-10
6	0x2a61fe54	2.0072252e-13
7	0x2ee92973	1.0602976e-10
8	0xb1d1873f	-6.0980763e-09
9	0x2ee068fb	1.0204989e-10
10	0x2c2384d4	2.3237428e-12
11	0x318150b3	3.7635686e-09
12	0xaaf76731	-4.3947617e-13
13	0x2e93d1c8	6.722051e-11
14	0x295a6f5e	4.850232e-14
15	0x327f0517	1.4844111e-08
16	0x27b624e3	5.055514e-15
17	0x2c35a654	2.5813978e-12
18	0x2f137f87	1.3414879e-10
19	0x2e07d26f	3.088235e-11
20	0x299d477b	6.9846005e-14
21	0x31799ba2	3.6322736e-09
22	0x2b383693	6.544567e-13
23	0x30adc48e	1.2643271e-09
24	0x2caef16c	4.9721807e-12
25	0xb1c1c291	-5.639159e-09
26	0x2f13914a	1.3421189e-10
27	0x2e22d1ce	3.702088e-11
28	0x2d85a105	1.5191856e-11
29	0x301220b4	5.3160965e-10
30	0x2f29fd20	1.5460389e-10
31	0x2964f047	5.0834577e-14
32	0x2ffe6ce3	4.62797e-10
33	0xb1b3d75b	-5.2340687e-09
34	0x2e96bf2e	6.8551706e-11
35	0x2bac2950	1.2232802e-12
36	0x31058233	1.9428057e-09
37	0xab132b44	-5.2284934e-13
38	0x2e1e0e0f	3.5937527e-11
39	0xaac69807	-3.5277356e-13
40	0x31cd2e99	5.971583e-09
41	0x2746e5d4	2.760261e-15
42	0x2b94905e	1.0556102e-12
43	0x2e8f5227	6.51748e-11
44	0x2db92f76	2.1053142e-11
45	0xa9c61548	-8.796658e-14
46	0x309a4054	1.1223258e-09
47	0x2b46a1ab	7.056809e-13
48	0xafb678f5	-3.3191552e-10
49	0x2bd10668	1.4852121e-12
50	0x392e9c70	0.0001665221
51	0xb8091dc1	-3.2691056e-05
52	0x36270f31	2.4893782e-06
53	0xb795da46	-1.7863826e-05
54	0xb899a153	-7.3256575e-05
55	0xb8cc3ceb	-9.738825e-05
56	0xb5937953	-1.0987663e-06
57	0xb69c17b2	-4.651921e-06
58	0x39206376	0.00015295841
59	0xb77bd0f5	-1.5009417e-05
60	0xb674cbe4	-3.6477513e-06
61	0xb91657c7	-0.00014337814
62	0xb5c7699b	-1.4857391e-06
63	0x3748b50b	1.1963081e-05
64	0x35cc78b4	1.5234314e-06
65	0x3959b02d	0.00020760363
66	0xb41b219d	-1.4447728e-07
67	0xb68c2e23	-4.177696e-06
68	0xb7c2ebd9	-2.3236427e-05
69	0xb728900c	-1.0047119e-05
70	0x35c6e08a	1.4817499e-06
71	0xb90e1800	-0.00013551116
72	0xb565515c	-8.542754e-07
73	0xb8f98b1c	-0.000118991564
74	0xb69eadd8	-4.729005e-06
75	0xb1cb9b20	-5.9257133e-09
76	0x2f93b1ec	2.6865565e-10
77	0x2e38aae2	4.198853e-11
78	0x2e087a8c	3.1031663e-11
79	0x308b9d14	1.0158225e-09
80	0x2fd62300	3.8951242e-10
81	0x2a039995	1.1688422e-13
82	0x2f624784	2.0579988e-10
83	0xb2022bf4	-7.57699e-09
84	0x2ec8ba52	9.128044e-11
85	0x2becbb36	1.682077e-12
86	0x31574760	3.132719e-09
87	0xab772c7b	-8.7813757e-13
88	0x2e8969a6	6.2488056e-11
89	0xab4467d9	-6.9777306e-13
90	0x3218eeda	8.901873e-09
91	0x2796a19f	4.1808593e-15
92	0x2c0faa3b	2.041602e-12
93	0x2f02035d	1.1824626e-10
94	0x2e01f3c1	2.95477e-11
95	0x29099b97	3.0555064e-14
96	0x31412f7d	2.811219e-09
97	0x2b443e4f	6.971966e-13
98	0x3054ea43	7.7458057e-10
99	0x2c90198d	4.095563e-12

encoder.lstm.weight_hh_l0 f4 [100, 25]
0	0xab8ae9f5	-9.870426e-13
1	0x29c28bd8	8.63959e-14
2	0xa987ed1c	-6.036336e-14
3	0x28ff3a5f	2.8336002e-14
4	0x2aaadedb	3.0352703e-13
5	0x2ac04d42	3.415966e-13
6	0x2732e1ba	2.4824829e-15
7	0xa9012c53	-2.86822e-14
8	0x2acbf684	3.6231098e-13
9	0x29414ac7	4.2919468e-14
10	0x27cb8fed	5.6499863e-15
11	0x2b096599	4.881317e-13
12	0xb0f14e31	-1.7557281e-09
13	0xa91755f9	-3.3603305e-14
14	0xa833cf56	-9.981455e-15
15	0xab5a7faa	-7.762633e-13
16	0x25ead215	4.0734886e-16
17	0x284b4830	1.1284417e-14
18	0xafdb1bd1	-3.9855633e-10
19	0x2c8e028b	4.036165e-12
20	0x23f37708	2.6396524e-17
21	0x2ae9e528	4.1548123e-13
22	0x275fbbc3	3.1049253e-15
23	0x3185bfe4	3.892625e-09
24	0x287cec35	1.4040029e-14
25	0xa7b30af0	-4.969434e-15
26	0xa70025fb	-1.7784158e-15
27	0x26aff717	1.2210038e-15
28	0xa63fef8a	-6.6591073e-16
29	0xa7dc8c43	-6.121434e-15
30	0xa6bd382a	-1.3129733e-15
31	0xa428d52a	-3.660975e-17
32	0xa7dcf5e6	-6.132887e-15
33	0x2acbea6b	3.6222704e-13
34	0xa6bc1821	-1.3051661e-15
35	0xa514fadf	-1.2921952e-16
36	0xa786d70c	-3.7425626e-15
37	0x2d55997e	1.214173e-11
38	0x2699fe9e	1.0685522e-15
39	0x2565995c	1.9914544e-16
40	0x28ad5368	1.924303e-14
41	0xa310cb70	-7.849335e-18
42	0xa5202014	-1.3888656e-16
43	0x2b54878f	7.5505655e-13
44	0xaa34fcd3	-1.6074928e-13
45	0x23d27922	2.2819547e-17
46	0xa812270e	-8.113097e-15
47	0xa4cb2a94	-8.8109347e-17
48	0xac6a5996	-3.330313e-12
49	0xa5c3d3a6	-3.3970526e-16
50	0xa88b2b16	-1.5450786e-14
51	0xa5d3a3e6	-3.6713727e-16
52	0x26abf15d	1.193093e-15
53	0x26041bb7	4.583426e-16
54	0xa70b99cc	-1.9373499e-15
55	0x2790c5f4	4.018265e-15
56	0x23ac2ec9	1.8668092e-17
57	0xa7816d15	-3.592296e-15
58	0x2b4f351f	7.3614893e-13
59	0xa58648fe	-2.3294756e-16
60	0x24e675fd	9.994648e-17
61	0x27dc8e8b	6.121681e-15
62	0x2de92734	2.6506443e-11
63	0x25da76cc	3.7897472e-16
64	0x24e5de1f	9.968921e-17
65	0x27b2bdf0	4.9610855e-15
66	0x218a25d0	9.361253e-19
67	0x245ed45c	4.8318452e-17
68	0x2d712bf5	1.3709024e-11
69	0x29d6d8b6	9.5411024e-14
70	0xa4e7738d	-1.0037603e-16
71	0x2541b221	1.6800434e-16
72	0xa387c0c6	-1.4718372e-17
73	0xad22644d	-9.230905e-12
74	0xa314c187	-8.064077e-18
75	0xa8376832	-1.01811344e-14
76	0xa58a901b	-2.4036834e-16
77	0x266dd999	8.252079e-16
78	0x258e1256	2.4645498e-16
79	0xa71e7e4e	-2.1995375e-15
80	0x27d37528	5.8691286e-15
81	0x23474a50	1.0803548e-17
82	0xa75e35f6	-3.0837941e-15
83	0xab4bd6f7	-7.241841e-13
84	0xa5baa459	-3.2377223e-16
85	0x247e36a7	5.5123763e-17
86	0x274cb106	2.8406652e-15
87	0x2de81c6f	2.6387973e-11
88	0x25903f45	2.502289e-16
89	0x249dab52	6.8378124e-17
90	0x27984d8a	4.2272543e-15
91	0x205a0738	1.8467707e-19
92	0x246184d8	4.890162e-17
93	0x2c270b81	2.3738513e-12
94	0xaa5fbeb0	-1.9872537e-13
95	0xa4855dfc	-5.783877e-17
96	0xa5543fc9	-1.840968e-16
97	0xa3819b6b	-1.405203e-17
98	0xad3eff6f	-1.0856967e-11
99	0xa43ec31a	-4.136494e-17
100	0xa9c0cf9a	-8.562526e-14
101	0xa8b80287	-2.04292e-14
102	0x287237f7	1.3445834e-14
103	0xa7aa39bb	-4.724707e-15
104	0xa9614089	-5.001601e-14
105	0x281f3ef6	8.8399255e-15
106	0xa59d9bc2	-2.7340704e-16
107	0xa9653e2e	-5.0902147e-14
108	0x2c95fb44	4.262731e-12
109	0xa83611e3	-1.0106908e-14
110	0xa68ca95c	-9.760356e-16
111	0xa889fb34	-1.5318997e-14
112	0x2e85502a	6.06238e-11
113	0x282effcc	9.714407e-15
114	0x2715f6ad	2.0811627e-15
115	0x2a3e3d7e	1.6896724e-13
116	0xa489f490	-5.9828584e-17
117	0xa6cf3004	-1.4376525e-15
118	0x2e129c28	3.333525e-11
119	0xaa59a952	-1.9332216e-13
120	0xa0f8cd80	-4.2148823e-19
121	0xa98678e3	-5.971766e-14
122	0xa63651c5	-6.3254753e-16
123	0xaedd7463	-1.0070591e-10
124	0xa7430838	-2.7066142e-15
125	0xaa80d60c	-2.2885892e-13
126	0xa82b9057	-9.5237056e-15
127	0x28af9218	1.9492261e-14
128	0x2896716e	1.6702538e-14
129	0xa89acb71	-1.7185663e-14
130	0x29c35523	8.6745085e-14
131	0x2640fcf9	6.6956223e-16
132	0xa98c4f74	-6.231032e-14
133	0xae04183c	-3.003485e-11
134	0xa71f3822	-2.2096112e-15
135	0x27a74a73	4.643253e-15
136	0x2a037ae9	1.167778e-13
137	0x3050a36e	7.5902207e-10
138	0x27b511f3	5.0257052e-15
139	0x2750319f	2.8892698e-15
140	0x2a2aba9b	1.5163775e-13
141	0x2446e41d	4.3127625e-17
142	0x27429632	2.700433e-15
143	0xaeaa4651	-7.743196e-11
144	0xadb22732	-2.0253663e-11
145	0xa74c336b	-2.833856e-15
146	0x29044f9f	2.9378948e-14
147	0xa50bc107	-1.2121728e-16
148	0xafa1f574	-2.9460134e-10
149	0xa4f58508	-1.06477177e-16
150	0xa3f0ae01	-2.6094546e-17
151	0xa1d8a4ed	-1.4680385e-18
152	0x2273c8af	3.3038882e-18
153	0x20c9be02	3.417646e-19
154	0xa32792e9	-9.0841976e-18
155	0x23471d95	1.0794076e-17
156	0x1e9309c7	1.5568274e-20
157	0xa360889e	-1.2171994e-17
158	0x24af7452	7.6091206e-17
159	0xa1f13991	-1.6346033e-18
160	0x20033888	1.1114836e-19
161	0x231146a2	7.875423e-18
162	0x293a300d	4.1341974e-14
163	0x21e54b87	1.5537636e-18
164	0x20b52e5b	3.0693268e-19
165	0x23d3d4ea	2.2966838e-17
166	0x9d7031aa	-3.1789411e-21
167	0x1ff2bcb0	1.02803144e-19
168	0x28078aae	7.524077e-15
169	0xa64704f0	-6.9048686e-16
170	0xa00ef59b	-1.2109132e-19
171	0xa2a12f34	-4.3689116e-18
172	0x9fd3280a	-8.9428215e-20
173	0xa90fb6e6	-3.1911018e-14
174	0xa0af3b26	-2.9685294e-19
175	0xa94b2605	-4.510803e-14
176	0xa721e4d5	-2.2467288e-15
177	0x27e485ea	6.3427902e-15
178	0x270c2fc5	1.9454799e-15
179	0xa83e2563	-1.0555226e-14
180	0x2859d7e2	1.2092732e-14
181	0x24c6708c	8.6059474e-17
182	0xa9028e91	-2.8989455e-14
183	0x2dcf4f21	2.3568316e-11
184	0xa719b1a4	-2.1329315e-15
185	0x248df259	6.1559555e-17
186	0x289a3086	1.7118478e-14
187	0xaf88a200	-2.4853364e-10
188	0x273470a0	2.5041072e-15
189	0x2621d95e	5.6152683e-16
190	0x295fc7c9	4.9689233e-14
191	0xa24cae49	-2.7739421e-18
192	0x25b7ae35	3.1863487e-16
193	0x2e015b69	2.9412393e-11
194	0x2d324d1f	1.0135253e-11
195	0xa5abe9da	-2.9822235e-16
196	0xa793b11d	-4.0992723e-15
197	0xa58a1d08	-2.3958856e-16
198	0x30572284	7.8265594e-10
199	0xa66f73f1	-8.307691e-16
200	0xab314922	-6.2984524e-13
201	0x29a1dfba	7.1886467e-14
202	0x293581fa	4.030281e-14
203	0x29e3241c	1.0087089e-13
204	0x2a155296	1.3262511e-13
205	0x2a4d5f23	1.8240665e-13
206	0x279ce50c	4.354703e-15
207	0x29b24e24	7.918343e-14
208	0xaf18c22e	-1.3893306e-10
209	0x2925460f	3.6698126e-14
210	0x2909f36a	3.063124e-14
211	0x2b1fef95	5.6820634e-13
212	0x300b5b02	5.0697235e-10
213	0xa8ae95ca	-1.9382841e-14
214	0x28645f11	1.2677157e-14
215	0xaa930bbe	-2.6120593e-13
216	0x25f6acc5	4.279127e-16
217	0x289e2655	1.7558148e-14
218	0xaff336fe	-4.4240517e-10
219	0xae76dc65	-5.6129674e-11
220	0xa89ad713	-1.7190708e-14
221	0x2ae530a2	4.0712317e-13
222	0x27751b9b	3.4015545e-15
223	0xb19b0a3e	-4.512258e-09
224	0x28499340	1.1189671e-14
225	0xa555133b	-1.848132e-16
226	0xa6bbeb34	-1.3039484e-15
227	0x25f70fd8	4.2858406e-16
228	0xa610208a	-5.0004135e-16
229	0xa755d585	-2.9675437e-15
230	0xa6c0d837	-1.3381281e-15
231	0xa402b188	-2.833963e-17
232	0xa7344e38	-2.502242e-15
233	0x2905aa91	2.9679875e-14
234	0xa61975cf	-5.32422e-16
235	0xa4e95227	-1.01186814e-16
236	0xa74e63d3	-2.8642358e-15
237	0x2c5ae65d	3.110754e-12
238	0x2624c318	5.716333e-16
239	0x2524eedc	1.4305661e-16
240	0x28524000	1.16712195e-14
241	0xa29fabd3	-4.3278962e-18
242	0xa4f7c728	-1.0745656e-16
243	0x2c004e8b	1.8233494e-12
244	0x2957117f	4.7754766e-14
245	0x23e97d6a	2.5315026e-17
246	0xa79e0a41	-4.3864927e-15
247	0xa46948b2	-5.0585397e-17
248	0xadc28ff3	-2.2119173e-11
249	0xa573d31d	-2.1148418e-16
250	0xa6391ab2	-6.422095e-16
251	0xa38e9905	-1.5460477e-17
252	0x246a0a41	5.0749347e-17
253	0x23b17b9f	1.9242734e-17
254	0xa519eeda	-1.335156e-16
255	0x259e1e68	2.7429235e-16

encoder.lstm.bias_ih_l0 f4 [100]
0	0x326adff8	1.3671517e-08
1	0x2f85dcc1	2.4349414e-10
2	0x2d42e192	1.107771e-11
3	0x2e923053	6.6478954e-11
4	0xaef29c5e	-1.1032662e-10
5	0x31085bec	1.9842856e-09
6	0xa936e90b	-4.061425e-14
7	0x2fdda4f6	4.0316878e-10
8	0x31752dbf	3.5678196e-09
9	0x2e495ec3	4.5786274e-11
10	0x2c3bca80	2.6686708e-12
11	0x3222791e	9.45718e-09
12	0xad34fe94	-1.0288343e-11
13	0x2e5673b3	4.8760728e-11
14	0xad0ab2ce	-7.884094e-12
15	0xb3a0b2bf	-7.483094e-08
16	0x26949f0d	1.0312674e-15
17	0x2c550f0a	3.0277469e-12
18	0x2f3d4d5e	1.7216936e-10
19	0x2db72d45	2.0824795e-11
20	0x2b91abab	1.0350517e-12
21	0x3160989c	3.2683038e-09
22	0xaa4af7b4	-1.8027143e-13
23	0x3131c9b2	2.587154e-09
24	0x2b5e7bfb	7.90423e-13
25	0x323feaa1	1.1171012e-08
26	0x2f3a545b	1.694657e-10
27	0x2e029086	2.968694e-11
28	0x2e4f89ce	4.7188746e-11
29	0xafedf723	-4.328565e-10
30	0x310368b9	1.9122537e-09
31	0x2a11cf58	1.2950524e-13
32	0x2ff15586	4.3898413e-10
33	0x317d6310	3.6872656e-09
34	0x2e547b68	4.8312826e-11
35	0x2c152c07	2.1198614e-12
36	0x321cc2e1	9.124705e-09
37	0xacdd47fd	-6.28919e-12
38	0x2df154ac	2.743613e-11
39	0xaccadc5c	-5.76565e-12
40	0xb31abfb4	-3.6030272e-08
41	0x274c98e1	2.8393563e-15
42	0x2c4f7780	2.9482805e-12
43	0x2f0b68e5	1.2679242e-10
44	0x2db78dd7	2.086768e-11
45	0x2b4db4aa	7.308135e-13
46	0x313408b1	2.6198388e-09
47	0x2a8ee9a7	2.5386396e-13
48	0x30f95cab	1.8143472e-09
49	0x2b1c4c76	5.5528444e-13
50	0xb8b4ef04	-8.627589e-05
51	0x3601cc20	1.9341314e-06
52	0x36a96ec6	5.049488e-06
53	0x3693d92e	4.4062244e-06
54	0xb5365185	-6.791891e-07
55	0x380294b1	3.1132895e-05
56	0x3452c93e	1.9630986e-07
57	0xb798abc3	-1.8199795e-05
58	0xb8ab2743	-8.1612285e-05
59	0x34bd7143	3.5286402e-07
60	0x3576fb70	9.200803e-07
61	0x382bf3de	4.0996696e-05
62	0xb508150e	-5.0694587e-07
63	0x3537dc71	6.8493597e-07
64	0x34f290f9	4.5181494e-07
65	0x37a6eb92	1.9898438e-05
66	0x32b3581b	2.0878408e-08
67	0x357ed164	9.4927077e-07
68	0x367b1c94	3.741855e-06
69	0x35975bd3	1.1277101e-06
70	0xb5158101	-5.569455e-07
71	0x374c237b	1.21676085e-05
72	0xb29aa8b9	-1.8004686e-08
73	0x38042ec5	3.151481e-05
74	0x34702993	2.2366866e-07
75	0x3264f58c	1.3327178e-08
76	0x2f845536	2.4071206e-10
77	0x2d19c6cd	8.741186e-12
78	0x2e9164e4	6.6117584e-11
79	0xaeef9bd1	-1.089614e-10
80	0x3107e401	1.977469e-09
81	0xa93d3cb9	-4.20191e-14
82	0x2fd371cf	3.8461542e-10
83	0x317adb99	3.6504615e-09
84	0x2e4803d8	4.547815e-11
85	0x2c395c62	2.6341364e-12
86	0x322206fa	9.431227e-09
87	0xad363b02	-1.0358605e-11
88	0x2e5591e5	4.8560173e-11
89	0xad0b2128	-7.908597e-12
90	0xb3a1e19b	-7.538184e-08
91	0x268d053b	9.785258e-16
92	0x2c534890	3.0025184e-12
93	0x2f3d0fca	1.7195059e-10
94	0x2db0a34f	2.0081407e-11
95	0x2b906fd8	1.0262858e-12
96	0x316020c4	3.2614915e-09
97	0xaa619cab	-2.003837e-13
98	0x31309dc4	2.570105e-09
99	0x2b2213e2	5.7581555e-13

encoder.lstm.bias_hh_l0 f4 [100]
0	0x326adfe9	1.3671504e-08
1	0x2f85dcc2	2.4349417e-10
2	0x2d42e194	1.1077712e-11
3	0x2e923056	6.6478975e-11
4	0xaef29c62	-1.1032665e-10
5	0x31085be9	1.984285e-09
6	0xa936e907	-4.0614237e-14
7	0x2fdda4e3	4.0316825e-10
8	0x31752dd1	3.5678236e-09
9	0x2e495ecc	4.5786305e-11
10	0x2c3bca87	2.6686724e-12
11	0x3222791f	9.457181e-09
12	0xad34fe90	-1.028834e-11
13	0x2e5673b1	4.876072e-11
14	0xad0ab2cf	-7.884095e-12
15	0xb3a0b2c1	-7.483096e-08
16	0x26949f07	1.0312667e-15
17	0x2c550f07	3.0277462e-12
18	0x2f3d4d5e	1.7216936e-10
19	0x2db72d3e	2.0824783e-11
20	0x2b91abad	1.0350519e-12
21	0x31609896	3.2683025e-09
22	0xaa4af7be	-1.8027157e-13
23	0x3131c9a8	2.5871518e-09
24	0x2b5e7c21	7.9042507e-13
25	0x323feaa1	1.1171012e-08
26	0x2f3a545a	1.6946569e-10
27	0x2e02907f	2.9686916e-11
28	0x2e4f89c9	4.718873e-11
29	0xafedf736	-4.3285703e-10
30	0x310368b8	1.9122535e-09
31	0x2a11cf5b	1.2950528e-13
32	0x2ff15584	4.3898407e-10
33	0x317d62f0	3.6872585e-09
34	0x2e547b6c	4.831284e-11
35	0x2c152c09	2.1198618e-12
36	0x321cc2e2	9.124706e-09
37	0xacdd47f9	-6.2891884e-12
38	0x2df154a9	2.7436125e-11
39	0xaccadc5f	-5.7656514e-12
40	0xb31abfb0	-3.6030258e-08
41	0x274c98e1	2.8393563e-15
42	0x2c4f777a	2.9482792e-12
43	0x2f0b68e5	1.2679242e-10
44	0x2db78dd9	2.0867684e-11
45	0x2b4db4ae	7.3081374e-13
46	0x313408b8	2.6198403e-09
47	0x2a8ee9a9	2.5386401e-13
48	0x30f95ca0	1.814346e-09
49	0x2b1c4c64	5.5528347e-13
50	0xb8b4ee67	-8.627475e-05
51	0x3601d2ff	1.9345314e-06
52	0x36a9639f	5.04819e-06
53	0x3693db95	4.406504e-06
54	0xb5364a9a	-6.7908843e-07
55	0x38029524	3.1133313e-05
56	0x34529332	1.9611323e-07
57	0xb798a7ca	-1.8197945e-05
58	0xb8ab276c	-8.161258e-05
59	0x34bd4091	3.5250972e-07
60	0x3577203a	9.2061566e-07
61	0x382bf50a	4.0997787e-05
62	0xb507dbb0	-5.0611106e-07
63	0x3537af72	6.842812e-07
64	0x34f1ef0d	4.506368e-07
65	0x37a6ec8c	1.9898893e-05
66	0x32b2677c	2.0768987e-08
67	0x357f0a8a	9.501024e-07
68	0x367ae534	3.7386317e-06
69	0x35976cb0	1.1282009e-06
70	0xb5157898	-5.568231e-07
71	0x374c2596	1.2168099e-05
72	0xb2990aa1	-1.7816378e-08
73	0x380429c3	3.1510146e-05
74	0x346fcb8f	2.2332664e-07
75	0x3264f590	1.3327181e-08
76	0x2f845532	2.4071195e-10
77	0x2d19c6c7	8.7411805e-12
78	0x2e9164e2	6.611757e-11
79	0xaeef9bf9	-1.0896168e-10
80	0x3107e3ff	1.9774686e-09
81	0xa93d3cbe	-4.2019116e-14
82	0x2fd371f2	3.846164e-10
83	0x317adb8d	3.6504588e-09
84	0x2e4803e0	4.5478177e-11
85	0x2c395c5c	2.634135e-12
86	0x322206f7	9.431225e-09
87	0xad363b05	-1.0358607e-11
88	0x2e5591e9	4.8560187e-11
89	0xad0b2129	-7.908598e-12
90	0xb3a1e197	-7.538181e-08
91	0x268d0543	9.785267e-16
92	0x2c53488e	3.002518e-12
93	0x2f3d0fc9	1.7195058e-10
94	0x2db0a34e	2.0081405e-11
95	0x2b906fd7	1.0262857e-12
96	0x316020c2	3.261491e-09
97	0xaa619cc4	-2.0038403e-13
98	0x31309dc2	2.5701046e-09
99	0x2b221423	5.7581907e-13

encoder.lstm.weight_ih_l0_reverse f4 [100, 1]
0	0x3d242f2c	0.04008405
1	0x3d17bc2a	0.03704468
2	0x38e3c126	0.0001086018
3	0x35bc418c	1.4026168e-06
4	0x384d0d6a	4.88883e-05
5	0x39897b32	0.00026222464
6	0x3d1270db	0.03575216
7	0x3d219cf0	0.039456308
8	0x3d0c22d0	0.034212887
9	0x3d0d6ec5	0.034529466
10	0x3d1ae594	0.0378166
11	0x3d120541	0.03564954
12	0x3d30bcd5	0.043148834
13	0x3ccd401a	0.02505498
14	0x3d09da54	0.03365548
15	0x3d24cd3b	0.040234786
16	0x3d428b77	0.047496285
17	0x3ccfe06a	0.025375564
18	0x3e928ded	0.28623906
19	0x3d6cd841	0.057823423
20	0x3d14586d	0.036217142
21	0x3d333a72	0.04375691
22	0x3d1ea39c	0.03873025
23	0x3d3b08d4	0.045662716
24	0x39b212b9	0.00033964755
25	0x3c56c5b8	0.013108663
26	0x3c4d87d3	0.01254459
27	0x3899c740	7.332722e-05
28	0x34bca685	3.5138888e-07
29	0x3812b975	3.4981833e-05
30	0x39392827	0.00017657933
31	0x3c178e45	0.009250228
32	0x3c73eebc	0.014888462
33	0x3c41a615	0.011819382
34	0x3c520d2d	0.012820524
35	0x3c1d7155	0.00960954
36	0x3c170868	0.009218313
37	0x3c90cdd1	0.017676266
38	0xba75274d	-0.00093518646
39	0x3be96fc3	0.0071239187
40	0x3bc158a3	0.005900459
41	0x3c53f7e9	0.012937524
42	0x3af32a81	0.0018552096
43	0x3e8c05fa	0.2734831
44	0x3c804f18	0.015662715
45	0x3c40552b	0.011739056
46	0x3c949f58	0.018142387
47	0x3c6531ef	0.013988956
48	0x3c6ab3fb	0.014325137
49	0x39558acb	0.00020364967
50	0x3ecad38b	0.3961452
51	0x3ec99266	0.39369506
52	0x3ba03b9e	0.0048899194
53	0xbb3a4f9d	-0.00284288
54	0xbb119a89	-0.0022217354
55	0x3c353d03	0.01106191
56	0xbebc6a22	-0.36799723
57	0x3ed0b302	0.40761572
58	0x3eb4fd5c	0.35349548
59	0x3eaa174d	0.33220902
60	0x3ec0f90b	0.37690005
61	0x3ec68e2e	0.3878035
62	0x3f0a7a58	0.5409293
63	0x3ec18596	0.3779723
64	0x3ec7a081	0.38989642
65	0x3ee84679	0.45366266
66	0xbef19911	-0.47187093
67	0xbed8d6da	-0.4235142
68	0x3fb52c27	1.4154099
69	0x3f0cbf52	0.5497943
70	0xbea9b6c9	-0.33147267
71	0xbea987d5	-0.33111444
72	0xbeb89e7f	-0.36058423
73	0x3ef9c9c8	0.4878676
74	0xbb568279	-0.0032731576
75	0x3d2a6204	0.04159738
76	0x3d13e2cb	0.03610496
77	0x38c35fcd	9.316169e-05
78	0x35bfb020	1.4281868e-06
79	0x383438ce	4.2968248e-05
80	0x396d318d	0.0002262054
81	0x3d095915	0.03353222
82	0x3d11c6b5	0.035589892
83	0x3d06d7ad	0.03292053
84	0x3d059c07	0.032619502
85	0x3d1ab212	0.037767477
86	0x3d025885	0.0318227
87	0x3d3ca47d	0.046055306
88	0x3ccb589f	0.024822531
89	0x3d06ff55	0.032958347
90	0x3d285b81	0.04110289
91	0x3d3a1145	0.045426626
92	0x3cbb560a	0.022868175
93	0x3e3251e5	0.17414053
94	0x3d5d4900	0.054024696
95	0x3d0990e1	0.033585433
96	0x3d2c1938	0.042016238
97	0x3d1d4ec4	0.038405195
98	0x3d2ee588	0.042699367
99	0x399c5c58	0.0002982344

encoder.lstm.weight_hh_l0_reverse f4 [100, 25]
0	0x3bd68a2e	0.006547234
1	0x3bcd9ffd	0.0062751756
2	0x39c41991	0.00037403082
3	0xb82e575a	-4.1566185e-05
4	0xb9b82a6a	-0.00035126816
5	0x3a34987a	0.0006889176
6	0xbbc87754	-0.0061177406
7	0x3bb4bcc7	0.005515668
8	0x3bdc585e	0.0067244014
9	0x3bc8f6e6	0.006132948
10	0x3be03b2e	0.0068429923
11	0x3bcb6ba8	0.006207902
12	0x3cacfbfa	0.021116246
13	0x3bc04660	0.0058677644
14	0x3bbc77ce	0.0057515865
15	0x3bbd9f6b	0.0057868264
16	0xbbbb24f2	-0.0057111913
17	0xbbafb901	-0.0053626304
18	0x3c68fe23	0.014220747
19	0x3bab9350	0.005236067
20	0xbbc1e992	-0.0059177363
21	0xbbce6202	-0.0062983045
22	0xbbc3df6e	-0.0059775626
23	0x3c0fa804	0.008768085
24	0xba3cfb9f	-0.00072091253
25	0x3c2aeaf4	0.010431994
26	0x3c2a892a	0.010408679
27	0x39b6664a	0.00034789956
28	0xb7bb5ef2	-2.233635e-05
29	0xb971f6fa	-0.00023075557
30	0x3a1bd284	0.000594415
31	0xbc1d00bb	-0.009582694
32	0x3c13b962	0.009016367
33	0x3c2df3d3	0.010617214
34	0x3c1a08cc	0.009401511
35	0x3c334e2c	0.010943931
36	0x3c2168a9	0.009851613
37	0x3d0fb215	0.03508194
38	0x3c187835	0.009306003
39	0x3c1cc8bd	0.009569344
40	0x3c1a66fc	0.009423967
41	0xbc1ca46f	-0.009560688
42	0xbc166314	-0.0091788955
43	0x3d084bd7	0.03327545
44	0x3c175293	0.009235996
45	0xbc185f0b	-0.009300004
46	0xbc2174e5	-0.00985453
47	0xbc14b97c	-0.009077426
48	0x3c1a7dc5	0.0094294
49	0xba1c1753	-0.00059544033
50	0x3842d1fb	4.6448764e-05
51	0x38404941	4.584459e-05
52	0x35e76ff2	1.7243422e-06
53	0xb442011b	-1.806806e-07
54	0xb599e1e5	-1.1465132e-06
55	0x36448dd0	2.9288822e-06
56	0xb82a7b4c	-4.0645988e-05
57	0x3829feae	4.052993e-05
58	0x38320b06	4.2448773e-05
59	0x382977c6	4.0404288e-05
60	0x38389cdd	4.401511e-05
61	0x38328c08	4.256892e-05
62	0x385bf41e	5.244102e-05
63	0x382db054	4.1410633e-05
64	0x3830d7f9	4.216281e-05
65	0x38389acf	4.4013195e-05
66	0xb839be8d	-4.42849e-05
67	0xb82b2743	-4.0806142e-05
68	0x38b56b4b	8.6507374e-05
69	0x383be8d5	4.4801116e-05
70	0xb8276382	-3.9908577e-05
71	0xb83893a6	-4.4006527e-05
72	0xb82ba83f	-4.092627e-05
73	0x3839bb0e	4.4281645e-05
74	0xb6355ba7	-2.702445e-06
75	0x337d34bb	5.895411e-08
76	0x33ca5408	9.421643e-08
77	0x32311769	1.0308079e-08
78	0x2f69bb51	2.1257775e-10
79	0xb1041a29	-1.9223398e-09
80	0x3225209e	9.61168e-09
81	0xb2860107	-1.560012e-08
82	0x32b88585	2.1481137e-08
83	0x3400571e	1.1952622e-07
84	0x336dae12	5.533918e-08
85	0x326d88f2	1.3826353e-08
86	0xb2dde65a	-2.5832538e-08
87	0x33454fda	4.594026e-08
88	0x337b5ae8	5.852317e-08
89	0x333e1995	4.426109e-08
90	0x340d76c4	1.3174855e-07
91	0xb34355e2	-4.5480085e-08
92	0xb24547cc	-1.1483234e-08
93	0xb58c82ab	-1.0468842e-06
94	0x332adb61	3.9780733e-08
95	0x31c19efb	5.6351133e-09
96	0xb38fc8b5	-6.695465e-08
97	0xb4170d43	-1.4067795e-07
98	0x3394f697	6.9366415e-08
99	0xb224f22f	-9.601123e-09
100	0x37b391f7	2.1406433e-05
101	0x37b274b4	2.1273598e-05
102	0x35616821	8.397056e-07
103	0xb39e7b7b	-7.379909e-08
104	0xb507c762	-5.058156e-07
105	0x35b88417	1.3747512e-06
106	0xb79c4196	-1.862719e-05
107	0x379c08c1	1.8600726e-05
108	0x37a4d017	1.9647223e-05
109	0x379d5884	1.8757077e-05
110	0x37ae5df4	2.0786167e-05
111	0x37a5706b	1.9721881e-05
112	0x37f23bfa	2.8876577e-05
113	0x37a1ac84	1.927303e-05
114	0x37a32943	1.9450328e-05
115	0x37ab5d74	2.0428306e-05
116	0xb7a8bcbc	-2.0115047e-05
117	0xb79fb957	-1.9040583e-05
118	0x3810be4a	3.4509496e-05
119	0x37abae17	2.0465855e-05
120	0xb79a1d6b	-1.837193e-05
121	0xb7a8fb0f	-2.0144069e-05
122	0xb79b11bf	-1.8485704e-05
123	0x37ae9669	2.0812457e-05
124	0xb5b0cdd0	-1.3172921e-06
125	0x3900dc89	0.00012289187
126	0x39006d70	0.000122478
127	0x36b0ae58	5.265505e-06
128	0xb4f82ad5	-4.6224764e-07
129	0xb652e526	-3.142582e-06
130	0x370075f1	7.656855e-06
131	0xb8ddda04	-0.0001057871
132	0x38d7cab8	0.00010289758
133	0x38f59163	0.00011709591
134	0x38e1bc7a	0.000107639426
135	0x38f073b3	0.000114656425
136	0x38e135f0	0.00010738883
137	0x395461d3	0.00020254338
138	0x38e78a8e	0.00011040746
139	0x38ea25ba	0.000111650166
140	0x38f9b46a	0.0001190685
141	0xb8f08d64	-0.00011470428
142	0xb8e06fe0	-0.00010701991
143	0x392d8109	0.00016546635
144	0x38f39a9d	0.00011615942
145	0xb8d4b564	-0.000101427344
146	0xb8f26610	-0.0001155847
147	0xb8ee5cdf	-0.00011366023
148	0x38dd1de1	0.000105436666
149	0xb701fe03	-7.748141e-06
150	0x3c31605e	0.010826198
151	0x3c2d4053	0.010574418
152	0x39e45699	0.0004355207
153	0xb806b643	-3.2117834e-05
154	0xb98cb527	-0.0002683785
155	0x3a3c56db	0.00071845733
156	0xbc1df13b	-0.009640033
157	0x3c1696c9	0.009191223
158	0x3c2b49c2	0.010454597
159	0x3c1cc7a8	0.009569086
160	0x3c3191fe	0.01083803
161	0x3c22d097	0.009937427
162	0x3d0a4ebb	0.03376649
163	0x3c1ab592	0.009442704
164	0x3c1e96e2	0.009679528
165	0x3c1e6b6b	0.009669165
166	0xbc227386	-0.009915238
167	0xbc168f0a	-0.009189377
168	0x3d0f2073	0.034943055
169	0x3c1e6e82	0.009669902
170	0xbc1a26c2	-0.009408655
171	0xbc245152	-0.010029154
172	0xbc19620e	-0.009361757
173	0x3c2c4da9	0.0105165625
174	0xba31049c	-0.0006752701
175	0x3c4d9645	0.012548034
176	0x3c44e5e7	0.012017704
177	0x39fa4f1e	0.00047742663
178	0xb833253e	-4.271161e-05
179	0xb9aa4ea4	-0.0003248352
180	0x3a59536b	0.00082903233
181	0xbc31c5db	-0.010850395
182	0x3c2d3716	0.010572216
183	0x3c42d78b	0.01189221
184	0x3c316327	0.010826862
185	0x3c45c9f7	0.012072078
186	0x3c36ec94	0.011164803
187	0x3cfe1179	0.031014191
188	0x3c31de83	0.010856274
189	0x3c35e831	0.011102722
190	0x3c3c5ca7	0.011496699
191	0xbc3f1a96	-0.011664053
192	0xbc2ed68d	-0.01067127
193	0x3d11b06e	0.035568647
194	0x3c3c5130	0.011493966
195	0xbc2c1407	-0.010502822
196	0xbc36ba5c	-0.01115283
197	0xbc352f27	-0.011058605
198	0x3c601f0c	0.013679277
199	0xba4d9e41	-0.0007843711
200	0x3c0d980c	0.008642208
201	0x3c0daae6	0.008646702
202	0x39c47f66	0.00037478952
203	0xb7bde6ac	-2.263797e-05
204	0xb962ebda	-0.00021640901
205	0x3a1db1fb	0.0006015596
206	0xbbfc746f	-0.0077043097
207	0x3bf5b5e1	0.0074984883
208	0x3c0c0ff3	0.008548724
209	0x3bfa8415	0.00764514
210	0x3c0f9751	0.008764104
211	0x3c00e836	0.007867863
212	0x3cde032e	0.027101126
213	0x3bfa8e9f	0.0076463963
214	0x3c00e6f9	0.007867568
215	0x3c04e22d	0.008110565
216	0xbc05dbab	-0.008170049
217	0xbbf8e169	-0.0075952304
218	0x3cf4460a	0.029818553
219	0x3c04d652	0.008107739
220	0xbbf3b581	-0.0074374084
221	0xbc00f8ca	-0.007871816
222	0xbbfd1f01	-0.007724643
223	0x3c266173	0.01015507
224	0xba0f7039	-0.00054717396
225	0x3c2c7a46	0.010527199
226	0x3c27ad7b	0.010234232
227	0x39f8cc8e	0.0004745465
228	0xb824cbd4	-3.9290477e-05
229	0xb9a9c2c4	-0.00032379304
230	0x3a53f15f	0.00080849783
231	0xbc19a1ee	-0.009376986
232	0x3c153fdd	0.0091094645
233	0x3c26d40a	0.01018239
234	0x3c18c268	0.009323694
235	0x3c27f528	0.010251321
236	0x3c1f6d57	0.0097306585
237	0x3cd70478	0.026247248
238	0x3c17cf22	0.009265693
239	0x3c1acfd3	0.009448963
240	0x3c1e1483	0.009648445
241	0xbc21a360	-0.009865612
242	0xbc14424a	-0.009049008
243	0x3cd90691	0.026492389
244	0x3c2026f0	0.009774908
245	0xbc1537a9	-0.009107509
246	0xbc1f097e	-0.009706853
247	0xbc180d20	-0.009280473
248	0x3c331728	0.010930814
249	0xba4cf64e	-0.00078186847
250	0x3c271715	0.010198374
251	0x3c24edf8	0.010066502
252	0x39fde3cc	0.00048425642
253	0xb8500c09	-4.9602273e-05
254	0xb9ccac86	-0.00039038452
255	0x3a683844	0.0008858482

encoder.lstm.bias_ih_l0_reverse f4 [100]
0	0x3dd3478f	0.10316383
1	0x3da04419	0.078254886
2	0x3921cefc	0.00015431264
3	0x363dbf88	2.827468e-06
4	0x389e476a	7.547329e-05
5	0x39e9074a	0.00044446654
6	0x3d8ad46a	0.06778796
7	0x3d8561aa	0.065127686
8	0x3d8bf49b	0.06833764
9	0x3d84befa	0.064817384
10	0x3dab8098	0.08374137
11	0x3daaa133	0.083315276
12	0x3db7a328	0.089666665
13	0x3d9233bb	0.07138773
14	0x3d9bad81	0.076014526
15	0x3da954ae	0.082681045
16	0x3dbafabe	0.091298565
17	0x3d86953a	0.065714315
18	0x3ea305c7	0.31840345
19	0x3dcea615	0.100902714
20	0x3d984ae9	0.07436163
21	0x3d9b7b5a	0.07591887
22	0x3d795cb1	0.060879413
23	0x3dd02f36	0.10165255
24	0x39e116b4	0.0004293226
25	0x3d0bdb26	0.034144543
26	0x3cf594b0	0.029978126
27	0x38b6861b	8.7034154e-05
28	0xb3ef381d	-1.1139512e-07
29	0x383ac01d	4.4524775e-05
30	0x396f78cf	0.00022837821
31	0x3cc8279b	0.024432948
32	0x3cdb07d8	0.026737139
33	0x3cc3ec72	0.023916457
34	0x3cd6566a	0.026164252
35	0x3cdc6fc1	0.026908757
36	0x3cf2807f	0.029602287
37	0x3d26c90e	0.040719084
38	0x3c6ff8ea	0.014646748
39	0x3ccaa929	0.024738865
40	0x3ca0924c	0.01960101
41	0x3cf12575	0.029436806
42	0x3c9c83bb	0.019105783
43	0x3e985858	0.297549
44	0x3d1bd0b7	0.038040843
45	0x3ce93d52	0.028471623
46	0x3cf78600	0.030215263
47	0x3c9c70ce	0.019096758
48	0x3d36c333	0.04461975
49	0x3966fae0	0.00022027967
50	0xbd5ed7e6	-0.054405116
51	0xbd025fb9	-0.03182957
52	0xb816336b	-3.5810674e-05
53	0x3a41cb20	0.00073926337
54	0x39bd69a8	0.0003612761
55	0xbae5872d	-0.0017511599
56	0x3d40aa4e	0.047037415
57	0xbd54e29f	-0.051973935
58	0xbceac16d	-0.028656686
59	0xbd0f79ef	-0.035028394
60	0xbd379978	-0.044824094
61	0xbd6f726f	-0.05845874
62	0xbd7c21b5	-0.061555583
63	0xbd32af23	-0.043624055
64	0xbd27e7e3	-0.04099263
65	0xbcf02076	-0.029312354
66	0x3d5bd001	0.053665165
67	0x3d4aa6ec	0.049475595
68	0xbf008f57	-0.5021872
69	0xbd7c411e	-0.061585538
70	0x3d2b5d3d	0.041836966
71	0x3d02cfe3	0.031936537
72	0x3cc91f2a	0.024550993
73	0xbd9b6d1f	-0.075891726
74	0xba25e16e	-0.0006327842
75	0x3dea49f2	0.11439885
76	0x3dba346d	0.09092031
77	0x39216330	0.00015391107
78	0x363ce342	2.8146465e-06
79	0x389d5f9b	7.504151e-05
80	0x39e784e0	0.00044158753
81	0x3d9e74a2	0.0773709
82	0x3d9801e6	0.07422237
83	0x3d9ea484	0.077462226
84	0x3d956beb	0.07295974
85	0x3dc927c5	0.098220386
86	0x3dc47940	0.09593439
87	0x3ddf01ed	0.10889039
88	0x3daa322a	0.08310349
89	0x3db1f6e9	0.086896725
90	0x3dbf7bfe	0.093498215
91	0x3dd1ec0c	0.102501005
92	0x3da0630a	0.0783139
93	0x3ee5baaf	0.4486899
94	0x3de9407f	0.11389255
95	0x3da97695	0.08274571
96	0x3dad0eee	0.08450113
97	0x3d8a1e7e	0.06744097
98	0x3dedcffc	0.116119355
99	0x39e07e08	0.0004281851

encoder.lstm.bias_hh_l0_reverse f4 [100]
0	0x3dd34792	0.10316385
1	0x3da04416	0.07825486
2	0x3921cef8	0.00015431258
3	0x363dbf84	2.8274671e-06
4	0x389e476b	7.54733e-05
5	0x39e9074c	0.0004444666
6	0x3d8ad464	0.067787915
7	0x3d8561a8	0.06512767
8	0x3d8bf49e	0.068337664
9	0x3d84bef9	0.06481738
10	0x3dab8095	0.083741345
11	0x3daaa132	0.08331527
12	0x3db7a32b	0.08966669
13	0x3d9233be	0.07138775
14	0x3d9bad7f	0.07601451
15	0x3da954b3	0.08268108
16	0x3dbafabe	0.091298565
17	0x3d869531	0.06571425
18	0x3ea305c6	0.31840342
19	0x3dcea615	0.100902714
20	0x3d984ae8	0.07436162
21	0x3d9b7b5b	0.075918876
22	0x3d795cb5	0.060879428
23	0x3dd02f38	0.10165256
24	0x39e116b5	0.00042932262
25	0x3d0bdb22	0.03414453
26	0x3cf594b0	0.029978126
27	0x38b68619	8.703414e-05
28	0xb3ef3810	-1.11395025e-07
29	0x383ac01c	4.452477e-05
30	0x396f78cf	0.00022837821
31	0x3cc82799	0.024432944
32	0x3cdb07e0	0.026737154
33	0x3cc3ec6a	0.023916442
34	0x3cd6566e	0.02616426
35	0x3cdc6fbc	0.026908748
36	0x3cf28081	0.029602291
37	0x3d26c908	0.040719062
38	0x3c6ff8de	0.014646737
39	0x3ccaa928	0.024738863
40	0x3ca0923f	0.019600986
41	0x3cf1257c	0.02943682
42	0x3c9c83c1	0.019105794
43	0x3e985857	0.29754898
44	0x3d1bd0bd	0.038040865
45	0x3ce93d53	0.028471624
46	0x3cf78600	0.030215263
47	0x3c9c70d5	0.019096771
48	0x3d36c338	0.04461977
49	0x3966fae3	0.00022027972
50	0xbd5ed80b	-0.054405253
51	0xbd025fca	-0.031829633
52	0xb8162a18	-3.580199e-05
53	0x3a41cb4f	0.0007392661
54	0x39bd68ec	0.00036127062
55	0xbae58732	-0.0017511605
56	0x3d40aa4b	0.047037404
57	0xbd54e469	-0.05197564
58	0xbceac2e1	-0.028657379
59	0xbd0f7adf	-0.03502929
60	0xbd37998a	-0.04482416
61	0xbd6f7269	-0.05845872
62	0xbd7c2193	-0.061555456
63	0xbd32af0d	-0.043623973
64	0xbd27e7b8	-0.04099247
65	0xbcf01760	-0.029308021
66	0x3d5bd062	0.053665526
67	0x3d4aa95b	0.049477916
68	0xbf008599	-0.50203854
69	0xbd7c4120	-0.061585546
70	0x3d2b5d83	0.041837227
71	0x3d02cfc5	0.031936426
72	0x3cc91ec9	0.024550812
73	0xbd9b6ceb	-0.07589134
74	0xba25e2d4	-0.00063280505
75	0x3dea49ed	0.114398815
76	0x3dba346f	0.09092032
77	0x39216330	0.00015391107
78	0x363ce33f	2.8146458e-06
79	0x389d5f98	7.504149e-05
80	0x39e784de	0.00044158747
81	0x3d9e74a2	0.0773709
82	0x3d9801e4	0.074222356
83	0x3d9ea484	0.077462226
84	0x3d956beb	0.07295974
85	0x3dc927cb	0.09822043
86	0x3dc4793f	0.09593438
87	0x3ddf01f0	0.108890414
88	0x3daa3229	0.083103485
89	0x3db1f6e7	0.08689671
90	0x3dbf7bff	0.09349822
91	0x3dd1ec0b	0.102501
92	0x3da06310	0.07831395
93	0x3ee5baad	0.44868985
94	0x3de94081	0.11389256
95	0x3da97698	0.08274573
96	0x3dad0eed	0.084501125
97	0x3d8a1e7e	0.06744097
98	0x3dedcffb	0.11611935
99	0x39e07e0a	0.00042818516

encoder.lstm.weight_ih_l1 f4 [100, 50]
0	0xa08912df	-2.322119e-19
1	0x9e63b96c	-1.2055624e-20
2	0x1bfa648b	4.1424005e-22
3	0x9b6fc3c0	-1.9832867e-22
4	0x9f57d2ab	-4.570228e-20
5	0x9eb63917	-1.9293611e-20
6	0x9b521eda	-1.7380762e-22
7	0x9eeabbdc	-2.485341e-20
8	0x9e97681b	-1.6030804e-20
9	0x1e27a978	8.875952e-21
10	0x9bd24985	-3.4789097e-22
11	0x9da27d5d	-4.3010666e-21
12	0x1ce16b4c	1.4916987e-21
13	0x1e1eaed6	8.4006056e-21
14	0x1cd78669	1.4262251e-21
15	0x20cc758a	3.4636725e-19
16	0x9a8761d1	-5.599272e-23
17	0x9c763210	-8.1459277e-22
18	0x9d47ee62	-2.6460672e-21
19	0x9ba0e75e	-2.6619297e-22
20	0x9a0e310e	-2.9404538e-23
21	0xa0163732	-1.2723757e-19
22	0x1bf0a5ca	3.9811808e-22
23	0x9ed3bf40	-2.2419593e-20
24	0x9d14b08e	-1.9678914e-21
25	0xa4e640c3	-9.985631e-17
26	0x2528647f	1.4605727e-16
27	0x22272734	2.2653474e-18
28	0xa04ca996	-1.7335583e-19
29	0x21857dd6	9.045739e-19
30	0x22afff1b	4.770395e-18
31	0x2393ad94	1.6011285e-17
32	0x2575976a	2.1301664e-16
33	0x248ea363	6.185947e-17
34	0xa4992c1c	-6.64279e-17
35	0x255c7bbc	1.9123881e-16
36	0xa36aeddc	-1.2735534e-17
37	0xa536ef0b	-1.5866975e-16
38	0x2585f3b4	2.3236962e-16
39	0x21994691	1.0386362e-18
40	0x24bead69	8.2693133e-17
41	0x235b57b0	1.1890582e-17
42	0x24f797f8	1.0737662e-16
43	0x24bdc15f	8.229327e-17
44	0xa514b09f	-1.2896795e-16
45	0xa46f1140	-5.1839475e-17
46	0x24f33f68	1.05491866e-16
47	0xa4aaa1ce	-7.3999856e-17
48	0x235dcf44	1.2024324e-17
49	0x237bab31	1.36429885e-17
50	0xa0eb5ac7	-3.987062e-19
51	0x1f405f11	4.073622e-20
52	0xa03cdd29	-1.5997395e-19
53	0x9d668ecf	-3.0514077e-21
54	0xa0810633	-2.1857552e-19
55	0xa0933c1c	-2.4942546e-19
56	0x9c446b5f	-6.4989734e-22
57	0xa0c503b3	-3.3375546e-19
58	0x21a16e3e	1.0938965e-18
59	0x1f066525	2.845927e-20
60	0x9d5f6cd7	-2.9570073e-21
61	0xa0ab909a	-2.9064216e-19
62	0x1e63adc1	1.20532114e-20
63	0x1f247115	3.482189e-20
64	0x1e2826e8	8.9018916e-21
65	0x1f1ac0e4	3.2770324e-20
66	0x9b60a681	-1.8582646e-22
67	0x9d2782c0	-2.2169862e-21
68	0x9d1356c1	-1.9500139e-21
69	0x1e95f66f	1.5877911e-20
70	0x1d527ed6	2.7858841e-21
71	0xa0a6577d	-2.817939e-19
72	0x1cc0ef6f	1.2767386e-21
73	0xa02fb1ee	-1.4881949e-19
74	0x9e74e3a5	-1.2964328e-20
75	0x26208276	5.568796e-16
76	0x25afb54e	3.0480518e-16
77	0x22b7df52	4.98387e-18
78	0xa297b053	-4.1115323e-18
79	0x2270cd29	3.2634676e-18
80	0xa1dc29c0	-1.4918831e-18
81	0xa58c2372	-2.4310147e-16
82	0x269706d8	1.0479585e-15
83	0xa58b26f7	-2.413906e-16
84	0x26af793b	1.2175924e-15
85	0xa5fd8ed3	-4.3985285e-16
86	0x259a0650	2.671902e-16
87	0x2650aee9	7.2401544e-16
88	0x268d9e04	9.826671e-16
89	0x263c4176	6.531432e-16
90	0xa6451503	-6.837658e-16
91	0xa591ef2e	-2.5315565e-16
92	0x2541abc2	1.6798275e-16
93	0x26d20aa2	1.4574559e-15
94	0xa5a178ad	-2.801082e-16
95	0x2438bac4	4.0056837e-17
96	0x255bb286	1.9055708e-16
97	0x243585d3	3.9361472e-17
98	0x256afe42	2.038241e-16
99	0x249ddc81	6.8461445e-17
100	0xa3979e1b	-1.6438413e-17
101	0xa1169bc6	-5.102814e-19
102	0x217e8ece	8.624755e-19
103	0x1f904797	6.110481e-20
104	0xa2f0d62a	-6.5278885e-18
105	0xa19d16c3	-1.0644759e-18
106	0x9f1ef2ef	-3.365875e-20
107	0xa2bd120c	-5.124766e-18
108	0xa30ec17c	-7.738807e-18
109	0x208280da	2.2108123e-19
110	0x1e94b209	1.5743743e-20
111	0x2084d9f5	2.2505902e-19
112	0xa0064391	-1.1372597e-19
113	0x21a04efd	1.086293e-18
114	0x2029e66b	1.4391096e-19
115	0x23db1f32	2.375724e-17
116	0x9dfb1d62	-6.6469528e-21
117	0x9f2aa650	-3.613647e-20
118	0xa156731a	-7.2658356e-19
119	0xa0b76d4e	-3.1073738e-19
120	0x1d211221	2.1317545e-21
121	0xa2f1e992	-6.5570483e-18
122	0x9de9bcdf	-6.1869875e-21
123	0xa1ac0691	-1.1656911e-18
124	0xa07c0e6e	-2.1350005e-19
125	0x28bada10	2.0744718e-14
126	0x28cf7b3c	2.3035061e-14
127	0x26876be5	9.396752e-16
128	0xa48b73c4	-6.0477755e-17
129	0xa607265a	-4.688951e-16
130	0x26c780ad	1.3843277e-15
131	0xa8ee0742	-2.6426456e-14
132	0x29266fc5	3.695635e-14
133	0x28b16121	1.969307e-14
134	0x29080607	3.0203294e-14
135	0x290fae8a	3.1903767e-14
136	0x28b8e30f	2.0526575e-14
137	0x268771a1	9.398306e-16
138	0x28fe6e5f	2.824753e-14
139	0x289e4181	1.7569932e-14
140	0x28d9783c	2.4143983e-14
141	0xa89ae8b9	-1.7198362e-14
142	0xa8705d6b	-1.3342933e-14
143	0x27bb4b02	5.198425e-15
144	0x27c09bee	5.3459764e-15
145	0xa898612e	-1.6917535e-14
146	0xa886b44a	-1.4955176e-14
147	0xa8a577f2	-1.8370698e-14
148	0x288204b3	1.4434937e-14
149	0xa5ab025f	-2.9665378e-16
150	0x9010f01b	-2.8583963e-29
151	0x0ba8ac3d	6.49704e-32
152	0x8ca6e627	-2.5714868e-31
153	0x0ce18ccb	3.4751476e-31
154	0x8f426964	-9.585236e-30
155	0x8caf59b5	-2.701701e-31
156	0x8aa9fd1e	-1.636932e-32
157	0x8f1330eb	-7.257081e-30
158	0x8e2cf943	-2.1320652e-30
159	0x8d3809da	-5.6711236e-31
160	0x0b889a74	5.261769e-32
161	0x0d3f4cb4	5.8948747e-31
162	0x0ac7afb5	1.9229097e-32
163	0x0de5b2aa	1.4156226e-30
164	0x0d1434e6	4.5669695e-31
165	0x0f9d51c0	1.5512884e-29
166	0x8742c272	-1.465208e-34
167	0x0a2ca5c2	8.312674e-33
168	0x8bfcef47	-9.7426894e-32
169	0x0bb46938	6.9491794e-32
170	0x8b33d4d3	-3.4634257e-32
171	0x8f34b0b5	-8.908718e-30
172	0x8b3e7279	-3.667879e-32
173	0x0d2207b9	4.99294e-31
174	0x8b95be33	-5.767889e-32
175	0x93d45394	-5.359874e-27
176	0x1367bcd0	2.924939e-27
177	0x1288f850	8.64402e-28
178	0x906f3ca0	-4.7181143e-29
179	0x91cd81ae	-3.2423218e-28
180	0x1310c97b	1.8274693e-27
181	0x93fb5528	-6.344528e-27
182	0x145ea65f	1.1240947e-26
183	0x14efbf08	2.4208181e-26
184	0x13d71cfb	5.4302207e-27
185	0x1440cc29	9.733786e-27
186	0x93bbed49	-4.7439418e-27
187	0x934b5cd8	-2.5667978e-27
188	0x14443b41	9.907157e-27
189	0x13129036	1.8498892e-27
190	0x14a7ed5c	1.6956312e-26
191	0x9443fe07	-9.895082e-27
192	0x93852abe	-3.3616067e-27
193	0x152e3292	3.5178913e-26
194	0x95047b2f	-2.6754362e-26
195	0x12493eaf	6.350168e-28
196	0x136d6af4	2.9966337e-27
197	0x92ddd175	-1.3998696e-27
198	0x9334df00	-2.2829142e-27
199	0x91afae38	-2.7717502e-28
200	0x22790136	3.3746434e-18
201	0xa228bfc8	-2.2869774e-18
202	0xa2ca0649	-5.4758864e-18
203	0x9f4dafd5	-4.3555883e-20
204	0xa3128ca7	-7.94446e-18
205	0xa3592d07	-1.17731285e-17
206	0x9e9b492f	-1.6441531e-20
207	0xa36dbfa0	-1.2888374e-17
208	0x233550cb	9.829138e-18
209	0x220a0908	1.8707269e-18
210	0x9ffaa5ca	-1.06153393e-19
211	0xa22d70b4	-2.3505537e-18
212	0x201cdd04	1.3286842e-19
213	0xa1bee485	-1.2935389e-18
214	0x211cf0c8	5.3173527e-19
215	0x24151482	3.2326596e-17
216	0x9e2e59c0	-9.230043e-21
217	0x20525026	1.7814211e-19
218	0x21868c74	9.117371e-19
219	0x21c099fa	1.3051183e-18
220	0x1f5d8d12	4.691526e-20
221	0xa2e56dc5	-6.2186797e-18
222	0x9e0ed300	-7.561051e-21
223	0x9fba9b40	-7.9030904e-20
224	0xa0ab74a2	-2.9045708e-19
225	0xa8ac07ee	-1.9099275e-14
226	0xa7b5b3d2	-5.0432553e-15
227	0x264e2fdf	7.1535485e-16
228	0xa44aea07	-4.3999997e-17
229	0x25a3ff37	2.8448933e-16
230	0x252f11e0	1.5184887e-16
231	0x28994801	1.7017639e-14
232	0x278dbc4a	3.9339505e-15
233	0x28a46e2b	1.8255435e-14
234	0x223b3000	2.5368637e-18
235	0xa8d7d348	-2.3961424e-14
236	0x24c4d140	8.5355934e-17
237	0xa90b2b72	-3.0901883e-14
238	0x2732b30a	2.479952e-15
239	0xa89b6374	-1.7251588e-14
240	0x28bc8c6c	2.0933091e-14
241	0x2906b2fa	2.9909214e-14
242	0x292f873c	3.8975103e-14
243	0x2a3004a2	1.5633548e-13
244	0xa93f6e34	-4.2506106e-14
245	0x28833bf4	1.4569922e-14
246	0x2890ece8	1.6089953e-14
247	0xa8ecfa3a	-2.6309782e-14
248	0x285cc304	1.22547405e-14
249	0x27213440	2.2371563e-15
250	0xa1819df6	-8.783192e-19
251	0xa0cfd2ee	-3.5206746e-19
252	0xa1476bc6	-6.756646e-19
253	0x1f92fe0b	6.2253684e-20
254	0xa1faae14	-1.6986737e-18
255	0xa19abd9e	-1.0485637e-18

encoder.lstm.weight_hh_l1 f4 [100, 25]
0	0x9af6efb1	-1.0213046e-22
1	0x1aadbeab	7.1859164e-23
2	0x9adc95c6	-9.123184e-23
3	0x11c56592	3.1143717e-28
4	0x1c894478	9.083598e-22
5	0x1ba388ac	2.705441e-22
6	0x1d8f7c00	3.7979998e-21
7	0x9c61335f	-7.451265e-22
8	0x9fd2986c	-8.919062e-20
9	0x94b6f03a	-1.8472056e-26
10	0x16b85080	2.9777606e-25
11	0x198bd870	1.4459682e-23
12	0x1ecaab4a	2.1458425e-20
13	0x1a1ffd4c	3.308504e-23
14	0x1bb4f1c8	2.993475e-22
15	0x9a10fbcc	-2.9981902e-23
16	0x920f8541	-4.528709e-28
17	0x1913347b	7.61032e-24
18	0x9f90e4d0	-6.136491e-20
19	0x9f6ad6a2	-4.9728968e-20
20	0x16504e1b	1.6826752e-25
21	0x1c9723da	1.0001609e-21
22	0x98ab573f	-4.429056e-24
23	0xa15658c0	-7.262348e-19
24	0x9ca04d9b	-1.0607972e-21
25	0x9a263119	-3.4367656e-23
26	0x1bbf9d24	3.169985e-22
27	0x9ba0c1e6	-2.6595084e-22
28	0x92861c8f	-8.463629e-28
29	0x1cae2537	1.1523974e-21
30	0x1b01fbde	1.0752013e-22
31	0x9f17449b	-3.2032243e-20
32	0x1cfc86f7	1.6710849e-21
33	0x9c387240	-6.102816e-22
34	0x155be262	4.4405282e-26
35	0x17e1b397	1.4585619e-24
36	0x1c6e4087	7.8830994e-22
37	0xa26fba27	-3.2489088e-18
38	0x1a4ef5ad	4.2798257e-23
39	0x1c8daf88	9.375971e-22
40	0x18096680	1.7758584e-24
41	0x131e7e0b	2.0004548e-27
42	0x186f0ff6	3.0898084e-24
43	0x2038540e	1.5613218e-19
44	0x9f780346	-5.251875e-20
45	0x160d3b6d	1.1408641e-25
46	0x9bf9cd2d	-4.1326186e-22
47	0x16a2e2a6	2.6315547e-25
48	0x229e9400	4.2982687e-18
49	0x9e72ad35	-1.2847192e-20
50	0x9c8078ba	-8.501537e-22
51	0x1e3bbc9a	9.9386995e-21
52	0x9ecf9750	-2.1979559e-20
53	0x954c0089	-4.1197894e-26
54	0x1f86bf48	5.7067656e-20
55	0x1eb53220	1.9184852e-20
56	0x21995fd9	1.0393054e-18
57	0x9fc845fd	-8.481908e-20
58	0x21690578	7.895071e-19
59	0x97c20118	-1.2537232e-24
60	0x1a934d97	6.092313e-23
61	0x1ef65e85	2.6085355e-20
62	0x25238361	1.4182509e-16
63	0x1d57a7a7	2.8541687e-21
64	0xa016df4e	-1.277938e-19
65	0x9cd00df7	-1.3767895e-21
66	0x165a0b0c	1.7613386e-25
67	0x1bfcd68f	4.1828558e-22
68	0x23d6d19a	2.3290696e-17
69	0xa1ca20c2	-1.3696723e-18
70	0x97a37f53	-1.0565769e-24
71	0x1fa829f2	7.122016e-20
72	0x9a95a83d	-6.189676e-23
73	0xa4710988	-5.2266618e-17
74	0x20ac667b	2.920575e-19
75	0x87399611	-1.3961954e-34
76	0x0aac0853	1.6566129e-32
77	0x8a83c9b3	-1.2690712e-32
78	0x0083678a	1.2067593e-38
79	0x0b897a8f	5.2954886e-32
80	0x09d265d3	5.0651416e-33
81	0x0d5b1d27	6.7519676e-31
82	0x8b628b5f	-4.3630868e-32
83	0x8d102dab	-4.4428397e-31
84	0x842ce138	-2.0321918e-36
85	0x842deb8e	-2.0444214e-36
86	0x098c724f	3.381127e-33
87	0x114a847b	1.5975814e-28
88	0x09c6cfca	4.786217e-33
89	0x8b93d55b	-5.694336e-32
90	0x8940d5fa	-2.321177e-33
91	0x02212762	1.1839714e-37
92	0x085f73e8	6.724287e-34
93	0x0fd84cc5	2.1328815e-29
94	0x8daa25c2	-1.0486149e-30
95	0x84b1df5c	-4.1817623e-36
96	0x0bd6abbc	8.26882e-32
97	0x07d8eabd	3.2638035e-34
98	0x90b1f6b8	-7.019432e-29
99	0x0bdb798d	8.453862e-32
100	0x9dec84ac	-6.260586e-21
101	0x9eb48ac8	-1.911564e-20
102	0x1fe90098	9.868032e-20
103	0x16628b0f	1.8300014e-25
104	0xa0acb138	-2.9255207e-19
105	0x9f6dd006	-5.0358775e-20
106	0xa1c425e0	-1.3291502e-18
107	0x209320d7	2.49245e-19
108	0xa30b1a05	-7.540715e-18
109	0x18519194	2.7086115e-24
110	0x9b9db6b8	-2.609155e-22
111	0xa02a1c36	-1.4408894e-19
112	0xa4d7e340	-9.362636e-17
113	0x9e183985	-8.058708e-21
114	0x2025382f	1.3994633e-19
115	0x1d6bd7ea	3.1213616e-21
116	0x97184fd1	-4.921459e-25
117	0x9c7d9420	-8.3902125e-22
118	0xa46162aa	-4.887267e-17
119	0xa291ca3a	-3.9516444e-18
120	0x995f0a20	-1.15308745e-23
121	0xa103b084	-4.4618143e-19
122	0x9cc3e0da	-1.296214e-21
123	0xa58e4e12	-2.4685976e-16
124	0xa1aa6009	-1.1545068e-18
125	0x1b972a05	2.500801e-22
126	0x1b3ac8c4	1.545043e-22
127	0x9d234d48	-2.1612824e-21
128	0x93968256	-3.7993845e-27
129	0x1c5b6740	7.259447e-22
130	0x9dbdab90	-5.0205275e-21
131	0x1f4a0616	4.2780198e-20
132	0x9d151aca	-1.9733835e-21
133	0x20f38f9b	4.1260831e-19
134	0x95b041c2	-7.118958e-26
135	0x992a88fc	-8.816458e-24
136	0x9d84842b	-3.5076768e-21
137	0x242f04d8	3.795118e-17
138	0x9bd2e288	-3.4887978e-22
139	0x9e0f105a	-7.573738e-21
140	0x9aa49ec5	-6.8085316e-23
141	0x140dffb2	7.169108e-27
142	0x1972821c	1.2537382e-23
143	0x235cefdf	1.19770186e-17
144	0xa104d98a	-4.501125e-19
145	0x174aae2c	6.5489556e-25
146	0x1e1e6e76	8.387293e-21
147	0x9a89ea4a	-5.7040386e-23
148	0xa4237710	-3.544584e-17
149	0x9ec85294	-2.1209977e-20
150	0x21093501	4.6487556e-19
151	0x9e8a6bc0	-1.4655883e-20
152	0x1e908900	1.5303255e-20
153	0x99d70e5f	-2.2236283e-23
154	0x2356f6c5	1.1653219e-17
155	0x230be0c9	7.582805e-18
156	0xa47a0c12	-5.4220333e-17
157	0xa38f2558	-1.5519907e-17
158	0x25370ed6	1.5877746e-16
159	0x987b9420	-3.2515774e-24
160	0x1f000e97	2.7117123e-20
161	0x238c1499	1.5187554e-17
162	0xa99fc4b8	-7.095144e-14
163	0x1fb15ebc	7.511914e-20
164	0xa2c88594	-5.435154e-18
165	0xa0846bfc	-2.2433128e-19
166	0x1812a4d0	1.8953267e-24
167	0x9ae08e00	-9.287364e-23
168	0xa8b5ab19	-2.0169239e-14
169	0x25ed90c3	4.121104e-16
170	0x1cc6f6bf	1.3166323e-21
171	0x244ad639	4.398322e-17
172	0xa0a8982f	-2.8561014e-19
173	0x299b8a00	6.907322e-14
174	0x254a57b2	1.755042e-16
175	0x1d312298	2.344364e-21
176	0x1ed5d8d1	2.2641925e-20
177	0x9f794481	-5.2784466e-20
178	0x95e4a60d	-9.235045e-26
179	0x1f6d57b8	5.025926e-20
180	0x1ed4a740	2.2515546e-20
181	0x2197058e	1.0233628e-18
182	0xa050760f	-1.7657348e-19
183	0x232dc174	9.419314e-18
184	0x97e5a06d	-1.4839275e-24
185	0x1b040005	1.091879e-22
186	0x1f89bcf7	5.833437e-20
187	0x25d64ff9	3.7177274e-16
188	0x1d8a3a82	3.658879e-21
189	0xa0932eab	-2.493365e-19
190	0x9d28ec64	-2.2356826e-21
191	0x16b4ed93	2.92305e-25
192	0x1c40f125	6.3839143e-22
193	0x24ea6b24	1.01662827e-16
194	0x20ef7992	4.0568623e-19
195	0x98de6458	-5.7486976e-24
196	0x2059cadc	1.8447735e-19
197	0x9c4ff0b0	-6.8801636e-22
198	0xa54c0168	-1.7694656e-16
199	0x21534112	7.15757e-19
200	0x154683ba	4.0089695e-26
201	0x17f3ee08	1.5763594e-24
202	0x981802c0	-1.9646928e-24
203	0x8bf84370	-9.5627594e-32
204	0x18353b88	2.3423757e-24
205	0x17aa1539	1.099135e-24
206	0x1acabb04	8.384738e-23
207	0x98b08cac	-4.5636976e-24
208	0x1a0bb865	2.889348e-23
209	0x8f9364d8	-1.4534163e-29
210	0x136af18d	2.9654046e-27
211	0x1813d1ae	1.9105166e-24
212	0x1e8d779f	1.497843e-20
213	0x169fa17f	2.5789754e-25
214	0x98904518	-3.7292894e-24
215	0x96699c23	-1.8870858e-25
216	0x0fa303ff	1.607458e-29
217	0x152d31aa	3.497625e-26
218	0x1d303460	2.3320483e-21
219	0x9ac901a8	-8.313433e-23
220	0x91dacc59	-3.4520274e-28
221	0x1943d566	1.0124359e-23
222	0x128e15a0	8.966791e-28
223	0x9d5f5a13	-2.9560372e-21
224	0x19ea8310	2.4247969e-23
225	0x8daa4a1c	-1.04949e-30
226	0x0e95ef47	3.696175e-30
227	0x8e6afd8b	-2.8964803e-30
228	0x05163f58	7.0646005e-36
229	0x8ef62f37	-6.068915e-30
230	0x8f292db1	-8.341143e-30
231	0x112c630d	1.359893e-28
232	0x8e0cc134	-1.7349356e-30
233	0x935d3686	-2.7921004e-27
234	0x07bc87a7	2.8366825e-34
235	0x8b486b99	-3.8599546e-32
236	0x8f69819d	-1.15127495e-29
237	0x168835e9	2.2006007e-25
238	0x0d95dfdc	9.236726e-31
239	0x0f142279	7.3036026e-30
240	0x0ceec126	3.6785953e-31
241	0x85d7be3f	-2.0288388e-35
242	0x8b158810	-2.8798718e-32
243	0x940b7024	-7.0398225e-27
244	0x11432cda	1.5396609e-28
245	0x89c1d4c8	-4.666316e-33
246	0x90a5b65a	-6.536198e-29
247	0x0d2a21f3	5.242616e-31
248	0x962f104f	-1.4141534e-25
249	0x90975c7c	-5.9701493e-29
250	0x924c0eac	-6.4389134e-28
251	0x94e1f0e1	-2.2814204e-26
252	0x15de5072	8.9792006e-26
253	0x0b961b6b	5.781915e-32
254	0x955e0c31	-4.484216e-26
255	0x94c598bb	-1.9952158e-26

encoder.lstm.bias_ih_l1 f4 [100]
0	0xa82c55de	-9.5665375e-15
1	0xa7625d28	-3.14143e-15
2	0x29988387	6.7729723e-14
3	0x159bfcd5	6.30029e-26
4	0xaa8922dc	-2.4360277e-13
5	0xa9851b63	-5.911137e-14
6	0xad3087a9	-1.0034564e-11
7	0x2af1c9c8	4.2950214e-13
8	0xa323cc5a	-8.879521e-18
9	0x9b8e1089	-2.3502615e-22
10	0xa0c3142a	-3.3047628e-19
11	0xa8270fb4	-9.273767e-15
12	0x9f3f6e70	-4.0537175e-20
13	0x2611d39b	5.059376e-16
14	0x2ba059d9	1.1393622e-12
15	0x24a5e23a	7.1940586e-17
16	0x17bf1140	1.234744e-24
17	0xa2e0b5db	-6.090787e-18
18	0x1ee26ffd	2.3974998e-20
19	0x19fe14db	2.6271408e-23
20	0x9fadd829	-7.362596e-20
21	0xab9a44bf	-1.0961439e-12
22	0xa63884d2	-6.401783e-16
23	0x27887ed4	3.788509e-15
24	0xac2d4d5c	-2.4627722e-12
25	0xa83c6e0d	-1.045996e-14
26	0xa7873f36	-3.753856e-15
27	0x29663fee	5.112571e-14
28	0x158ec71c	5.766748e-26
29	0xaa8f9e31	-2.551167e-13
30	0xa98048f7	-5.696999e-14
31	0xad3b7c78	-1.0657357e-11
32	0x2af334f3	4.3202212e-13
33	0xa32f99ed	-9.519364e-18
34	0x9b9a02a5	-2.5478872e-22
35	0xa0b86462	-3.123724e-19
36	0xa858c63f	-1.20333964e-14
37	0x9f5652bf	-4.538471e-20
38	0x26346810	6.2591076e-16
39	0x2b990957	1.0873896e-12
40	0x24aaf82b	7.414616e-17
41	0x17b6bb9c	1.1808834e-24
42	0xa2de95ed	-6.033196e-18
43	0x1eb1ba79	1.8817727e-20
44	0x19f4c482	2.5308378e-23
45	0x9fc1c39a	-8.2062275e-20
46	0xabc26680	-1.3812979e-12
47	0xa635600a	-6.2927147e-16
48	0x278498ab	3.6802883e-15
49	0xac2b4501	-2.4338866e-12
50	0x319d1db7	4.5726796e-09
51	0x337fd12c	5.9562055e-08
52	0xb4301c40	-1.6401555e-07
53	0xaa936bb2	-2.6187174e-13
54	0x3482a654	2.4335407e-07
55	0x33ed5473	1.1051534e-07
56	0x36bddda4	5.6584413e-06
57	0xb4f15e8c	-4.495854e-07
58	0xb12b6238	-2.4939606e-09
59	0xacf91239	-7.0790288e-12
60	0x2f9d2ef4	2.8591496e-10
61	0x34200086	1.4901352e-07
62	0x2e2ccfb0	3.9292736e-11
63	0x328dbfa9	1.6501717e-08
64	0xb52f6d11	-6.535129e-07
65	0xb20ac055	-8.0763884e-09
66	0x2b81eccf	9.231729e-13
67	0x3136e76c	2.6616034e-09
68	0xaf1d3737	-1.4298683e-10
69	0xae0d5777	-3.2137373e-11
70	0xacdd621a	-6.2920892e-12
71	0x3527b072	6.246911e-07
72	0xb07cd1c2	-9.197515e-10
73	0x3389e3bf	6.4209864e-08
74	0x35f51065	1.8258694e-06
75	0x9aadbe13	-7.1858204e-23
76	0x9875e424	-3.178069e-24
77	0x9c937191	-9.757e-22
78	0x07c8ce27	3.021382e-34
79	0x1e014853	6.8441594e-21
80	0x9b3c5b1f	-1.5580438e-22
81	0x1bc49dd0	3.2527464e-22
82	0x1c169a73	4.983046e-22
83	0x1886cd93	3.4845765e-24
84	0x0b3fcbc5	3.693856e-32
85	0x9170913b	-1.8977414e-28
86	0x1c0275cb	4.3165636e-22
87	0x988abba5	-3.5861636e-24
88	0x15b69814	7.374915e-26
89	0x1e2b80f5	9.079332e-21
90	0x121a7870	4.8742282e-28
91	0x0a7fa868	1.2309477e-32
92	0x12bf6acf	1.2080125e-27
93	0x18946e23	3.8368313e-24
94	0x95395879	-3.7430245e-26
95	0x909042b5	-5.6900764e-29
96	0x9dc3ffce	-5.1880566e-21
97	0x953b73a3	-3.785557e-26
98	0x9c6badd0	-7.7979625e-22
99	0x9c27d0ba	-5.552544e-22
