DL_PROJECT_FREIBURG_MLP/full_model_2.pth (torch_old, 8797 bytes, 5 tensors)

weight f4 [16, 8]
00000000: 1dad 49bf 3549 11bf 8366 cfbe 8f70 babf
00000010: 91b3 0a40 89fc cb3e 5dd3 d8bf 6311 6640
00000020: c780 2bbf f9e1 6cbf 63fa 5abe fbc4 b3bf
00000030: a0ee 3340 1cbd 87bd 4026 6ebf bce1 4240
00000040: 06e1 013f e3e9 5ebd 6963 09be ec33 093f
00000050: 5e4f 9fbf 526f eabe cfef 893f db7b 6fc0
00000060: a2a7 663e a80d 8f3e 16bd edbe b4f7 5c3f
00000070: 15e1 87c0 1a8b d7be a864 343f 8a4f 6bc0
00000080: 8250 8fbd 3580 33bf 78b0 bebe 02a3 b3bf
00000090: a82c 8c40 f947 003c 1a25 1abf daac 3b40
000000a0: 6a4f be3e 063b f53e 30e4 48be 2556 063f
000000b0: 6e6f 71c0 9690 0cbf 021d b63e 9c44 5ac0
000000c0: a30f 42bd 508b 0cbf 8f5e 073d 0e24 4cbf
000000d0: e82d 3f40 f2b3 a0be 1c08 0abe 54a9 d43f
000000e0: d277 1b3c acd9 9b3e c537 dcbe b3ea 333f
000000f0: 0cd3 abc0 6374 2cbe c564 6e3e ae0d 71c0
00000100: 8291 35bf 550d 4bbf 759d 273e 8d0b a9bf
00000110: b356 8440 015e 87bd f5ce 95bf 6a22 4e40
00000120: d2d7 53bf 7579 38bf cad5 42be e9c6 b1bf
00000130: 3738 2540 2fe8 9d3e ecdf adbf fe5d 4d40
00000140: 8077 29bf 4a52 1ebf 3bd1 cf3d 5ca2 b7bf
00000150: 3fb9 8640 8abb 4f3d 036a 97bf 9eda 6d40
00000160: 0917 6dbf 2e3e 21bf a44d a4be 44ff d4bf
00000170: 5fbe 3740 6da2 783e 6cb9 b5bf 2f6d 5b40
00000180: 7b14 29bf 0cdb 6ebf 855b 9cbe 930e acbf
00000190: 35f4 7240 746e df3c c35b 7abf 1394 5d40
000001a0: bb1e 39bf 8f8a 65bf 01d1 82be 27e3 c5bf
000001b0: 9c98 5140 614e 8c3e b771 a1bf d27c 4d40
000001c0: 05a4 3ebf 498c 2abf 689e b3be 3502 b0bf
000001d0: e6e5 1840 34e5 a43e f1b8 cebf 1c1d 6640
000001e0: cdfe 2e3f 6463 d7be 1ca2 fcbd 1872 e93e
000001f0: 67ee 9f3e 30e8 4fbf 9195 fd3f a311 42c0
-0.78779775 -0.5675233 -0.40507898 -1.45656 2.1672099 0.39841107 -1.6939503 3.5948112
-0.66993374 -0.92532307 -0.21384577 -1.4044489 2.8114395 -0.066278666 -0.93027115 3.0450277
0.50733984 -0.05442227 -0.13416828 0.5359485 -1.2446096 -0.45788056 1.0776309 -3.7419345
0.22524884 0.27940106 -0.46433324 0.86315465 -4.246226 -0.42098314 0.7046609 -3.6767297
-0.069977775 -0.70117503 -0.3724401 -1.4034121 4.380451 0.00782966 -0.6021286 2.932425
0.37169963 0.47896594 -0.19618297 0.52475196 -3.7724261 -0.5490812 0.35569006 -3.4104376
-0.047378194 -0.54900074 0.033049162 -0.79742515 2.987177 -0.31387287 -0.13479656 1.6614175
0.009489017 0.30439508 -0.430113 0.7028 -5.3695126 -0.16841273 0.23280628 -3.76646
-0.7092515 -0.7931722 0.16368659 -1.320665 4.1355834 -0.06609727 -1.1703783 3.2208505
-0.8275119 -0.7206033 -0.19026867 -1.3888828 2.581556 0.30841205 -1.358396 3.2088618
-0.6619797 -0.61844313 0.101473294 -1.4346423 4.210113 0.05071596 -1.1829227 3.7164683
-0.92613274 -0.62985504 -0.32090485 -1.6640401 2.8709943 0.2428071 -1.4197211 3.428539
-0.66046876 -0.9330299 -0.30538574 -1.3441948 3.7961552 0.027274348 -0.9779627 3.4621627
-0.72312516 -0.8966455 -0.25550082 -1.5459946 3.2749395 0.27403548 -1.2612828 3.2107434
-0.74469024 -0.6662031 -0.35081792 -1.3750674 2.389032 0.32206118 -1.615019 3.5955267
0.68357545 -0.42068017 -0.123356074 0.4559486 0.31236574 -0.81213665 1.9811269 -3.0323265

bias f4 [16]
00000000: c12e 6dbf 3286 edbe 5c61 ad3e 9e03 8abe
00000010: 2a8d 04bf 68fa 6239 5dd2 34be af94 8ebd
00000020: 8403 40bf d431 41bf 1a1b 86bf 3e72 41bf
00000030: 0159 1cbf 2889 dfbe 3540 84bf c543 6f3d
-0.92649466 -0.46391445 0.33863342 -0.26955885 -0.517779 0.00021646323 -0.17658372 -0.06961953
-0.75005364 -0.75466657 -1.0477021 -0.75564945 -0.6107331 -0.4365933 -1.0332094 0.05841424

weight f4 [8, 16]
00000000: 2a90 a9bf e9ce 5cbf 27ee 75bb a4b7 0d3e
00000010: 02f5 5abf f302 a33e 7318 b0be 0b88 0d3f
00000020: 2ac5 4cbf 80e3 91bf d1b3 92bf 0b70 a2bf
00000030: d3cc 90bf 82bf 8abf 23b0 9bbf 632d db3c
00000040: 8185 4f3e 838c 01be 8e01 b2bf a930 d5bf
00000050: 5cc4 593d 97d1 a1bf 91be 3c3d 1d02 f7bf
00000060: 8ae3 37bb 8084 3c3e 63d8 84bd dca0 963e
00000070: 2f1f 47bd 88a3 0d3b b7c1 9dbc 4eb6 97bf
00000080: 3540 aabf e596 61bf 93d8 2f3e 5a8f d23e
00000090: e780 45bf 3211 fb3d 4f22 bcbe 4cea a13e
000000a0: b8eb 7ebf eec8 a7bf be12 acbf 2415 acbf
000000b0: 973b 84bf 7cdd 98bf ffe4 adbf 65af ac3d
000000c0: 4b9b 993d 36d1 983d 7137 a6bf b3ab c3bf
000000d0: 08a1 c8bd 23c9 a9bf 4f9e 903d 24fe e8bf
000000e0: 0da5 20bd fdef 7a3e 009f 24bd bec0 2c3e
000000f0: 0916 ac3c e4e6 fa3d 61de 0a3e 26fb 8fbf
00000100: 2696 703e f298 853e 6341 afbf eb53 d3bf
00000110: 327c 2e3d 0529 aebf d8da d43d 4eff 00c0
00000120: 5386 883e 0e7f 613e 197c bc3e 4792 6c3e
00000130: c7f8 343e 95a7 5b3e 1d53 a83e 2c58 68bf
00000140: c04b 043e 32fa 0b3e 0b0d afbf f867 c9bf
00000150: 3350 013e e7e3 b1bf 6628 c3bc 3505 d5bf
00000160: b7f5 b13d 6f85 8d3c 991f 003e b566 92bc
00000170: 7d93 3dbd a684 073c 67eb 233e 4d5d 7dbf
00000180: a6f6 6cb9 01d9 a83d 65d3 d0bf 9ff6 f7bf
00000190: 47f7 0e3d 944f c8bf 4a04 b7bc 86d6 f0bf
000001a0: ec55 1f3e 0249 a9bd f89d 22bd 9db5 8cbe
000001b0: a9fe 4a3c eb09 db3c a0ef 013e b768 5bbf
000001c0: d7dd 093f c911 823e 5000 bbbf 87b8 ccbf
000001d0: 7b32 173e 38e3 d2bf e9f3 29be d23e febf
000001e0: b020 033e 06b2 cf3e e01b d33e 8d94 293f
000001f0: d3b9 e83e e947 ba3e 4e65 043f 909c 6ebf
-1.324712 -0.8625322 -0.0037525983 0.13839585 -0.855301 0.31838188 -0.34393653 0.5528571
-0.7998835 -1.1397552 -1.1461126 -1.2690443 -1.1312507 -1.0839694 -1.2163128 0.02675504
0.20265771 -0.12651257 -1.3906724 -1.6655475 0.05316578 -1.2642087 0.046080176 -1.929752
-0.0028059208 0.1840992 -0.06486585 0.294196 -0.048613723 0.0021612365 -0.01925741 -1.185251
-1.3300844 -0.8812087 0.1717246 0.41124994 -0.77149814 0.12259139 -0.36744925 0.31624067
-0.9957843 -1.3108194 -1.344322 -1.3443952 -1.0330685 -1.1942592 -1.3585509 0.08431891
0.07500323 0.07461779 -1.2985669 -1.5286773 -0.09796339 -1.3264507 0.07061445 -1.8202558
-0.039219905 0.24505611 -0.040190697 0.168704 0.0210066 0.1225107 0.13561393 -1.124852
0.23494777 0.2609325 -1.369183 -1.6509985 0.04259891 -1.3606268 0.10393304 -2.0155826
0.2666498 0.22021124 0.3681343 0.23102675 0.17673026 0.21450646 0.3287591 -0.9075954
0.12919521 0.1366966 -1.3675855 -1.5734854 0.1262825 -1.3897675 -0.023822974 -1.6642214
0.086894445 0.01727554 0.12512054 -0.01787124 -0.046283234 0.008271372 0.16007768 -0.9897049
-0.00022598598 0.08244515 -1.6314512 -1.9372138 0.03490379 -1.5649285 -0.022340912 -1.8815467
0.1556012 -0.08265878 -0.039701432 -0.2748231 0.012389817 0.026738128 0.12689066 -0.8570666
0.53854126 0.25404194 -1.460947 -1.5993813 0.1476535 -1.6475592 -0.1659695 -1.9862921
0.12805438 0.4056551 0.41232204 0.66242296 0.45454273 0.36382988 0.5171708 -0.93207645

bias f4 [8]
00000000: deb3 82be df59 00bf 11d9 21be 6689 10bf
00000010: e772 57bf b2e7 1ebf 6c0f 2abf 0dc4 79bf
-0.25527853 -0.5013713 -0.1580546 -0.56459653 -0.841597 -0.6207229 -0.6642978 -0.97564775

weight f4 [1, 8]
00000000: b53f b5be 5e6a 593d 5d5d b7be f60b 473d
00000010: 393a 263d 3b94 443d 0f08 8e3d 451b 023d
-0.35400167 0.053079955 -0.35813418 0.04859539 0.04058287 0.047992926 0.06935131 0.031764288
