DL_PROJECT_FREIBURG_MLP/full_model_0.pth (torch_old, 9337 bytes, 5 tensors)

weight f4 [16, 8]
-0.0066554467 -0.021645118 0.100481 0.058059234 -0.093913406 -0.019259082 -0.13260518 0.60365343
0.07468339 0.18114936 0.037613958 0.10432525 -1.6129377 0.0025238807 0.1393113 -0.78444576
0.103615835 -0.049670838 -0.15102509 -0.26863217 0.21768491 0.10649736 -0.071181804 0.42820016
0.016734473 -0.02048417 -0.01227001 -0.078058444 0.033758543 0.0053660646 -0.13028137 0.530228
0.24899456 0.101833545 0.30940068 -0.35185263 -0.59329075 0.22307219 0.04681238 -0.3484427
0.03417741 0.069968954 -0.008586633 -0.11107215 -1.5600345 -0.0039703217 -0.06284912 -0.5759081
-0.11023462 -0.2657261 -0.25425357 -0.2577909 -0.3408139 -0.24190637 0.03624654 0.071989685
-0.051937908 -0.27449647 -0.07161483 0.106765 -0.20278804 -0.20331007 0.051150054 -0.11903611
-0.09499506 -0.025471782 -0.01710703 -0.14698851 0.14443596 0.033713076 -0.1791384 0.55570436
0.26329198 -0.09233686 -0.34294596 -0.13858397 0.13135591 0.19552657 -0.2936347 -0.31010154
-0.049975447 0.06186998 0.010759817 -0.5198832 0.10736658 0.026755955 0.0767588 0.28120688
-0.0139449695 -0.017136429 0.07194939 0.09877613 -0.104286425 0.030325891 -0.10025742 0.6287903
-0.10089717 -0.03338933 -0.078773566 -0.09664412 0.3298777 0.04363813 -0.20768236 0.44567868
-0.0044704583 0.089505985 -0.15781352 0.20136276 0.16211158 0.057946667 0.34377247 -0.7975705
-0.014265273 -0.042548776 -0.042637642 0.158812 0.00988608 0.019550605 -0.25657335 0.4751994
-0.18335539 -0.07067882 -0.02541784 -0.11561979 0.25592133 0.10908118 -0.067808606 0.5518631
00000000: ef15 dabb 1a51 b1bc fcc8 cd3d 85cf 6d3d
00000010: ac55 c0bd 39c5 9dbc a7c9 07be 0889 1a3f
00000020: 9bf3 983d 387f 393e 1811 1a3d 7aa8 d53d
00000030: be74 cebf b167 253b 9fa7 0e3e 70d1 48bf
00000040: 8a34 d43d a673 4bbd 52a6 1abe 288a 89be
00000050: cbe8 5e3e 4a1b da3d c4c7 91bd 0d3d db3e
00000060: bc16 893c 6bce a7bc 2708 49bc 1bdd 9fbd
00000070: 6646 0a3d d0d5 af3b 7b68 05be 06bd 073f
00000080: 6ef8 7e3e 1b8e d03d c469 9e3e 0726 b4be
00000090: e7e1 17bf 096d 643e 57be 3f3d 1567 b2be
000000a0: 9dfd 0b3d e24b 8f3d f3ae 0cbc cc79 e3bd
000000b0: 36af c7bf 7919 82bb 0ab7 80bd b76e 13bf
000000c0: b0c2 e1bd 400d 88be 862d 82be 2bfd 83be
000000d0: 297f aebe 4eb6 77be 4077 143d 546f 933d
000000e0: d8bc 54bd cd8a 8cbe ccaa 92bd 9ca7 da3d
000000f0: aba7 4fbe 8430 50be b882 513d 34c9 f3bd
00000100: c58c c2bd 33aa d0bc 0b24 8cbc 2884 16be
00000110: 05e7 133e b916 0a3d 0f70 37be a442 0e3f
00000120: 35ce 863e 1c1b bdbd 9d96 afbe f5e8 0dbe
00000130: 2a82 063e 1e38 483e 4a57 96be a1c5 9ebe
00000140: 0eb3 4cbd 606b 7d3d f249 303c 1117 05bf
00000150: 02e3 db3d 4e2f db3c b833 9d3d 59fa 8f3e
00000160: 7179 64bc b261 8cbc 345a 933d 244b ca3d
00000170: 1f94 d5bd 016e f83c c353 cdbd 67f8 203f
00000180: 2da3 cebd 40c3 08bd 0954 a1bd 5aed c5bd
00000190: bbe5 a83e e5bd 323d afaa 54be ff2f e43e
000001a0: ec7c 92bb ea4e b73d de99 21be 0a32 4e3e
000001b0: 9400 263e 7c59 6d3d f202 b03e 952d 4cbf
000001c0: e4b8 69bc a047 2ebd cfa4 2ebd 9d9f 223e
000001d0: 3af9 213c 9728 a03c 955d 83be 564d f33e
000001e0: 84c1 3bbe 0fc0 90bd 1339 d0bc 12ca ecbd
000001f0: 1f08 833e f465 df3d 3ddf 8abd e646 0d3f

bias f4 [16]
-0.36400703 0.18232457 0.08610069 -0.2357041 -0.38655117 0.46024546 -0.17509976 -0.2174854
-0.15087892 -0.31305414 -0.10316299 -0.3679253 0.0756961 -0.032135405 -0.3550206 -0.041338522
00000000: 215f babe 4bb3 3a3e 8f55 b03d 6a5c 71be
00000010: 09ea c5be 4ba5 eb3e 5a4d 33be 7eb4 5ebe
00000020: 0180 1abe a248 a0be 1e47 d3bd b460 bcbe
00000030: 8f06 9b3d 6aa0 03bd 43c5 b5be 9552 29bd

weight f4 [8, 16]
-0.35412106 0.3966702 -0.17464904 -0.75342315 -0.31402317 0.37882245 0.20492324 0.042557865
-0.6770201 0.007528037 -0.6558526 -0.37076885 -0.16124554 -0.11102116 -1.0779276 -0.14080313
0.107078806 -0.9242793 0.048040085 0.1331543 -0.07777184 -0.67021424 -0.16475055 0.2123515
0.13101907 0.118861824 0.111616105 0.034828734 0.022343742 -0.5028758 0.30341318 0.054131743
-1.5104392 0.07008822 -0.4890398 -1.0774359 0.006590674 0.040410593 -0.07950279 0.15398863
-0.555889 0.21103144 -0.696917 -1.3629725 -0.42461136 0.644449 -0.6091298 -0.6422808
0.048674207 -0.6506054 -0.0003018429 0.13081415 -0.16126296 -0.53860766 -0.12050232 0.12394205
0.11243843 0.2423966 0.06726578 -0.0031133185 0.01008917 -0.36592925 0.2217201 -0.0054039573
0.045305327 -0.9733982 0.052931245 0.1355644 0.095049955 -0.7669692 0.13803482 -0.07707366
0.07413576 -0.025089502 0.0654419 0.08422082 0.012179547 -0.47653085 0.33692506 0.006355156
0.07203558 -0.6924042 0.015964448 0.15770671 -0.07653083 -0.76560915 0.012233317 0.007865578
0.07248197 0.23367247 0.03405556 0.053754892 0.018519588 -0.8141408 0.19712886 0.03565336
0.055535953 -0.5661817 0.04309373 0.08587645 -0.034511197 -0.81693375 -0.14386344 -0.21893117
0.081609234 0.1723328 0.065856226 0.07745539 0.033158813 -0.5473564 0.29410976 0.003943518
0.034315415 -0.65111697 0.038976584 0.07442112 -0.12563233 -0.5330157 -0.13217723 -0.23309237
0.07620236 -0.20685169 0.0830713 0.068452254 0.022057917 -0.3757189 0.28530505 0.016371751
00000000: 5b4f b5be 5b18 cb3e 33d7 32be 57e0 40bf
00000010: a5c7 a0be 04f5 c13e 66d7 513e 2851 2e3d
00000020: 3051 2dbf c0ad f63b f5e5 27bf 6ad5 bdbe
00000030: 8d1d 25be 105f e3bd 88f9 89bf b22e 10be
00000040: 224c db3d 919d 6cbf aec5 443d 9a59 083e
00000050: d846 9fbd 2993 2bbf 5eb4 28be ac72 593e
00000060: dd29 063e d46d f33d fc96 e43d 93a8 0e3d
00000070: 390a b73c 78bc 00bf f958 9b3e 3fb9 5d3d
00000080: 1256 c1bf 6a8a 8f3d 6d63 fabe 6be9 89bf
00000090: 95f6 d73b 9485 253d 5cd2 a2bd 32af 1d3e
000000a0: be4e 0ebf a018 583e 2769 32bf e275 aebf
000000b0: a966 d9be 9cfa 243f eeef 1bbf 846c 24bf
000000c0: 9b5e 473d 138e 26bf ab40 9eb9 25f4 053e
000000d0: 1e22 25be 31e2 09bf ecc9 f6bd 54d5 fd3d
000000e0: 1f46 e63d d036 783e a4c2 893d d108 4cbb
000000f0: 0c4d 253c 145b bbbe 980a 633e ae13 b1bb
00000100: 1492 393d a030 79bf 6fce 583d 65d1 0a3e
00000110: 8da9 c23d 1858 44bf 0059 0d3e ccd8 9dbd
00000120: 7dd4 973d 8088 cdbc 6706 863d f77b ac3d
00000130: b98c 473c dafb f3be 7181 ac3e ea3e d03b
00000140: 6487 933d 6741 31bf e0c7 823c de7d 213e
00000150: 32bc 9cbd f6fe 43bf 406e 483c a0de 003c
00000160: 6d71 943d d647 6f3e d87d 0b3d 172e 5c3d
00000170: 64b6 973c 886b 50bf 26dc 493e 4209 123d
00000180: ab79 633d 49f1 10bf 0d83 303d fedf af3d
00000190: 9d5b 0dbd 9222 51bf f050 13be 7e2f 60be
000001a0: be22 a73d 0278 303e a1df 863d eea0 9e3d
000001b0: 89d1 073d 8d1f 0cbf 8e95 963e a038 813b
000001c0: 528e 0c3d 9aaf 26bf e9a5 1f3d 1a6a 983d
000001d0: c3a5 00be b873 08bf 7859 07be c4af 6ebe
000001e0: fc0f 9c3d eed0 53be 4921 aa3d b230 8c3d
000001f0: ceb2 b43c 3a5e c0be 8113 923e 0d1e 863c

bias f4 [8]
0.23375045 0.07407704 0.20551774 0.08698299 0.04386676 0.04440024 0.049008805 0.046503946
00000000: 475c 6f3e b4b5 973d 3e73 523e 2324 b23d
00000010: a2ad 333d 07dd 353d 75bd 483d ec7a 3e3d

weight f4 [1, 8]
-0.2993509 0.089618884 -0.5035416 0.09866292 0.09754257 0.121375136 0.12093439 0.11871455
00000000: 8544 99be 1b8a b73d 1ae8 00bf c90f ca3d
00000010: 66c4 c73d 8793 f83d 73ac f73d 9d20 f33d
