DL_PROJECT_FREIBURG_MLP/full_model_0.pth (torch_old, 8797 bytes, 5 tensors)

weight f4 [16, 8]
0.312809 0.38718 -0.1419175 0.49891412 -2.6474032 -0.18235467 0.7883887 -5.3222976
-0.7327806 -0.4743046 -0.35003904 -0.8101067 -0.04243108 -0.46133855 -1.54712 1.9699509
0.63049114 0.5760918 -0.073680125 0.7044634 -4.9082613 -0.38271543 0.5972396 -5.3973675
-0.3415589 -0.43357077 -0.48106077 -0.4976049 -0.53773415 -0.12275028 -1.2005862 1.1619947
-0.9085732 -0.7181341 -0.34634444 -1.0228901 0.26309535 -0.07634057 -1.5947043 2.0151026
0.18383072 0.31389028 -0.22378577 0.60031724 -0.6569224 -0.23561418 1.0509437 -4.667475
-0.7339824 -0.43845657 -0.30446208 -0.88865036 -0.20490403 -0.2754868 -1.7323899 2.2465854
0.33145067 0.49989074 -0.05709766 0.51848334 -1.6011316 -0.3398092 0.73045737 -5.05477
0.62077904 0.28981483 0.079656914 0.79232144 -4.2657647 -0.47098932 0.7338998 -4.9752364
-0.96717775 -0.8485473 -0.8545692 0.079222776 -0.35942733 -0.17889673 -2.6389315 2.137102
-0.71921575 -0.58788866 -0.53386366 -0.2233204 -0.26571143 -0.2595831 -1.7402923 1.8241082
0.34083286 0.18987073 -0.119812414 0.6299705 -2.1744096 -0.37924322 0.8340298 -4.757173
-0.606397 -0.68427175 -0.4110155 -1.20663 0.23213327 0.090990104 -1.0475057 1.5323632
-0.31352505 -0.60097307 -0.71993166 -0.1998358 -0.46829998 -0.29326275 -1.8033106 1.7070476
-0.8518454 -0.4087673 -0.41221455 -0.14576963 -0.18183461 -0.3396981 -1.9177853 1.5643746
0.034348574 0.20939462 -0.26749843 0.570576 0.0054018847 -0.2530373 1.0158263 -4.6864495
00000000: 8028 a03e 753c c63e d252 11be ac71 ff3e
00000010: 0e6f 29c0 2fbb 3abe d8d3 493f 4350 aac0
00000020: 8297 3bbf 0dd8 f2be 5138 b3be 2763 4fbf
00000030: 36cc 2dbd 9134 ecbe 0708 c6bf 5a27 fc3f
00000040: de67 213f c17a 133f 9be5 96bd b757 343f
00000050: 7a10 9dc0 47f3 c3be b2e4 183f 3cb7 acc0
00000060: cfe0 aebe fdfc ddbe 994d f6be 12c6 febe
00000070: f2a8 09bf 8064 fbbd cfac 99bf 3ebc 943f
00000080: 4198 68bf a3d7 37bf 0f54 b1be 10ee 82bf
00000090: 6fb4 863e 7258 9cbd 451f ccbf 71f7 0040
000000a0: 1f3e 3c3e 3ab6 a03e 1928 65be 64ae 193f
000000b0: 112c 28bf d844 71be 5385 863f f55b 95c0
000000c0: 45e6 3bbf 617d e0be 74e2 9bbe 977e 63bf
000000d0: 5dd2 51be 9b0c 8dbe f4be ddbf 0ec8 0f40
000000e0: e7b3 a93e aef1 ff3e 3cdf 69bd 53bb 043f
000000f0: e1f1 ccbf 79fb adbe 41ff 3a3f adc0 a1c0
00000100: 60eb 1e3f 9c62 943e 2a23 a33d 94d5 4a3f
00000110: 2581 88c0 8325 f1be dbe0 3b3f 2335 9fc0
00000120: f698 77bf 653a 59bf 0cc5 5abf 8d3f a23d
00000130: dc06 b8be b430 37be 41e4 28c0 47c6 0840
00000140: 861e 38bf df7f 16bf 4aab 08bf 1aae 64be
00000150: 540b 88be 13e8 84be e6c1 debf 617c e93f
00000160: a581 ae3e 796d 423e 3660 f5bd bf45 213f
00000170: 8729 0bc0 2b2c c2be fa82 553f c33a 98c0
00000180: d53c 1bbf 6f2c 2fbf a070 d2be da72 9abf
00000190: 58b4 6d3e 0559 ba3d ab14 86bf 7a24 c43f
000001a0: 5b86 a0be 5fd9 19bf 714d 38bf c2a1 4cbe
000001b0: 04c5 efbe 8926 96be e2d2 e6bf 8980 da3f
000001c0: 8a12 5abf f349 d1be c90d d3be a244 15be
000001d0: da32 3abe e9ec adbe fd79 f5bf 6d3d c83f
000001e0: 17b1 0c3d 8b6b 563e 8ef5 88be 4511 123f
000001f0: 4b02 b13b 1b8e 81be 9906 823f 65f7 95c0

bias f4 [16]
0.0883678 -0.5254759 0.02506286 -0.33097652 -0.5822314 -0.1511429 -0.5277195 0.014992816
-0.20801744 -1.1453985 -0.96323216 -0.033600625 -0.23967342 -0.77249515 -0.6248269 -0.17044084
00000000: 2dfa b43d 9785 06bf a150 cd3c c175 a9be
00000010: 1e0d 15bf 34c5 1abe a018 07bf 6ea4 753c
00000020: 8602 55be 6b9c 92bf 6296 76bf cfa0 09bd
00000030: f36c 75be 3ec2 45bf a8f4 1fbf 0b88 2ebe

weight f4 [8, 16]
-1.4056833 0.22416443 -1.5441397 -0.03828165 0.27899292 -1.4206678 0.3107098 -1.4602357
-1.6266209 0.35431266 0.25753713 -1.089542 0.124011174 0.22348812 0.1686909 -1.3206605
-1.4411222 0.42643878 -1.7223058 0.18175606 0.36983564 -1.3322979 0.5245573 -1.2715046
-1.4198549 0.45686272 0.5178405 -1.2752709 0.40238968 0.32661313 0.22570133 -1.2952054
-1.3747195 0.2400176 -1.6884978 0.26367137 0.38556516 -1.3966725 0.3482732 -1.354312
-1.335851 0.34403735 0.47956237 -1.3389668 0.16755657 0.16520329 0.3458485 -1.1558684
-1.5007386 -0.06938998 -1.5373085 0.022023698 0.12865609 -1.3505349 0.11349476 -1.391075
-1.5191233 0.24631259 0.19092973 -1.2071251 0.09474995 0.1238955 0.007746304 -1.2973632
-1.7559832 0.041314974 -1.7999876 -0.042338233 -0.11830164 -1.3752595 0.012020917 -1.3964365
-1.4905003 0.03363371 -0.245648 -1.2712259 -0.22476375 -0.1624465 -0.019765183 -1.2247822
-1.5560706 -0.17239326 -1.6585354 0.014396377 -0.0025396578 -1.2741374 -0.14257771 -1.3148884
-1.5533313 -0.017130552 -0.04439643 -1.3181503 0.17953074 -0.026094139 0.11224957 -1.1911714
-1.4811962 -0.1815599 -1.8229982 -0.027702028 -0.16199662 -1.3819044 -0.09993744 -1.5084832
-1.5055038 0.049110286 -0.009199173 -1.3791702 -0.20743677 -0.022040647 0.13836293 -1.3273168
-1.5498339 0.14845675 -1.7776036 0.05381752 -0.14165598 -1.2357619 -0.08478194 -1.3661308
-1.600282 0.03724286 0.059845034 -1.3155328 -0.09420919 0.01731875 -0.1501699 -1.3215687
00000000: 6eed b3bf 5c8b 653e 5fa6 c5bf 38cd 1cbd
00000010: 29d8 8e3e 71d8 b5bf 5b15 9f3e 01e9 babf
00000020: 1d35 d0bf 7868 b53e e8db 833e 1d76 8bbf
00000030: 92f9 fd3d 12da 643e 4fbd 2c3e 670b a9bf
00000040: b176 b8bf 2f56 da3e 8474 dcbf 431e 3a3e
00000050: 195b bd3e bd88 aabf 6349 063f aac0 a2bf
00000060: cebd b5bf e9e9 e93e 3291 043f 143c a3bf
00000070: 0506 ce3e d639 a73e 401e 673e 4ac9 a5bf
00000080: cff6 afbf 2cc7 753e b220 d8bf efff 863e
00000090: cc68 c53e 2ac6 b2bf dd50 b23e 185a adbf
000000a0: 2afd aabf aa25 b03e 3389 f53e 4463 abbf
000000b0: f393 2b3e 0d2b 293e 0e13 b13e 7ff3 93bf
000000c0: 3418 c0bf 551c 8ebd 86c6 c4bf 0b6b b43c
000000d0: 6cbe 033e 54de acbf f16f e83d bf0e b2bf
000000e0: a272 c2bf 5e39 7c3e 1583 433e 1383 9abf
000000f0: 430c c23d edbc fd3d b5d4 fd3b ff0f a6bf
00000100: 0fc4 e0bf e439 293d fe65 e6bf db6a 2dbd
00000110: 2148 f2bd 8108 b0bf 61f3 443c 6ebe b2bf
00000120: b7c8 bebf 80c3 093d 268b 7bbe 88b7 a2bf
00000130: 7828 66be 6058 26be 98ea a1bc aac5 9cbf
00000140: 522d c7bf dc87 30be e34a d4bf c8de 6b3c
00000150: 6370 26bb ef16 a3bf e4ff 11be 434e a8bf
00000160: 8fd3 c6bf 5f55 8cbc 08d9 35bd 26b9 a8bf
00000170: e8d6 373e 60c3 d5bc 1ae3 e53d 4e78 98bf
00000180: d697 bdbf d7ea 39be 0158 e9bf 5def e2bc
00000190: 71e2 25be 3ee2 b0bf 00ac ccbd fa15 c1bf
000001a0: 59b4 c0bf de27 493d 21b8 16bc a688 b0bf
000001b0: 4e6a 54be 968e b4bc 03af 0d3e 84e5 a9bf
000001c0: f560 c6bf 0c05 183e 8488 e3bf c36f 5c3d
000001d0: 440e 11be 722d 9ebf 27a2 adbd 60dd aebf
000001e0: 0ad6 ccbf f88b 183d 1120 753d 6163 a8bf
000001f0: bff0 c0bd 0de0 8d3c 23c6 19be 2a29 a9bf

bias f4 [8]
-0.33907086 -0.25808373 -0.39185998 -0.23660204 -0.15938024 -0.38560486 -0.12200401 -0.20341314
00000000: b29a adbe 8d23 84be dfa1 c8be ce47 72be
00000010: 9334 23be 006e c5be 3ddd f9bd 894b 50be

weight f4 [1, 8]
0.06966653 0.06486661 0.06740156 0.07763743 0.107441604 0.115390606 0.10588211 0.09802933
00000000: 53ad 8e3d c9d8 843d d409 8a3d 5f00 9f3d
00000010: 580a dc3d e951 ec3d b8d8 d83d 9ac3 c83d
