DL_PROJECT_FREIBURG_MLP/full_model_4.pth (torch_old, 9337 bytes, 5 tensors)

weight f4 [16, 8]
000000 eb 83 05 be e6 fb 2a 3d c9 d9 9f bd 52 c6 30 bf
       -0.13038604 0.041744135 -0.07805211 -0.6905261
000010 6e 26 a3 3e b2 9c 05 3e e7 a2 54 3e 51 44 72 3e
       0.31865257 0.13048056 0.20765267 0.23658873
000020 96 59 c2 bc e5 0f 25 3e 85 ed b2 bc ce 1a 03 3e
       -0.023724359 0.16119345 -0.021841774 0.12803194
000030 e4 a4 79 bf 56 96 05 3e fb 6c a8 3e 7f fd 3f bf
       -0.9751723 0.1304563 0.32895645 -0.7499618
000040 bc 37 c4 3d e5 42 85 3c c0 a4 25 3c c2 fe 77 3d
       0.09580943 0.01626725 0.01011008 0.06054569
000050 54 e0 01 be 62 d7 30 bd ab d1 b0 bd 19 fb 2a 3f
       -0.1268323 -0.043174155 -0.08633741 0.66789395
000060 6e 8c e2 3d ca 01 c7 3c e6 c7 f3 bd 65 97 92 3e
       0.11061941 0.024292845 -0.11903362 0.2863113
000070 33 88 3f bf 9a f9 37 3d 0c 89 20 3e 8e 3c 8c bf
       -0.748172 0.044915773 0.15677279 -1.095598
000080 2b 32 39 bb b8 d0 27 bb 2f 3f 7b 3d fe aa 90 3d
       -0.0028258662 -0.0025606584 0.061339553 0.07063864
000090 8c aa 4a 3e c6 89 5d bd 9d 9a ba bd 94 c9 2c 3f
       0.19791621 -0.05408647 -0.091115214 0.67495084
0000a0 75 68 1f be f5 fa 26 bd 01 7e 41 bd 88 cf 2d be
       -0.15567191 -0.040766675 -0.047239307 -0.16973698
0000b0 cf 5e ed 3d 43 42 9c 3c 46 89 27 be f0 ee 19 3f
       0.11590349 0.019074565 -0.1636096 0.60130215
0000c0 d0 76 99 bc c9 c7 74 bc 7f da fb 3c bd fa 40 3d
       -0.018733412 -0.014940211 0.030743835 0.047114123
0000d0 bb e4 c7 3e b1 7e 0f 3d cf d9 c8 bd fe a1 42 3f
       0.39041695 0.03503293 -0.09807169 0.7602843
0000e0 fa 06 b6 bc c7 41 64 bd 64 ec 8c 3b 69 ab ce 3d
       -0.022220124 -0.055726793 0.004300641 0.10091288
0000f0 91 e5 88 3b c8 23 0d bd 80 de 82 be 20 b0 29 3f
       0.004177757 -0.03445795 -0.2556038 0.6628437
000100 47 ae 72 bd 7e 3a 8e bd 0b d6 b1 3c b3 8e 8a bd
       -0.059248235 -0.0694475 0.021708509 -0.06765499
000110 ae b3 f5 3c ae 66 e9 3b d6 11 ee bd 10 75 38 3f
       0.029992905 0.007122836 -0.11624496 0.72053623
000120 38 fe 1d be 64 91 83 bd c1 79 4e be 08 42 ef bd
       -0.15429008 -0.064242154 -0.20163633 -0.11682516
000130 23 6c a8 3e 80 4d 83 bc da 77 40 be dc dd 89 3d
       0.32895002 -0.016028166 -0.1879572 0.067317694
000140 6d 39 e7 3d cf 5f fa bd 50 69 15 be cc fb 6c be
       0.1129025 -0.12225305 -0.14590955 -0.23142928
000150 df 3a 8d 3f 29 25 86 3d a1 6c 13 be 18 ca ed 3e
       1.1033591 0.065500565 -0.14396907 0.46443248
000160 0b c5 4a bd b8 c9 34 3c 14 34 2c 3d bb d0 79 3d
       -0.04950432 0.011034422 0.042041853 0.060990077
000170 e5 dd 61 bd a0 c7 ee 3c 1b a5 a9 bd 6f 0b 0f 3f
       -0.055143256 0.029147923 -0.082834445 0.5587682
000180 ed 44 32 bd ad 67 b0 3d 08 fe 10 be 0e 9f 7c be
       -0.043522764 0.086135246 -0.14159405 -0.2467005
000190 18 b6 ca bc 77 74 04 bd 61 d8 a5 3e d7 b6 fc bd
       -0.024745032 -0.032337632 0.32391647 -0.123395614
0001a0 7a ff 1f bd 69 17 ac 3e c4 2c be bd 1d c3 55 bd
       -0.039062 0.3361161 -0.09285882 -0.052188028
0001b0 89 0e 71 bf 8c f5 f0 bd c4 00 74 bd bc 94 26 bf
       -0.94162804 -0.11765584 -0.059571043 -0.650707
0001c0 1d 18 47 be 18 f6 ef bc 83 10 b2 bd 87 e0 85 be
       -0.19442792 -0.029292151 -0.086945556 -0.26147863
0001d0 ec 2b dc 3e 53 12 15 3d 06 e6 44 bb 88 8d 22 3f
       0.4300226 0.03639443 -0.0030044331 0.6349721
0001e0 04 94 2b be 4c c9 cc bd 98 10 99 bd d0 be a0 3c
       -0.16755682 -0.09999332 -0.07473868 0.019622236
0001f0 e6 71 d5 bd be 2d 4e be b0 94 83 bd 82 8f 8f be
       -0.10422115 -0.20134637 -0.06424844 -0.28039175

bias f4 [16]
000000 9a 3b 96 3b 72 a4 69 bd 0f 42 01 bf 7e 47 a8 bd
       0.004584742 -0.057041593 -0.5049142 -0.08216761
000010 a1 30 ad be 62 fb 3e be 3d 88 aa be a4 1b d2 be
       -0.33826163 -0.18650582 -0.33307067 -0.41036713
000020 3c b2 5a be 8f f3 9b be 12 99 3f 3e 3b f1 a3 be
       -0.21357054 -0.30459258 0.18710735 -0.32019982
000030 47 8e 84 be 64 a2 8c 3e a9 f6 6c 3d f4 df da 3d
       -0.258898 0.27467644 0.05785242 0.10687247

weight f4 [8, 16]
000000 b2 b4 43 3d 7f cd 88 bd 0d ec 19 be 11 ff 28 bc
       0.047779746 -0.0667982 -0.15031452 -0.010314719
000010 3a ba a5 3d 7c df 59 3d ac 5c 20 bd f4 af cc bd
       0.080921605 0.053191647 -0.03915088 -0.09994498
000020 df d8 97 be f4 2a 8c bd 37 9c 1e bd 0c c4 9d be
       -0.29657647 -0.0684413 -0.038723197 -0.30813634
000030 0c 49 3f 3c 01 0e 16 bd 6a e1 86 be 0a f3 0e 3e
       0.011675131 -0.03663445 -0.26343852 0.139599
000040 62 d8 01 3e f6 b9 0e bf c3 c3 1a 3f a1 05 af be
       0.126802 -0.55752504 0.6045496 -0.34183982
000050 11 22 2b 3d c4 af 3a 3e e4 e2 6b 3d f3 5a ce 3e
       0.041780535 0.18231112 0.057589427 0.40303764
000060 c6 e3 b8 3d c0 67 42 bd 6c 19 98 3c df a0 57 3e
       0.09027819 -0.047462225 0.01856681 0.21057461
000070 7f da 10 be ba 27 b2 be 15 ef f3 bb f0 08 e7 bd
       -0.1414585 -0.34795934 -0.0074442723 -0.112810016
000080 a5 bf 1b bf 21 be 56 3e 6e 40 cd be f1 04 93 3e
       -0.608393 0.20970966 -0.40088218 0.28714707
000090 b3 f1 8f bf 80 c1 ba be 11 1b 5c bf 14 21 33 bf
       -1.1245636 -0.36475754 -0.859788 -0.6997235
0000a0 fb 30 3f bf fc ab 2b 3e ee b6 97 be 8d 5b a8 bf
       -0.74684113 0.16764826 -0.29631752 -1.3152939
0000b0 9f 2f ac 3d 4b 82 b0 bc cb 6f db be 5a 53 0f be
       0.084075205 -0.021546504 -0.4285873 -0.1399664
0000c0 81 26 02 3e b8 ec a7 be 70 2d f1 3e 01 a7 d3 be
       0.1271 -0.3279779 0.4710498 -0.4133835
0000d0 cf c6 af 3d c7 38 09 3e 65 b8 45 3d da 65 ad 3e
       0.085828416 0.13400565 0.048271555 0.3386677
0000e0 74 0d cb 3d 22 1e 08 3e 3a 08 2a 3d 8c a9 a5 3d
       0.09914675 0.13292745 0.04151175 0.08088979
0000f0 d7 91 22 3d 50 ac 9e be cf 9d a5 3c b4 48 17 be
       0.039689865 -0.3099084 0.02021685 -0.14773828
000100 d9 e5 2c be 82 84 d0 3a 8f c1 53 be 6e 17 c8 3d
       -0.16884555 0.0015908631 -0.20679305 0.09770094
000110 86 bc 3b bd 6c 6d b5 bd 3c 77 f4 bb c5 75 00 bd
       -0.045834087 -0.08858761 -0.007460503 -0.031362314
000120 5e d2 47 be 74 f9 2a be fa b0 52 3c 61 fc 1d 3c
       -0.19513842 -0.16696721 0.012859577 0.009642691
000130 b7 80 56 bc e2 65 9b 3d ad 53 75 3d 74 25 14 3e
       -0.013092211 0.07587792 0.059894253 0.14467412
000140 be ef b7 3d 58 dd f1 be 8c 1a da 3e 70 d9 f8 be
       0.08981274 -0.47239184 0.4259838 -0.48603392
000150 e1 39 bc 3d 94 c9 46 3e 8e e0 dd 3c 9b 18 ec 3e
       0.09190727 0.19412833 0.027084615 0.46112522
000160 a9 dc b6 3d 6c 26 dc bd 10 0f 37 3d 49 db 5e 3e
       0.08928806 -0.10749516 0.0446921 0.21763338
000170 7b ee 4c be 4d c2 b6 be b3 0c 45 3d 5a c1 74 be
       -0.20012848 -0.35695115 0.048107814 -0.23901883
000180 87 1f 5b be 4d 9f 86 3e a2 58 b3 bf 47 4c d3 3e
       -0.21398745 0.26293412 -1.4011424 0.41269132
000190 f2 a3 6d be c0 f1 3a bf 30 ee 40 be ef 22 4f bf
       -0.23207071 -0.7302513 -0.18840861 -0.8091268
0001a0 48 8f 42 be 6a d9 0c 3e a0 a5 07 bd ba 3b b7 be
       -0.1899997 0.13754812 -0.033116937 -0.35787755
0001b0 3f 97 b5 3d 46 b4 58 3e ef 71 b7 bd 2c 8d cb bd
       0.088667385 0.21162519 -0.08957278 -0.09939036
0001c0 58 67 bd 3d ec 7e db be 0d 9e b9 3e 64 09 ca be
       0.09248227 -0.4287027 0.36253396 -0.3946029
0001d0 02 45 bb 3d 92 d3 68 3e bb 01 b7 3d 0e 08 e5 3e
       0.091440216 0.22736958 0.08935877 0.44732708
0001e0 7a 7e a6 3d 46 1a 47 3e e0 10 bd 3c 03 ec b6 3d
       0.08129592 0.19443616 0.023079336 0.089317344
0001f0 5c a7 22 3e b6 1c 8b be 61 48 88 3c 60 f7 6b bd
       0.15884155 -0.27170342 0.016636075 -0.057608962

bias f4 [8]
000000 33 19 3e be e1 d3 60 bb f8 db 65 3e 52 54 6b ba
       -0.185643 -0.0034305977 0.22447193 -0.0008977103
000010 15 52 ba be cd 2c 73 bc 7c 95 6a 3e 0e a7 3e bc
       -0.3639075 -0.014842224 0.22908586 -0.011636509

weight f4 [1, 8]
000000 dd ec c3 bc 5b f5 8f 3d d4 49 21 bf b4 fe c8 3d
       -0.023916656 0.0702922 -0.6300328 0.09814206
000010 af dc 0b bd d9 ea 9f 3d 6b 64 d5 be b7 30 c5 3d
       -0.034146007 0.078084655 -0.41678175 0.09628432
