DL_PROJECT_FREIBURG_MLP/full_model_1.pth (torch_old, 8797 bytes, 5 tensors)

weight f4 [16, 8]
0	0xbfab627f	-1.3389434
1	0xbf3967a1	-0.7242375
2	0xbef7fac8	-0.48433518
3	0xbf8e2b55	-1.1106974
4	0x3f328c4b	0.6974532
5	0x3e7f12b2	0.24909475
6	0xc00d40c2	-2.2070775
7	0x4045366b	3.0814464
8	0xbf2043e5	-0.626036
9	0xbf317a7e	-0.69327533
10	0x3d040157	0.03222784
11	0xbfb340c3	-1.4004139
12	0x402bfe21	2.6873858
13	0xbdcf2b61	-0.10115696
14	0xbf9186ab	-1.1369222
15	0x405aa45d	3.416282
16	0xbdaf7595	-0.08567349
17	0xbf3cb7bd	-0.7371786
18	0x3e18751d	0.14888425
19	0xbfa49368	-1.2857485
20	0x402f53d1	2.7394907
21	0xbeee6e26	-0.46568412
22	0xbd467d5d	-0.0484594
23	0x3fced249	1.6157924
24	0xbee1cbef	-0.441009
25	0xbf3076fe	-0.6893157
26	0xbc6c53fb	-0.014424319
27	0xbf9d229c	-1.2276187
28	0x40022346	2.033403
29	0x3dc877e6	0.09788494
30	0xbf8d61fc	-1.1045527
31	0x404c59b0	3.192974
32	0xbf1afa7f	-0.60538477
33	0xbf662051	-0.8989306
34	0xbda15728	-0.07877952
35	0xbf87394d	-1.0564362
36	0x4044af1b	3.0731876
37	0xbeb76f53	-0.3582712
38	0xbf14142e	-0.5784329
39	0x402f2e6f	2.737209
40	0xbf9c7408	-1.222291
41	0xbf1a5cc3	-0.60297793
42	0xbeebcd0c	-0.46054876
43	0xbf7863cf	-0.97027296
44	0x3f2f7653	0.68539923
45	0x3e73868b	0.23781793
46	0xc008020c	-2.125125
47	0x40385f2b	2.8808086
48	0xbf402432	-0.7505523
49	0xbf0fd7a4	-0.56188416
50	0xb9f0f2ad	-0.00045957175
51	0xbfa0a7af	-1.2551173
52	0x3f8e3102	1.1108706
53	0x3e91807e	0.28418344
54	0xbfc51e44	-1.5399861
55	0x4044e74b	3.076617
56	0xbeb197fc	-0.34686267
57	0xbe9be596	-0.30448598
58	0xbe379650	-0.17928433
59	0xbfa258ca	-1.2683346
60	0x3fb4d921	1.4128762
61	0xbe3a49f4	-0.18192273
62	0xbf463876	-0.774299
63	0x4027fb98	2.624731
64	0x3ee1c1d2	0.44093186
65	0x3eb3401a	0.35009843
66	0xbe9343d9	-0.287627
67	0x3f128398	0.57232046
68	0xc00e3fb2	-2.2226377
69	0xbee5c3da	-0.44875985
70	0x3f2368a1	0.63831526
71	0xc08cfe04	-4.406008
72	0xbf2e3959	-0.68056256
73	0xbf3fd61e	-0.7493609
74	0xbe999ed3	-0.30003986
75	0xbfbd63d6	-1.4796093
76	0x3fafb24b	1.3726286
77	0x3cbd7240	0.023125768
78	0xbfbf5525	-1.4947859
79	0x404fcea1	3.2469866
80	0xbf7a7a9c	-0.9784334
81	0xbf368cfb	-0.7130887
82	0xbf17830d	-0.5918434
83	0xbf625461	-0.8841
84	0x3f19364b	0.5984847
85	0x3d672757	0.056434
86	0xc0075ef7	-2.1151712
87	0x4052b94e	3.29256
88	0x3db03e81	0.08605672
89	0xbd8e28bb	-0.069413625
90	0xbc9c6dbc	-0.019095294
91	0x3ee20c34	0.44149935
92	0xbe3884e7	-0.18019448
93	0xbe48ecac	-0.19621533
94	0x3f89c2c5	1.0762564
95	0xc05c793c	-3.4448996
96	0x3e6545c8	0.223899
97	0x3f337382	0.70098126
98	0xbd57822e	-0.052614383
99	0x3f830f1c	1.0238986
100	0xc0997f3a	-4.7967806
101	0xbecd9733	-0.40154418
102	0x3f352ec3	0.7077448
103	0xc0948a94	-4.6419163
104	0x3ef7e38a	0.48415786
105	0x3f307a5b	0.689367
106	0x3d9eb2be	0.07748936
107	0x3f8b53b9	1.0884925
108	0xc0b43ca8	-5.6324043
109	0xbf0844fd	-0.5323027
110	0x3f0a8b1e	0.54118526
111	0xc092e4e1	-4.5904393
112	0x3e2c4dac	0.16826504
113	0x3e167185	0.14691742
114	0xbe4cc6bd	-0.19997688
115	0x3f12d2b9	0.5735279
116	0xc027e112	-2.6231122
117	0xbe8a9736	-0.2706849
118	0x3f659d23	0.89692897
119	0xc088ee07	-4.279056
120	0xbf2f309f	-0.68433565
121	0xbf2aa68c	-0.6666038
122	0xbc6e9306	-0.01456142
123	0xbf9b797f	-1.2146453
124	0x403fa510	2.9944496
125	0xbe730952	-0.23734024
126	0xbf5fe4a0	-0.8745823
127	0x40360c99	2.844519

bias f4 [16]
0	0xbf5d8a19	-0.86538845
1	0xbf17c2f6	-0.5928186
2	0xbe09a3ed	-0.13441439
3	0xbf4403e6	-0.7656845
4	0xbed0ed65	-0.40806118
5	0xbf43f54b	-0.7654616
6	0xbf3e6cad	-0.74384576
7	0xbf07e955	-0.5309041
8	0x3f07d995	0.5306638
9	0xbf2a78e1	-0.66590697
10	0xbf7bc6ad	-0.9835003
11	0xbd78cf09	-0.06074432
12	0xbe551218	-0.20807683
13	0xbe91d0a8	-0.28479505
14	0x3eb6b9a7	0.35688516
15	0xbee3b205	-0.44471756

weight f4 [8, 16]
0	0xbfa6861d	-1.3009678
1	0xbf9d0a0d	-1.2268692
2	0xbf0d6407	-0.55230755
3	0xbf947df0	-1.1600933
4	0xbf53a4a4	-0.82673097
5	0xbf89ce1e	-1.0766027
6	0xbfb1f793	-1.3903679
7	0xbf769f37	-0.9633669
8	0x3eb5c53c	0.3550204
9	0xbf9d37c9	-1.2282649
10	0xbfb883ec	-1.4415259
11	0x3e82cc49	0.25546482
12	0x3f02f6f2	0.5115806
13	0x3f150381	0.5820847
14	0x3ed67554	0.4188639
15	0xbf8975ab	-1.0739034
16	0x3e6c1288	0.23053944
17	0x3e458743	0.1928988
18	0x3d6d16b2	0.057882972
19	0x3e0bbfea	0.13647428
20	0x3ced688d	0.028980518
21	0x3ce1f133	0.027580833
22	0x3dcf1dc7	0.101131015
23	0xbda02064	-0.07818678
24	0xbfb80e27	-1.4379319
25	0xbdd52358	-0.10407132
26	0x3e852157	0.26002
27	0xbf8cc754	-1.099833
28	0xbfe20abf	-1.765953
29	0xbfefe84c	-1.8742766
30	0xbfb94573	-1.4474319
31	0x3e10d739	0.14144601
32	0x3e848831	0.25885156
33	0x3e12a6ad	0.14321394
34	0x3e0fdbca	0.14048687
35	0x3e72c8f7	0.23709475
36	0x3d37c9c9	0.04487017
37	0x3eca3fa3	0.39501676
38	0x3dbc4926	0.091936395
39	0x3db934b4	0.090432554
40	0xbfc5e48f	-1.5460376
41	0x3e2d9b07	0.1695367
42	0x3e9894dd	0.29801074
43	0xbf9af20c	-1.2105117
44	0xc000845f	-2.0080793
45	0xc00c54e1	-2.1926806
46	0xbfbebc9a	-1.4901307
47	0x3e5d9d89	0.21642126
48	0x3cf3b5c3	0.029749757
49	0xbdba5faa	-0.09100278
50	0x3d753254	0.05986245
51	0xbda47401	-0.080299385
52	0x3e20af2c	0.15691823
53	0x3da01202	0.07815935
54	0xbd73ddde	-0.05953776
55	0x3cd023d7	0.025407715
56	0xbfcdbbba	-1.6072915
57	0x3c860fc6	0.016364943
58	0x3d382952	0.04496128
59	0xbfa5ed38	-1.2963018
60	0xbfe7fa1d	-1.8123204
61	0xc00d7a29	-2.210581
62	0xbfce3c1e	-1.6112096
63	0xbd1d267d	-0.038366783
64	0x3e20fa0f	0.1572039
65	0xbd02b47f	-0.031910416
66	0x3db84867	0.08998185
67	0x3e161c0f	0.14659141
68	0xbdd7945f	-0.105263464
69	0x3e4e1067	0.20123444
70	0x3e24ffe4	0.1611324
71	0xbd6c31a5	-0.057664532
72	0xbfcc88e5	-1.5979277
73	0x3dd3cf01	0.10342217
74	0x3e28f28c	0.16498774
75	0xbf860587	-1.0470437
76	0xc001bebd	-2.0272667
77	0xc00c43f6	-2.191648
78	0xbfbfc659	-1.4982406
79	0xbdcb8883	-0.09938147
80	0xbc6440c3	-0.013931456
81	0xbe69a522	-0.228169
82	0xbe046527	-0.12929212
83	0xbd4692f2	-0.04847998
84	0xbc779156	-0.015110334
85	0x3e258925	0.16165598
86	0xbdd2e14f	-0.102968805
87	0x3b801918	0.0039092414
88	0xbfb0f880	-1.3825836
89	0xbc258a59	-0.010103785
90	0x3d35615b	0.0442823
91	0xbf93350b	-1.1500562
92	0xbfe8069b	-1.8127016
93	0xbfe700fb	-1.8047174
94	0xbfc11046	-1.5083091
95	0xbe1de4e0	-0.1541934
96	0x3f1161ca	0.5678984
97	0x3e931e29	0.28733948
98	0xbe164ed3	-0.14678507
99	0x3e091ecb	0.13390653
100	0x3d3c2464	0.045933142
101	0x3ec01f0c	0.37523687
102	0x3efce97c	0.49396884
103	0x3e447ca8	0.19188178
104	0xbfbdf5f6	-1.4840686
105	0x3efbd4de	0.49185842
106	0x3f1a12b9	0.6018482
107	0xbf80c571	-1.0060254
108	0xbfea06c1	-1.8283311
109	0xc00341d2	-2.0508924
110	0xbfb5ed02	-1.4212954
111	0x3ed0bf2b	0.4077085
112	0x3f2a4188	0.6650624
113	0x3e9a34cf	0.30118415
114	0xbe174aff	-0.14774702
115	0x3ea08c10	0.3135686
116	0x3e005984	0.12534148
117	0x3edc414d	0.4301857
118	0x3eb99fdd	0.36254779
119	0x3e62a80e	0.2213442
120	0xbfc9f1b8	-1.5776892
121	0x3ef7eddc	0.4842366
122	0x3f0a02ed	0.53910714
123	0xbf8c6d98	-1.0970945
124	0xc0058812	-2.08643
125	0xc00f5756	-2.2397056
126	0xbfc30c77	-1.5238179
127	0x3eae3d44	0.34031117

bias f4 [8]
0	0xbedafec5	-0.427725
1	0xbf380583	-0.7188341
2	0xbf236a20	-0.6383381
3	0xbf0bbed9	-0.54588085
4	0xbef22807	-0.47296163
5	0xbed09983	-0.4074212
6	0xbf5edc1a	-0.870546
7	0xbf4f86f4	-0.810653

weight f4 [1, 8]
0	0xbeea3116	-0.45740575
1	0x3d6b78c9	0.057488237
2	0x3d444869	0.04792062
3	0x3d9e7c24	0.07738522
4	0x3d44f6da	0.04808698
5	0x3dacca7c	0.08437058
6	0x3d0775a5	0.03307118
7	0x3d0b8bdd	0.03406893
