InterConditional_LSTMs/models/model_5.pt (torch_old, 161113 bytes, 13 tensors)

lstm.weight_ih_l0 f4 [172, 8]
0	0x38f55969	0.00011699164
1	0x31c12eb2	5.622348e-09
2	0xba2a38a4	-0.00064934255
3	0x31855afd	3.8811536e-09
4	0xb891c4ce	-6.9507965e-05
5	0xb82141f0	-3.84468e-05
6	0xb8e68972	-0.00010992856
7	0xb89453bc	-7.072787e-05
8	0x39a37d9f	0.00031183378
9	0xb1eaaaa5	-6.8296964e-09
10	0xba428d0d	-0.0007421531
11	0xb0ddd950	-1.614163e-09
12	0xb8c27e08	-9.274116e-05
13	0xb7ccde3b	-2.442218e-05
14	0xb8cec7ba	-9.8600474e-05
15	0xb8a9bc50	-8.093624e-05
16	0x396ac941	0.00022390952
17	0x32c448b0	2.2850458e-08
18	0xb9fdb693	-0.0004839195
19	0xb0df1bc4	-1.6233277e-09
20	0xb89ad9f2	-7.383888e-05
21	0xb7f37b7f	-2.9025365e-05
22	0xb89c59d6	-7.455393e-05
23	0xb8b54d87	-8.645193e-05
24	0x395ebf89	0.00021242922
25	0xb19e3302	-4.604204e-09
26	0xb9d953d8	-0.00041451934
27	0xb113888f	-2.146894e-09
28	0xb83767bc	-4.372721e-05
29	0xb805468b	-3.177537e-05
30	0xb86161c8	-5.3735246e-05
31	0xb8324198	-4.2499596e-05
32	0x390ee503	0.00013627489
33	0xb195c90a	-4.3593262e-09
34	0xba0e0651	-0.00054178113
35	0x30ee6f82	1.7348472e-09
36	0xb86844c9	-5.537717e-05
37	0xb81eebc3	-3.7889706e-05
38	0xb8faf53d	-0.00011966608
39	0xb8633220	-5.41677e-05
40	0x3954489f	0.00020244949
41	0x32c9c8ec	2.3490848e-08
42	0xba4e5cdb	-0.0007872113
43	0x31cbee70	5.935185e-09
44	0xb8a97f28	-8.082233e-05
45	0xb75bb4fd	-1.3095557e-05
46	0xb9222989	-0.00015464997
47	0xb8b32e88	-8.544052e-05
48	0x3986f0f8	0.00025738007
49	0xb1ac3f99	-5.013089e-09
50	0xba53bb79	-0.0008076947
51	0xb134deeb	-2.6320162e-09
52	0xb8aef8ec	-8.343332e-05
53	0xb772cbdb	-1.4471788e-05
54	0xb92901f1	-0.00016117819
55	0xb8b1583a	-8.456451e-05
56	0x3944e2f5	0.00018776565
57	0x324ca0eb	1.1910951e-08
58	0xba1c3358	-0.00059585785
59	0xb0ce9450	-1.5030626e-09
60	0xb8888c5c	-6.511129e-05
61	0xb7cad98e	-2.4181583e-05
62	0xb91e07fc	-0.00015071029
63	0xb880b525	-6.1372564e-05
64	0x395f3c10	0.00021289312
65	0x32a63852	1.9350555e-08
66	0xba57f55c	-0.00082381605
67	0xb152677e	-3.061785e-09
68	0xb8a1f178	-7.722055e-05
69	0xb7822861	-1.551601e-05
70	0xb93775f7	-0.00017496185
71	0xb8a5faa0	-7.914496e-05
72	0x38c37bec	9.321407e-05
73	0x32098906	8.005605e-09
74	0xb98e6f3d	-0.0002716723
75	0xb031fe8d	-6.4753963e-10
76	0xb819321b	-3.6524707e-05
77	0xb75305f5	-1.2577967e-05
78	0xb80fdffb	-3.4302455e-05
79	0xb80955e9	-3.2743355e-05
80	0x3913e058	0.00014102587
81	0xb1fff6a4	-7.4495166e-09
82	0xba00994e	-0.00049056567
83	0x315ff303	3.2588907e-09
84	0xb83c08ea	-4.4830995e-05
85	0xb7801c06	-1.5271838e-05
86	0xb8969859	-7.180934e-05
87	0xb83629e2	-4.3431188e-05
88	0x39749830	0.00023326348
89	0x3319f725	3.5847865e-08
90	0xba6ebe51	-0.0009107339
91	0xb1006f3c	-1.868968e-09
92	0xb8bb2dc2	-8.925378e-05
93	0xb7d95a06	-2.5910336e-05
94	0xb9414483	-0.00018431437
95	0xb8ac566b	-8.217696e-05
96	0x395aa025	0.00020849759
97	0x3282b203	1.5214942e-08
98	0xba31796e	-0.00067701086
99	0x311bb5a2	2.2658715e-09
100	0xb8a2ab2d	-7.756646e-05
101	0xb797fc72	-1.8118157e-05
102	0xb8d36310	-0.00010079716
103	0xb896b6d3	-7.186611e-05
104	0x393b3056	0.00017851716
105	0x331af64a	3.6079918e-08
106	0xba401819	-0.00073278096
107	0xafb860bc	-3.353814e-10
108	0xb89a4f26	-7.358035e-05
109	0xb7b79e26	-2.1888944e-05
110	0xb93b45ac	-0.00017859665
111	0xb87fb0ff	-6.0961578e-05
112	0x39937ace	0.00028129522
113	0xb1da0027	-6.3446524e-09
114	0xba300bb4	-0.0006715611
115	0x3191c12a	4.2420156e-09
116	0xb891a5d5	-6.9450274e-05
117	0xb7c3a67d	-2.3323339e-05
118	0xb8d07281	-9.939541e-05
119	0xb8719ee4	-5.7606856e-05
120	0x390d8fa5	0.0001350032
121	0x323a7c75	1.0854923e-08
122	0xb9c1a6c1	-0.0003693607
123	0xb0b26a96	-1.2981498e-09
124	0xb8608fb4	-5.3539596e-05
125	0xb7b53dc8	-2.160565e-05
126	0xb8d5c2b7	-0.000101929
127	0xb8247402	-3.9208688e-05
128	0x392f65e2	0.00016727255
129	0xb1cbd968	-5.932794e-09
130	0xba18852a	-0.0005818183
131	0x30273f80	6.0844485e-10
132	0xb89e9254	-7.561283e-05
133	0xb7fa6fea	-2.9854436e-05
134	0xb8c62f22	-9.450155e-05
135	0xb8b82b44	-8.7818626e-05
136	0x3922d111	0.00015527407
137	0x326ed961	1.39028495e-08
138	0xba15bff9	-0.0005712505
139	0xb1059fbe	-1.944485e-09
140	0xb86f712f	-5.708745e-05
141	0xb80a600c	-3.2991215e-05
142	0xb8ad4a26	-8.263094e-05
143	0xb84c9bee	-4.878261e-05
144	0x3984273f	0.00025206243
145	0x329e8867	1.845565e-08
146	0xba224649	-0.0006190283
147	0xb145380c	-2.8699132e-09
148	0xb8809804	-6.131831e-05
149	0xb6f7c95a	-7.384614e-06
150	0xb89154d4	-6.929939e-05
151	0xb88ad7c5	-6.620543e-05
152	0x39ac76dc	0.00032894954
153	0x328f1754	1.6658e-08
154	0xba2e6f0b	-0.000665412
155	0xb13c1382	-2.736869e-09
156	0xb8b20dff	-8.4903084e-05
157	0xb83583f7	-4.3276665e-05
158	0xb8b616b2	-8.6826636e-05
159	0xb8a1f7b3	-7.723216e-05
160	0x38a453d7	7.835746e-05
161	0xb105c77c	-1.946744e-09
162	0xb947599e	-0.00019011504
163	0xb010e8a2	-5.2717486e-10
164	0xb7e1cac6	-2.6916514e-05
165	0xb74e3465	-1.2290756e-05
166	0xb80f1f5e	-3.412307e-05
167	0xb7a23ac0	-1.9339263e-05
168	0x39d0ae0e	0.00039802532
169	0xb22870b7	-9.804515e-09
170	0xba71e4ef	-0.0009227534
171	0x31dc21e6	6.4066965e-09
172	0xb8d8d96e	-0.00010340182
173	0xb6f04e7a	-7.1616932e-06
174	0xb902e9c0	-0.00012484845
175	0xb89c607d	-7.456632e-05
176	0x36fc3579	7.5164103e-06
177	0x31a13d56	4.69269e-09
178	0xb94e2f7d	-0.00019663382
179	0x3099c62f	1.1188542e-09
180	0xb7b0ae23	-2.1061924e-05
181	0xb74dea1c	-1.227346e-05
182	0xb89a2003	-7.349255e-05
183	0xb79725ec	-1.8018261e-05
184	0x39e95860	0.00044507068
185	0xb2855cca	-1.5525433e-08
186	0xba8f63b0	-0.0010939743
187	0x32086c4f	7.940868e-09
188	0xb8e34c5b	-0.00010838426
189	0xb8301c0a	-4.1987783e-05
190	0xb932b18b	-0.00017041543
191	0xb8bda78a	-9.043429e-05
192	0x3963a935	0.00021711442
193	0xb1d12092	-6.0864034e-09
194	0xba0f6636	-0.00054702477
195	0x3145ff85	2.881252e-09
196	0xb84497f9	-4.6871577e-05
197	0xb7ae3f41	-2.0771871e-05
198	0xb90b3e14	-0.00013279199
199	0xb8314b5f	-4.2270283e-05
200	0x39fa8f6b	0.0004779057
201	0x32e8d7f5	2.710656e-08
202	0xba29c5af	-0.00064762955
203	0xb17265b0	-3.5273438e-09
204	0xb89de2bd	-7.528577e-05
205	0xb812d7ba	-3.5010024e-05
206	0x38dabb23	0.00010429907
207	0xb85dacac	-5.285132e-05
208	0x39766533	0.00023498088
209	0x328a3555	1.6089567e-08
210	0xba0807bc	-0.0005189141
211	0xb114ccce	-2.1653253e-09
212	0xb8981cff	-7.253326e-05
213	0xb70ed527	-8.513488e-06
214	0xb8525919	-5.015088e-05
215	0xb87e10b0	-6.057386e-05
216	0x3a02af1e	0.0004985201
217	0xb253e9ec	-1.2335004e-08
218	0xba9758a5	-0.0011546804
219	0xb12343fe	-2.375827e-09
220	0xb8e6568d	-0.00010983376
221	0xb764675e	-1.3613926e-05
222	0xb98095d9	-0.00024525708
223	0xb8c5f301	-9.438955e-05
224	0x39afb7e0	0.000335156
225	0xb21c1c5d	-9.086844e-09
226	0xba5fb708	-0.00085340487
227	0x31adde29	5.0602194e-09
228	0xb8e12b73	-0.00010736929
229	0xb7d923d6	-2.5885103e-05
230	0xb93c6eb5	-0.00017970319
231	0xb8cde297	-9.8173674e-05
232	0x39d1ae14	0.00039993285
233	0xb23b4ab1	-1.09018155e-08
234	0xba606e44	-0.0008561353
235	0xb13ab535	-2.7169567e-09
236	0xb89d96e8	-7.514452e-05
237	0xb7f7dcb8	-2.9547475e-05
238	0xb70127a4	-7.698229e-06
239	0xb896dbf7	-7.193529e-05
240	0x38598779	5.1863e-05
241	0x32160840	8.733025e-09
242	0xb9e38f90	-0.00043403776
243	0xb0c64c0e	-1.4428012e-09
244	0xb846631a	-4.7299174e-05
245	0xb70a5c59	-8.246942e-06
246	0xb8f89e42	-0.00011855039
247	0xb8387193	-4.3974793e-05
248	0x3990bfdb	0.00027608764
249	0x32e582c1	2.6718569e-08
250	0xba3c7ad1	-0.0007189932
251	0xb1229c82	-2.3663067e-09
252	0xb8b7b9c3	-8.760721e-05
253	0xb7706ca8	-1.4330413e-05
254	0xb8b49cb8	-8.61226e-05
255	0xb8b06c8c	-8.4125524e-05

lstm.weight_hh_l0 f4 [172, 43]
0	0x37b69592	2.176574e-05
1	0x37cce0f4	2.4423447e-05
2	0xb7bef484	-2.2763626e-05
3	0xb7b12ec0	-2.1121814e-05
4	0x37bb9ff3	2.236662e-05
5	0x37c5caa7	2.3578597e-05
6	0xb7d7dd3f	-2.5733023e-05
7	0xb7c5cc53	-2.3579376e-05
8	0x37d0b758	2.4880908e-05
9	0x37922e10	1.7426006e-05
10	0x37a8df50	2.0131149e-05
11	0x37d9e3b3	2.5974447e-05
12	0xb7c983ad	-2.4022384e-05
13	0x37c66504	2.3650478e-05
14	0x37c5b6db	2.3569379e-05
15	0x37aa4431	2.0297333e-05
16	0x37b9e4c6	2.216025e-05
17	0xb7bc2997	-2.2430713e-05
18	0xb7b2f074	-2.1331223e-05
19	0x37cca950	2.4397537e-05
20	0x378869dd	1.626176e-05
21	0x37d74931	2.566408e-05
22	0xb78cc964	-1.678308e-05
23	0xb7ec5761	-2.8174081e-05
24	0xb7c71221	-2.373109e-05
25	0xb7cd6cb3	-2.4488521e-05
26	0x37bc34d0	2.243594e-05
27	0xb7df20d7	-2.6598964e-05
28	0x37daa6ff	2.6065389e-05
29	0x37cd8f76	2.4504709e-05
30	0xb7afcab4	-2.0956017e-05
31	0x37ceeaa2	2.4666373e-05
32	0xb7b16602	-2.1147545e-05
33	0xb7c68706	-2.3666315e-05
34	0x37c46f9d	2.3416995e-05
35	0x37d346af	2.5186075e-05
36	0x37bbb671	2.2377093e-05
37	0x37c3971a	2.3316174e-05
38	0xb7d5b2b4	-2.5474794e-05
39	0xb7b90c08	-2.2059321e-05
40	0xb7dcc618	-2.6318288e-05
41	0xb7da3d53	-2.6016181e-05
42	0x37b83275	2.1958005e-05
43	0x37d7f6b0	2.574487e-05
44	0x37e8bf1b	2.7745546e-05
45	0xb7dcaa04	-2.6305213e-05
46	0xb7cf9be4	-2.4748915e-05
47	0x37dc1cae	2.6239399e-05
48	0x37e85147	2.7694403e-05
49	0xb7f5519f	-2.9244284e-05
50	0xb7e50356	-2.730048e-05
51	0x37dc781b	2.6281972e-05
52	0x37a680aa	1.9848656e-05
53	0x37c1a10d	2.3082388e-05
54	0x37fb67f2	2.9969935e-05
55	0xb7ea881f	-2.795836e-05
56	0x37e88e70	2.7722883e-05
57	0x37dc9ca6	2.6298989e-05
58	0x37c61977	2.3615297e-05
59	0x37dc12bf	2.6234773e-05
60	0xb7cf82a0	-2.473715e-05
61	0xb7d42507	-2.5289612e-05
62	0x37ef1d6f	2.8504726e-05
63	0x37922fc6	1.7426803e-05
64	0x37faf7ea	2.9917766e-05
65	0xb7a8e940	-2.0135776e-05
66	0xb80a465d	-3.2967295e-05
67	0xb7eb92cb	-2.8082539e-05
68	0xb7d9a4ca	-2.5945152e-05
69	0x37daa6ee	2.6065358e-05
70	0xb7ef8848	-2.8554481e-05
71	0x37fcd954	3.0141942e-05
72	0x37ef7f68	2.8550348e-05
73	0xb7cf190b	-2.4687984e-05
74	0x37ecb44e	2.8217353e-05
75	0xb7d73d72	-2.565861e-05
76	0xb7d8a312	-2.5825142e-05
77	0x37ea4da2	2.7931124e-05
78	0x37f84557	2.9596193e-05
79	0x37e17abf	2.6879248e-05
80	0x37ec35d0	2.815845e-05
81	0xb80040f0	-3.0578056e-05
82	0xb7d6d691	-2.5610703e-05
83	0xb7eb54db	-2.8053697e-05
84	0xb7f6c3ba	-2.9416628e-05
85	0x37d08df9	2.4861643e-05
86	0x377422ad	1.4551607e-05
87	0x3782889d	1.5560823e-05
88	0xb77a05df	-1.4902528e-05
89	0xb76bf65a	-1.406445e-05
90	0x376dd54d	1.4175964e-05
91	0x37719255	1.439879e-05
92	0xb78d1efb	-1.6822936e-05
93	0xb764b2b7	-1.3631469e-05
94	0x3785fb43	1.5971838e-05
95	0x373c5773	1.1226034e-05
96	0x375f3623	1.33044405e-05
97	0x378ea4ef	1.7004522e-05
98	0xb783faee	-1.5733265e-05
99	0x37683ae3	1.3841988e-05
100	0x3779046d	1.4842587e-05
101	0x37632084	1.3537825e-05
102	0x376996aa	1.3922961e-05
103	0xb77c602e	-1.5042764e-05
104	0xb76d6e06	-1.4151918e-05
105	0x37871865	1.6104614e-05
106	0x373a1c88	1.1093107e-05
107	0x378b83e1	1.6631502e-05
108	0xb744eaac	-1.1737149e-05
109	0xb79bcbc0	-1.8572318e-05
110	0xb7862efb	-1.5995922e-05
111	0xb7622c39	-1.3480946e-05
112	0x377a03d1	1.490205e-05
113	0xb7830bb7	-1.5621872e-05
114	0x378ef010	1.7039507e-05
115	0x3786e78a	1.6081864e-05
116	0xb76a9fe5	-1.3984715e-05
117	0x37852e28	1.5876329e-05
118	0xb76d054c	-1.4127534e-05
119	0xb782a6fe	-1.557497e-05
120	0x37839fe1	1.5690866e-05
121	0x378c795f	1.6745818e-05
122	0x377df309	1.5136561e-05
123	0x3784de1d	1.5839056e-05
124	0xb79085df	-1.7228476e-05
125	0xb76b9952	-1.4042789e-05
126	0xb78c4e6f	-1.6725824e-05
127	0xb7899e06	-1.6405258e-05
128	0x376ae51e	1.4000832e-05
129	0x370658fa	8.007739e-06
130	0x3715d75e	8.931236e-06
131	0xb71a9afe	-9.215202e-06
132	0xb70c9e08	-8.381445e-06
133	0x370be1de	8.337634e-06
134	0x3717bdab	9.044462e-06
135	0xb7263fe5	-9.909248e-06
136	0xb71b53cf	-9.258233e-06
137	0x3712613a	8.7249155e-06
138	0x36c3594e	5.8218493e-06
139	0x36db4d2c	6.5356926e-06
140	0x371c8f0f	9.331633e-06
141	0xb717134b	-9.004793e-06
142	0x371977ef	9.147435e-06
143	0x36fec550	7.59276e-06
144	0x36f4b488	7.2927833e-06
145	0x3717c70d	9.0466465e-06
146	0xb70b6f6f	-8.310991e-06
147	0xb703da52	-7.85904e-06
148	0x371fe3d0	9.53018e-06
149	0x36ee6f4f	7.1059108e-06
150	0x3710da0f	8.63384e-06
151	0xb6f6f578	-7.3599476e-06
152	0xb72d2c0a	-1.0321857e-05
153	0xb71f1816	-9.4827465e-06
154	0xb713aeb7	-8.802562e-06
155	0x3714789f	8.849572e-06
156	0xb713e618	-8.815456e-06
157	0x37101b27	8.589391e-06
158	0x37148436	8.85227e-06
159	0xb70f2afa	-8.5334705e-06
160	0x370bd55a	8.33472e-06
161	0xb7169adb	-8.976752e-06
162	0xb7121f83	-8.709615e-06
163	0x3715a94e	8.920511e-06
164	0x372294fe	9.690642e-06
165	0x37127ea6	8.731766e-06
166	0x371849cb	9.077087e-06
167	0xb71f4c7f	-9.494949e-06
168	0xb7119dca	-8.679412e-06
169	0xb722af5e	-9.696783e-06
170	0xb7162c0b	-8.950951e-06
171	0x370a8ddf	8.258473e-06
172	0x37807c6b	1.5316726e-05
173	0x3790fb4a	1.7283153e-05
174	0xb78aae5d	-1.6532076e-05
175	0xb77030ff	-1.43165225e-05
176	0x3787bebf	1.6182077e-05
177	0x37900cba	1.7172064e-05
178	0xb79c1419	-1.8606008e-05
179	0xb78f184d	-1.7058244e-05
180	0x3794e2f0	1.774865e-05
181	0x375486ec	1.2667599e-05
182	0x3778b840	1.4824851e-05
183	0x379cb891	1.8682595e-05
184	0xb78fb538	-1.7131315e-05
185	0x3790a42c	1.7242586e-05
186	0x378bea65	1.667924e-05
187	0x377a54ff	1.4920951e-05
188	0x37853a21	1.5881904e-05
189	0xb78b4fb1	-1.66072e-05
190	0xb77dd96a	-1.5130596e-05
191	0x3793d196	1.7621362e-05
192	0x374a5d7d	1.2061905e-05
193	0x3796305d	1.7903914e-05
194	0xb7547812	-1.2664141e-05
195	0xb7a9a887	-2.0224847e-05
196	0xb78d6c8b	-1.6859054e-05
197	0xb78e98a7	-1.6998803e-05
198	0x37888a10	1.6276754e-05
199	0xb799f7ee	-1.8354473e-05
200	0x379ca6cd	1.8674322e-05
201	0x379104a8	1.7287515e-05
202	0xb7801ce6	-1.5272246e-05
203	0x379353dc	1.7562816e-05
204	0xb78387d6	-1.567967e-05
205	0xb78d98fb	-1.6879747e-05
206	0x378f36c3	1.7072429e-05
207	0x3797e9b1	1.8109424e-05
208	0x378c0939	1.6693595e-05
209	0x37917ce2	1.73435e-05
210	0xb79d96f7	-1.8786157e-05
211	0xb78626bd	-1.5992084e-05
212	0xb79cd5ae	-1.8696152e-05
213	0xb799e76b	-1.8346784e-05
214	0x3783c303	1.5707226e-05
215	0x37a070eb	1.9126068e-05
216	0x37b1c9f0	2.1194079e-05
217	0xb7a88d40	-2.0092935e-05
218	0xb79d904c	-1.8783052e-05
219	0x37a6099d	1.9793219e-05
220	0x37ac1199	2.0512192e-05
221	0xb7beaf52	-2.2731405e-05
222	0xb7ae2f76	-2.0764517e-05
223	0x37b50e7d	2.1583628e-05
224	0x377b2d10	1.4971258e-05
225	0x3794e114	1.7747785e-05
226	0x37c061ea	2.2933778e-05
227	0xb7b19766	-2.1170545e-05
228	0x37a97a36	2.0203279e-05
229	0x37aa6f81	2.0317502e-05
230	0x37916eb1	1.7336892e-05
231	0x37a18d7d	1.9258581e-05
232	0xb7a9f2c0	-2.025941e-05
233	0xb79d957e	-1.8785471e-05
234	0x37b306ed	2.1341688e-05
235	0x3773f8e0	1.4541874e-05
236	0x37baf866	2.2288597e-05
237	0xb781e452	-1.5484318e-05
238	0xb7d0d797	-2.4895924e-05
239	0xb7b23d3b	-2.1247766e-05
240	0xb7b1cc57	-2.1195197e-05
241	0x37a7fe07	2.0026242e-05
242	0xb7b1b18a	-2.1182717e-05
243	0x37b8c10a	2.20244e-05
244	0x37afd8b8	2.0962543e-05
245	0xb79cf2ad	-1.8709654e-05
246	0x37b573fc	2.163089e-05
247	0xb79adfb8	-1.8462408e-05
248	0xb7af7c65	-2.0919551e-05
249	0x37ac7748	2.0559542e-05
250	0x37b8fbe5	2.2051807e-05
251	0x37aa3b12	2.0293086e-05
252	0x37b20245	2.122031e-05
253	0xb7c11d60	-2.3021072e-05
254	0xb7a1a424	-1.926913e-05
255	0xb7bfffe9	-2.2888142e-05

lstm.bias_ih_l0 f4 [172]
0	0xb894bbb2	-7.092151e-05
1	0x3999f5ee	0.00029365666
2	0xb7500464	-1.2398788e-05
3	0xb8ba29c6	-8.876952e-05
4	0xb92c8379	-0.00016452176
5	0x38a6d86f	7.955811e-05
6	0x382c4ac1	4.1077616e-05
7	0xb8bed9d3	-9.100479e-05
8	0x38b17981	8.4626496e-05
9	0xb8bd41d2	-9.024482e-05
10	0xb89720ff	-7.206387e-05
11	0x38b976bf	8.8436056e-05
12	0xb8b1129d	-8.443485e-05
13	0xb8ada771	-8.280471e-05
14	0x38bc7842	8.986938e-05
15	0xb913889e	-0.00014069906
16	0x371380b7	8.7918515e-06
17	0x36e92748	6.948514e-06
18	0x3926ddde	0.00015913646
19	0x38853f9a	6.353781e-05
20	0xb8a61a35	-7.920378e-05
21	0x3a1e410e	0.00060369156
22	0xb960621f	-0.00021398858
23	0x3a175151	0.000577231
24	0xb86e05b6	-5.674894e-05
25	0x39d8eb21	0.00041373915
26	0xb8119c9a	-3.471654e-05
27	0x3a8be661	0.0010673517
28	0x3976724a	0.00023502964
29	0x39ede66e	0.00045375846
30	0xb98c93e4	-0.00026813068
31	0x38fdfbb6	0.00012110865
32	0xb903f4bd	-0.00012584306
33	0x39634a18	0.00021676009
34	0x39081a10	0.0001297968
35	0x39bef35c	0.0003642094
36	0x37e75cb4	2.7580514e-05
37	0xb8768197	-5.877166e-05
38	0x3908bd8f	0.00013040587
39	0xb96108cd	-0.0002146095
40	0x398a2529	0.00026349098
41	0x39b8beb1	0.0003523729
42	0xb91f31cb	-0.00015181971
43	0xb8b6b644	-8.712386e-05
44	0xb6af384a	-5.2219593e-06
45	0xb690d055	-4.3157875e-06
46	0x3800fc74	3.0752693e-05
47	0xb83a217b	-4.4377037e-05
48	0xb84978b3	-4.8034544e-05
49	0xb82d67e6	-4.1343177e-05
50	0xb78bece8	-1.668041e-05
51	0xb8126f78	-3.4912926e-05
52	0xb76dba31	-1.4169652e-05
53	0xb7d5f913	-2.5507563e-05
54	0xb8801cba	-6.1088664e-05
55	0xb742f8ec	-1.1621258e-05
56	0x36b150e4	5.284428e-06
57	0x37080640	8.107687e-06
58	0x373eea0a	1.1379374e-05
59	0xb82dc49f	-4.1429532e-05
60	0xb81ba11b	-3.710492e-05
61	0x37787fe8	1.4811732e-05
62	0x38a08aea	7.655269e-05
63	0xb756464f	-1.2771764e-05
64	0x379b747a	1.8531679e-05
65	0xb82f5cde	-4.180974e-05
66	0x37c51624	2.349454e-05
67	0x3683b8ed	3.9256324e-06
68	0x391a1deb	0.0001469773
69	0x3804ee70	3.1693315e-05
70	0x38f9720b	0.000118944874
71	0xb7016e30	-7.714654e-06
72	0x385d5956	5.2773707e-05
73	0xb8808d51	-6.129838e-05
74	0xb7a4f965	-1.9666457e-05
75	0xb81eab6c	-3.7829785e-05
76	0x380b5cfd	3.3226785e-05
77	0xb835a298	-4.330519e-05
78	0x390c045d	0.00013353066
79	0xb8950dc5	-7.1074384e-05
80	0xb8bdce48	-9.050645e-05
81	0x37df44e1	2.6615746e-05
82	0xb75e937e	-1.3266572e-05
83	0x3884c142	6.3302476e-05
84	0xb769a81f	-1.3927026e-05
85	0xb86120c1	-5.3674685e-05
86	0xbd8bacfb	-0.06820103
87	0xbd849fa9	-0.06475765
88	0x3d839607	0.064251
89	0x3d2fac87	0.042889144
90	0xbd789220	-0.06068623
91	0xbd8cfa82	-0.06883718
92	0x3d7c81a6	0.06164708
93	0x3d730eca	0.059340276
94	0xbd61e89f	-0.055153485
95	0xbd462390	-0.04837376
96	0xbd2dacea	-0.04240123
97	0xbd7be05b	-0.06149326
98	0x3d83de8c	0.06438932
99	0xbd88e220	-0.06683755
100	0xbd80cbb6	-0.06288855
101	0xbd2fe0dc	-0.042939052
102	0xbd536dc6	-0.05161836
103	0x3d639c91	0.055569235
104	0x3d7e8fea	0.062148966
105	0xbd31da9b	-0.04342137
106	0xbd041cec	-0.032254145
107	0xbd9af0cb	-0.07565459
108	0x3d18cc08	0.037303954
109	0x3d880488	0.06641489
110	0x3d8a38ac	0.067490906
111	0x3d89901d	0.067169406
112	0xbd47c1d2	-0.048768826
113	0x3da49833	0.08036842
114	0xbd61d667	-0.05513611
115	0xbd88dc97	-0.06682699
116	0x3d7f807d	0.062378395
117	0xbd857382	-0.06516172
118	0x3d1e4328	0.038638264
119	0x3d5f23aa	0.05447737
120	0xbd37a4a2	-0.04483474
121	0xbda34895	-0.07972828
122	0xbd85cf51	-0.06533683
123	0xbd8191ba	-0.06326623
124	0x3d86f221	0.06589151
125	0x3d51f75c	0.05126129
126	0x3d8e4dc6	0.06948428
127	0x3d811413	0.06302657
128	0xbd7c0fa4	-0.061538354
129	0x374e8bcc	1.2311106e-05
130	0x39f01b1a	0.0004579656
131	0x37576911	1.2839461e-05
132	0xb886a55e	-6.42042e-05
133	0xb8e43c31	-0.00010883099
134	0x39594893	0.00020721769
135	0x3926e7f5	0.00015917404
136	0xb7c061eb	-2.293378e-05
137	0x3991ed36	0.0002783329
138	0xb8b7e1a6	-8.76815e-05
139	0xb7caf0f1	-2.4192474e-05
140	0x394a177e	0.00019272973
141	0x3714d54b	8.871149e-06
142	0xb753ff16	-1.2635972e-05
143	0x39401108	0.00018316892
144	0xb8fc59a3	-0.000120329925
145	0x3852b4c8	5.0236267e-05
146	0x383fecf8	4.5758643e-05
147	0x39a9a33d	0.00032355814
148	0x390d4209	0.00013471408
149	0xb8a75d6f	-7.980584e-05
150	0x3a72e28a	0.00092653243
151	0xb96379cb	-0.00021693778
152	0x3a56e6fb	0.0008197871
153	0xb74d8036	-1.2248804e-05
154	0x3a1da177	0.0006013135
155	0x36f629f4	7.3362553e-06
156	0x3abfcb44	0.0014632721
157	0x39cf5273	0.00039543546
158	0x3a44d39f	0.00075083406
159	0xb98346a4	-0.00025038898
160	0x395eab73	0.0002123544
161	0xb8df367e	-0.000106436186
162	0x39a623c3	0.00031688632
163	0x396f7ead	0.00022840007
164	0x3a017749	0.00049387343
165	0x39249192	0.00015694488
166	0x368df05e	4.23011e-06
167	0x39605ada	0.0002139615
168	0xb93898ed	-0.00017604577
169	0x39fd66a5	0.00048332397
170	0x3a28a3c3	0.0006433094
171	0xb8a50c4f	-7.870106e-05

lstm.bias_hh_l0 f4 [172]
0	0xb87c3986	-6.0135055e-05
1	0x39806aea	0.0002449372
2	0xb63e8bbf	-2.839355e-06
3	0xb8be5c24	-9.0770685e-05
4	0xb925b9d0	-0.00015804847
5	0x38b045a4	8.4053056e-05
6	0x388ccf07	6.714282e-05
7	0xb8b563d1	-8.649345e-05
8	0x389daf12	7.518953e-05
9	0xb8b4f871	-8.629345e-05
10	0xb87da690	-6.0475024e-05
11	0x38870248	6.4377266e-05
12	0xb8ac6dfd	-8.222086e-05
13	0xb8d48fa7	-0.00010135705
14	0x38ceef9b	9.8674755e-05
15	0xb911d91f	-0.00013909161
16	0x370830dc	8.117608e-06
17	0xb5c339ab	-1.4545416e-06
18	0x392be9a7	0.00016394873
19	0x38461fdb	4.7236546e-05
20	0xb8a5c83d	-7.9051104e-05
21	0x3a299dc4	0.0006470347
22	0xb9609105	-0.00021416329
23	0x3a1622b3	0.00057272165
24	0xb85a9183	-5.211077e-05
25	0x39d4960d	0.00040547588
26	0xb7f79791	-2.9515273e-05
27	0x3a60ab94	0.0008570489
28	0x39824bb1	0.00024851927
29	0x3a02f2b8	0.00049952744
30	0xb98b558d	-0.00026575886
31	0x38ea39fc	0.0001116879
32	0xb8fc7d79	-0.000120396675
33	0x394e0141	0.00019646158
34	0x39014594	0.00012328319
35	0x39c4cda1	0.0003753724
36	0x38114820	3.4637866e-05
37	0xb82a13f7	-4.0549752e-05
38	0x390bd0c9	0.00013333852
39	0xb965b2ec	-0.00021905795
40	0x39947bf6	0.00028321118
41	0x39b8cc4a	0.00035247422
42	0xb907eccb	-0.00012962816
43	0xb8b6b544	-8.7121996e-05
44	0xb705cf17	-7.975635e-06
45	0xb61d89fe	-2.3475145e-06
46	0x37f67260	2.9378745e-05
47	0xb83a1bb3	-4.4371653e-05
48	0xb8496e4f	-4.8024867e-05
49	0xb82f855b	-4.184745e-05
50	0xb787a80c	-1.6171507e-05
51	0xb8171265	-3.6018337e-05
52	0xb771f80d	-1.4422473e-05
53	0xb7dda781	-2.6423253e-05
54	0xb87c3fdb	-6.0140952e-05
55	0xb74653d8	-1.1821241e-05
56	0x36ad7aea	5.170111e-06
57	0x36f1b0a4	7.2029234e-06
58	0x37412a56	1.15135535e-05
59	0xb82c7b04	-4.1122563e-05
60	0xb817045a	-3.6005258e-05
61	0x37788048	1.481182e-05
62	0x38a08af8	7.6552795e-05
63	0xb7558090	-1.2725723e-05
64	0x379cca18	1.8690756e-05
65	0xb82f6509	-4.1817348e-05
66	0x37c4608e	2.3409983e-05
67	0x36940f9a	4.41256e-06
68	0x391a1cc2	0.00014697298
69	0x3804d95c	3.1673684e-05
70	0x38f738b9	0.00011788443
71	0xb723f008	-9.771444e-06
72	0x385d47d9	5.275742e-05
73	0xb87ffaf4	-6.1030456e-05
74	0xb79ce938	-1.870525e-05
75	0xb8233335	-3.890992e-05
76	0x380b740e	3.3248267e-05
77	0xb8357661	-4.326401e-05
78	0x390bb1af	0.00013322265
79	0xb8950783	-7.106273e-05
80	0xb8bf3621	-9.117672e-05
81	0x37d8d040	2.584618e-05
82	0xb76cc567	-1.41126575e-05
83	0x38888482	6.509667e-05
84	0xb7601fe8	-1.3358869e-05
85	0xb860a068	-5.355515e-05
86	0xbd358d4d	-0.044324208
87	0xbd87c019	-0.066284366
88	0x3d26ac32	0.040691562
89	0x3d6d23f3	0.057895612
90	0xbd4b7161	-0.049668673
91	0xbd6cd8f5	-0.057824094
92	0x3d874e11	0.06606687
93	0x3d65fa95	0.056147177
94	0xbd994000	-0.0748291
95	0xbcd71440	-0.026254773
96	0xbd730a46	-0.05933597
97	0xbd93a8c2	-0.072099224
98	0x3d5dbf5b	0.05413757
99	0xbd57c86a	-0.052681364
100	0xbd7bdd92	-0.061490603
101	0xbd4f7c60	-0.050655723
102	0xbd5bce90	-0.05366379
103	0x3d4f0b1c	0.050547704
104	0x3d6a0421	0.057132844
105	0xbd98efdc	-0.074676245
106	0xbd1231e6	-0.035692118
107	0xbd97052e	-0.07374035
108	0x3d0e72bb	0.034777384
109	0x3db542db	0.08850642
110	0x3d308468	0.043095022
111	0x3d77d758	0.060508102
112	0xbd5ec38b	-0.054385703
113	0x3da11154	0.07864633
114	0xbda2291d	-0.07917998
115	0xbd9221c9	-0.0713535
116	0x3d150eb9	0.036390994
117	0xbd7f233e	-0.06228947
118	0x3d80c552	0.06287636
119	0x3d9a8d0d	0.075464346
120	0xbd96f8b5	-0.07371656
121	0xbd55039f	-0.052005406
122	0xbd725964	-0.05916728
123	0xbd6d3fc5	-0.057922143
124	0x3d80324b	0.062595926
125	0x3d7042c3	0.05865742
126	0x3d8804cc	0.0664154
127	0x3da4446c	0.08020863
128	0xbd4c64e6	-0.04990091
129	0x37eecb21	2.84664e-05
130	0x39da3dd0	0.00041626254
131	0x37ff2c43	3.041898e-05
132	0xb88f3931	-6.829424e-05
133	0xb8e17ac5	-0.00010751704
134	0x393a61ab	0.00017774726
135	0x390562b5	0.0001272064
136	0xb7c5d851	-2.358496e-05
137	0x394c2dac	0.0001947197
138	0xb8acc15e	-8.2376166e-05
139	0xb617cbd9	-2.2619408e-06
140	0x395144f8	0.00019957486
141	0xb7a27a90	-1.9368978e-05
142	0xb7433120	-1.16343435e-05
143	0x3974d1c3	0.00023347796
144	0xb902601f	-0.00012433574
145	0x38564352	5.1084273e-05
146	0x38346373	4.3007964e-05
147	0x39b9d913	0.00035447683
148	0x38f56d0c	0.00011702822
149	0xb8a72b3b	-7.971233e-05
150	0x3a81e957	0.000991146
151	0xb9636417	-0.00021685693
152	0x3a5727db	0.0008207538
153	0xb7a921b3	-2.0162062e-05
154	0x39ff02f3	0.00048639587
155	0x3689f650	4.1115927e-06
156	0x3aba99db	0.0014236526
157	0x39c1bf30	0.00036954274
158	0x3a3709fd	0.00069823844
159	0xb97fb0e4	-0.00024384592
160	0x396e123c	0.00022704242
161	0xb8ccb420	-9.761029e-05
162	0x39d44b36	0.00040491828
163	0x3964cd9b	0.00021820368
164	0x3a02f8d7	0.00049961865
165	0x391eafa3	0.00015133484
166	0x37c2bc7b	2.321437e-05
167	0x395a6dee	0.00020831052
168	0xb92c7f68	-0.00016450661
169	0x39c652bf	0.00037827154
170	0x3a265d61	0.0006346312
171	0xb8866f55	-6.410355e-05

lstm.weight_ih_l1 f4 [172, 43]
0	0xb9245a92	-0.00015673999
1	0xb9fbcd05	-0.00048027202
2	0x3a1bd9d8	0.0005945242
3	0x3a17e7f3	0.0005794756
4	0xb971c1e6	-0.00023055784
5	0xb9c4d2bd	-0.00037541045
6	0x39c1b636	0.00036947586
7	0x396d535b	0.00022633134
8	0xb98dcd06	-0.0002704637
9	0xb9ca036d	-0.00038530995
10	0xb990afb8	-0.0002759674
11	0xb94627e0	-0.00018897606
12	0x398e62bb	0.0002715791
13	0xb993aa14	-0.00028164743
14	0xba23d7e8	-0.0006250129
15	0xb9ce8d53	-0.00039396677
16	0xb93495fb	-0.0001722201
17	0x39947d35	0.00028322046
18	0x39df7feb	0.0004262918
19	0xba04f259	-0.0005071513
20	0xb99b00e8	-0.0002956458
21	0xba123c72	-0.0005578465
22	0x38e2d255	0.00010815697
23	0x39d9b7a7	0.00041526297
24	0x39577ad5	0.00020549756
25	0x3a83d3b1	0.0010057596
26	0xb9de8452	-0.00042441726
27	0x3a4ea3cc	0.0007882684
28	0xba2e557d	-0.0006650312
29	0xba158bdf	-0.00057047413
30	0x39360c4a	0.0001736145
31	0xb9fbe1af	-0.00048042598
32	0x39d09e4e	0.00039790798
33	0x39fcc953	0.00048215184
34	0xb9c893b5	-0.00038257023
35	0xba534889	-0.000805982
36	0xb98d071a	-0.00026898907
37	0xba04710f	-0.00050522474
38	0x39de708a	0.00042426988
39	0x3a157977	0.00057019986
40	0x3a16f7aa	0.0005758951
41	0x3954da69	0.0002029926
42	0xb91dbef8	-0.00015043828
43	0xb9737654	-0.00023218367
44	0xba6143f1	-0.0008593193
45	0x3a24b578	0.00062831445
46	0x3a576c33	0.0008217722
47	0xb9a9649b	-0.0003230915
48	0xba0a6921	-0.00052799477
49	0x39bcf995	0.00036044107
50	0x3a19daad	0.0005869072
51	0xb9c4e654	-0.0003755564
52	0xba02fe10	-0.00049969647
53	0xb9a3674e	-0.0003116675
54	0xb996f2b5	-0.0002879106
55	0x3a25f945	0.00063313945
56	0xb976e197	-0.00023544427
57	0xba19bc31	-0.00058645295
58	0xb9ced0f2	-0.00039447058
59	0xb9bfdd88	-0.00036595413
60	0x39f9eb3a	0.00047668238
61	0x3a2e85f2	0.00066575326
62	0xba06ece5	-0.00051469944
63	0xb9f81a5f	-0.00047321894
64	0xba211160	-0.00061442517
65	0x399a1241	0.0002938677
66	0x3a21a415	0.0006166113
67	0x39d279bd	0.00040145023
68	0x3a8218ea	0.0009925638
69	0xba182021	-0.00058031274
70	0x3a36277e	0.0006948634
71	0xba1ecf93	-0.00060581526
72	0xba364119	-0.00069524493
73	0x399107d1	0.0002766238
74	0xba028aef	-0.0004979809
75	0x39d31cb2	0.00040266436
76	0x3a33f466	0.00068647263
77	0xb9fbd41a	-0.0004803248
78	0xba2bc010	-0.0006551752
79	0xb9f204d4	-0.00046161434
80	0xb9ff2435	-0.00048664366
81	0x3a0759c3	0.0005163217
82	0x39d722be	0.0004103388
83	0x3a21fcdb	0.0006179341
84	0x39d9496c	0.0004144417
85	0xb9c8b7c1	-0.0003828388
86	0xb9332521	-0.00017084602
87	0xb9fbe32d	-0.0004804371
88	0x3a32a7f5	0.00068151887
89	0x39a57a97	0.0003156259
90	0xb9fb3053	-0.00047910455
91	0xb9d394a6	-0.00040355808
92	0x3a02ad52	0.0004984933
93	0x39b3a415	0.0003426379
94	0xb9b7cf8c	-0.00035059114
95	0xb9f0119d	-0.0004578949
96	0xb9b3ec3b	-0.00034317546
97	0xb97977e8	-0.00023791159
98	0x3a203f27	0.0006112926
99	0xb9902b19	-0.0002749793
100	0xba4b3a44	-0.00077525177
101	0xb9f4279a	-0.00046568812
102	0xb9ddc0bb	-0.00042296
103	0x39e70ea3	0.0004407066
104	0x3a2c26ec	0.0006567079
105	0xba45f85f	-0.0007551964
106	0xb9cf0371	-0.0003948468
107	0xba00c8b7	-0.00049127213
108	0x399ba48e	0.00029686507
109	0x3a30d902	0.0006746204
110	0x3a09796f	0.000524423
111	0x3a6e99be	0.0009101889
112	0xba273673	-0.0006378658
113	0x3a2717e9	0.00063741073
114	0xba2b2e2a	-0.00065300113
115	0xba2e5745	-0.00066505774
116	0x394eb05b	0.00019711388
117	0xba25853e	-0.0006314105
118	0x3a077e5b	0.000516867
119	0x3a28803d	0.00064278004
120	0xb983b7ed	-0.00025123302
121	0xba3c47fd	-0.0007182358
122	0xb9eb2c90	-0.00044855895
123	0xb9d9d8b6	-0.00041550928
124	0x3a07b57d	0.0005176885
125	0x3a092623	0.0005231818
126	0x3a02499e	0.0004970076
127	0x3a0bfc67	0.000534004
128	0xb98ef87c	-0.00027269486
129	0xb9db2631	-0.0004179939
130	0xba21c3d5	-0.0006170844
131	0x3a182226	0.00058034284
132	0x3a1ab371	0.00059013726
133	0xb9bb3768	-0.000357087
134	0xb95b1b5c	-0.0002089566
135	0x39bd8ce1	0.00036153852
136	0x399cc48d	0.0002990108
137	0xb9cdad1c	-0.00039229624
138	0xba05bcb1	-0.00051016646
139	0xb9b5ea11	-0.00034697403
140	0xba043a73	-0.000504411
141	0x3a0bcd3b	0.0005333011
142	0xb9127b48	-0.00013969571
143	0xb9db71ca	-0.00041855715
144	0xb9ae4989	-0.00033242654
145	0xb9c02497	-0.00036648355
146	0x39a26cf9	0.0003098024
147	0x39d32a8f	0.00040276765
148	0xb9c53250	-0.00037612254
149	0xba064abb	-0.000512283
150	0xba272022	-0.00063753326
151	0x39089a22	0.0001302739
152	0x3a1d1054	0.0005991508
153	0x39f0d0fd	0.00045932076
154	0x3a6e326c	0.0009086493
155	0xb9fdcdfa	-0.00048409385
156	0x3a05d080	0.0005104616
157	0xba5acbcf	-0.000834641
158	0xba023036	-0.00049662904
159	0x38970e22	7.2028735e-05
160	0xba07fcce	-0.0005187512
161	0x39c09a1f	0.00036735923
162	0x3a07da20	0.00051823445
163	0xb98bab1e	-0.00026639638
164	0xba6806e4	-0.00088511244
165	0xb9a1ba93	-0.00030847322
166	0xb9b0a6bb	-0.0003369356
167	0x39ea1314	0.00044646172
168	0x3a1d1f9b	0.0005993784
169	0x3a31ec2f	0.0006787208
170	0x39070866	0.00012877732
171	0xb94fc3f0	-0.00019814051
172	0xb9e3c6f5	-0.00043445049
173	0xba368704	-0.0006962868
174	0x3a47bc74	0.0007619329
175	0x39f34a04	0.00046403718
176	0xb9f91191	-0.0004750607
177	0xb9880264	-0.00025941723
178	0x3a57dd14	0.00082345423
179	0x39ab7ef3	0.00032710246
180	0xb9b95caa	-0.0003535499
181	0xba0af2b1	-0.0005300446
182	0xb9d6a2c0	-0.0004093852
183	0xb9862436	-0.0002558545
184	0x3a11cebc	0.0005562117
185	0xb945d8a0	-0.00018868083
186	0xba1583ad	-0.000570352
187	0xb9f8a8be	-0.0004742797
188	0xb9f31d9e	-0.00046370638
189	0x39fbbca4	0.00048015
190	0x3a51bf70	0.00080012437
191	0xba34e3e9	-0.00069004163
192	0xb9dca322	-0.00042083213
193	0xba183198	-0.000580573
194	0x3906188d	0.00012788382
195	0x3a29c07f	0.00064755225
196	0x39a01424	0.00030532584
197	0x3a829ae2	0.0009964372
198	0xba32c94a	-0.00068201555
199	0x3a2857c0	0.0006421767
200	0xb9a8f689	-0.0003222714
201	0xba67e27f	-0.0008845701
202	0x39078c7d	0.00012926939
203	0xba29654b	-0.0006461932
204	0x39e4aea2	0.0004361766
205	0x3a39537b	0.00070696295
206	0xb9c56248	-0.00037647993
207	0xba7f4559	-0.00097378116
208	0xb99a4dd2	-0.0002943115
209	0xb98b31eb	-0.00026549338
210	0x3a1314f1	0.00056107255
211	0x3a126971	0.000558517
212	0x3a2e79ba	0.0006655712
213	0x3a0c1191	0.0005343194
214	0xb9d1299d	-0.0003989459
215	0xb973f52f	-0.00023265624
216	0xb9dcdcd3	-0.00042126197
217	0x3a1326f6	0.00056134106
218	0x3a0bf1df	0.0005338471
219	0xb95018b2	-0.00019845626
220	0xb9b29927	-0.00034064913
221	0x393d57fd	0.00018057223
222	0x397e74e4	0.00024266873
223	0xb998d4d9	-0.00029150283
224	0xb9c170ab	-0.00036895773
225	0xb9ffe72a	-0.0004880962
226	0x383000b8	4.196234e-05
227	0x39827403	0.00024881968
228	0xb9826818	-0.00024873088
229	0xb9c7a2f4	-0.00038077647
230	0xb9dfb490	-0.00042668404
231	0xb9c20e3b	-0.00037013166
232	0x39f5f1ee	0.00046910293
233	0x3a3b976e	0.00071560487
234	0xb9bbe185	-0.00035835445
235	0xb9dd5b37	-0.00042220365
236	0xb9d59d6c	-0.00040743814
237	0x38a4da74	7.8608195e-05
238	0x3a02df7b	0.00049924076
239	0x39bb2043	0.00035691456
240	0x3a71b159	0.0009219847
241	0xba01a091	-0.0004944886
242	0x3a12d6e7	0.0005601481
243	0xba0c9892	-0.0005363311
244	0xba116307	-0.0005546067
245	0x3915abcc	0.00014273747
246	0xba0b7dbe	-0.0005321166
247	0x39a920f7	0.00032258753
248	0x39b14496	0.0003381117
249	0xb9f6d1d2	-0.00047077105
250	0xba6e3629	-0.000908705
251	0x38298ec5	4.0425704e-05
252	0x386bcc5a	5.6218683e-05
253	0x3a0cfe64	0.00053784833
254	0x39be77c5	0.0003632886
255	0x3a0982df	0.00052456366

lstm.weight_hh_l1 f4 [172, 43]
0	0xba8cebeb	-0.0010751461
1	0xba827218	-0.0009952215
2	0x3a9671a9	0.0011477965
3	0x3a8e75f4	0.0010868893
4	0x3a875ade	0.0010326763
5	0xba9f8fbe	-0.0012173576
6	0x3a7d839b	0.0009670795
7	0x3a8d0e51	0.0010761713
8	0xba860b19	-0.0010226696
9	0xba825df3	-0.0009946212
10	0x3a952eef	0.0011381785
11	0xba97e25b	-0.0011587845
12	0x3a7bd7c9	0.00096070446
13	0xba8af089	-0.001060025
14	0xba8a9e18	-0.001057568
15	0xba8a3328	-0.001054381
16	0xba76a0cb	-0.00094081153
17	0x3a89284c	0.001046428
18	0xba8b8d7e	-0.0010647026
19	0x3a8fb37d	0.0010963526
20	0x3a8d2b5f	0.0010770372
21	0xba8da800	-0.0010807514
22	0xba819295	-0.0009885604
23	0xba980c4d	-0.0011600346
24	0xba8765fe	-0.0010330079
25	0xbaa10ecd	-0.0012287736
26	0xba8c7bc0	-0.0010718033
27	0x3a91731b	0.0011096926
28	0x3a8bca41	0.0010665135
29	0x3a88194e	0.0010383518
30	0x3a8fd0a3	0.0010972213
31	0xba86cc15	-0.001028421
32	0x3a99b2e2	0.0011726285
33	0xba88e49d	-0.0010444109
34	0x3a8820a9	0.001038571
35	0xba853e54	-0.001016567
36	0xba8733f9	-0.0010315172
37	0xba8df35e	-0.0010829975
38	0xba8fcbcc	-0.001097077
39	0x3a83368f	0.0010010767
40	0xba908f0c	-0.0011028959
41	0x3a89bb9b	0.0010508181
42	0xba88cf8d	-0.0010437832
43	0xbaba45a2	-0.0014211426
44	0xbaaedbf6	-0.00133407
45	0x3ac35a1e	0.0014904176
46	0x3abb8a1d	0.0014308129
47	0x3ab40db4	0.0013736994
48	0xbacd8ad0	-0.0015681628
49	0x3aabca2c	0.0013106517
50	0x3abbe715	0.0014335836
51	0xbab3b6da	-0.001371111
52	0xbaaf9391	-0.0013395419
53	0x3ac25555	0.0014826456
54	0xbac56211	-0.0015059133
55	0x3aaa8d80	0.0013012141
56	0xbab8daa2	-0.0014103244
57	0xbab81bad	-0.0014046334
58	0xbab711e5	-0.0013967125
59	0xbaa7ab42	-0.0012792128
60	0x3ab57000	0.0013842583
61	0xbab8ab54	-0.0014089146
62	0x3abc3736	0.0014359716
63	0x3ab9fccf	0.0014189723
64	0xbabb5303	-0.0014291707
65	0xbaae6955	-0.0013306538
66	0xbac4bc4a	-0.0015009728
67	0xbab48267	-0.0013771773
68	0xbacfd3a9	-0.0015855926
69	0xbab92f54	-0.0014128485
70	0x3abf69bb	0.0014603654
71	0x3ab8a25e	0.0014086475
72	0x3ab48b4b	0.0013774423
73	0x3abd36b4	0.0014435858
74	0xbab3f22b	-0.0013728788
75	0x3ac8c437	0.0015317266
76	0xbab5f634	-0.0013882578
77	0x3ab523c2	0.0013819861
78	0xbab19d63	-0.0013550933
79	0xbab3aef6	-0.0013708759
80	0xbabb4653	-0.0014287926
81	0xbabce843	-0.0014412481
82	0x3aafef5e	0.0013422777
83	0xbabe2c6c	-0.0014509088
84	0x3ab76f4f	0.0013994965
85	0xbab6230b	-0.0013895942
86	0xba970ba0	-0.001152385
87	0xba8cc63b	-0.001074023
88	0x3aa07bdb	0.0012243943
89	0x3a989613	0.0011641405
90	0x3a91a7f6	0.0011112678
91	0xbaa96332	-0.0012923239
92	0x3a89688c	0.0010483428
93	0x3a97f217	0.0011592534
94	0xba909d27	-0.0011033163
95	0xba8cf3fe	-0.0010753868
96	0x3a9f3a7b	0.0012148166
97	0xbaa24a26	-0.0012381717
98	0x3a8886ff	0.0010416209
99	0xba95a110	-0.0011415798
100	0xba9557bc	-0.0011393945
101	0xba94aab8	-0.0011342382
102	0xba85d774	-0.0010211305
103	0x3a937996	0.0011251445
104	0xba95d99f	-0.0011432654
105	0x3a99bce2	0.0011729265
106	0x3a9746f3	0.001154153
107	0xba97f53a	-0.0011593469
108	0xba8c1284	-0.001068667
109	0xbaa1c454	-0.0012341836
110	0xba921873	-0.0011146202
111	0xbaab55ba	-0.0013071813
112	0xba96d314	-0.0011506998
113	0x3a9bfe72	0.0011901392
114	0x3a961ae0	0.0011452101
115	0x3a926c1f	0.0011171139
116	0x3a9a3034	0.0011763633
117	0xba912a51	-0.0011075233
118	0x3aa3fdf0	0.0012511592
119	0xba932e1b	-0.001122895
120	0x3a92d08e	0.001120107
121	0xba8f6913	-0.0010941349
122	0xba91b7c9	-0.0011117394
123	0xba9812eb	-0.0011602318
124	0xba9a1653	-0.0011755921
125	0x3a8dc41e	0.0010815894
126	0xba9b34c4	-0.0011841287
127	0x3a94380f	0.0011308211
128	0xba936cbd	-0.0011247616
129	0xbab5933a	-0.0013853081
130	0xbaaa7e96	-0.0013007696
131	0x3abf1890	0.0014579464
132	0x3ab74bc3	0.0013984371
133	0x3aafa9b6	0.0013402018
134	0xbac8e22a	-0.0015326191
135	0x3aa797de	0.0012786349
136	0x3ab7f226	0.0014033958
137	0xbaafb482	-0.0013405236
138	0xbaabcd33	-0.0013107419
139	0x3abdb62d	0.0014473848
140	0xbac19e27	-0.0014771865
141	0x3aa68289	0.0012703697
142	0xbab49ff3	-0.0013780579
143	0xbab4155c	-0.0013739276
144	0xbab2fe25	-0.0013656063
145	0xbaa3a947	-0.0012486362
146	0x3ab15d1e	0.0013531779
147	0xbab4a86d	-0.0013783105
148	0x3ab7d40c	0.0014024987
149	0x3ab5bbb2	0.0013865142
150	0xbab6d9f2	-0.0013950451
151	0xbaaa3f0f	-0.0012988764
152	0xbac03d63	-0.0014666732
153	0xbab097f5	-0.0013473021
154	0xbacbb73b	-0.0015542278
155	0xbab4c49a	-0.0013791502
156	0x3abb5b80	0.0014294237
157	0x3ab3e491	0.0013724734
158	0x3ab08921	0.0013468602
159	0x3ab90f0d	0.0014118865
160	0xbaaf9f67	-0.0013398946
161	0x3ac3bcce	0.0014933588
162	0xbab188db	-0.0013544814
163	0x3ab0f30e	0.001350017
164	0xbaadbc3a	-0.0013254948
165	0xbab048a3	-0.0013449382
166	0xbab6b939	-0.0013940699
167	0xbab8e568	-0.0014106454
168	0x3aac6d27	0.0013155089
169	0xbaba1bbe	-0.0014198942
170	0x3ab305b4	0.0013658316
171	0xbab203c8	-0.0013581449
172	0xba967e39	-0.0011481709
173	0xba8c13d6	-0.0010687064
174	0x3a9fdb7a	0.0012196146
175	0x3a98120e	0.001160206
176	0x3a90dc8a	0.0011052054
177	0xbaa916d2	-0.0012900478
178	0x3a88a291	0.0010424425
179	0x3a97a435	0.0011569323
180	0xba9042fd	-0.0011006292
181	0xba8ca236	-0.0010729495
182	0x3a9e97ed	0.0012099721
183	0xbaa1f661	-0.0012356752
184	0x3a87dcf0	0.0010365527
185	0xba952571	-0.0011378956
186	0xba94a48d	-0.0011340544
187	0xba942728	-0.0011303173
188	0xba854f37	-0.0010170703
189	0x3a92ca47	0.0011199199
190	0xba955e04	-0.0011395817
191	0x3a992e54	0.001168678
192	0x3a96baa1	0.0011499712
193	0xba97aa93	-0.0011571221
194	0xba8b2af2	-0.0010617657
195	0xbaa1233a	-0.0012293824
196	0xba917e3c	-0.0011100243
197	0xbaab45bf	-0.0013067051
198	0xba9610d4	-0.0011449107
199	0x3a9ba50a	0.0011874747
200	0x3a9539cc	0.0011385023
201	0x3a91bd2f	0.0011119003
202	0x3a99a0c0	0.0011720881
203	0xba9092c8	-0.0011030072
204	0x3aa3ba07	0.0012491354
205	0xba92b5b1	-0.0011193064
206	0x3a91f761	0.0011136347
207	0xba8ef908	-0.0010907957
208	0xba91272e	-0.0011074299
209	0xba978f92	-0.0011563173
210	0xba999909	-0.0011718582
211	0x3a8d7c66	0.001079452
212	0xba9a9552	-0.0011793768
213	0x3a93cdc4	0.0011276533
214	0xba92b084	-0.0011191522
215	0xbaa5379b	-0.0012605073
216	0xba993ade	-0.0011690517
217	0x3ab0061a	0.0013429553
218	0x3aa75e51	0.0012769197
219	0x3a9f11c8	0.0012136037
220	0xbabaf33f	-0.0014263167
221	0x3a95895a	0.0011408732
222	0x3aa6d15b	0.0012727188
223	0xba9e2b0e	-0.0012067275
224	0xba99875c	-0.0011713314
225	0x3aaeba13	0.0013330601
226	0xbab352d4	-0.0013681301
227	0x3a94850a	0.0011331153
228	0xbaa43c63	-0.0012530204
229	0xbaa35cb8	-0.0012463545
230	0xbaa2fb4c	-0.0012434511
231	0xba91e59b	-0.001113105
232	0x3aa19016	0.0012326266
233	0xbaa41622	-0.0012518803
234	0x3aa863c6	0.0012847118
235	0x3aa60061	0.0012664908
236	0xbaa62f35	-0.0012678864
237	0xba986b99	-0.0011628746
238	0xbab18a68	-0.0013545277
239	0xba9fda74	-0.0012195841
240	0xbabdbae0	-0.0014475249
241	0xbaa55b3d	-0.0012615692
242	0x3aabd71b	0.0013110371
243	0x3aa3f7d1	0.0012509768
244	0x3a9f7e74	0.0012168423
245	0x3aa9547d	0.0012918856
246	0xba9dfcc4	-0.001205348
247	0x3ab466e2	0.0013763572
248	0xbaa0926b	-0.0012250667
249	0x3aa0c9f8	0.0012267223
250	0xba9c7671	-0.0011937154
251	0xba9f87c0	-0.0012171194
252	0xbaa6881d	-0.001270536
253	0xbaa98c2e	-0.0012935454
254	0x3a9b25b6	0.00118368
255	0xbaaa5675	-0.0012995737

lstm.bias_ih_l1 f4 [172]
0	0x3d4f02f5	0.05053993
1	0x3d354bc5	0.044261713
2	0x3d639710	0.055563986
3	0x3d4edfa9	0.050506268
4	0x3d3c99a6	0.046044968
5	0x3d548605	0.051885623
6	0x3d2aae4a	0.04167012
7	0x3d3ded61	0.04636896
8	0x3d4922c2	0.049105413
9	0x3d2de2e8	0.042452723
10	0x3d492a84	0.04911281
11	0x3d62c35c	0.05536209
12	0x3d3c2fb8	0.045943946
13	0x3d3ba18f	0.04580837
14	0x3d36a9d8	0.04459557
15	0x3d512fa1	0.051070813
16	0x3d1fb332	0.038989253
17	0x3d3d7fda	0.046264507
18	0x3d50c81e	0.050972097
19	0x3d4f2494	0.050571993
20	0x3d4dfa35	0.050287444
21	0x3d403bd8	0.04693207
22	0x3d32bab2	0.043635078
23	0x3d4fb417	0.050708856
24	0x3d459ed8	0.04824719
25	0x3d6b80da	0.05749593
26	0x3d3df5a7	0.04637685
27	0x3d541777	0.05178019
28	0x3d499312	0.049212523
29	0x3d442d92	0.04789502
30	0x3d572642	0.05252672
31	0x3d28ea1d	0.041238893
32	0x3d59a996	0.053140245
33	0x3d3fd67b	0.046835404
34	0x3d514268	0.05108872
35	0x3d34c17a	0.044129826
36	0x3d2fb0b7	0.042893138
37	0x3d2c3b36	0.042048655
38	0x3d4a5bfe	0.049404137
39	0x3d4194f3	0.04726119
40	0x3d6158f8	0.055016488
41	0x3d4d484d	0.05011778
42	0x3d4fa339	0.05069277
43	0x3c2e98e3	0.010656568
44	0x3c2b0fcf	0.010440781
45	0x3c431ae1	0.011908264
46	0x3c43fc09	0.011961945
47	0x3c31b95d	0.010847417
48	0x3c576c64	0.013148401
49	0x3c2d4bc0	0.010577142
50	0x3c581b1a	0.013190055
51	0x3c4082c5	0.011749928
52	0x3c355e56	0.011069855
53	0x3c44aebc	0.012004551
54	0x3c5f1b97	0.013617418
55	0x3c2f8ce0	0.01071474
56	0x3c4e8074	0.012603868
57	0x3c42c69e	0.011888174
58	0x3c3c86ba	0.011506731
59	0x3c28e4f5	0.010308494
60	0x3c33e820	0.010980636
61	0x3c3e9a68	0.011633493
62	0x3c3987a9	0.011323848
63	0x3c4220c1	0.011848629
64	0x3c39920f	0.011326327
65	0x3c2baeed	0.010478717
66	0x3c319524	0.010838781
67	0x3c434cd2	0.011920171
68	0x3c76b359	0.015057408
69	0x3c3e7534	0.011624623
70	0x3c5491c7	0.012974209
71	0x3c34a435	0.011025478
72	0x3c2b727d	0.010464308
73	0x3c4bb7ce	0.012433959
74	0x3c26382f	0.010145231
75	0x3c53a1dd	0.012917009
76	0x3c2b9338	0.010472111
77	0x3c3fa432	0.011696862
78	0x3c337a54	0.010954458
79	0x3c448369	0.011994221
80	0x3c4146a9	0.011796632
81	0x3c4b5aa1	0.012411744
82	0x3c3a1e7a	0.011359805
83	0x3c5779f2	0.013151633
84	0x3c3dac4b	0.011576722
85	0x3c40f2ee	0.011776669
86	0xbe2d951c	-0.16951412
87	0xbe32d8c5	-0.17465504
88	0x3e416708	0.1888696
89	0x3e2f63c4	0.17127901
90	0x3e2e4be8	0.17021143
91	0xbe434900	-0.19070816
92	0x3e14736c	0.14497155
93	0x3e4a6d0e	0.19768164
94	0xbe2a0607	-0.16603862
95	0xbe1fd2f6	-0.15607819
96	0x3e3eefc0	0.18646145
97	0xbe469072	-0.19391039
98	0x3e13d441	0.14436437
99	0xbe1ca4f1	-0.15297295
100	0xbe23c9b1	-0.15994908
101	0xbe19f523	-0.15034918
102	0xbe1f05c4	-0.15529543
103	0x3e244795	0.16042931
104	0xbe2cf893	-0.16891699
105	0x3e372f64	0.17889172
106	0x3e46b179	0.19403638
107	0xbe38af86	-0.18035707
108	0xbe26198c	-0.16220683
109	0xbe29ac4e	-0.16569635
110	0xbe1d632f	-0.15369867
111	0xbe3bd2ef	-0.18342184
112	0xbe2dbac2	-0.16965774
113	0x3e2a3d28	0.16624892
114	0x3e2fd232	0.17170027
115	0x3e3841eb	0.17993896
116	0x3e2b8018	0.16748083
117	0xbe3e1cce	-0.18565676
118	0x3e550d51	0.20805861
119	0xbe303147	-0.17206298
120	0x3e46961f	0.19393204
121	0xbe1f28a2	-0.15542844
122	0xbe233835	-0.1593941
123	0xbe386c54	-0.18010074
124	0xbe49cc00	-0.19706726
125	0x3e12950b	0.14314668
126	0xbe49dd3c	-0.197133
127	0x3e267f95	0.16259606
128	0xbe34f101	-0.1767006
129	0x3d79f5a4	0.061025277
130	0x3d6525c3	0.055944216
131	0x3d7044db	0.058659416
132	0x3d674b2f	0.056468185
133	0x3d69df41	0.057097677
134	0x3d8a593d	0.06755302
135	0x3d3ae578	0.045628995
136	0x3d761736	0.06008073
137	0x3d4b4757	0.04962858
138	0x3d63f637	0.05565473
139	0x3d624ac4	0.055247083
140	0x3d7cdacb	0.061732095
141	0x3d488f74	0.048964933
142	0x3d5f6900	0.054543495
143	0x3d633cea	0.055478014
144	0x3d76d481	0.060261253
145	0x3d346fc0	0.044051886
146	0x3d570841	0.052498106
147	0x3d67a083	0.05654956
148	0x3d6c5e7e	0.057707302
149	0x3d616c8f	0.05503517
150	0x3d66f4e8	0.056385905
151	0x3d50228e	0.050814204
152	0x3d7b064c	0.061285302
153	0x3d60d479	0.05489013
154	0x3d9a55d7	0.07535904
155	0x3d769d9e	0.06020891
156	0x3d71dc54	0.059048012
157	0x3d77bf11	0.06048495
158	0x3d689f4d	0.056792546
159	0x3d775e7b	0.060392838
160	0x3d644a58	0.055734962
161	0x3d7cadab	0.06168906
162	0x3d5fd9f1	0.054651204
163	0x3d6fb274	0.058519796
164	0x3d4b9bc1	0.049709085
165	0x3d52d293	0.05147035
166	0x3d4fb63d	0.050710905
167	0x3d6c7304	0.057726875
168	0x3d5ce661	0.053930644
169	0x3d81dc62	0.06340863
170	0x3d62d56c	0.055379316
171	0x3d5aba60	0.053400397

lstm.bias_hh_l1 f4 [172]
0	0x3d429957	0.047509518
1	0x3d3c90fa	0.046036698
2	0x3d57262d	0.05252664
3	0x3d4d6c64	0.050152197
4	0x3d44be24	0.048032895
5	0x3d69be83	0.05706645
6	0x3d2a39f9	0.041559193
7	0x3d5014d5	0.050801117
8	0x3d4afc26	0.049556874
9	0x3d359667	0.044332888
10	0x3d585498	0.05281505
11	0x3d681ade	0.056666248
12	0x3d31fe50	0.043455422
13	0x3d4c6107	0.04989722
14	0x3d491519	0.049092386
15	0x3d4eab72	0.05045647
16	0x3d1f56bd	0.03890108
17	0x3d3b157c	0.045674786
18	0x3d3f0ac6	0.046641134
19	0x3d4d57af	0.05013245
20	0x3d457ed4	0.048216656
21	0x3d4076a9	0.046988163
22	0x3d2aff2f	0.04174727
23	0x3d5c5c7c	0.053799137
24	0x3d557816	0.052116476
25	0x3d7ca3bf	0.061679598
26	0x3d4b8c29	0.049694214
27	0x3d52c77c	0.051459774
28	0x3d32ba82	0.0436349
29	0x3d3b4062	0.045715697
30	0x3d534032	0.051574893
31	0x3d2fc791	0.04291493
32	0x3d607af2	0.05480475
33	0x3d32e4d9	0.043675277
34	0x3d48dbe6	0.049037836
35	0x3d36e1b1	0.04464883
36	0x3d43ab4e	0.04777079
37	0x3d4858f1	0.048912946
38	0x3d583788	0.052787334
39	0x3d54cba6	0.051952027
40	0x3d493918	0.049126714
41	0x3d4d5caf	0.050137218
42	0x3d484e50	0.04890281
43	0x3c2e99cb	0.010656784
44	0x3c2b0b05	0.010439639
45	0x3c430bd6	0.011904677
46	0x3c43f7ea	0.011960963
47	0x3c31ada6	0.010844624
48	0x3c576bed	0.01314829
49	0x3c2d58a5	0.010580217
50	0x3c5818fc	0.0131895505
51	0x3c407e4b	0.011748861
52	0x3c3556e4	0.01106808
53	0x3c44a147	0.012001342
54	0x3c5f1910	0.013616815
55	0x3c2f8da6	0.010714924
56	0x3c4e81eb	0.012604217
57	0x3c42bf69	0.011886456
58	0x3c3c8996	0.011507412
59	0x3c28d9a4	0.010305796
60	0x3c33dfd5	0.010978659
61	0x3c3ea0d4	0.011635024
62	0x3c398951	0.011324243
63	0x3c42197b	0.011846895
64	0x3c399ec8	0.01132936
65	0x3c2babbe	0.010477958
66	0x3c319382	0.010838391
67	0x3c43424e	0.011917664
68	0x3c76aeb1	0.015056298
69	0x3c3e7547	0.011624641
70	0x3c54a448	0.012978621
71	0x3c349c73	0.0110236285
72	0x3c2b8a14	0.010469932
73	0x3c4bb51f	0.012433319
74	0x3c263707	0.0101449555
75	0x3c53a2ff	0.012917279
76	0x3c2b987f	0.01047337
77	0x3c3fa559	0.011697137
78	0x3c338559	0.0109570855
79	0x3c448e17	0.0119967675
80	0x3c414cd7	0.011798105
81	0x3c4b5760	0.012410969
82	0x3c3a2b33	0.011362839
83	0x3c5779ec	0.013151627
84	0x3c3dbbd2	0.011580424
85	0x3c40fc77	0.011778942
86	0xbe3d9ce1	-0.18516876
87	0xbe22a5ce	-0.15883562
88	0x3e371dad	0.17882414
89	0x3e393b20	0.1808896
90	0x3e309e28	0.17247832
91	0xbe4371ba	-0.19086352
92	0x3e3d7b33	0.18504028
93	0x3e1d3e91	0.15355898
94	0xbe30d42c	-0.17268437
95	0xbe3744c0	-0.1789732
96	0x3e3782af	0.17920946
97	0xbe2a5c41	-0.16636755
98	0x3e3822ef	0.17982076
99	0xbe43ff9c	-0.19140476
100	0xbe3d4dce	-0.18486711
101	0xbe413e15	-0.18871339
102	0xbe299abd	-0.16562934
103	0x3e3864c6	0.18007192
104	0xbe37b65e	-0.17940661
105	0x3e34d540	0.17659473
106	0x3e1fa6af	0.15590928
107	0xbe357634	-0.17720872
108	0xbe323eda	-0.17406788
109	0xbe51418c	-0.2043516
110	0xbe3b72ce	-0.18305513
111	0xbe46d442	-0.19416907
112	0xbe33b613	-0.17549925
113	0x3e3e3478	0.18574703
114	0x3e37d9ed	0.17954226
115	0x3e2775c5	0.1635352
116	0x3e3e2cee	0.18571827
117	0xbe2650e1	-0.1624179
118	0x3e2d6ead	0.1693675
119	0xbe35812a	-0.17725053
120	0x3e11c14f	0.14233898
121	0xbe3e3fb4	-0.18578988
122	0xbe35fe1d	-0.17772718
123	0xbe35f9d6	-0.17771086
124	0xbe1c6770	-0.15273833
125	0x3e3daee8	0.18523753
126	0xbe1e2b4d	-0.15446205
127	0x3e3c101f	0.18365525
128	0xbe2896d3	-0.16463785
129	0x3d61e7f4	0.05515285
130	0x3d62416c	0.055238172
131	0x3d8c21b6	0.06842367
132	0x3d7a6b37	0.061137404
133	0x3d645a51	0.055750195
134	0x3d935fa3	0.07195976
135	0x3d43889f	0.047737714
136	0x3d5e0456	0.054203354
137	0x3d6dac31	0.058025543
138	0x3d4598ec	0.04824154
139	0x3d6fe3f1	0.05856699
140	0x3d85986b	0.06523212
141	0x3d4eddc7	0.050504472
142	0x3d6a0f9a	0.057143785
143	0x3d643e0f	0.055723246
144	0x3d82528e	0.06363402
145	0x3d42d3f1	0.047565404
146	0x3d7eb361	0.062182788
147	0x3d79a15c	0.0609449
148	0x3d76d695	0.060263235
149	0x3d7cc5ca	0.061712064
150	0x3d51b346	0.05119636
151	0x3d45b8ab	0.048271816
152	0x3d8e3039	0.069427915
153	0x3d6572f9	0.05601785
154	0x3d8a969f	0.0676701
155	0x3d7a3d26	0.061093472
156	0x3d82afce	0.06381188
157	0x3d6eeebf	0.058333155
158	0x3d6923fa	0.056919076
159	0x3d663b8d	0.056209136
160	0x3d58002f	0.05273455
161	0x3d7e952b	0.062153976
162	0x3d51ac34	0.051189616
163	0x3d6b2d74	0.057416394
164	0x3d5ef9b0	0.05443734
165	0x3d7a0e80	0.061048985
166	0x3d541ad9	0.051783416
167	0x3d8c6279	0.0685472
168	0x3d612775	0.05496927
169	0x3d8131b5	0.06308309
170	0x3d5eae3e	0.05436539
171	0x3d7ce2b9	0.061739657
