InterConditional_LSTMs/models/model_2.pt (torch_old, 161113 bytes, 13 tensors)

lstm.weight_ih_l0 f4 [172, 8]
7.688107e-05 2.0363641e-08 -0.0006159828 -2.6671676e-09 -7.980307e-05 -4.660878e-05 -0.00018345796 -7.1136885e-05
-5.935472e-06 -4.941922e-09 -0.0007058277 3.8362127e-09 -6.880095e-05 -4.540009e-05 -0.00022648137 -6.269409e-05
0.0001544851 2.4053145e-08 -0.0008179313 -2.5249927e-09 -0.00011936943 -8.439889e-05 -0.00016108007 -7.6302305e-05
0.00020430007 2.1991767e-08 -0.0011209919 4.2828088e-09 -0.000105014944 -5.5547862e-05 -0.00022541132 -9.735494e-05
0.00031586908 -3.047431e-08 -0.0010489634 -6.3253416e-09 -0.00014147833 -0.00011761381 -8.2732455e-05 -0.00012650297
-1.9311983e-05 -2.3057325e-08 -0.00067519484 -2.0505926e-09 -9.5009585e-05 -5.7786707e-05 -0.00023253166 -9.313873e-05
0.0006386068 -2.9196588e-08 -0.0018841419 -8.5806215e-09 -0.00024432424 -0.00013758436 -0.00030838957 -0.00020742782
0.00045929058 2.848521e-08 -0.0016569814 9.524215e-09 -0.00017543785 -0.00011782774 -0.0003121737 -0.00015530565
0.00080540264 6.9494284e-08 -0.0014876848 4.8231117e-09 -0.00019299003 -9.720222e-05 4.2652933e-05 -0.00011390035
0.00033875735 -1.7604773e-08 -0.0011964404 -3.3555423e-09 -0.000120008255 -0.000114201066 -0.0002399639 -0.00010940789
0.00026624944 2.0658e-08 -0.001210159 -4.3342276e-08 -0.00017213581 -9.745019e-05 -0.00034068042 -0.00016967757
0.00025958798 -6.1883645e-07 -0.001198234 -7.944605e-08 -0.00012895602 -0.000111459354 -0.00033575212 -0.00010003081
7.890605e-05 2.0806336e-08 -0.0007654608 7.3344624e-09 -9.949396e-05 -8.400132e-05 -0.00018261989 -8.0802616e-05
0.00026359133 1.4971935e-08 -0.0008842977 -3.6027044e-09 -0.00013845359 -0.000112151705 -0.0001335553 -9.823677e-05
0.00035427016 2.4738933e-08 -0.0010704616 9.567231e-09 -0.00016821138 -0.000117118965 -0.00015781318 -0.00013971292
4.174064e-05 9.920779e-09 -0.00074541615 4.8567657e-09 -7.595005e-05 -8.886093e-05 -0.00023125853 -6.245433e-05
0.00027353724 2.2805214e-08 -0.0010268701 9.965688e-09 -0.00012535036 -0.00012994767 -0.00015648852 -9.999462e-05
0.00011713332 1.5019257e-08 -0.00049150706 -2.0785451e-09 -8.768648e-05 -9.7848184e-05 -0.00011703403 -7.1654875e-05
0.00030641627 3.0699027e-08 -0.0011265064 -4.9460027e-09 -0.0001306582 -0.00010155442 -0.00014571138 -0.00010887351
0.00019569608 -1.0887825e-08 -0.00075135654 -8.810952e-09 -9.004491e-05 -7.4921576e-05 -0.00016522735 -7.0703296e-05
9.272327e-05 -1.1280365e-08 -0.00071515725 6.3130856e-09 -6.967429e-05 -7.488842e-05 -0.00018377302 -6.173194e-05
0.00026102486 -1.3915035e-08 -0.0013615633 -1.873165e-09 -0.0001430296 -8.96438e-05 -0.00028250416 -0.00010114281
-1.4552942e-05 7.542636e-09 -0.00054495916 4.1696163e-10 -5.8031113e-05 -4.525848e-05 -0.00014839208 -4.9000777e-05
3.075925e-05 1.586022e-08 -0.0010241611 -1.1840162e-09 -0.00010072513 -5.4927674e-05 -0.00033585538 -8.9039095e-05
0.0001766513 1.7921359e-08 -0.00053989096 -3.1538803e-09 -9.20364e-05 -5.4144817e-05 -0.000118346965 -5.4996606e-05
0.00016731961 -1.5341614e-08 -0.0012761345 -4.620169e-09 -0.00012901433 -0.00010478069 -0.00025840636 -0.00011438753
0.00047521846 -2.4831664e-08 -0.001576342 -2.7146203e-07 -0.00016411005 -0.0001118619 -0.00016421569 -0.00014203972
8.201149e-05 9.934377e-09 -0.00078657334 5.8225793e-09 -7.781283e-05 -5.2085976e-05 -0.00021280133 -5.519005e-05
0.0002865128 1.8208038e-08 -0.0012198901 6.3806103e-09 -0.00010038878 -6.9450725e-05 -0.00023606396 -6.078163e-05
0.00035227856 -1.4643003e-08 -0.0013152419 -5.5216233e-08 -0.0001343441 -0.00011282214 -0.00027448407 -0.00010160098
0.00044889856 -3.8586254e-08 -0.0012524284 1.4463438e-08 -0.00020865904 -0.00017795445 -0.00023007182 -0.00015313977
0.00042485158 -2.2126592e-08 -0.0014339902 1.0137262e-08 -0.00019210913 -0.00010732038 -0.00025879053 -0.00015306375
00000000: 363b a138 1fec ae32 e879 21ba 4f49 37b1
00000010: f25b a7b8 cc7d 43b8 9f5e 40b9 532f 95b8
00000020: 5129 c7b6 9bcd a9b1 4c07 39ba afcf 8331
00000030: 3b49 90b8 fa6b 3eb8 a17b 6db9 a27a 83b8
00000040: 47fd 2139 6d9d ce32 716a 56ba 2484 2db1
00000050: fa55 fab8 4fff b0b8 9ae7 28b9 7d04 a0b8
00000060: 6239 5639 68e8 bc32 3fee 92ba fc27 9331
00000070: 783b dcb8 10fc 68b8 645c 6cb9 092b ccb8
00000080: 3b9b a539 dce2 02b3 5f7d 89ba 4b56 d9b1
00000090: cd59 14b9 6fa7 f6b8 a680 adb8 e2a5 04b9
000000a0: 2b00 a2b7 980f c6b2 8fff 30ba 68ea 0cb1
000000b0: e23f c7b8 0160 72b8 bed3 73b9 7a53 c3b8
000000c0: 2d68 273a facb fab2 50f5 f6ba f969 13b2
000000d0: a518 80b9 8544 10b9 59af a1b9 fb80 59b9
000000e0: f0cc f039 a4af f432 122f d9ba f19f 2332
000000f0: bdf5 37b9 491a f7b8 3fab a3b9 8bd9 22b9
00000100: a821 533a e33c 9533 6bfe c2ba 8ab8 a531
00000110: 5e5d 4ab9 0bd9 cbb8 3de6 3238 c9dd eeb8
00000120: 3e9b b139 4e39 97b2 e1d1 9cba 5397 66b1
00000130: f1ac fbb8 3b7f efb8 d29e 7bb9 ea71 e5b8
00000140: 6597 8b39 6c73 b132 339e 9eba 5627 3ab3
00000150: 5b7f 34b9 2c5e ccb8 5a9d b2b9 7aeb 31b9
00000160: 4f19 8839 1e1e 26b5 100e 9dba ee9b aab3
00000170: 5e38 07b9 49bf e9b8 e307 b0b9 a2c7 d1b8
00000180: 5d7a a538 9eb9 b232 34a9 48ba 9d02 fc31
00000190: 6aa7 d0b8 de29 b0b8 a77d 3fb9 9374 a9b8
000001a0: a132 8a39 a29b 8032 37d0 67ba 7293 77b1
000001b0: da2d 11b9 fd32 ebb8 fa0a 0cb9 7704 ceb8
000001c0: 56bd b939 7d81 d432 bb4e 8cba 205d 2432
000001d0: e661 30b9 c49d f5b8 a77a 25b9 e77f 12b9
000001e0: ac12 2f38 0c70 2a32 0868 43ba 90e0 a631
000001f0: 5f47 9fb8 d95a bab8 fd7d 72b9 eaf9 82b8
00000200: 8c69 8f39 32e5 c332 0b98 86ba 8f35 2b32
00000210: 7b70 03b9 9042 08b9 1117 24b9 34b4 d1b8
00000220: 79a5 f538 b203 8132 7bd8 00ba 27d6 0eb1
00000230: 52e4 b7b8 d833 cdb8 2b70 f5b8 6b45 96b8
00000240: 7fa6 a039 f0d9 0333 48a7 93ba 80f1 a9b1
00000250: 4b01 09b9 9df9 d4b8 1aca 18b9 0553 e4b8
00000260: c433 4d39 290d 3bb2 aff6 44ba fa5e 17b2
00000270: 7ed6 bcb8 371f 9db8 e140 2db9 8b46 94b8
00000280: 6d74 c238 92cb 41b2 6479 3bba 7dea d831
00000290: 1a1e 92b8 6a0d 9db8 32b3 40b9 1576 81b8
000002a0: 2ada 8839 f90e 6fb2 7c76 b2ba 11b9 00b1
000002b0: 37fa 15b9 26ff bbb8 111d 94b9 a21c d4b8
000002c0: 6928 74b7 dd94 0132 97db 0eba 223a e52f
000002d0: 6f66 73b8 ecd3 3db8 b299 1bb9 2f86 4db8
000002e0: 7e03 0138 fe3c 8832 253d 86ba deba a2b0
000002f0: 643c d3b8 2462 66b8 bf15 b0b9 80ba bab8
00000300: 793b 3939 7cf1 9932 7887 0dba a6bb 58b1
00000310: aa03 c1b8 8e19 63b8 0b31 f8b8 28ac 66b8
00000320: 8472 2f39 91c8 83b2 f843 a7ba 70bf 9eb1
00000330: 0548 07b9 b4bd dbb8 b77a 87b9 56e3 efb8
00000340: be26 f939 684d d5b2 439d ceba 75bd 91b4
00000350: f514 2cb9 6697 eab8 5031 2cb9 7ff0 14b9
00000360: 95fd ab38 daab 2a32 0b32 4eba f30f c831
00000370: 722f a3b8 e476 5ab8 6c23 5fb9 dd7b 67b8
00000380: 1937 9639 e667 9c32 b8e4 9fba 713c db31
00000390: d187 d2b8 13a6 91b8 f087 77b9 c7ef 7eb8
000003a0: 07b2 b839 9c90 7bb2 3264 acba e426 6db3
000003b0: b8de 0cb9 ed9a ecb8 a1e8 8fb9 9c12 d5b8
000003c0: 255a eb39 09ba 25b3 8628 a4ba df7a 7832
000003d0: 7ccb 5ab9 4999 3ab9 6f3f 71b9 2594 20b9
000003e0: 9dbe de39 e410 beb2 baf4 bbba 2628 2e32
000003f0: e770 49b9 3111 e1b8 47ae 87b9 bd7f 20b9

lstm.weight_hh_l0 f4 [172, 43]
2.7736996e-05 -2.7350046e-05 2.9397028e-05 2.7428583e-05 -3.263646e-05 2.4896353e-05 -3.6452842e-05 -3.5560406e-05
-3.5028974e-05 -3.1633113e-05 -3.1989388e-05 3.01781e-05 -2.8614038e-05 3.1648182e-05 -2.8676051e-05 -2.8786397e-05
-3.2509466e-05 2.655576e-05 -2.8615337e-05 2.7856131e-05 2.939105e-05 -3.2242362e-05 2.6491827e-05 2.7975431e-05
2.8167882e-05 -3.238192e-05 3.187339e-05 2.9417812e-05 3.243266e-05 3.1016585e-05 -3.4108183e-05 3.104832e-05
-2.945963e-05 -3.0530082e-05 -2.861057e-05 -2.9378634e-05 3.2248827e-05 2.6267466e-05 -3.120223e-05 3.1192285e-05
2.359776e-05 3.1535725e-05 -2.5126425e-05 2.2366921e-05 -2.071518e-05 2.342761e-05 2.4116409e-05 -2.5772468e-05
1.8887711e-05 -2.848755e-05 -2.8031889e-05 -2.726235e-05 -2.5622094e-05 -2.5482314e-05 2.5163175e-05 -2.3114137e-05
2.2838352e-05 -2.524643e-05 -2.0155137e-05 -2.5679748e-05 2.1964874e-05 -2.2095941e-05 2.1305606e-05 2.3282983e-05
-2.5574434e-05 2.0401098e-05 2.3510253e-05 2.0256368e-05 -2.552058e-05 2.792142e-05 2.2893682e-05 2.593057e-05
2.5107252e-05 -2.5758041e-05 2.6683456e-05 -2.256529e-05 -2.5954365e-05 -2.377941e-05 -2.3378603e-05 2.5444251e-05
2.0644571e-05 -2.4422903e-05 2.5175817e-05 2.1010686e-05 2.3442399e-05 -1.9943875e-05 3.4715205e-05 -3.5230853e-05
3.7321333e-05 3.879347e-05 -4.1406725e-05 3.348216e-05 -4.697658e-05 -4.5150635e-05 -4.4484306e-05 -4.092428e-05
-4.1077932e-05 4.0689592e-05 -3.697e-05 3.9612856e-05 -4.0773695e-05 -3.604109e-05 -4.02404e-05 3.474512e-05
-3.716956e-05 3.4417022e-05 3.722339e-05 -4.1264706e-05 3.2400014e-05 3.833358e-05 3.3387587e-05 -4.104403e-05
4.549482e-05 3.6784764e-05 4.1830426e-05 4.048903e-05 -4.212523e-05 4.321838e-05 -3.6667065e-05 -4.2235453e-05
-3.926118e-05 -3.717095e-05 4.0775005e-05 3.0185714e-05 -3.8426144e-05 3.9909046e-05 3.3295793e-05 4.0335228e-05
-3.2244312e-05 4.2589396e-05 -4.0823616e-05 4.4144286e-05 4.045236e-05 -4.9014187e-05 3.6375848e-05 -5.0235576e-05
-5.2560797e-05 -5.1234907e-05 -4.832019e-05 -4.3238033e-05 4.747814e-05 -4.3510998e-05 4.4181084e-05 -4.079054e-05
-4.2267082e-05 -4.911744e-05 3.9855266e-05 -4.232918e-05 4.2390024e-05 4.2036456e-05 -4.799052e-05 3.8283666e-05
4.440904e-05 4.1506966e-05 -4.790474e-05 5.1122148e-05 4.3647087e-05 4.7845988e-05 4.7680944e-05 -5.1164767e-05
4.923198e-05 -4.3585318e-05 -4.695335e-05 -4.4383938e-05 -4.1149386e-05 4.6617366e-05 3.79283e-05 -4.704001e-05
4.4664703e-05 3.8234914e-05 4.6786416e-05 -3.8439728e-05 4.9470276e-05 -4.9553164e-05 5.346846e-05 5.6315854e-05
-5.9138114e-05 4.8503727e-05 -6.846842e-05 -6.4692016e-05 -6.647114e-05 -5.8670204e-05 -5.9403188e-05 5.7377405e-05
-5.1719573e-05 5.5942724e-05 -5.9720744e-05 -5.1035633e-05 -5.877242e-05 4.8306785e-05 -5.4852844e-05 5.0166036e-05
5.117708e-05 -5.9264494e-05 4.4752007e-05 5.5140397e-05 4.8210484e-05 -5.933946e-05 6.314807e-05 4.9888724e-05
5.9745616e-05 5.7714908e-05 -6.240928e-05 6.36283e-05 -5.0255527e-05 -6.2422565e-05 -5.737016e-05 -5.244627e-05
5.8359918e-05 4.635538e-05 -5.6476554e-05 5.8160713e-05 4.703026e-05 5.806459e-05 -4.5948134e-05 3.2521162e-05
-3.199967e-05 3.3323504e-05 3.3118507e-05 -3.820812e-05 2.9407513e-05 -4.404035e-05 -4.16819e-05 -4.258857e-05
-3.8430124e-05 -3.747128e-05 3.7300906e-05 -2.9625082e-05 3.6256057e-05 -3.613293e-05 -3.192411e-05 -3.6677993e-05
3.153744e-05 -3.292303e-05 3.2444143e-05 3.382482e-05 -3.755747e-05 2.944717e-05 3.468238e-05 3.118347e-05
-3.7222166e-05 4.0154533e-05 3.3538552e-05 3.743577e-05 3.832341e-05 -3.9960112e-05 3.8572438e-05 -3.2891276e-05
-3.737374e-05 -3.7395206e-05 -3.1542742e-05 3.725518e-05 2.9494337e-05 -3.4144996e-05 3.760805e-05 2.90903e-05
00000000: bfac e837 c76d e5b7 a399 f637 6f16 e637
00000010: 22e3 08b8 83d8 d037 f1e4 18b8 b226 15b8
00000020: 13ec 12b8 ccad 04b8 582c 06b8 fa26 fd37
00000030: 2e08 f0b7 fabd 0438 5a8d f0b7 517a f1b7
00000040: c65a 08b8 0fc4 de37 f80a f0b7 96ac e937
00000050: cd8c f637 f93b 07b8 c43a de37 c8ac ea37
00000060: 114a ec37 d2d1 07b8 cbaf 0538 45c6 f637
00000070: 4e08 0838 ce17 0238 620f 0fb8 e139 0238
00000080: 1320 f7b7 6d0d 00b8 bb00 f0b7 2372 f6b7
00000090: ea42 0738 f458 dc37 24df 02b8 76d4 0238
000000a0: cef3 c537 3a45 0438 96c6 d2b7 99a0 bb37
000000b0: 83c5 adb7 6986 c437 984d ca37 f431 d8b7
000000c0: 0d71 9e37 8cf8 eeb7 0626 ebb7 73b1 e4b7
000000d0: 07ef d6b7 dac2 d5b7 8215 d337 3be5 c1b7
000000e0: fd94 bf37 4cc8 d3b7 d412 a9b7 d76a d7b7
000000f0: 3541 b837 ac5a b9b7 71b9 b237 d34f c337
00000100: ae88 d6b7 0623 ab37 e237 c537 38ec a937
00000110: 0715 d6b7 cb38 ea37 cf0b c037 7a85 d937
00000120: 6a9d d237 f912 d8b7 49d6 df37 974a bdb7
00000130: 93b8 d9b7 e579 c7b7 2b1d c4b7 1d71 d537
00000140: e12d ad37 c9df ccb7 a830 d337 1b40 b037
00000150: 2ba6 c437 254d a7b7 2b9b 1138 d7c4 13b8
00000160: 7a89 1c38 2cb6 2238 22ac 2db8 326f 0c38
00000170: b808 45b8 2060 3db8 a994 3ab8 1ca6 2bb8
00000180: 184b 2cb8 1eaa 2a38 3c10 1bb8 fb25 2638
00000190: 6c04 2bb8 d32a 17b8 cdc7 28b8 4abb 1138
000001a0: 83e6 1bb8 ff5a 1038 5020 1c38 a413 2db8
000001b0: 40e5 0738 5ec8 2038 a609 0c38 b126 2cb8
000001c0: b1d1 3e38 5749 1a38 1473 2f38 c4d2 2938
000001d0: 9faf 30b8 6245 3538 f6ca 19b8 f925 31b8
000001e0: 5fac 24b8 01e8 1bb8 d405 2b38 5437 fd37
000001f0: c22b 21b8 0364 2738 16a7 0b38 9f2d 2938
00000200: 113e 07b8 04a2 3238 063a 2bb8 9127 3938
00000210: 64ab 2938 9594 4db8 4592 1838 0ab4 52b8
00000220: ba74 5cb8 10e5 56b8 69ab 4ab8 7c5a 35b8
00000230: 4423 4738 947f 36b8 144f 3938 8216 2bb8
00000240: ef47 31b8 7303 4eb8 442a 2738 9c8a 31b8
00000250: f1cb 3138 4d50 3038 6e49 49b8 c692 2038
00000260: d843 3a38 c417 2e38 53ed 48b8 fd6b 5638
00000270: b411 3738 3dae 4838 06fd 4738 c099 56b8
00000280: 707e 4e38 61cf 36b8 c7ef 44b8 e428 3ab8
00000290: d197 2cb8 0487 4338 3415 1f38 d34c 45b8
000002a0: 5c56 3b38 6d5e 2038 883c 4438 583a 21b8
000002b0: 4e7e 4f38 4ed7 4fb8 5243 6038 b034 6c38
000002c0: 110b 78b8 7b70 4b38 b496 8fb8 43ab 87b8
000002d0: 6c66 8bb8 a714 76b8 b027 79b8 85a8 7038
000002e0: 78ed 58b8 0ba4 6a38 a97c 7ab8 180f 56b8
000002f0: 6882 76b8 049d 4a38 cb11 66b8 5f69 5238
00000300: f9a6 5638 c492 78b8 1ab4 3b38 8d46 6738
00000310: 9d35 4a38 43e3 78b8 5d6e 8438 9c3f 5138
00000320: 5e97 7a38 e912 7238 bae1 82b8 2f70 8538
00000330: 76c9 52b8 dce8 82b8 bea0 70b8 c1f9 5bb8
00000340: 7cc7 7438 b66d 4238 3de1 6cb8 97f1 7338
00000350: 5b42 4538 618a 7338 6fb8 40b8 5567 0838
00000360: 6237 06b8 d7c4 0b38 bae8 0a38 a841 20b8
00000370: 27b0 f637 f7b7 38b8 99d3 2eb8 21a1 32b8
00000380: 0830 21b8 7b2a 1db8 8b73 1c38 6183 f8b7
00000390: a511 1838 708d 17b8 41e6 05b8 b2d6 19b8
000003a0: 1147 0438 d616 0ab8 a214 0838 20df 0d38
000003b0: 0787 1db8 5105 f737 ec77 1138 ffca 0238
000003c0: ff1e 1cb8 9a6b 2838 bfab 0c38 5a04 1d38
000003d0: 73bd 2038 d89a 27b8 d7c8 2138 bdf4 09b8
000003e0: bfc1 1cb8 ccd8 1cb8 c34c 04b8 7242 1c38
000003f0: 9b6a f737 e936 0fb8 56bd 1d38 f206 f437

lstm.bias_ih_l0 f4 [172]
-0.00030147718 -0.00048545358 -8.048311e-05 7.406194e-05 0.00048244663 -0.0003659895 0.0019935567 0.0006172338
0.002136114 0.0005093765 0.0003989115 0.0002485754 -0.0002926514 -4.9559134e-05 0.0007172927 -0.00032123952
0.0001946787 -0.00031427864 0.00041174208 -0.00018031949 -0.00031233858 0.00022088109 -0.00045132314 -0.00023307667
-0.00020289181 8.5679974e-05 0.0008609828 -0.00023041735 0.0001419747 0.00067346427 0.0006126406 0.0007843619
-0.00040722542 0.000805051 8.9057045e-05 -0.00024274428 7.796521e-05 -0.00026287304 0.0002887479 2.7444734e-05
-0.0002914479 7.65757e-05 -0.00028939743 -7.14478e-05 -0.000113111935 -8.300638e-05 -6.620653e-05 -0.0001555411
-0.00012826151 -2.5149497e-05 -3.035935e-05 0.00014156083 -1.1372149e-05 -0.0001390883 -6.110938e-05 -0.00012829351
2.072267e-05 -4.663781e-05 -0.00013483949 -5.175867e-05 -5.2106443e-05 -5.0812985e-05 -2.5670486e-05 -0.00012475012
-5.5796405e-05 -0.00012094879 -0.00015717966 -7.3767915e-06 -9.252229e-05 -4.980626e-06 -0.00012259287 5.4272878e-06
2.3376519e-05 7.2389685e-07 2.7810795e-05 -7.817299e-05 -8.153692e-05 -0.00016111767 -6.7055604e-05 -9.067212e-07
-0.000102520746 -5.7308152e-05 -6.311495e-05 -5.0086866e-05 -5.0606784e-05 -5.406064e-05 -0.046999823 0.057854395
-0.06825971 -0.07853291 0.06497977 -0.056677792 0.08580202 0.090031885 0.076344185 0.06790866
0.08073187 -0.07494306 0.059612695 -0.054444265 0.06983267 0.063539684 0.08103456 -0.058792014
0.066729456 -0.06157299 -0.06887527 0.08214389 -0.053757757 -0.069361344 -0.050101902 0.07112465
-0.090793744 -0.059223242 -0.07359877 -0.0840108 0.07514361 -0.083435215 0.05770551 0.07947164
0.0688032 0.05387204 -0.07900817 -0.045380883 0.0818553 -0.06031238 -0.03882325 -0.07433078
0.042799287 -0.0002745292 -0.00041627654 0.0001324761 0.0002035765 0.00068734627 -0.00029603706 0.0027832827
0.000902337 0.0029489452 0.0008212266 0.0005911691 0.0005974442 -0.00019976046 6.659579e-05 0.0012557738
-0.00023349188 0.0004124273 -0.0002958556 0.0009115444 -2.2303902e-05 -0.00022274538 0.0004285643 -0.0004320609
-1.728951e-05 -0.00014487896 0.00032146438 0.001325133 -0.00016907163 0.00027037773 0.0012717231 0.00087731663
0.001118525 -0.00034851613 0.0013436195 0.00046207782 -0.00017055901 0.0002988404 -0.00020755007 0.0005135618
0.00023993093 -0.00025250702 0.0002216399 -0.00024266652
00000000: 950f 9eb9 7a84 feb9 0ac9 a8b8 b451 9b38
00000010: e4f0 fc39 47e2 bfb9 55a6 023b dccd 213a
00000020: 0cfe 0b3b ae87 053a ff24 d139 3a53 8239
00000030: 026f 99b9 b7dd 4fb8 b308 3c3a 0a6c a8b9
00000040: aa22 4c39 c4c5 a4b9 16df d739 2514 3db9
00000050: 60c1 a3b9 519c 6739 919f ecb9 0b66 74b9
00000060: 5bbf 54b9 16af b338 94b3 613a 309c 71b9
00000070: 0bdf 1439 6c8b 303a 9d99 203a a39d 4d3a
00000080: df80 d5b9 0f0a 533a 23c4 ba38 2c89 7eb9
00000090: 4181 a338 39d2 89b9 1663 9739 1e39 e637
000000a0: 7acd 98b9 4497 a038 44ba 97b9 3fd6 95b8
000000b0: 8236 edb8 b613 aeb8 5cd8 8ab8 bf18 23b9
000000c0: f07d 06b9 22f8 d2b7 35ac feb7 f26f 1439
000000d0: 02cb 3eb7 3bd8 11b9 d927 80b8 8786 06b9
000000e0: 98d5 ad37 f89c 43b8 b363 0db9 7317 59b8
000000f0: de8c 5ab8 0720 55b8 f356 d7b7 5bcf 02b9
00000100: ef06 6ab8 e3a5 fdb8 98d0 24b9 2886 f7b6
00000110: 8708 c2b8 401f a7b6 468c 00b9 0c1c b636
00000120: b118 c437 d051 4235 3a4b e937 cef0 a3b8
00000130: cdfe aab8 b2f1 28b9 34a0 8cb8 6865 73b5
00000140: 6800 d7b8 295e 70b8 955c 84b8 5d14 52b8
00000150: 9f42 54b8 2cbf 62b8 e382 40bd bbf8 6c3d
00000160: bfcb 8bbd ddd5 a0bd 1d14 853d f926 68bd
00000170: f8b8 af3d a362 b83d 575a 9c3d b213 8b3d
00000180: c056 a53d bf7b 99bd 712c 743d f300 5fbd
00000190: 6e04 8f3d 1821 823d 73f5 a53d e5cf 70bd
000001a0: 74a9 883d f633 7cbd 7a0e 8dbd 0e3b a83d
000001b0: 1831 5cbd 520d 8ebd a737 4dbd cda9 913d
000001c0: 12f2 b9bd 1294 72bd f4ba 96bd db0d acbd
000001d0: e5e4 993d 15e0 aabd 9d5c 6c3d 07c2 a23d
000001e0: b1e8 8c3d eea8 5c3d 09cf a1bd 4ee1 39bd
000001f0: c0a3 a73d 1d0a 77bd 2105 1fbd bc3a 98bd
00000200: 4e4e 2f3d afee 8fb9 b13f dab9 48e9 0a39
00000210: 2777 5539 072f 343a 6c35 9bb9 bc67 363b
00000220: d08a 6c3a 1743 413b 9647 573a b0f8 1a3a
00000230: cd9d 1c3a ca76 51b9 58a9 8b38 c798 a43a
00000240: 80d5 74b9 0e3b d839 111d 9bb9 b6f4 6e3a
00000250: 4419 bbb7 c290 69b9 edb0 e039 3b86 e2b9
00000260: f108 91b7 a6ea 17b9 388a a839 16b0 ad3a
00000270: d248 31b9 7cc1 8d39 f2af a63a b9fb 653a
00000280: 799b 923a 0bb9 b6b9 641c b03a 0943 f239
00000290: 16d8 32b9 aead 9c39 cca1 59b9 8da0 063a
000002a0: f895 7b39 eb62 84b9 0268 6839 4c74 7eb9

lstm.bias_hh_l0 f4 [172]
-0.0003084053 -0.00047053862 -7.95878e-05 -3.1167503e-05 0.00047733265 -0.00035906347 0.0018628127 0.00074492773
0.0021390303 0.00035399068 0.00029496572 0.00025839958 -0.000256141 -4.2595573e-05 0.0006693728 -0.0003034949
0.00017018557 -0.00031433156 0.0007029223 -0.0001239441 -0.00034033167 9.23275e-05 -0.00044892653 -0.00025331564
-0.00021088636 6.500649e-05 0.0010266785 -0.00026987208 8.968664e-05 0.0008031574 0.00065454585 0.0008666915
-0.00042099264 0.0011228428 0.00013457608 -0.00025153224 0.00014190715 -0.00027065532 0.00035505777 4.250861e-05
-0.0002851952 1.7057504e-05 -0.00026634408 -7.116253e-05 -0.000113273076 -8.3927385e-05 -6.49491e-05 -0.00015531972
-0.00013037717 -2.5699785e-05 -2.8149403e-05 0.0001417961 -1.1360701e-05 -0.00013815761 -6.288405e-05 -0.00012940791
2.0737625e-05 -4.723227e-05 -0.00013466159 -5.1545692e-05 -5.3084495e-05 -5.0450697e-05 -2.6364347e-05 -0.00012449417
-5.5622822e-05 -0.000121058394 -0.0001570311 -6.307373e-06 -9.23001e-05 -4.9387386e-06 -0.00012146775 6.433418e-06
2.3241877e-05 3.2704702e-07 2.7684066e-05 -7.813636e-05 -7.78877e-05 -0.00016039371 -6.690087e-05 -8.897996e-07
-0.00010201677 -5.6634017e-05 -6.284142e-05 -4.975391e-05 -5.2104224e-05 -5.5016942e-05 -0.061677776 0.05403179
-0.066341616 -0.06180454 0.07781041 -0.048842028 0.10111634 0.07253269 0.0991828 0.08913716
0.06546509 -0.07696012 0.060713686 -0.0753227 0.08293282 0.054662663 0.06395727 -0.04030512
0.07597256 -0.06441703 -0.051939305 0.06791332 -0.040724277 -0.066376105 -0.059915815 0.075100146
-0.07837976 -0.06376138 -0.07780566 -0.068750694 0.084575854 -0.08316181 0.059725687 0.08386768
0.08161181 0.0641963 -0.066770226 -0.058612876 0.05861975 -0.0866707 -0.0647935 -0.069327734
0.05856401 -0.00025615955 -0.0004096704 5.2149582e-05 0.00030652195 0.0007290394 -0.00029806755 0.002452426
0.0011273243 0.0028877372 0.00077699235 0.0006389145 0.00049384177 -0.00019629637 4.696226e-05 0.00090441224
-0.0002414944 0.00040409007 -0.00029011836 0.0010282812 -1.0356354e-05 -0.00024558842 0.000441608 -0.00043885136
-5.0608083e-05 -0.00017605872 0.00024670616 0.001459066 -0.0001675589 0.00045998365 0.0010243761 0.0010068492
0.001485369 -0.00034892556 0.0014247104 0.0003909497 -0.00017881203 0.00028258454 -0.00022855695 0.00055298023
0.00030095605 -0.00022350313 0.00035886536 -0.00024776737
00000000: 75b1 a1b9 a0b2 f6b9 60e8 a6b8 dab9 02b8
00000010: 8142 fa39 af40 bcb9 9f29 f43a 4147 433a
00000020: f92e 0c3b d397 b939 a1a5 9a39 ce79 8739
00000030: aa4a 86b9 a6a8 32b8 d978 2f3a 651e 9fb9
00000040: d773 3239 decc a4b9 5144 383a fef6 01b9
00000050: 8b6e b2b9 f39f c138 e65d ebb9 73cf 84b9
00000060: 6021 5db9 1854 8838 9d91 863a 9e7d 8db9
00000070: 2616 bc38 fb8a 523a d495 2b3a af32 633a
00000080: adb8 dcb9 5a2c 933a fe1c 0d39 16e0 83b9
00000090: e9cc 1439 bee6 8db9 0c27 ba39 464b 3238
000000a0: 4086 95b9 b616 8f37 19a4 8bb9 183d 95b8
000000b0: 058d edb8 2c02 b0b8 4835 88b8 52dd 22b9
000000c0: dbb5 08b9 de95 d7b7 6222 ecb7 1aaf 1439
000000d0: d799 3eb7 67de 10b9 9ee0 83b8 acb1 07b9
000000e0: b6f5 ad37 441b 46b8 f233 0db9 c432 58b8
000000f0: 0ba7 5eb8 069b 53b8 0129 ddb7 a68a 02b9
00000100: 8d4c 69b8 bbe0 fdb8 b7a8 24b9 eca3 d3b6
00000110: 3d91 c1b8 71b7 a5b6 80bc feb8 a4de d736
00000120: 8df7 c237 0095 af34 143b e837 24dd a3b8
00000130: a457 a3b8 5c2f 28b9 224d 8cb8 90da 6eb5
00000140: d6f1 d5b8 508a 6db8 bbc9 83b8 dbae 50b8
00000150: 7c8a 5ab8 fec1 66b8 d6a1 7cbd 7050 5d3d
00000160: 1dde 87bd c226 7dbd 105b 9f3d 940e 48bd
00000170: 1516 cf3d 058c 943d 5a20 cb3d 8b8d b63d
00000180: 9012 863d 449d 9dbd eaae 783d ca42 9abd
00000190: afd8 a93d f5e5 5f3d 07fc 823d fb16 25bd
000001a0: 8097 9b3d 13ed 83bd 4fbe 54bd 2416 8b3d
000001b0: 80ce 26bd 32f0 87bd 496a 75bd 1bce 993d
000001c0: 9185 a0bd 5495 82bd 9358 9fbd 2acd 8cbd
000001d0: 1b36 ad3d bd50 aabd eca2 743d d1c2 ab3d
000001e0: 1824 a73d 5a79 833d d4be 88bd 0e14 70bd
000001f0: 431b 703d 6880 b1bd 74b2 84bd b3fb 8dbd
00000200: d1e0 6f3d 274d 86b9 08c9 d6b9 30bb 5a38
00000210: aeb4 a039 021d 3f3a f345 9cb9 e1b8 203b
00000220: bac2 933a 3140 3d3b 13af 4b3a d47c 273a
00000230: 2975 013a e8d4 4db9 58f9 4438 1416 6d3a
00000240: a939 7db9 0ddc d339 071b 98b9 64c7 863a
00000250: 34c0 2db7 52c2 80b9 9f87 e739 a215 e6b9
00000260: 0444 54b8 679c 38b9 5758 8139 223e bf3a
00000270: c0b2 2fb9 f629 f139 5c44 863a 41f8 833a
00000280: b7b0 c23a ffef b6b9 59bd ba3a 61f8 cc39
00000290: 7d7f 3bb9 db27 9439 caa8 6fb9 e0f5 103a
000002a0: a3c9 9d39 2a5c 6ab9 1826 bc39 c6e6 81b9

lstm.weight_ih_l1 f4 [172, 43]
-0.00043117706 0.00025833765 -0.0006541116 -0.00044837632 0.0006211003 -5.225367e-05 0.00082135096 0.0004123177
0.0014184092 0.00051468756 0.00048544252 -0.00041778447 0.000328648 -0.00052220747 0.0006373097 0.000284587
0.00067261513 -0.0005600506 0.0007419242 -0.0005633808 -0.00039385815 0.00031199196 -0.0001854359 0.00014432975
-0.00069780997 9.97716e-05 -0.0006706922 -0.00041894545 -0.0007504471 -0.0006158873 0.00086120516 -0.0006635498
0.00018054762 0.00061839964 -5.745865e-05 0.00047629094 -0.0007947672 -0.00019022285 0.0005914946 -0.00022292393
-0.00045633523 -0.00050866517 0.00027900128 -0.0003270019 -0.00012493429 -0.00088120316 -1.4858831e-05 0.0004250003
-4.9226044e-05 0.00029756493 0.0005892544 0.00091646845 0.00073709426 0.000605034 -0.00048293805 8.9532296e-05
-0.00039320125 0.0006627155 0.0001396892 0.00045694894 -0.0003809593 0.00078494457 -0.0003882647 -0.00055800343
0.00022783574 7.118169e-05 0.00019243722 -0.00042643445 1.048358e-05 -0.0005097305 -0.00024320223 -0.00048433847
-0.0005504523 0.00077975244 -0.00030498946 0.00019281977 0.00018440241 0.0001389918 0.00044665087 -0.0006059756
-0.0001034758 0.0004884894 -0.0003563687 -0.00042468414 -0.0006043609 1.3122477e-05 -0.00038964863 -0.00029529957
-0.00089177996 -0.00030808226 0.0006586142 0.00023164149 0.00053342327 1.8288207e-05 0.0013591183 0.00031977004
-1.3609486e-05 -0.00035937037 0.00029829898 -0.00026122236 0.0009790122 0.00010824407 0.00034044115 -0.00040023908
0.00047124753 -0.0004798035 -0.00054727844 -6.899245e-05 -6.254091e-06 0.00020076131 -0.00043834 -6.604644e-05
-0.0005893142 0.00015284977 -0.0010086572 -0.0005890975 0.000676793 -0.0006365914 0.00029482122 0.00032857398
0.00036165505 0.00025699742 -0.00058864866 -0.0001409284 0.00041416576 3.7952395e-05 -0.00067179045 -0.0003147953
0.00011623414 -0.0006071871 0.00018825958 -0.0008792319 -0.0003247423 0.00096795877 -0.00025844655 0.0011476607
0.0011385834 0.0010182705 0.00042787258 0.00092823687 -0.00075985887 0.0006174929 -0.0007580538 0.00091457035
0.00035410482 0.00078377913 -0.00056207273 0.00073322165 -0.00055865286 -0.00047556823 0.0006399596 -6.685209e-05
-0.00028552013 -0.0007808989 0.00026183086 -0.00086565455 -0.000525246 -0.0009318227 -0.0006733617 0.00090722524
-0.00063458027 0.0005926423 0.0005163474 0.0003551705 0.00059682096 -0.00080479286 -0.0003790445 0.00075432775
-0.00040514805 -0.0005045287 -0.0005685821 0.00054066314 -0.00061199535 4.288703e-05 -0.00067291607 -0.00018638496
0.00069052965 -0.00027298395 0.0010331603 0.0006212195 0.0013398295 0.0007873772 0.00022343287 -0.0009559493
0.0004897562 -0.000727942 0.0010581192 0.00042618232 0.00062298554 -0.0005296651 0.0007380953 -0.00060694985
-0.00022396859 0.0005084681 -9.948376e-05 -4.6551046e-05 -0.00055159954 0.00044906788 -0.0006566433 -0.0003617648
-0.0003453435 -0.00045488248 0.0008806421 -0.00050300657 0.00021246137 0.0007800906 0.0004177854 0.0005493444
-0.000719128 -0.00026475414 0.00069419335 -0.0003085586 -0.00058368966 -0.00038431436 0.00034661088 -0.00012732483
-8.876343e-05 -0.00050706026 0.0001022078 0.0005964112 0.00013751196 0.00037280246 0.00029527512 0.0005816437
0.00068637234 8.439073e-05 -0.00030472665 0.00047862745 -0.00044072833 0.0008009496 0.00012483662 0.00034761682
-0.0002952802 0.00058499665 -0.00059807184 -0.00023700835 0.0003144511 -2.9682873e-05 0.00039714453 -0.0005124328
3.789134e-05 -0.00039732375 -4.039304e-05 -0.0002962408 -0.00044333597 0.00066679344 -0.0002584731 -2.400208e-05
0.000385142 0.00020291444 0.0004117477 -0.00040379242 5.5920566e-05 0.000365855 -6.509997e-05 -0.00020700014
00000000: 9b0f e2b9 7e71 8739 b078 2bba 0d14 ebb9
00000010: 56d1 223a f32a 5bb8 ee4f 573a 582c d839
00000020: eae9 b93a 19ec 063a fe82 fe39 150a dbb9
00000030: 634e ac39 c0e4 08ba 2111 273a 9f34 9539
00000040: 7052 303a 5cd0 12ba b17d 423a d8af 13ba
00000050: bf7e ceb9 da92 a339 9271 42b9 3957 1739
00000060: 3ced 36ba 783c d138 64d1 2fba e8a5 dbb9
00000070: a7b9 44ba 7f73 21ba 80c2 613a 13f2 2dba
00000080: 6251 3d39 191c 223a c1ff 70b8 b0b6 f939
00000090: ed57 50ba 8f76 47b9 880e 1b3a b0c0 69b9
000000a0: 4740 efb9 f157 05ba eb46 9239 7471 abb9
000000b0: cb00 03b9 8b00 67ba 314a 79b7 93d2 de39
000000c0: 1078 4eb8 7d02 9c39 3278 1a3a 283f 703a
000000d0: 8f39 413a 259b 1e3a d932 fdb9 49c3 bb38
000000e0: 9426 ceb9 16ba 2d3a 8979 1239 a692 ef39
000000f0: 7ebb c7b9 bdc4 4d3a 0290 cbb9 fa46 12ba
00000100: 31e7 6e39 6147 9538 f9c8 4939 1093 dfb9
00000110: a2e2 2f37 6f9f 05ba 1a04 7fb9 cfee fdb9
00000120: 3b4c 10ba 4d68 4c3a fee6 9fb9 aa2f 4a39
00000130: 255c 4139 54be 1139 772c ea39 56da 1eba
00000140: 2601 d9b8 f80d 003a ffd6 bab9 24a8 deb9
00000150: f96d 1eba 9c28 5c37 c149 ccb9 70d2 9ab9
00000160: 57c6 69ba 1a86 a1b9 daa6 2c3a cae4 7239
00000170: 6ed5 0b3a a069 9937 7124 b23a cfa6 a739
00000180: 4c54 64b7 e069 bcb9 0365 9c39 acf4 88b9
00000190: 3352 803a 1801 e338 3d7d b239 2ed7 d1b9
000001a0: c611 f739 238e fbb9 3c77 0fba 0ab0 90b8
000001b0: 3cda d1b6 7483 5239 00d1 e5b9 6a82 8ab8
000001c0: 357c 1aba 4c46 2039 eb34 84ba aa6d 1aba
000001d0: cf6a 313a ede0 26ba 3c92 9a39 7444 ac39
000001e0: 859c bd39 9cbd 8639 8b4f 1aba 2ec6 13b9
000001f0: 6324 d939 132f 1f38 181b 30ba 1c0b a5b9
00000200: bbc2 f338 a32b 1fba 8c67 4539 417c 66ba
00000210: 2c42 aab9 9dbe 7d3a 1c80 87b9 1a6d 963a
00000220: 853c 953a 7d77 853a 1654 e039 ec54 733a
00000230: 4431 47ba 3fdf 213a 21b8 46ba c7bf 6f3a
00000240: 25a7 b939 8776 4d3a 1058 13ba ac35 403a
00000250: 8f72 12ba b055 f9b9 f6c2 273a f132 8cb8
00000260: ddb1 95b9 3db5 4cba 5846 8939 18ed 62ba
00000270: aab0 09ba 9045 74ba 8a84 30ba dbd2 6d3a
00000280: f659 26ba 8d5b 1b3a 7d5b 073a 2d36 ba39
00000290: fa73 1c3a bcf8 52ba 7eba c6b9 14be 453a
000002a0: 0d6a d4b9 5942 04ba e60c 15ba 4abb 0d3a
000002b0: 506e 20ba 99e1 3338 a266 30ba 5570 43b9
000002c0: a904 353a 491f 8fb9 1b6b 873a 56d9 223a
000002d0: 389d af3a fd67 4e3a 4e49 6a39 ac98 7aba
000002e0: fb62 003a 5cd3 3eba 97b0 8a3a 3971 df39
000002f0: da4f 233a 39d9 0aba bd7c 413a b71b 1fba
00000300: 1cd9 6ab9 b74a 053a f0a1 d0b8 ce3f 43b8
00000310: 3899 10ba df70 eb39 9622 2cba 40ab bdb9
00000320: 380f b5b9 4b7d eeb9 e4da 663a 33dc 03ba
00000330: 2ac8 5e39 fe7e 4c3a 350a db39 e101 103a
00000340: dd83 3cba b3ce 8ab9 87fa 353a 09c6 a1b9
00000350: c002 19ba cd7d c9b9 53b9 b539 8082 05b9
00000360: 8126 bab8 3dec 04ba 6558 d638 7a58 1c3a
00000370: 1631 1039 b374 c339 28cf 9a39 7379 183a
00000380: abed 333a eefa b038 b8c3 9fb9 4af0 fa39
00000390: 8e11 e7b9 d1f6 513a 93e6 0239 5740 b639
000003a0: d6cf 9ab9 765a 193a ecc7 1cba 7285 78b9
000003b0: eadc a439 7cff f8b7 d637 d039 c854 06ba
000003c0: 84ed 1e38 e44f d0b9 b26b 29b8 c450 9bb9
000003d0: 8c6f e8b9 c0cb 2e3a ac83 87b9 1358 c9b7
000003e0: e2ec c939 6ec5 5439 d7df d739 1ab4 d3b9
000003f0: 408c 6a38 3ad0 bf39 4886 88b8 2d0e 59b9

lstm.weight_hh_l1 f4 [172, 43]
-0.0012594496 -0.0011446023 -0.0011410785 -0.0010891795 0.001088935 0.0012256483 0.0011302355 -0.0011574423
-0.0010827678 -0.0010776577 0.0012194387 0.0011240907 -0.0012154172 0.0011265503 -0.001040508 0.0011379103
-0.0013119043 0.0011049148 0.0009832876 0.0012427963 0.0010839544 0.0011060078 -0.001095568 -0.0011491065
-0.0010757339 -0.0010319554 -0.0011775594 0.0010970463 -0.0010928004 0.001168014 0.0012391583 0.0011100358
-0.0010875261 0.0010023608 0.001024777 -0.0010783087 0.0010036189 -0.0010218694 0.0010222845 0.0011297681
-0.001042152 0.0011081242 -0.0011023915 -0.0012615423 -0.0011328033 -0.0011256476 -0.0010710554 0.0010763556
0.0012202887 0.0011133576 -0.0011445966 -0.0010641919 -0.0010555807 0.0012198042 0.0011116379 -0.0012115921
0.0011122162 -0.001017289 0.0011234941 -0.0013203814 0.0010881741 0.00095533003 0.0012361379 0.001067296
0.0010938596 -0.0010758296 -0.0011352269 -0.0010560472 -0.0010042811 -0.0011673777 0.001081004 -0.0010739495
0.0011599645 0.0012365216 0.001093149 -0.0010731517 0.0009749286 0.001000839 -0.0010575422 0.00097222946
-0.000993809 0.000998352 0.0011154969 -0.0010191668 0.0010909552 -0.0010853402 -0.0013517883 -0.001216672
-0.0012111116 -0.0011469718 0.0011538438 0.0013096955 0.0011956797 -0.0012281495 -0.0011432105 -0.0011311615
0.0013061541 0.001191038 -0.0012996319 0.0011927346 -0.0010899645 0.0012068964 -0.0014157956 0.0011663014
0.0010242903 0.001326656 0.0011430524 0.00117535 -0.0011550417 -0.0012193328 -0.001132973 -0.001077012
-0.0012526467 0.0011590979 -0.0011532797 0.0012440513 0.0013307942 0.0011722016 -0.0011512056 0.0010447631
0.0010736783 -0.0011319418 0.0010406243 -0.0010650229 0.0010674549 0.001200146 -0.001095402 0.001171688
-0.0011647035 -0.0015216054 -0.0013990238 -0.0014018817 -0.0013427989 0.0013415973 0.0014842985 0.0013832897
-0.001415886 -0.0013374225 -0.0013301955 0.0014775025 0.0013855909 -0.0014787663 0.0013780491 -0.0012874472
0.0013934061 -0.0015768585 0.0013542636 0.0012277274 0.0014997069 0.0013309818 0.0013596134 -0.0013541103
-0.001409511 -0.0013281194 -0.0012819968 -0.0014374352 0.0013491065 -0.0013513826 0.001425412 0.001501678
0.001361226 -0.0013355515 0.001247181 0.0012696603 -0.0013238117 0.0012477682 -0.0012720111 0.0012681552
0.0013880447 -0.0012917384 0.001361757 -0.0013564697 -0.0013243476 -0.0011986734 -0.0011960046 -0.0011381371
0.0011409824 0.0012857576 0.0011843637 -0.0012109777 -0.0011330765 -0.0011261186 0.0012817746 0.0011773973
-0.0012729096 0.0011792439 -0.001087052 0.0011940779 -0.0013790722 0.0011564352 0.0010270096 0.0013040368
0.0011374 0.0011591341 -0.0011455169 -0.0012026012 -0.0011245811 -0.0010794037 -0.0012352243 0.0011476185
-0.00114454 0.0012240611 0.0012997318 0.0011648829 -0.0011407965 0.0010470909 0.0010695836 -0.0011281534
0.0010473748 -0.001065666 0.0010703697 0.001179283 -0.0010874037 0.0011594216 -0.0011561824 -0.00120154
-0.0010834571 -0.0010767474 -0.0010224719 0.0010285183 0.0011639277 0.0010606587 -0.001090498 -0.0010200754
-0.0010078968 0.0011625285 0.0010625683 -0.0011559805 0.0010587822 -0.0009691159 0.0010697036 -0.0012589317
0.0010363339 0.0009116386 0.0011742777 0.0010136395 0.0010492059 -0.0010264813 -0.0010849837 -0.0010079902
-0.0009583627 -0.0011114571 0.0010316782 -0.0010254722 0.0011066303 0.0011814649 0.0010414806 -0.0010213999
0.0009280083 0.00095830817 -0.0010057271 0.0009221586 -0.0009497493 0.0009495934 0.001068781 -0.0009792169
00000000: 1e14 a5ba 7b06 96ba 3e90 95ba cdc2 8eba
00000010: 98ba 8e3a efa5 a03a 6924 943a 52b5 97ba
00000020: a9eb 8dba 3140 8dba 93d5 9f3a 3a56 933a
00000030: a24e 9fba c1a8 933a a861 88ba ef25 953a
00000040: 34f4 abba cad2 903a a8e1 803a 53e5 a23a
00000050: 7913 8e3a 77f7 903a 2999 8fba 9e9d 96ba
00000060: a4ff 8cba ad42 87ba 5658 9aba c4ca 8f3a
00000070: 4c3c 8fba 0c18 993a 416b a23a 9f7e 913a
00000080: 528b 8eba a661 833a cf51 863a 0956 8dba
00000090: dd8b 833a 3ff0 85ba 2dfe 853a ba14 943a
000000a0: d298 88ba 7a3e 913a 1f7e 90ba 565a a5ba
000000b0: 927a 94ba 778a 93ba a862 8cba 8014 8d3a
000000c0: 18f2 9f3a 15ee 913a 4a06 96ba 5b7c 8bba
000000d0: 695b 8aba d6e1 9f3a 61b4 913a 49ce 9eba
000000e0: c8c7 913a 8e56 85ba 3542 933a a610 adba
000000f0: 10a1 8e3a 1d6f 7a3a e805 a23a 83e4 8b3a
00000100: d65f 8f3a da02 8dba e5cb 94ba 106b 8aba
00000110: 15a2 83ba b202 99ba 7ab0 8d3a c4c3 8cba
00000120: f309 983a c812 a23a fe47 8f3a ffa8 8cba
00000130: 5a92 7f3a 962e 833a 3a9d 8aba 37dd 7e3a
00000140: b242 82ba 22db 823a dd35 923a 9095 85ba
00000150: 62fe 8e3a f941 8eba 7d2e b1ba bd78 9fba
00000160: 29be 9eba fd55 96ba 933c 973a 17aa ab3a
00000170: 5ab8 9c3a dcf9 a0ba c7d7 95ba 7b43 94ba
00000180: 4233 ab3a 9b1c 9c3a 6958 aaba 8855 9c3a
00000190: 24dd 8eba b930 9e3a 3892 b9ba 95de 983a
000001a0: 7b41 863a 30e3 ad3a 79d2 953a 340e 9a3a
000001b0: c564 97ba 05d2 9fba 4480 94ba 872a 8dba
000001c0: d92f a4ba dfec 973a a529 97ba 6f0f a33a
000001d0: 0b6e ae3a 8fa4 993a 0de4 96ba 6ff0 883a
000001e0: aaba 8c3a aa5d 94ba 8f65 883a 3d98 8bba
000001f0: d8e9 8b3a 384e 9d3a 9893 8fba 5393 993a
00000200: f7a8 98ba 9b70 c7ba 735f b7ba 58bf b7ba
00000210: db00 b0ba 89d8 af3a cb8c c23a 804f b53a
00000220: 4095 b9ba 744c afba f459 aeba c2a8 c13a
00000230: b79c b53a 2ad3 c1ba a89f b43a 8fbf a8ba
00000240: f3a2 b63a 97ae ceba 8c81 b13a b2eb a03a
00000250: d091 c43a 5774 ae3a 0e35 b23a 677c b1ba
00000260: 57bf b8ba 4b14 aeba ad08 a8ba 5268 bcba
00000270: 81d4 b03a e020 b1ba e4d4 ba3a f4d3 c43a
00000280: 2a6b b23a ac0d afba 7378 a33a bb6a a63a
00000290: c083 adba 278c a33a 9cb9 a6ba 3a38 a63a
000002a0: 0def b53a 8c4f a9ba fc7c b23a 92cb b1ba
000002b0: bb95 adba ce1c 9dba 41c3 9cba 8b2d 95ba
000002c0: 048d 953a de86 a83a a73c 9b3a abb9 9eba
000002d0: bd83 94ba 459a 93ba 3801 a83a e652 9a3a
000002e0: c2d7 a6ba dc90 9a3a 6a7b 8eba 9b82 9c3a
000002f0: fcc1 b4ba 8793 973a b99c 863a 37ec aa3a
00000300: d014 953a 16ee 973a 2b25 96ba 9aa0 9dba
00000310: ae66 93ba c77a 8dba 40e7 a1ba b06b 963a
00000320: 6404 96ba ad70 a03a c35b aa3a fcae 983a
00000330: c786 95ba 8a3e 893a 4531 8c3a 8cde 93ba
00000340: 1148 893a d1ad 8bba a64b 8c3a 2c92 9a3a
00000350: 3787 8eba bcf7 973a 0b8b 97ba fe7c 9dba
00000360: ca02 8eba a621 8dba 7704 86ba 59cf 863a
00000370: ef8e 983a cd05 8b3a 0aef 8eba 0db4 85ba
00000380: 681b 84ba fc5f 983a e045 8b3a 4584 97ba
00000390: d6c6 8a3a 440c 7eba 4c35 8c3a bd02 a5ba
000003a0: 98d5 873a 08fb 6e3a 39ea 993a 19dc 843a
000003b0: 8285 893a ff8a 86ba 0336 8eba 8a1e 84ba
000003c0: a23a 7bba 50ae 91ba 6039 873a 2369 86ba
000003d0: 5a0c 913a 62db 9a3a 4a82 883a 7ee0 85ba
000003e0: 9545 733a f936 7b3a 9ad2 83ba 04bd 713a
000003f0: 99f8 78ba 22ee 783a 5716 8c3a 1159 80ba

lstm.bias_ih_l1 f4 [172]
0.060163647 0.051205758 0.049357228 0.04887145 0.054509547 0.057322748 0.05045561 0.050365206
0.05196514 0.048686035 0.062969044 0.049913935 0.055080235 0.049602993 0.051390592 0.048504047
0.06173344 0.046520263 0.043953244 0.056445997 0.05180722 0.052238762 0.044824317 0.053810604
0.04852865 0.04699184 0.056455296 0.05054405 0.05049664 0.053703327 0.0613662 0.04750291
0.050756797 0.04482067 0.049166556 0.050364427 0.042502828 0.04705348 0.047165696 0.050413225
0.048272338 0.044615746 0.047960956 0.012814741 0.0128708035 0.013034347 0.012600442 0.0128885275
0.012923632 0.011414167 0.01256471 0.012160462 0.011929081 0.013021176 0.013295296 0.014081137
0.010925194 0.01083972 0.012022366 0.014937256 0.011571786 0.010730243 0.011522073 0.0111637125
0.013001949 0.012473962 0.013303684 0.011386115 0.010740056 0.012479424 0.011757639 0.012664008
0.012792885 0.013998672 0.0113417795 0.011403513 0.009937774 0.011163495 0.0106450375 0.009756989
0.011601388 0.010771452 0.013480182 0.011971262 0.011877908 0.012001219 -0.19857267 -0.1528489
-0.16971323 -0.17636317 0.17012002 0.16333269 0.17023045 -0.16940387 -0.1767475 -0.15803607
0.18148665 0.18274555 -0.17265305 0.1944488 -0.18189453 0.18338063 -0.20043188 0.17083119
0.14554222 0.17938322 0.17001767 0.14969696 -0.17874686 -0.15842542 -0.18812054 -0.14483196
-0.1911426 0.18415247 -0.15825173 0.2006057 0.1846816 0.19483724 -0.17889327 0.14183176
0.13450189 -0.17993611 0.18784948 -0.15677182 0.14485684 0.15052228 -0.13320833 0.19082204
-0.15541686 0.07491408 0.06024413 0.055334225 0.06612932 0.061664686 0.07013857 0.06182079
0.06259106 0.061449617 0.053126108 0.07379522 0.06407273 0.06585147 0.06277358 0.05586308
0.060355287 0.07008296 0.0581355 0.056881692 0.06661119 0.056171037 0.055504702 0.057331063
0.064536296 0.052862726 0.05789559 0.05741189 0.058906745 0.05519219 0.06343581 0.064253695
0.05627915 0.057854027 0.047662735 0.05806071 0.059576504 0.049076542 0.05895843 0.049803447
0.05483616 0.058494978 0.05134646 0.06472524
00000000: 286e 763d 21bd 513d ce2a 4a3d 6e2d 483d
00000010: 6745 5f3d 42cb 6a3d 8baa 4e3d bf4b 4e3d
00000020: 66d9 543d 026b 473d eaf5 803d 8e72 4c3d
00000030: d09b 613d 822c 4b3d f17e 523d 2eac 463d
00000040: 34dc 7c3d 088c 3e3d 5108 343d eb33 673d
00000050: cf33 543d 50f8 553d b499 373d 8268 5c3d
00000060: fac5 463d 847a 403d ab3d 673d 4707 4f3d
00000070: 91d5 4e3d 05f8 5b3d 205b 7b3d 6992 423d
00000080: 5ce6 4f3d e195 373d df62 493d ee4a 4e3d
00000090: 7217 2e3d 26bb 403d d130 413d 197e 4e3d
000000a0: 37b9 453d 00bf 363d b572 443d ebf4 513c
000000b0: 10e0 523c 048e 553c 1672 4e3c 672a 533c
000000c0: a4bd 533c 7c02 3b3c 37dc 4d3c ad3c 473c
000000d0: 3172 433c c556 553c 83d4 593c 92b4 663c
000000e0: 96ff 323c 1599 313c 75f9 443c 65bb 743c
000000f0: 9797 3d3c e7cd 2f3c 14c7 3c3c 01e8 363c
00000100: 2006 553c 975f 4c3c b2f7 593c d48c 3a3c
00000110: 0ff7 2f3c 7f76 4c3c 1da3 403c b37c 4f3c
00000120: 4099 513c b05a 653c dfd2 393c cdd5 3a3c
00000130: 0cd2 223c 17e7 363c 8668 2e3c c7db 1f3c
00000140: c013 3e3c bf7a 303c fbdb 5c3c 1d23 443c
00000150: 8f9b 423c c3a0 443c a256 4bbe 6c84 1cbe
00000160: 4ec9 2dbe 8c98 34be f133 2e3e af40 273e
00000170: e450 2e3e 3578 2dbe 4cfd 34be 35d4 21be
00000180: a3d7 393e a621 3b3e f6cb 30be 961d 473e
00000190: 8f42 3abe 22c8 3b3e 043e 4dbe 5fee 2e3e
000001a0: 0509 153e 3cb0 373e 1d19 2e3e 294a 193e
000001b0: 6b09 37be 463a 22be aca2 40be d44e 14be
000001c0: e3ba 43be 7792 3c3e be0c 22be 956b 4d3e
000001d0: 2c1d 3d3e 6a83 473e cc2f 37be 583c 113e
000001e0: ddba 093e 2c41 38be 9d5b 403e cb88 20be
000001f0: 5a55 143e 8322 1a3e c467 08be da66 433e
00000200: 9925 1fbe 8e6c 993d 8dc2 763d 24a6 623d
00000210: cf6e 873d 1c94 7c3d d0a4 8f3d cc37 7d3d
00000220: be2f 803d 98b2 7b3d c39a 593d f321 973d
00000230: 9038 833d 23dd 863d 6f8f 803d afd0 643d
00000240: 1b37 773d a887 8f3d 7d1f 6e3d c7fc 683d
00000250: 736b 883d 9a13 663d e658 633d fad3 6a3d
00000260: 9b2b 843d 9686 583d ed23 6d3d bb28 6b3d
00000270: 3348 713d 3511 623d a2ea 813d 7197 833d
00000280: f784 663d 58f8 6c3d 003a 433d 11d1 6d3d
00000290: 7e06 743d 7c04 493d 657e 713d b3fe 4b3d
000002a0: e29b 603d 6e98 6f3d aa50 523d ab8e 843d

lstm.bias_hh_l1 f4 [172]
0.06295077 0.05448257 0.05437036 0.051569115 0.05487512 0.05498176 0.054592043 0.05475767
0.048618183 0.043593936 0.058323182 0.056854825 0.055539902 0.054954235 0.044664837 0.048418403
0.059573825 0.053287625 0.044901226 0.05622889 0.046430673 0.05798308 0.052067127 0.05335872
0.04563676 0.052047305 0.055119004 0.050263155 0.05005347 0.055624444 0.05574742 0.053402632
0.047316544 0.04118837 0.046759587 0.04511347 0.04186106 0.044411257 0.04822833 0.045959786
0.04645892 0.051884145 0.051189583 0.012814733 0.012870901 0.013038886 0.012598002 0.012891878
0.012923274 0.011416467 0.012565449 0.012158212 0.011924127 0.01301968 0.0133008985 0.014078227
0.010924905 0.010839237 0.0120259095 0.014937317 0.011568822 0.010727643 0.011521919 0.011163772
0.012999145 0.012477065 0.013300148 0.011388454 0.010738973 0.012482804 0.011761689 0.012668744
0.012797502 0.013994403 0.011344834 0.011407935 0.009941324 0.011163971 0.010646372 0.00975524
0.011598309 0.010768461 0.013478327 0.011969932 0.011875883 0.012000104 -0.17596923 -0.19420223
-0.18154526 -0.16403607 0.16132693 0.20445767 0.18279926 -0.18829016 -0.15616481 -0.18317033
0.17764606 0.16494647 -0.19312449 0.15497735 -0.1502993 0.17485493 -0.1813624 0.17505598
0.17342815 0.20059656 0.17390007 0.18058267 -0.1697353 -0.19623396 -0.1532346 -0.18740918
-0.1699251 0.15687013 -0.19073097 0.15413693 0.18389605 0.152918 -0.15993237 0.18447228
0.18690765 -0.1647537 0.14906353 -0.17344885 0.18477522 0.19656035 -0.19267508 0.15754335
-0.19187243 0.07471366 0.06601157 0.06281784 0.055996943 0.06731565 0.06498736 0.062457014
0.06766596 0.06422442 0.059570227 0.06954115 0.06202803 0.07174915 0.06176198 0.05315128
0.052487087 0.074482754 0.06380483 0.046356652 0.06908995 0.05598458 0.06869949 0.058081523
0.062423944 0.056577805 0.0597743 0.070437655 0.06329969 0.054927927 0.068386406 0.06531561
0.06398086 0.056651417 0.056489654 0.059130695 0.05885535 0.049753424 0.051926043 0.05388029
0.05988891 0.054078907 0.05928709 0.052865446
00000000: 55ec 803d 1e29 5f3d 74b3 5e3d 233a 533d
00000010: bcc4 603d 8e34 613d e89b 5f3d 9449 603d
00000020: dc23 473d 8e8f 323d 4ae4 6e3d 9be0 683d
00000030: cf7d 633d b117 613d 7af2 363d 6052 463d
00000040: af03 743d 2044 5a3d 59ea 373d 4450 663d
00000050: 172e 3e3d ab7f 6d3d 5744 553d ac8e 5a3d
00000060: 9ced 3a3d 8e2f 553d 77c4 613d bde0 4d3d
00000070: de04 4d3d 75d6 633d 6857 643d b8bc 5a3d
00000080: fece 413d 23b5 283d fb86 3f3d e7c8 383d
00000090: 8176 2b3d 94e8 353d 128b 453d 5440 3c3d
000000a0: b54b 3e3d 7884 543d 2bac 513d e3f4 513c
000000b0: 79e0 523c 0da1 553c da67 4e3c 7538 533c
000000c0: 24bc 533c 220c 3b3c 50df 4d3c 3d33 473c
000000d0: 6a5d 433c 7f50 553c 03ec 593c 5da8 663c
000000e0: 5ffe 323c 0e97 313c 5208 453c a6bb 743c
000000f0: 288b 3d3c ffc2 2f3c 6ec6 3c3c 41e8 363c
00000100: 5efa 543c 9b6c 4c3c dde8 593c a396 3a3c
00000110: 84f2 2f3c ad84 4c3c 19b4 403c 9090 4f3c
00000120: 9dac 513c c848 653c afdf 393c 59e8 3a3c
00000130: efe0 223c 17e9 363c 1f6e 2e3c 71d4 1f3c
00000140: d506 3e3c 336e 303c 33d4 5c3c 891d 443c
00000150: 1093 423c 169c 443c 4731 34be f3dc 46be
00000160: 00e7 39be 12f9 27be e332 253e 5a5d 513e
00000170: bb2f 3b3e 23cf 40be abe9 1fbe 0191 3bbe
00000180: d9e8 353e bae7 283e 6dc2 45be 62b2 1e3e
00000190: 0fe8 19be 2c0d 333e 11b7 39be e041 333e
000001a0: 2697 313e 2f69 4d3e dc12 323e aaea 383e
000001b0: 17cf 2dbe 8ef1 48be 88e9 1cbe 31e8 3fbe
000001c0: d800 2ebe 90a2 203e fb4e 43be 12d6 1d3e
000001d0: 3f4f 3c3e 8996 1c3e 50c5 23be 4de6 3c3e
000001e0: b864 3f3e 32b5 28be 1ca4 183e 939c 31be
000001f0: b735 3d3e 1e47 493e 9e4c 45be 0b53 213e
00000200: 357a 44be 7a03 993d 1331 873d a4a6 803d
00000210: 0d5d 653d cadc 893d 1818 853d edd2 7f3d
00000220: 7394 8a3d 1888 833d e9ff 733d 976b 8e3d
00000230: 1b11 7e3d 38f1 923d 21fa 7c3d 28b5 593d
00000240: b3fc 563d 6a8a 983d 1bac 823d 79e0 3d3d
00000250: 087f 8d3d 1650 653d 51b2 8c3d e4e6 6d3d
00000260: 40b0 7f3d 21be 673d e5d5 743d 9e41 903d
00000270: 45a3 813d 1bfc 603d 2c0e 8c3d 31c4 853d
00000280: 6608 833d 510b 683d b261 673d 0733 723d
00000290: 4f12 713d 3fca 4b3d 67b0 543d 94b1 5c3d
000002a0: 134e 753d d881 5d3d 05d7 723d 7089 583d
