InterConditional_LSTMs/models/model_4.pt (torch_old, 161113 bytes, 13 tensors)

lstm.weight_ih_l0 f4 [172, 8]
0.0002593326 -1.7640364e-08 -0.0013741704 -3.7992094e-09 -0.00011988288 -3.375653e-05 -0.00041095604 -0.00013317086
5.1553725e-05 9.046202e-09 -0.00094383676 -2.0201756e-09 -0.00011050661 -8.4791085e-05 -0.00037193965 -0.00010368485
0.00037890614 3.718905e-08 -0.0014846355 6.4416437e-09 -0.00015920062 -7.256854e-05 -0.00034003737 -0.00015024867
0.00017319323 -9.774279e-09 -0.00086536206 -3.3189815e-09 -6.5061875e-05 -4.9621667e-05 -0.00023637555 -7.34082e-05
0.00024971817 2.213326e-08 -0.0017242996 7.2264026e-09 -0.00014816574 -5.197272e-05 -0.00053349324 -0.00017476168
0.00012745407 -9.3476356e-09 -0.0006612193 -2.6528377e-09 -8.048241e-05 -5.157765e-05 -0.00020946474 -9.13497e-05
0.000290585 -1.339261e-08 -0.001411405 9.646139e-09 -0.00015419934 -8.8602654e-05 -0.000486632 -0.00015331729
0.00062340917 5.580271e-08 -0.0013692079 -1.6370743e-09 -0.00014285423 -8.601551e-05 -0.0001802674 -0.00018742651
0.0001830143 2.9862985e-08 -0.0015859513 -3.7130077e-09 -0.00012453449 -8.030376e-05 -0.00057704054 -0.00012323109
0.0004684169 3.2520255e-08 -0.0009362565 1.1700567e-08 -0.00012962791 -0.000107383355 -0.00016460719 -9.687957e-05
0.0002791638 -1.0808438e-08 -0.0015314568 1.4138681e-08 -0.000109699446 -2.9016934e-05 -0.00050496537 -0.00011725103
0.00016037459 3.5124348e-08 -0.0013596091 1.0517255e-08 -0.00014274698 -8.1388556e-05 -0.0004819092 -0.00014131385
5.8939193e-05 -8.0449505e-09 -0.0009815862 1.6371248e-09 -0.00010147 -8.9522626e-05 -0.00039823403 -0.00011467874
0.00011642048 2.4246225e-08 -0.0006376631 -1.8044748e-09 -7.133807e-05 -5.991237e-05 -0.00017648045 -7.7154895e-05
0.0004878218 -1.8988333e-08 -0.0009998331 1.5118957e-08 -0.00016143573 -0.00013106964 -7.412482e-05 -0.00016549084
0.00034300145 -3.947508e-09 -0.0015604349 9.587145e-09 -0.00010624547 -3.477264e-05 -0.00049710245 -0.0001030227
0.00036809282 -1.3150533e-08 -0.0013235698 -1.1108305e-08 -8.7706394e-05 -8.99152e-05 -0.00037313497 -0.00010112606
0.0005354443 -1.9100316e-08 -0.001496119 -6.5203976e-09 -0.00016124283 -5.6343335e-05 -0.00032190655 -0.00011189269
0.00023246126 -5.503054e-08 -0.0013650258 1.0728254e-08 -0.00011537103 -6.4060245e-05 -0.0004742039 -0.00012826665
0.0002477571 -2.065996e-08 -0.0010514334 -4.990762e-09 -0.00014792373 -5.8490165e-05 -0.00032949707 -0.0001624161
0.00035803625 4.0745604e-08 -0.0016427152 -5.171198e-09 -0.00014316413 -6.5488835e-05 -0.0004120084 -0.0001604534
0.0005919721 -1.5589169e-08 -0.0016977194 -4.4065556e-09 -0.00018376662 -6.9479305e-05 -0.00045810317 -0.0001749587
0.00013820053 1.7979877e-08 -0.0006864106 5.44744e-09 -8.31761e-05 -8.075418e-05 -0.00020794099 -0.000104638304
0.00032028812 -3.545999e-09 -0.0010834619 -1.2821089e-08 -0.00014644722 -8.9857254e-05 -0.0002934066 -0.00017636677
0.00047905167 -1.1851396e-08 -0.0010929714 9.36773e-09 -0.00011509085 -5.9057118e-05 -0.00023969212 -0.00011969649
0.00013269989 1.8393038e-08 -0.0008578678 -2.741936e-09 -8.1295235e-05 -0.00010107017 -0.0002859586 -6.3725376e-05
0.0003278153 3.261877e-08 -0.0016264385 -5.8957768e-09 -0.00017033516 -8.459838e-05 -0.00051539403 -0.00015480218
0.00067230547 -2.8746559e-08 -0.0019774141 -5.9881113e-09 -0.00019014375 -9.411582e-05 -0.00025283603 -0.00019523277
0.00094731577 2.8498437e-08 -0.0018097543 -8.012304e-09 -0.00012696882 -3.8677783e-05 -0.00028315381 -0.00014598024
0.00045860047 3.0402543e-08 -0.0013470345 1.6175882e-08 -0.0001626919 -0.00013581682 -0.00031642138 -0.00019736357
0.00069194275 -3.21458e-08 -0.0014929234 6.503704e-09 -0.00020879981 -0.00014600446 -0.00032859165 -0.00024859217
0.0004548111 -1.20815455e-08 -0.0012203646 -4.7041024e-09 -9.839815e-05 -4.9379352e-05 -0.00027666704 -0.00011348393
00000000: 08f7 8739 9287 97b2 821d b4ba 338a 82b1
00000010: a269 fbb8 cc95 0db8 9675 d7b9 c8a3 0bb9
00000020: 643b 5838 9e69 1b32 d06b 77ba 4ed3 0ab1
00000030: c9bf e7b8 ded1 b1b8 e500 c3b9 6171 d9b8
00000040: eca7 c639 cbb9 1f33 1a98 c2ba 4c55 dd31
00000050: 17ef 26b9 f02f 98b8 0b47 b2b9 128c 1db9
00000060: 349b 3539 bceb 27b2 77d9 62ba 2414 64b1
00000070: d471 88b8 dc20 50b8 94db 77b9 baf2 99b8
00000080: 9bec 8239 8e1f be32 e501 e2ba 1c4c f831
00000090: f05c 1bb9 48fd 59b8 20da 0bba 3b40 37b9
000000a0: 31a5 0539 5697 20b2 ad55 2dba 374d 36b1
000000b0: aac8 a8b8 1455 58b8 c3a3 5bb9 ff92 bfb8
000000c0: a959 9839 5215 66b2 e5fe b8ba 2bb8 2532
000000d0: 92b0 21b9 30d0 b9b8 a422 ffb9 ccc3 20b9
000000e0: 486c 233a baab 6f33 fe76 b3ba 6eff e0b0
000000f0: 24cb 15b9 3a63 b4b8 2906 3db9 ec87 44b9
00000100: 87e7 3f39 b342 0033 b2df cfba ec27 7fb1
00000110: 7995 02b9 c168 a8b8 8944 17ba 9837 01b9
00000120: da95 f539 66ac 0b33 1c6f 75ba a303 4932
00000130: baec 07b9 0033 e1b8 689a 2cb9 d32b cbb8
00000140: bb5c 9239 03b0 39b2 2abb c8ba 94e6 7232
00000150: 710e e6b8 6469 f3b7 a75f 04ba abe4 f5b8
00000160: 3a2a 2839 a1db 1633 e934 b2ba 60af 3432
00000170: 5aae 15b9 26af aab8 c2a8 fcb9 a62d 14b9
00000180: 7a35 7738 1136 0ab2 91a8 80ba 3501 e130
00000190: 4bcc d4b8 18be bbb8 11ca d0b9 ae7f f0b8
000001a0: c526 f438 0346 d032 d928 27ba 5001 f8b0
000001b0: 569b 95b8 6b4a 7bb8 9c0d 39b9 38ce a1b8
000001c0: 55c2 ff39 c91b a3b2 d50c 83ba f0de 8132
000001d0: 1347 29b9 bd6f 09b9 7673 9bb8 9c87 2db9
000001e0: e0d4 b339 a6a2 87b1 8287 ccba b6b4 2432
000001f0: 1ad0 deb8 d7d8 11b8 fb4f 02ba e40d d8b8
00000200: 95fc c039 a8ec 61b2 a27b adba d8d6 3eb2
00000210: 03ef b7b8 db90 bcb8 54a1 c3b9 a413 d4b8
00000220: 0f5d 0c3a 0a12 a4b2 6c19 c4ba 060a e0b1
00000230: 4b13 29b9 3252 6cb8 91c5 a8b9 eea7 eab8
00000240: d8c0 7339 b85a 6cb3 aaea b2ba 5c4f 3832
00000250: 5af3 f1b8 1558 86b8 929e f8b9 517f 06b9
00000260: 65e5 8139 bc77 b1b2 40d0 89ba 357b abb1
00000270: f91b 1bb9 5653 75b8 59c0 acb9 3d4e 2ab9
00000280: d0b6 bb39 4400 2f33 6050 d7ba 57ae b1b1
00000290: 541e 16b9 0d57 89b8 d502 d8b9 623f 28b9
000002a0: 932e 1b3a f2e8 85b2 0386 deba 7968 97b1
000002b0: 7ab1 40b9 6bb5 91b8 912d f0b9 1e75 37b9
000002c0: ece9 1039 2b72 9a32 3cf0 33ba 302c bb31
000002d0: d46e aeb8 925a a9b8 bc0a 5ab9 4371 dbb8
000002e0: 58ec a739 e0ad 73b1 f302 8eba bf43 5cb2
000002f0: a08f 19b9 bf71 bcb8 5ed4 99b9 18ef 38b9
00000300: 3a29 fb39 fe9a 4bb2 0942 8fba b6ef 2032
00000310: ee5c f1b8 19b4 77b8 dd55 7bb9 9005 fbb8
00000320: 5b25 0b39 b8fe 9d32 89e2 60ba a66c 3cb1
00000330: 0c7d aab8 a2f5 d3b8 b7ec 95b9 4da4 85b8
00000340: a0de ab39 b818 0c33 382e d5ba cd93 cab1
00000350: ff9b 32b9 696a b1b8 821b 07ba 6552 22b9
00000360: a83d 303a 5aee f6b2 8197 01bb fcbf cdb1
00000370: 5361 47b9 0c60 c5b8 148f 84b9 66b7 4cb9
00000380: 4955 783a bacc f432 4735 edba 7ca6 09b2
00000390: ef22 05b9 f439 22b8 4374 94b9 4612 19b9
000003a0: 5070 f039 f393 0233 fa8e b0ba 24f3 8a32
000003b0: 4698 2ab9 0d6a 0eb9 5ce5 a5b9 61f3 4eb9
000003c0: 7e63 353a ae10 0ab3 32ae c3ba 2f77 df31
000003d0: 46f1 5ab9 c618 19b9 d346 acb9 7a55 82b9
000003e0: b673 ee39 338f 4fb2 a4f4 9fba b9a1 a1b1
000003f0: 1b5b ceb8 ad1c 4fb8 9f0d 91b9 39fe edb8

lstm.weight_hh_l0 f4 [172, 43]
3.584059e-05 -3.3816097e-05 3.7294983e-05 3.1581818e-05 -3.892573e-05 -3.1275296e-05 3.8019603e-05 3.9184495e-05
-3.8512564e-05 3.7227102e-05 -4.052055e-05 -3.6579288e-05 -3.2616066e-05 3.0728912e-05 3.802923e-05 -3.4818513e-05
3.6245194e-05 4.130774e-05 3.7309877e-05 -3.6673595e-05 -3.8677736e-05 -4.094455e-05 -2.9960946e-05 -3.6754227e-05
3.872602e-05 -3.333007e-05 -3.6355574e-05 3.773284e-05 4.222667e-05 3.8950442e-05 -4.0989104e-05 -3.6437337e-05
-3.3695167e-05 3.852703e-05 3.2641132e-05 3.5677087e-05 -3.770294e-05 3.213168e-05 -3.7447735e-05 3.8628514e-05
4.1617044e-05 3.1761014e-05 3.586611e-05 4.2823947e-05 -3.804761e-05 4.3064865e-05 3.7186095e-05 -4.641129e-05
-3.4925102e-05 4.334156e-05 4.5400044e-05 -4.4610795e-05 4.2106094e-05 -4.5961766e-05 -4.2505253e-05 -3.6058747e-05
3.4540768e-05 4.32429e-05 -4.2288633e-05 4.008996e-05 4.812203e-05 4.3668115e-05 -4.179106e-05 -4.555354e-05
-4.779818e-05 -3.417931e-05 -4.1360876e-05 4.450891e-05 -3.7639384e-05 -4.3374184e-05 4.523101e-05 4.921665e-05
4.3943175e-05 -4.747848e-05 -4.227679e-05 -3.9388095e-05 4.4083932e-05 3.558561e-05 3.9351467e-05 -4.2960364e-05
3.6867597e-05 -4.1985986e-05 4.523312e-05 5.041057e-05 3.4589775e-05 4.0655177e-05 7.489956e-05 -6.5143315e-05
7.761216e-05 6.45005e-05 -8.095782e-05 -6.0313734e-05 7.73401e-05 8.050397e-05 -7.810452e-05 7.455713e-05
-8.034109e-05 -7.4714306e-05 -6.614921e-05 6.0227572e-05 7.599585e-05 -7.228299e-05 7.3328345e-05 8.2596314e-05
7.6013406e-05 -7.34085e-05 -7.8413475e-05 -8.239471e-05 -6.17935e-05 -7.205186e-05 7.8447374e-05 -6.667998e-05
-7.5620075e-05 7.884858e-05 8.6786604e-05 7.766092e-05 -8.104612e-05 -7.479114e-05 -6.800012e-05 7.787142e-05
6.5311855e-05 7.117002e-05 -7.7642464e-05 6.3501284e-05 -7.4070624e-05 8.040119e-05 8.880328e-05 6.339751e-05
7.1733404e-05 3.624135e-05 -3.2410157e-05 3.7572434e-05 3.0107049e-05 -3.9367707e-05 -2.98554e-05 3.738807e-05
3.883473e-05 -3.618342e-05 3.569249e-05 -3.912999e-05 -3.5993464e-05 -3.1678504e-05 2.9462686e-05 3.6835376e-05
-3.5006226e-05 3.556762e-05 4.091314e-05 3.6941645e-05 -3.571078e-05 -3.8665763e-05 -4.103062e-05 -2.937725e-05
-3.55407e-05 3.694289e-05 -3.207619e-05 -3.616073e-05 3.777491e-05 4.228686e-05 3.6023797e-05 -4.052252e-05
-3.605762e-05 -3.3522432e-05 3.6712903e-05 3.0346539e-05 3.367807e-05 -3.5796358e-05 3.15423e-05 -3.6422327e-05
3.9070255e-05 4.3638054e-05 3.0436313e-05 3.4575565e-05 5.630778e-05 -4.9238075e-05 5.9598467e-05 4.8018912e-05
-6.1858205e-05 -4.4037093e-05 5.7787158e-05 6.198194e-05 -5.8382815e-05 5.5636847e-05 -6.0682425e-05 -5.5471217e-05
-4.6354253e-05 4.327549e-05 5.7051428e-05 -5.7686204e-05 5.536998e-05 6.353249e-05 5.7667494e-05 -5.325089e-05
-6.133208e-05 -6.5355795e-05 -4.4102606e-05 -5.323252e-05 5.8843565e-05 -4.6950845e-05 -5.8331007e-05 6.407381e-05
6.783845e-05 5.7952813e-05 -6.239021e-05 -5.683913e-05 -5.1266004e-05 5.8353646e-05 4.6080986e-05 5.1640825e-05
-5.8380665e-05 4.6004672e-05 -5.5352986e-05 6.159144e-05 6.878016e-05 4.4392644e-05 5.3516993e-05 2.5397267e-05
-2.571629e-05 2.6785367e-05 2.3693929e-05 -2.8269527e-05 -2.3796269e-05 2.6829992e-05 2.7593695e-05 -2.8749184e-05
2.7788381e-05 -2.901358e-05 -2.592263e-05 -2.3670593e-05 2.1706812e-05 2.6624872e-05 -2.5840181e-05 2.6527923e-05
2.7950064e-05 2.746076e-05 -2.7603266e-05 -2.8493725e-05 -2.8564014e-05 -2.3882936e-05 -2.5946916e-05 2.8771965e-05
-2.5596388e-05 -2.597171e-05 2.7194275e-05 3.1108888e-05 2.901379e-05 -3.0151428e-05 -2.5100451e-05 -2.5551431e-05
2.8589278e-05 2.4525429e-05 2.5018e-05 -2.7880988e-05 2.5897174e-05 -2.5976164e-05 2.7670469e-05 3.1412485e-05
00000000: 8a53 1638 c2d5 0db8 2f6d 1c38 b876 0438
00000010: 2f44 23b8 982d 03b8 3d77 1f38 085a 2438
00000020: 8d88 21b8 4c24 1c38 9cf4 29b8 b66c 19b8
00000030: 3ccd 08b8 ebe2 0038 9381 1f38 180a 12b8
00000040: fb05 1838 d941 2d38 2d7d 1c38 f9d1 19b8
00000050: e739 22b8 e0bb 2bb8 a454 fbb7 8d28 1ab8
00000060: bf6d 2238 e4cb 0bb8 807c 18b8 5443 1e38
00000070: 8b1c 3138 b85e 2338 b7eb 2bb8 4bd4 18b8
00000080: e953 0db8 1598 2138 26e8 0838 fba3 1538
00000090: 3923 1eb8 21c5 0638 3311 1db8 0d05 2238
000000a0: f68d 2e38 2137 0538 f16e 1638 dd9d 3338
000000b0: 4f95 1fb8 8ca0 3438 44f8 1b38 bea9 42b8
000000c0: 8b7c 12b8 a5c9 3538 ed6b 3e38 7a1c 3bb8
000000d0: 139b 3038 12c7 40b8 ab47 32b8 c93d 17b8
000000e0: dedf 1038 b65f 3538 135f 31b8 4426 2838
000000f0: a3d6 4938 4828 3738 cf48 2fb8 be10 3fb8
00000100: e87a 48b8 c15b 0fb8 e77a 2db8 14af 3a38
00000110: fbde 1db8 adec 35b8 6db6 3d38 fa6d 4e38
00000120: a04f 3838 a123 47b8 5c52 31b8 a534 25b8
00000130: c3e6 3838 c241 1538 510d 2538 5730 34b8
00000140: 48a2 1a38 1c1a 30b8 b1b8 3d38 f06f 5338
00000150: 7d14 1138 2a85 2a38 6513 9d38 8d9d 88b8
00000160: b6c3 a238 7144 8738 e6c7 a9b8 61f9 7cb8
00000170: a631 a238 3dd4 a838 0bcc a3b8 8e5b 9c38
00000180: cb7c a8b8 f0af 9cb8 96b9 8ab8 dd9c 7c38
00000190: f65f 9f38 a296 97b8 dbc7 9938 8f37 ad38
000001a0: 6369 9f38 e3f2 99b8 ea71 a4b8 53cb acb8
000001b0: 2297 81b8 8c1a 97b8 1d84 a438 8bd6 8bb8
000001c0: 3896 9eb8 825b a538 3401 b638 e4dd a238
000001d0: 4ef7 a9b8 30d9 9cb8 499b 8eb8 e64e a338
000001e0: 09f8 8838 1d41 9538 fbd3 a2b8 fe2b 8538
000001f0: 5d56 9bb8 0f9d a838 e63b ba38 47f4 8438
00000200: 946f 9638 da01 1838 24f0 07b8 1897 1d38
00000210: 658e fc37 c11e 25b8 fc71 fab7 22d1 1c38
00000220: 79e2 2238 a7c3 17b8 85b4 1538 821f 24b8
00000230: b0f7 16b8 89de 04b8 a326 f737 af7f 1a38
00000240: a6d3 12b8 712e 1538 269a 2b38 caf1 1a38
00000250: 28c8 15b8 0c2d 22b8 4b18 2cb8 2a6f f6b7
00000260: 8911 15b8 20f3 1a38 8c89 06b8 4aab 17b8
00000270: 8070 1e38 2c5d 3138 4218 1738 b9f6 29b8
00000280: 933c 17b8 709a 0cb8 2efc 1938 b290 fe37
00000290: 8d41 0d38 0c24 16b8 494c 0438 2dc4 18b8
000002a0: 5edf 2338 0108 3738 7c51 ff37 3b05 1138
000002b0: 052c 6c38 fb84 4eb8 5ef9 7938 ea67 4938
000002c0: dfb9 81b8 78b4 38b8 7d60 7238 4dfc 8138
000002d0: 12e0 74b8 9c5b 6938 4285 7eb8 c4a9 68b8
000002e0: 806c 42b8 b482 3538 814a 6f38 17f4 71b8
000002f0: 103d 6838 bf3c 8538 00e0 7138 b559 5fb8
00000300: 699f 80b8 a00f 89b8 d0fa 38b8 fc45 5fb8
00000310: ccce 7638 16ed 44b8 71a8 74b8 5d5f 8638
00000320: 7e44 8e38 5c12 7338 7dd7 82b8 8d66 6eb8
00000330: 7406 57b8 c0c0 7438 1547 4138 ea98 5838
00000340: c3dd 74b8 24f5 4038 d12a 68b8 a72a 8138
00000350: 113e 9038 3d32 3a38 6f77 6038 370c d537
00000360: 50b9 d7b7 23b1 e037 53c2 c637 5924 edb7
00000370: 199e c7b7 f810 e137 0279 e737 672a f1b7
00000380: 181b e937 3062 f3b7 6d74 d9b7 3690 c6b7
00000390: 0617 b637 7a58 df37 5ec3 d8b7 4888 de37
000003a0: 4e76 ea37 885b e637 908d e7b7 cf05 efb7
000003b0: c19c efb7 3758 c8b7 94a8 d9b7 535b f137
000003c0: d3b7 d6b7 d3dd d9b7 431f e437 ea7a 0238
000003d0: a462 f337 b3ed fcb7 cf8e d2b7 4857 d6b7
000003e0: 02d3 ef37 f5bb cd37 bfdd d137 f7e1 e9b7
000003f0: c23d d937 63e7 d9b7 e11d e837 e6c0 0338

lstm.bias_ih_l0 f4 [172]
0.00023792507 -0.00032393786 0.0007427174 -0.00020675905 0.0005794826 -0.00017317398 0.00041822082 0.0011470263
0.00013658829 0.00022545063 0.000112220005 1.1201659e-05 -0.0003121174 -0.0003546876 0.00038189485 0.0008450258
0.0001995285 0.00082054466 0.00015101042 -6.2118605e-05 0.00070494006 0.0012012743 -8.641358e-05 -1.7800876e-05
0.0004558709 -0.0002955123 0.00079683174 0.002737 0.0019085809 0.00035135282 0.0010967348 0.00032513074
-0.00029758355 0.00052257645 -0.00036943148 -0.00012425426 0.0006155569 -0.00031269496 -0.00013405595 0.001205058
0.0017568625 -0.0001508277 -5.8987076e-05 -1.97241e-05 -0.00016984146 -0.0001236345 -5.4557808e-05 -0.00018781658
-6.9162656e-05 -0.00011508086 0.000116410185 -0.00013041413 3.7818958e-05 -8.2199345e-05 -0.00013087354 -0.0001502976
-4.7266567e-05 -6.333102e-05 -1.783602e-05 2.7733831e-05 -5.1213865e-06 -7.573248e-05 -9.729541e-05 -6.0349288e-05
1.0411743e-05 -0.000111094654 -5.7189165e-05 -2.7560496e-05 -6.115827e-05 -8.383922e-05 -8.80627e-06 0.00015142743
1.2052909e-05 4.361349e-05 5.226257e-05 -0.00011292737 -3.011903e-05 -0.00010821977 -6.9729766e-05 -0.00013253187
-8.214051e-05 -0.00013394335 9.4824085e-05 0.00010454222 -8.835218e-05 -0.00016751485 -0.071500726 0.057342213
-0.05846561 -0.073121026 0.08966072 0.038009796 -0.07881051 -0.08217734 0.07477332 -0.070159405
0.067179084 0.08358422 0.052643042 -0.05324943 -0.0773184 0.09140169 -0.07075024 -0.09722044
-0.069355175 0.055138595 0.072304994 0.07826902 0.059693776 0.07387089 -0.07781996 0.044554073
0.09677123 -0.09419237 -0.089372076 -0.057354264 0.074185126 0.080008894 0.06511257 -0.06941319
-0.046157986 -0.068279006 0.07912665 -0.055984545 0.06888997 -0.08672191 -0.08663309 -0.06521425
-0.06344168 0.00046658368 -0.00023887982 0.0011092835 -7.19969e-05 0.0010556201 -0.00013579948 0.00074997754
0.0013134409 0.0003635549 0.00036557153 0.00031061843 0.0003554567 -0.00024019573 -0.0003387593 0.00053135987
0.0013118924 0.0004797638 0.0011056275 0.0004522289 7.004242e-05 0.0011791774 0.0019052053 -5.9924787e-05
8.0326914e-05 0.0006601791 -0.00026138444 0.0013137619 0.0037744988 0.0023588976 0.00051226735 0.0013940437
0.0006024041 -0.00018365358 0.0007152002 -0.00033611778 -6.3575026e-05 0.0008301274 -0.00028266976 -4.931846e-05
0.0015498309 0.0023263672 -0.00013051482 9.584659e-05
00000000: 867b 7939 34d6 a9b9 ecb2 423a 76cd 58b9
00000010: 6be8 173a 0996 35b9 a644 db39 d157 963a
00000020: 2439 0f39 f166 6c39 a857 eb38 c2ee 3b37
00000030: b0a3 a3b9 5df5 b9b9 0f39 c839 b984 5d3a
00000040: 8638 5139 d219 573a 8d58 1e39 ac45 82b8
00000050: bacb 383a 1474 9d3a f038 b5b8 1753 95b7
00000060: f501 ef39 fdee 9ab9 79e2 503a 3d5f 333b
00000070: 5929 fa3a c735 b839 50c0 8f3a 4f76 aa39
00000080: fd04 9cb9 83fd 083a 41b0 c1b9 404a 02b9
00000090: 535d 213a 35f1 a3b9 5f91 0cb9 09f3 9d3a
000000a0: 8646 e63a 8127 1eb9 e468 77b8 2f75 a5b7
000000b0: 7817 32b9 e2a3 01b9 00d5 64b8 a1f0 44b9
000000c0: 6b0b 91b8 9157 f1b8 3e21 f438 c7bf 08b9
000000d0: cc9f 1e38 7062 acb8 193b 09b9 3499 1db9
000000e0: 1740 46b8 95d0 84b8 909e 95b7 f3a5 e837
000000f0: 60d8 abb6 91d2 9eb8 130b ccb8 8e1f 7db8
00000100: 18ae 2e37 7dfb e8b8 66de 6fb8 b731 e7b7
00000110: 1942 80b8 d7d2 afb8 a4be 13b7 7ec8 1e39
00000120: da36 4a37 a1ed 3638 8234 5b38 6cd3 ecb8
00000130: 20a8 fcb7 0cf4 e2b8 e23b 92b8 41f8 0ab9
00000140: da42 acb8 2573 0cb9 4bdc c638 ad3d db38
00000150: b749 b9b8 eda6 2fb9 f96e 92bd abdf 6a3d
00000160: a379 6fbd 7ac0 95bd 0aa0 b73d 29b0 1b3d
00000170: 6867 a1bd 984c a8bd c122 993d bcaf 8fbd
00000180: 3095 893d 342e ab3d 3ba0 573d 131c 5abd
00000190: 1c59 9ebd cf30 bb3d 80e5 90bd 831b c7bd
000001a0: 160a 8ebd 02d9 613d a414 943d 824b a03d
000001b0: 7681 743d 9f49 973d 1260 9fbd 557e 363d
000001c0: ff2f c63d eee7 c0bd b508 b7bd 4eec 6abd
000001d0: 5fee 973d b4db a33d bd59 853d 8128 8ebd
000001e0: 2810 3dbd ddd5 8bbd 270d a23d 0d50 65bd
000001f0: 2f16 8d3d 429b b1bd b16c b1bd 0c8f 85bd
00000200: b6ed 81bd cd9f f439 d07b 7ab9 6165 913a
00000210: 0bfd 96b8 bc5c 8a3a 6565 0eb9 249a 443a
00000220: c327 ac3a 839b be39 2eaa bf39 80da a239
00000230: 975c ba39 0ddd 7bb9 819b b1b9 f54a 0b3a
00000240: cef3 ab3a cf88 fb39 b4ea 903a 2319 ed39
00000250: bde3 9238 a18e 9a3a 15b8 f93a c057 7bb8
00000260: 2f75 a838 df0f 2d3a 6d0a 89b9 8932 ac3a
00000270: 955d 773b bc97 1a3b ae49 063a 58b8 b63a
00000280: a8ea 1d3a 2293 40b9 467c 3b3a f738 b0b9
00000290: 9553 85b8 e89c 593a 4b33 94b9 4bdb 4eb8
000002a0: b223 cb3a f775 183b ceda 08b9 3f01 c938

lstm.bias_hh_l0 f4 [172]
0.00017020336 -0.000311079 0.00069594407 -0.00018577282 0.0006145384 -0.00017174993 0.0003243236 0.0011926187
0.000105020765 0.0002136182 0.00016913847 1.9814674e-05 -0.00033945875 -0.00035437895 0.00036975535 0.0007674796
0.00017363094 0.00081213115 5.7918678e-05 -1.8999708e-05 0.00083949644 0.0013157545 -8.662076e-05 -1.893709e-05
0.000347308 -0.00029919867 0.00072460674 0.0026351293 0.0018142845 0.00032544142 0.001033882 0.00044533677
-0.00031152857 0.0005355537 -0.00037101176 -0.00012196411 0.00062522024 -0.00031429908 -0.00016264869 0.0011989179
0.0017658384 -0.00014798575 -3.6668054e-05 -1.9730358e-05 -0.0001701088 -0.00012363726 -5.4346237e-05 -0.00018780054
-6.910539e-05 -0.00011306289 0.00011306356 -0.0001303591 3.847712e-05 -8.227098e-05 -0.0001311976 -0.00014986441
-4.7122896e-05 -6.555902e-05 -1.7927407e-05 2.780269e-05 -5.0766544e-06 -7.572161e-05 -9.882497e-05 -6.0851522e-05
1.2360271e-05 -0.00011304188 -5.3501863e-05 -3.0535837e-05 -6.111256e-05 -8.372358e-05 -8.780858e-06 0.00015300412
1.2253701e-05 4.4170494e-05 5.277561e-05 -0.000111680245 -2.8312501e-05 -0.00010791161 -6.9721675e-05 -0.00012900763
-8.201095e-05 -0.00013390234 9.609711e-05 0.00010441544 -8.9715e-05 -0.00016681562 -0.079931594 0.06130479
-0.09608583 -0.04996015 0.07930157 0.06494472 -0.07295804 -0.08644837 0.08225444 -0.06675612
0.083324425 0.06889927 0.068393216 -0.047072053 -0.06303446 0.06683117 -0.068756536 -0.06743528
-0.085409045 0.07764605 0.09192882 0.09280734 0.042632706 0.05334758 -0.07438388 0.06913994
0.066591196 -0.0964185 -0.09353265 -0.08845665 0.08975251 0.07373973 0.06422449 -0.0742561
-0.06462091 -0.05566975 0.07428628 -0.049812913 0.07471099 -0.08563438 -0.10073543 -0.037580915
-0.070360206 0.0005632815 -0.00023013625 0.0010420468 -7.0842565e-05 0.0009845955 -0.0001385768 0.0005429193
0.0018592905 0.00037195673 0.00036558683 0.0003598826 0.00019370088 -0.00023843384 -0.00033200468 0.0005071635
0.0013355521 0.00040213123 0.0011209341 0.0003300149 7.685519e-05 0.0011353574 0.0016957682 -5.0170183e-05
5.5941557e-05 0.0005419712 -0.00025454076 0.0012615058 0.0039196652 0.0026420394 0.0005014401 0.0013582947
0.0007525681 -0.0001176516 0.00071268884 -0.00032473615 -2.6717235e-05 0.00092470297 -0.00028866078 3.0206373e-05
0.0019852053 0.0023766134 -0.00013757467 9.110097e-05
00000000: 9e78 3239 5118 a3b9 0470 363a 03cc 42b9
00000010: f918 213a c517 34b9 fa09 aa39 a551 9c3a
00000020: 983e dc38 b3fe 5f39 c35a 3139 b037 a637
00000030: 62f9 b1b9 f0cb b9b9 b9db c139 af30 493a
00000040: b310 3639 33e5 543a b5ed 7238 9061 9fb7
00000050: a711 5c3a 6575 ac3a 2ba8 b5b8 17db 9eb7
00000060: e416 b639 c4dd 9cb9 89f3 3d3a 22b2 2c3b
00000070: 49cd ed3a 02a0 aa39 5383 873a 177c e939
00000080: a854 a3b9 6764 0c3a 5b84 c2b9 fcc6 ffb8
00000090: d2e5 233a 82c8 a4b9 ad8c 2ab9 0225 9d3a
000000a0: b473 e73a 9f2c 1bb9 06cc 19b8 9f82 a5b7
000000b0: 3c5f 32b9 a0a4 01b9 d4f1 63b8 53ec 44b9
000000c0: acec 90b8 2d1c edb8 891c ed38 01b1 08b9
000000d0: 7e62 2138 e588 acb8 1692 09b9 ec24 1db9
000000e0: d3a5 45b8 bb7c 89b8 d062 96b7 d239 e937
000000f0: 2158 aab6 bbcc 9eb8 4040 cfb8 d33a 7fb8
00000100: f65e 4f37 e610 edb8 3067 60b8 9b13 00b8
00000110: 8e29 80b8 c194 afb8 7f51 13b7 bb6f 2039
00000120: 3f95 4d37 b543 3938 615b 5d38 e035 eab8
00000130: a280 edb7 9b4e e2b8 8a37 92b8 3946 07b9
00000140: 4bfd abb8 2368 0cb9 be87 c938 9df9 da38
00000150: 6025 bcb8 3aeb 2eb9 2db3 a3bd bb1a 7b3d
00000160: a6c8 c4bd 04a3 4cbd dd68 a23d bd01 853d
00000170: 066b 95bd d80b b1bd 0475 a83d 6fb7 88bd
00000180: ffa5 aa3d 0f1b 8d3d be11 8c3d a0ce 40bd
00000190: 3618 81bd c8de 883d 3ad0 8cbd 821b 8abd
000001a0: f0ea aebd e404 9f3d 2d45 bc3d c611 be3d
000001b0: a29f 2e3d fe82 5a3d 9356 98bd 3e99 8d3d
000001c0: f760 883d 1077 c5bd 0c8e bfbd c328 b5bd
000001d0: 2ad0 b73d db04 973d 2188 833d 9513 98bd
000001e0: f857 84bd f705 64bd 6823 983d a008 4cbd
000001f0: 1302 993d 1461 afbd 614e cebd 72ee 19bd
00000200: 0319 90bd 2ea9 133a bb50 71b9 4a95 883a
00000210: 5091 94b8 8b0d 813a ed4e 11b9 b352 0e3a
00000220: 70b3 f33a 3003 c339 3cac bf39 a0ae bc39
00000230: 2f1c 4b39 1904 7ab9 ea10 aeb9 2bf3 043a
00000240: b10d af3a 24d5 d239 4fec 923a da05 ad39
00000250: 512d a138 46d0 943a 8a44 de3a d36d 52b8
00000260: caa2 6a38 1213 0e3a e273 85b9 1c59 a53a
00000270: 8970 803b 1126 2d3b 1373 033a cf08 b23a
00000280: fe47 453a b9bb f6b8 bdd3 3a3a 5941 aab9
00000290: d31e e0b7 c467 723a 6557 97b9 b163 fd37
000002a0: 381a 023b f5c0 1b3b eb41 10b9 760d bf38

lstm.weight_ih_l1 f4 [172, 43]
-0.00093143655 0.0005773438 -0.00089336606 -0.0010130703 0.0002763331 0.00082042493 -0.0009240817 -0.0013028624
0.0004070981 -0.0012579384 0.00055347336 0.00038795103 0.0002245415 -0.000563043 -0.0014567644 0.0006541911
-0.00066179474 -0.0012932003 -0.0011952944 0.00084187987 0.0003955503 0.0010692582 0.00089617656 0.00066936616
-0.0011902065 0.00067570753 0.0006699328 -0.0012622575 -0.0019391883 -0.0009097877 0.0014531397 0.0009349038
0.00028436456 -0.00115411 -0.00037375579 -0.0009997468 0.0010056014 -0.00076886185 0.00048621165 -0.0011874264
-0.0015950296 -0.0008122822 -0.0009909695 -0.0009005372 0.000438674 -0.000800336 -0.00064221135 0.00057858194
0.0008384391 -0.0007717791 -0.0011273992 0.00043066172 -0.0014292528 0.0008052958 0.00073670223 0.00033009727
-0.00076997274 -0.0010568341 0.0008893125 -0.0009378796 -0.00073311664 -0.00060103385 0.00092415133 0.0006209682
0.00074585946 0.0006322563 0.0009853586 -0.0013444393 0.00035304454 0.00075645745 -0.00077655737 -0.0015258782
-0.0009147837 0.001341411 0.0012690596 0.00036510252 -0.0011669343 -0.00067320216 -0.00092570507 0.0011833613
-0.00059262867 0.0007324475 -0.0012997667 -0.00120728 -0.000815853 -0.0007394925 -0.00056737737 0.00057392137
-0.0009397251 -0.000815423 0.0009043856 0.0004651831 -0.0008646858 -0.0011457605 0.00061383896 -0.001223198
0.0006081848 0.00043545864 0.0006574723 -0.00063074066 -0.0013512414 0.0005204564 -0.0004921796 -0.00090375217
-0.00084077544 0.0005843728 0.0010141412 0.00078852056 0.0009152271 0.0007725117 -0.00092957343 0.0006397165
0.000768989 -0.0006920678 -0.0016759364 -0.00078916794 0.0012493422 0.00093843817 0.0007170093 -0.0010846315
-0.00058854796 -0.0009780786 0.0008801938 -0.00048546682 0.00081514055 -0.00080446067 -0.0011010957 -0.00066775986
-0.00071744196 -0.0008237749 0.00076779735 -0.0012106305 -0.0010502953 0.00079351437 0.00096803013 -0.001037882
-0.0019728425 0.0012026925 -0.0017589094 0.00090378657 0.0009507015 0.00046077985 -0.00079804886 -0.0012378449
0.000945727 -0.001132737 -0.0014163114 -0.0012951326 0.0010086413 0.0012040259 0.0014891162 0.0010152278
0.0012410259 -0.0016468811 0.0007210292 0.0009713671 -0.001495439 -0.0016722301 -0.0012047945 0.0016026044
0.0011532564 0.00056797167 -0.0015839187 -0.00071471755 -0.0012556887 0.0010135135 -0.00095852214 0.001001741
-0.001625271 -0.0015563407 -0.0009214779 -0.001100141 -0.00076864136 0.000527079 -0.0008519683 -0.00087912095
0.00073284033 0.0007649311 -0.0010434504 -0.0010304287 0.00019142225 -0.0013815145 0.0005977368 0.0005383847
0.00045451868 -0.0006904937 -0.0011796524 0.000608138 -0.0006024248 -0.001284765 -0.00038711217 0.0006563373
0.00040075142 0.0013207474 0.00070897036 0.0010100771 -0.0009413502 0.000407699 0.0006074268 -0.0015391464
-0.0016264833 -0.0012801894 0.0012658617 0.0010095537 0.00024458626 -0.0011300878 -0.00033777827 -0.0008087886
0.0010034225 -0.0002534686 0.0006331129 -0.0007270193 -0.0013540427 -0.00092292693 -0.00076170295 -0.00037364577
0.00037064293 -0.00066819467 -0.00066298 0.00042473915 0.00041126358 -0.0004284431 -0.001056139 0.00033111798
-0.0009291393 0.0002430017 0.00025001157 0.00018127487 -0.00037999736 -0.0009994319 0.00050568796 -5.9806996e-05
-0.0010175958 -0.00076533604 0.00073489954 0.00055341836 0.00060407014 0.000747883 0.00037540554 -0.0011576611
3.032334e-05 -1.4443109e-05 -0.0012149335 -0.0009938406 -0.0002931883 0.000991835 0.0007403206 0.00018469311
-0.00075364293 -0.00019227856 -0.0006417905 0.0007803976 -0.00041655666 0.0005495872 -0.0008944654 -0.0008096
00000000: a62b 74ba e358 173a c830 6aba 00c9 84ba
00000010: cde0 9039 c911 573a 133e 72ba cfc4 aaba
00000020: c86f d539 69e1 a4ba f816 113a e865 cb39
00000030: e672 6b39 2d99 13ba e7f0 beba 067e 2b3a
00000040: 4b7c 2dba 9a80 a9ba 6dab 9cba 9ab1 5c3a
00000050: dd61 cf39 5a26 8c3a 64ed 6a3a 6778 2f3a
00000060: b400 9cba f721 313a 6e9e 2f3a 5572 a5ba
00000070: 5d2c feba d27e 6eba 4777 be3a 5514 753a
00000080: c416 9539 8145 97ba a7f4 c3b9 f009 83ba
00000090: 62ce 833a 728d 49ba 39ea fe39 6ba3 9bba
000000a0: 5010 d1ba 56ef 54ba 6be3 81ba 0712 6cba
000000b0: d4fd e539 a4cd 51ba 135a 28ba faab 173a
000000c0: b2ca 5b3a 3851 4aba 3dc5 93ba 70ca e139
000000d0: c455 bbba 7c1a 533a 401f 413a e810 ad39
000000e0: ffd7 49ba 7885 8aba c020 693a 09dc 75ba
000000f0: a02e 40ba b38e 1dba bf42 723a 78c8 223a
00000100: c885 433a 01be 253a 2627 813a e637 b0ba
00000110: d618 b939 004d 463a e291 4bba faff c7ba
00000120: 18ce 6fba 49d2 af3a 9356 a63a 3b6b bf39
00000130: d1f3 98ba d579 30ba 04ab 72ba 041b 9b3a
00000140: a35a 1bba b801 403a ef5c aaba 983d 9eba
00000150: f8de 55ba 80da 41ba 0dbc 14ba 3673 163a
00000160: e257 76ba 1cc2 55ba 4a14 6d3a d2e3 f339
00000170: 15ac 62ba 582d 96ba 09ea 203a b753 a0ba
00000180: 976e 1f3a 454e e439 385a 2c3a 4a58 25ba
00000190: 231c b1ba 3d6f 083a 9d05 01ba c8e9 6cba
000001a0: 7c67 5cba 9830 193a efec 843a b8b4 4e3a
000001b0: daeb 6f3a 6282 4a3a 9eae 73ba a6b2 273a
000001c0: fa95 493a e26b 35ba 18ab dbba 2ae0 4eba
000001d0: f8c0 a33a 8501 763a aef5 3b3a 322a 8eba
000001e0: c948 1aba df32 80ba cebc 663a 4186 feb9
000001f0: 28af 553a 71e2 52ba a452 90ba 9b0c 2fba
00000200: b712 3cba 99f2 57ba 0246 493a 05ae 9eba
00000210: 10aa 89ba d903 503a 67c3 7d3a 8a09 88ba
00000220: ce4a 01bb aaa3 9d3a 358b e6ba 17ec 6c3a
00000230: 7f38 793a d394 f139 2734 51ba 2f3f a2ba
00000240: aaea 773a 5978 94ba 86a3 b9ba 70c1 a9ba
00000250: 6334 843a 68d0 9d3a 732e c33a 6411 853a
00000260: eba9 a23a 29dc d7ba 7303 3d3a 58a3 7e3a
00000270: 9b02 c4ba bb2e dbba 32ea 9dba 7b0e d23a
00000280: dd28 973a efe3 143a 7e9b cfba e25b 3bba
00000290: ec95 a4ba dfd7 843a 5545 7bba da4c 833a
000002a0: 0c07 d5ba 21fe cbba 568f 71ba 9b32 90ba
000002b0: a67e 49ba ac2b 0a3a a056 5fba cf74 66ba
000002c0: 151c 403a a885 483a 63c4 88ba 730f 87ba
000002d0: 85b8 4839 ef13 b5ba 70b1 1c3a 6322 0d3a
000002e0: 774c ee39 3f02 35ba 919e 9aba 736b 1f3a
000002f0: 0bec 1dba 8f65 a8ba 51f5 cab9 0d0e 2c3a
00000300: f21b d239 ee1c ad3a 32da 393a 9064 843a
00000310: f1c4 76ba 6fc0 d539 b93b 1f3a 2fbd c9ba
00000320: b92f d5ba 07cc a7ba 45eb a53a 0053 843a
00000330: d03b 8039 741f 94ba d517 b1b9 e204 54ba
00000340: 4685 833a fbe3 84b9 7df7 253a 7095 3eba
00000350: 227a b1ba 94f0 71ba 05ad 47ba e3e5 c3b9
00000360: da52 c239 c929 2fba d6cb 2dba 86af de39
00000370: dd9e d739 a9a0 e0b9 256e 8aba e799 ad39
00000380: 7c91 73ba 46ce 7e39 fc13 8339 9a14 3e39
00000390: 623a c7b9 5fff 82ba 2590 043a 46d9 7ab8
000003a0: d960 85ba d5a0 48ba 46a6 403a 4713 113a
000003b0: 765a 1e3a 940d 443a 14d2 c439 a9bc 97ba
000003c0: e05e fe37 ae50 72b7 673e 9fba c243 82ba
000003d0: 11b7 99b9 7600 823a 1312 423a 2eaa 4139
000003e0: 1f90 45ba 629e 49b9 d53d 28ba 9993 4c3a
000003f0: 4a65 dab9 2c12 103a 8f7a 6aba 563b 54ba

lstm.weight_hh_l1 f4 [172, 43]
-0.0020312823 -0.0019672154 -0.0018256044 -0.0020005438 0.002018464 -0.0020986444 0.0020064574 -0.0020472235
0.0020598012 -0.0019318084 -0.002161683 0.0020338336 -0.0021503451 0.0021055317 0.0019845224 0.0019650601
0.0020639745 0.0020361745 0.0019152394 -0.0022212588 -0.002056602 -0.0019436012 0.0018285753 -0.001960914
0.002102368 -0.00206359 0.0020268278 -0.0022033048 0.0021401814 0.0018588493 -0.0020102472 0.0018576079
-0.0020895286 -0.0020965126 -0.0019324423 -0.0019858833 0.0020131445 -0.0022202125 -0.002101884 -0.0020816338
-0.0020355466 0.0020254224 0.002016917 -0.0020342816 -0.0019667165 -0.0018329065 -0.001998598 0.0020115864
-0.0020939643 0.0020065736 -0.0020403778 0.0020613177 -0.001932619 -0.0021576432 0.0020295368 -0.002151157
0.0020997487 0.001984125 0.0019708741 0.00206454 0.0020374367 0.0019136209 -0.0022131354 -0.0020578033
-0.0019523544 0.0018344835 -0.0019617125 0.002097526 -0.002064491 0.0020296369 -0.0021943848 0.0021365788
0.001865409 -0.0020120014 0.0018648917 -0.0020811781 -0.0020962153 -0.0019328287 -0.001991334 0.002010591
-0.0022051386 -0.0020954171 -0.0020782042 -0.002031297 0.002026355 0.002018364 -0.0018049817 -0.0017463884
-0.0016243036 -0.001775124 0.0017868477 -0.0018598789 0.0017805854 -0.0018150465 0.001830486 -0.0017159067
-0.0019158485 0.0018034291 -0.0019112279 0.0018665612 0.0017625872 0.001749093 0.0018315202 0.0018091428
0.0017005312 -0.0019687898 -0.0018269337 -0.00173041 0.0016279559 -0.0017401328 0.0018640858 -0.0018339166
0.0018011555 -0.0019501924 0.0018980323 0.0016550869 -0.0017862215 0.0016526644 -0.0018514107 -0.001862914
-0.0017155453 -0.0017655074 0.0017859257 -0.0019630578 -0.0018632202 -0.001847173 -0.0018074183 0.0017985711
0.0017915728 -0.0023283942 -0.002255435 -0.0020996165 -0.0022906454 0.0023053735 -0.0023958818 0.0022966464
-0.0023392953 0.0023597763 -0.0022162593 -0.0024677701 0.0023214386 -0.0024571996 0.0024038898 0.0022764325
0.002259529 0.0023624343 0.0023324748 0.002194861 -0.0025351502 -0.0023539658 -0.002235548 0.0021018786
-0.0022495845 0.0024022183 -0.002362897 0.0023222216 -0.0025099062 0.002445956 0.002136293 -0.0023003954
0.0021397006 -0.002382931 -0.0023951146 -0.002212829 -0.0022793915 0.0023059016 -0.0025235075 -0.0024018108
-0.0023807462 -0.0023273134 0.0023178686 0.002310302 -0.0021704054 -0.0021018256 -0.0019519533 -0.002135944
0.0021533524 -0.0022397046 0.0021407832 -0.0021848879 0.0022029798 -0.0020635044 -0.0023076814 0.002170596
-0.0023001472 0.0022461305 0.0021232187 0.002100884 0.002202901 0.0021769227 0.002045266 -0.0023705715
-0.0021970477 -0.0020782195 0.0019544268 -0.0020991836 0.00224192 -0.0022085966 0.002165662 -0.0023509094
0.0022877308 0.001986768 -0.0021483703 0.0019879465 -0.0022317087 -0.0022440776 -0.0020610378 -0.0021243985
0.0021500322 -0.0023678385 -0.0022474402 -0.0022236225 -0.0021758499 0.0021598535 0.0021544094 -0.0018886769
-0.0018272831 -0.0016883697 -0.0018551113 0.0018717682 -0.001955659 0.0018666281 -0.0019030871 0.0019177567
-0.00179003 -0.0020172491 0.0018922817 -0.002007956 0.0019592822 0.0018433721 0.0018260254 0.0019199942
0.0018971807 0.0017742784 -0.002071721 -0.0019169982 -0.0018046054 0.0016889849 -0.0018245963 0.0019547632
-0.0019256846 0.0018857119 -0.0020549214 0.001997175 0.0017201265 -0.0018723734 0.0017213718 -0.0019473778
-0.0019605404 -0.0017920695 -0.0018494278 0.0018696043 -0.0020765404 -0.0019546158 -0.0019395003 -0.0018921954
00000000: 431f 05bb 66ec 00bb 1e49 efba 8e1b 03bb
00000010: 3548 043b 6989 09bb c57e 033b b62a 06bb
00000020: bbfd 063b bc34 fdba 06ab 0dbb 114a 053b
00000030: ceec 0cbb f6fc 093b c30e 023b 3dc8 003b
00000040: bf43 073b 5771 053b c508 fb3a 8a92 11bb
00000050: 0ec8 06bb 6fc0 feba ceac ef3a ae82 00bb
00000060: e2c7 093b 4c3d 07bb 87d4 043b 5265 10bb
00000070: 4942 0c3b a2a4 f33a 5abe 03bb fa7a f33a
00000080: 79f0 08bb a565 09bb 014a fdba 9825 02bb
00000090: f6ee 033b fc80 11bb c3bf 09bb 056c 08bb
000000a0: ce66 05bb f3bc 043b 412e 043b 9551 05bb
000000b0: 07e4 00bb 233e f0ba e9fa 02bb d2d4 033b
000000c0: e43a 09bb b880 033b dcb7 05bb 2c17 073b
000000d0: ef4f fdba 3f67 0dbb fa01 053b 6dfa 0cbb
000000e0: f09b 093b 1808 023b c829 013b 3c4d 073b
000000f0: 8486 053b 76d2 fa3a 400a 11bb 36dc 06bb
00000100: 25e6 ffba 0d73 f03a 1390 00bb a676 093b
00000110: 694c 07bb a803 053b abcf 0fbb d805 0c3b
00000120: bd80 f43a c8db 03bb 626f f43a 6064 08bb
00000130: a860 09bb f856 fdba 0a81 02bb 1fc4 033b
00000140: 1684 10bb 4453 09bb 7b32 08bb 821f 05bb
00000150: 98cc 043b 8746 043b 2395 ecba 12e7 e4ba
00000160: 96e6 d4ba 47ab e8ba a934 ea3a 2ec7 f3ba
00000170: 8862 e93a dbe6 edba ebec ef3a 46e8 e0ba
00000180: 351d fbba 0a61 ec3a 2b82 faba 67a7 f43a
00000190: 9d06 e73a d241 e53a 9f0f f03a c220 ed3a
000001a0: 5ce4 de3a d006 01bb b975 efba edce e2ba
000001b0: 2361 d53a 2b15 e4ba 5754 f43a 0860 f0ba
000001c0: c014 ec3a 999d ffba 65c7 f83a 80ef d83a
000001d0: a61f eaba 379e d83a 09ab f2ba 052d f4ba
000001e0: 26dc e0ba 9968 e7ba b915 ea3a a5a6 00bb
000001f0: 4c37 f4ba d71c f2ba e5e6 ecba 08be eb3a
00000200: 35d3 ea3a f997 18bb eccf 13bb b899 09bb
00000210: a71e 16bb c015 173b 3a04 1dbb 5583 163b
00000220: dd4e 19bb 7aa6 1a3b a93e 11bb 50ba 21bb
00000230: 4723 183b f808 21bb 948a 1d3b 3330 153b
00000240: 9b14 143b 12d3 1a3b 6fdc 183b a8d7 0f3b
00000250: c324 26bb fe44 1abb 4682 12bb acbf 093b
00000260: c46d 13bb 896e 1d3b d5da 1abb 6a30 183b
00000270: 3d7d 24bb 554c 203b 0d01 0c3b 3bc2 16bb
00000280: 383a 0c3b f32a 1cbb 5bf7 1cbb 1c05 11bb
00000290: d861 15bb 9c1e 173b 6e61 25bb b367 1dbb
000002a0: 4b06 1cbb d785 18bb 62e7 173b 7068 173b
000002b0: 5c3d 0ebb c8be 09bb afd8 ffba 32fb 0bbb
000002c0: 421f 0d3b 02c8 12bb 624c 0c3b 5630 0fbb
000002d0: de5f 103b dc3b 07bb 783c 17bb 8f40 0e3b
000002e0: 11be 16bb d133 133b b325 0b3b fcae 093b
000002f0: 8c5e 103b b4aa 0e3b df09 063b 975b 1bbb
00000300: 58fc 0fbb bd32 08bb d715 003b 7592 09bb
00000310: 2ded 123b 1abe 10bb c7ed 0d3b b711 1abb
00000320: c1ed 153b 7034 023b accb 0cbb 3548 023b
00000330: dc41 12bb 6011 13bb 7a12 07bb 7e39 0bbb
00000340: 8ee7 0c3b bd2d 1bbb ca49 13bb 32ba 11bb
00000350: b498 0ebb 548c 0d3b fe30 0d3b 7b8d f7ba
00000360: 7281 efba 494c ddba 3527 f3ba 1e56 f53a
00000370: 832a 00bb a5a9 f43a 0271 f9ba 3d5d fb3a
00000380: 719f eaba d333 04bb 7006 f83a e997 03bb
00000390: 4d67 003b 4e9d f13a 3f57 ef3a 51a8 fb3a
000003a0: d2aa f83a e78e e83a b6c5 07bb c943 fbba
000003b0: 8288 ecba ee60 dd3a 4b27 efba 7c1b 003b
000003c0: 4167 fcba fe29 f73a dcab 06bb 09e3 023b
000003d0: de75 e13a 6d6a f5ba a79f e13a 283f ffba
000003e0: 697c 00bb e0e3 eaba 8068 f2ba 830d f53a
000003f0: 9116 08bb 0319 00bb d536 feba 8b03 f8ba

lstm.bias_ih_l1 f4 [172]
0.05426816 0.053969856 0.053400096 0.057462737 0.05962957 0.063544594 0.05710091 0.059259254
0.05293926 0.05479767 0.06261112 0.06349205 0.06128169 0.058909316 0.059256755 0.05785185
0.059099797 0.049521733 0.050374877 0.06131961 0.05589125 0.050834484 0.05295224 0.056973554
0.057643387 0.051956225 0.054256573 0.060725067 0.060625818 0.055631597 0.05458333 0.0509504
0.0617394 0.053196512 0.05792417 0.0488287 0.052970488 0.06592769 0.06118871 0.061911423
0.060838442 0.055316936 0.058176428 0.015770862 0.015164548 0.013995843 0.016282 0.016830478
0.016459493 0.01457777 0.016225182 0.0158652 0.014188982 0.016493075 0.015959648 0.016526874
0.016386187 0.014391893 0.013530577 0.015874548 0.01407092 0.015314534 0.017362619 0.015068967
0.013840939 0.014522504 0.014701417 0.016279448 0.015358774 0.01468379 0.017541336 0.015810238
0.014194777 0.014658797 0.012812827 0.016823795 0.015598829 0.013668051 0.014003628 0.015659286
0.018083451 0.01658594 0.016209716 0.016118687 0.016398797 0.013867838 -0.1681903 -0.14877748
-0.13869092 -0.2069675 0.14602706 -0.18797037 0.16561653 -0.2045402 0.19351245 -0.18597005
-0.18781258 0.17418797 -0.1970677 0.1587899 0.14827172 0.15962462 0.15435115 0.18495359
0.1846244 -0.20313388 -0.19681205 -0.1682106 0.15631145 -0.17010434 0.16792515 -0.18150412
0.1856849 -0.20789562 0.1667079 0.1887704 -0.1823001 0.1705408 -0.17162928 -0.18598379
-0.16925763 -0.18398294 0.1555691 -0.17139196 -0.14855856 -0.2076632 -0.17486043 0.1823853
0.17285626 0.06435849 0.070816934 0.06124159 0.07135218 0.07299688 0.06945262 0.062728375
0.067553475 0.06549598 0.063670605 0.070486955 0.072639525 0.06833327 0.07039486 0.061454985
0.06266583 0.069992974 0.061814457 0.058842342 0.06829625 0.066285945 0.054651532 0.062404785
0.065071315 0.0698685 0.06847282 0.06278606 0.06803687 0.0739719 0.0542564 0.062028605
0.06366373 0.07339553 0.06385719 0.069904506 0.064962484 0.06936641 0.0724452 0.065132394
0.069788426 0.07149155 0.07100211 0.06557322
00000000: 4a48 5e3d 7f0f 5d3d 0fba 5a3d 0c5e 6b3d
00000010: 233e 743d ab23 823d a5e2 693d d5b9 723d
00000020: d6d6 583d 8673 603d 423a 803d 1f08 823d
00000030: 8202 7b3d e54a 713d 36b7 723d 10f6 6c3d
00000040: a112 723d 4dd7 4a3d e355 4e3d 452a 7b3d
00000050: 39ee 643d d237 503d 73e4 583d 1a5d 693d
00000060: 791b 6c3d 0dd0 543d 243c 5e3d d9ba 783d
00000070: c752 783d f5dd 633d c592 5f3d 5eb1 503d
00000080: 74e2 7c3d 96e4 593d e541 6d3d 9a00 483d
00000090: 95f7 583d 1905 873d 03a1 7a3d d596 7d3d
000000a0: bb31 793d 0394 623d 684a 6e3d e531 813c
000000b0: b974 783c d24e 653c d461 853c 12e0 893c
000000c0: 0fd6 863c 99d7 6e3c acea 843c bcf7 813c
000000d0: e778 683c 7c1c 873c cfbd 823c 5e63 873c
000000e0: 533c 863c f9cb 6b3c 5aaf 5d3c 570b 823c
000000f0: b789 663c d0e9 7a3c 0d3c 8e3c d4e3 763c
00000100: 1bc5 623c ccef 6d3c 36de 703c 7a5c 853c
00000110: 5ea3 7b3c 4794 703c d9b2 8f3c 7984 813c
00000120: 3691 683c 732b 703c e4ec 513c 0ed2 893c
00000130: 3b92 7f3c f6ef 5f3c 796f 653c e747 803c
00000140: bf23 943c 3ddf 873c 3dca 843c 560b 843c
00000150: c556 863c ee35 633c 143a 2cbe 2059 18be
00000160: fe04 0ebe 4aef 53be 1e88 153e 4e7b 40be
00000170: 6197 293e fc72 51be 2128 463e ef6e 3ebe
00000180: f151 40be 555e 323e 1dcc 49be d299 223e
00000190: 8bd4 173e a374 233e 3a0e 1e3e 7964 3d3e
000001a0: 2e0e 3d3e 5402 50be 1989 49be 663f 2cbe
000001b0: 1c10 203e d52f 2ebe 92f4 2b3e 37dc 39be
000001c0: 2f24 3e3e 97e2 54be 7ab5 2a3e 074d 413e
000001d0: e1ac 3abe 3fa2 2e3e 96bf 2fbe 8972 3ebe
000001e0: df51 2dbe 0666 3cbe 824d 1f3e 6081 2fbe
000001f0: bc1f 18be a9a5 54be 9d0e 33be 36c3 3a3e
00000200: 3b01 313e 62ce 833d 7808 913d 76d8 7a3d
00000210: 1721 923d 637f 953d 2d3d 8e3d bc77 803d
00000220: 7a59 8a3d c222 863d bc65 823d 775b 903d
00000230: 08c4 943d 50f2 8b3d 2e2b 903d 39b8 7b3d
00000240: f156 803d 7a58 8f3d 2831 7d3d ab04 713d
00000250: e8de 8b3d edc0 873d 49da 5f3d 299c 7f3d
00000260: 1c44 853d 3717 8f3d 7a3b 8c3d fa95 803d
00000270: ea56 8b3d 947e 973d f53b 5e3d b511 7e3d
00000280: 2162 823d 6550 963d 8fc7 823d 182a 8f3d
00000290: 0d0b 853d fa0f 8e3d 265e 943d 2264 853d
000002a0: 3ced 8e3d 296a 923d 8e69 913d 414b 863d

lstm.bias_hh_l1 f4 [172]
0.056061383 0.05990642 0.054855764 0.055066824 0.060560703 0.05482696 0.056262806 0.059518334
0.0572512 0.058359146 0.060874444 0.052412823 0.062209565 0.05387542 0.056817178 0.055298977
0.06074102 0.059004508 0.057584953 0.061625473 0.055391323 0.046802096 0.048388347 0.05560194
0.05679854 0.056502808 0.05526592 0.06379215 0.061965194 0.05272989 0.058706027 0.051422596
0.057180602 0.062659025 0.05264553 0.055461556 0.056600433 0.061558 0.0621076 0.05736704
0.055872306 0.055526204 0.0557161 0.015771106 0.015165304 0.013994203 0.016282735 0.016830586
0.016458986 0.014582265 0.016226435 0.015865747 0.014188411 0.016493611 0.015959602 0.016528526
0.016386215 0.014389582 0.013530799 0.015873794 0.014074579 0.015315539 0.017362073 0.015068817
0.013847244 0.014523046 0.014703222 0.016276065 0.015358554 0.014684083 0.01754302 0.015810173
0.01419583 0.014656273 0.012809416 0.01682463 0.015590182 0.013670279 0.014006754 0.015663631
0.018082602 0.016586507 0.016211504 0.016115148 0.016402442 0.013869505 -0.1958049 -0.20292139
-0.19019635 -0.14942805 0.1988975 -0.17701888 0.18646544 -0.15210111 0.17788246 -0.15545434
-0.19372433 0.1786831 -0.18613383 0.2076515 0.20627278 0.19840482 0.21060069 0.18293317
0.15427499 -0.18576467 -0.17220256 -0.19096674 0.174519 -0.17923099 0.20039721 -0.18822354
0.18008278 -0.17229684 0.209827 0.14777832 -0.17744401 0.16877148 -0.18873632 -0.18518211
-0.17030463 -0.17783266 0.20252055 -0.20370103 -0.21657525 -0.15976234 -0.18292946 0.17573562
0.18661083 0.06395905 0.06360918 0.056072395 0.0626908 0.0694115 0.07055941 0.06948198
0.064447455 0.0691811 0.06607935 0.06905502 0.070835866 0.06730145 0.0714671 0.07129658
0.06694712 0.07068492 0.066398 0.060138606 0.07064956 0.0626982 0.064378984 0.06293774
0.06404307 0.07078327 0.061770733 0.06288549 0.07471688 0.07468041 0.05900234 0.068073966
0.05605849 0.0743751 0.07684537 0.06451297 0.06533899 0.05968302 0.07773598 0.075694144
0.075388834 0.06918429 0.0638809 0.070334844
00000000: 9fa0 653d 6f60 753d 70b0 603d c08d 613d
00000010: 800e 783d 3c92 603d d473 663d 7fc9 733d
00000020: 3c80 6a3d 000a 6f3d 7b57 793d d4ae 563d
00000030: 75cf 7e3d 79ac 5c3d 21b9 683d 2e81 623d
00000040: 93cb 783d b6ae 713d 33de 6b3d fe6a 7c3d
00000050: 03e2 623d 8eb3 3f3d dc32 463d dcbe 633d
00000060: 96a5 683d 7d6f 673d 845e 623d 75a5 823d
00000070: 37cf 7d3d 4cfb 573d bb75 703d 80a0 523d
00000080: 3536 6a3d 6053 803d d7a2 573d a82b 633d
00000090: dbd5 673d 3e24 7c3d 8a64 7e3d b4f9 6a3d
000000a0: 5cda 643d 726f 633d 9136 643d 6832 813c
000000b0: e577 783c f147 653c 5f63 853c 4ce0 893c
000000c0: ffd4 863c 74ea 6e3c 4ded 843c e2f8 813c
000000d0: 8276 683c 9c1d 873c b6bd 823c d566 873c
000000e0: 623c 863c 48c2 6b3c 49b0 5d3c c209 823c
000000f0: 1099 663c 07ee 7a3c e83a 8e3c 33e3 763c
00000100: 8ddf 623c 12f2 6d3c c8e5 703c 6255 853c
00000110: 72a2 7b3c 8295 703c 61b6 8f3c 5684 813c
00000120: a095 683c dd20 703c 96de 513c ced3 893c
00000130: f66d 7f3c 4ef9 5f3c 967c 653c 0451 803c
00000140: f721 943c 6de0 873c fdcd 843c ea03 843c
00000150: 6a5e 863c ec3c 633c 1481 48be a0ca 4fbe
00000160: d5c2 42be ab03 19be c9ab 4b3e 7044 35be
00000170: ccf0 3e3e 65c0 1bbe d226 363e 6c2f 1fbe
00000180: ac5f 46be b4f8 363e de99 3ebe 98a2 543e
00000190: 2c39 533e a22a 4b3e b5a7 573e d552 3b3e
000001a0: 43fa 1d3e 1839 3ebe de55 30be c98c 43be
000001b0: 1cb5 323e 5488 37be ed34 4d3e acbd 40be
000001c0: 9f67 383e 956e 30be e4dc 563e 3353 173e
000001d0: e2b3 35be 6ed2 2c3e 1844 41be 61a0 3dbe
000001e0: 5664 2ebe c419 36be 8c61 4f3e 0197 50be
000001f0: e7c5 5dbe bd98 23be dc51 3bbe 0af4 333e
00000200: e916 3f3e f6fc 823d 8845 823d 2bac 653d
00000210: 0964 803d 9e27 8e3d 7481 903d 914c 8e3d
00000220: 07fd 833d d2ae 8d3d 9c54 873d b86c 8d3d
00000230: 6512 913d 58d5 893d 585d 923d f103 923d
00000240: 921b 893d 41c3 903d adfb 873d e653 763d
00000250: b7b0 903d ea67 803d 21d9 833d 80e5 803d
00000260: 0329 833d d2f6 903d 4f03 7d3d 1cca 803d
00000270: 2a05 993d 0bf2 983d 70ac 713d 5d6a 8b3d
00000280: 969d 653d f951 983d 1b61 9d3d 601f 843d
00000290: 73d0 853d 2f76 743d 0b34 9f3d 8805 9b3d
000002a0: 7665 9a3d 7eb0 8d3d fdd3 823d b70b 903d
