Encoder-Decoder-Models/model_cond_lstm3.pt (torch_old, 167164 bytes, 45 tensors)

encoder.lstm.weight_ih_l0 f4 [100, 1]
7.7756015e-13 1.9105509e-11 7.938064e-15 7.867814e-13 5.6422705e-12 5.4490135e-10 1.8808566e-13 -1.5922955e-10
3.2133726e-11 8.4162934e-11 1.7365015e-12 4.8902604e-10 1.0307134e-11 9.597442e-12 5.2331986e-14 2.0574955e-11
9.210203e-15 3.6300926e-13 2.3745695e-13 8.8013134e-14 1.2502178e-09 4.9674323e-12 1.4629338e-13 1.9778787e-08
5.1135426e-11 5.4362125e-13 1.3122746e-11 6.2058483e-15 5.033753e-13 2.8318762e-12 3.2520575e-10 4.8140615e-13
-1.0907584e-10 1.06144295e-11 4.9378914e-11 1.1508547e-12 2.4673574e-10 6.2642786e-12 -8.756386e-13 2.705747e-14
1.3694822e-11 6.122752e-15 2.0194884e-13 8.546819e-14 8.042456e-14 7.377705e-10 2.9089957e-12 1.1137157e-13
9.5277795e-09 2.9394966e-11 2.099636e-06 -7.416123e-06 -1.7638591e-07 -2.8692555e-06 4.2006577e-06 -5.6545312e-05
7.971086e-08 -2.5076759e-05 -1.3283551e-05 1.4271207e-05 -1.8931922e-06 3.5092962e-05 4.5791758e-06 -8.581272e-06
4.2024962e-07 8.62138e-06 -1.4077206e-07 -1.2902478e-06 -1.5172994e-06 6.646995e-07 7.268001e-05 -3.3332371e-06
5.4242236e-07 0.00049843005 1.3270827e-05 7.547462e-13 1.5538864e-11 6.7949877e-15 4.9047577e-13 5.006128e-12
4.3783327e-10 3.0257944e-13 -1.4341098e-10 2.7440905e-11 7.742845e-11 1.662133e-12 4.4077744e-10 1.0468516e-11
7.727732e-12 4.632733e-14 1.8150882e-11 8.576897e-15 3.2835236e-13 1.3127668e-13 9.211414e-14 1.1467055e-09
4.9662995e-12 1.4890248e-13 1.7957948e-08 4.7831853e-11
00000000: 1ddd 5a2b c80d a82d dcff 0e28 9375 5d2b
00000010: 0e85 c62c 06c8 1530 00c4 532a 2213 2faf
00000020: 5c53 0d2e 8513 b92e 0f64 f42b 266c 0630
00000030: 3453 352d 09d7 282d acae 6b29 aefa b42d
00000040: 90ea 2528 265b cc2a 27ad 852a 1e30 c629
00000050: 21d4 ab30 a7c6 ae2c 32b6 242a 03e6 a932
00000060: 5fe5 602e 0a04 192b 98db 662d d996 df27
00000070: 03b0 0d2b 8c46 472c a4c8 b22f f880 072b
00000080: 3ddc efae 24bb 3a2d b72b 592e e9f7 a12b
00000090: f8a4 872f 9b67 dc2c 6978 76ab 47b6 f328
000000a0: ffeb 702d 6b98 dc27 ca5f 632a 0f75 c029
000000b0: 9a19 b529 fccb 4a30 cfb3 4c2c 57c9 fa29
000000c0: 9eaf 2332 ca47 012e 79e7 0c36 03d8 f8b6
000000d0: 9764 3db4 6f8d 40b6 60f3 8c36 112b 6db8
000000e0: 822d ab33 ee5b d2b7 6bdc 5eb7 5e6e 6f37
000000f0: 9719 feb5 c830 1338 d2a6 9936 48f8 0fb7
00000100: ab9e e134 8ca4 1037 2127 17b4 942c adb5
00000110: 03a6 cbb5 cd6d 3235 c96b 9838 94b0 5fb6
00000120: fb9a 1135 13a9 023a c5a5 5e37 3271 542b
00000130: 69ae 882d b3d0 f427 810e 0a2b 3123 b02c
00000140: 8eb3 f02f 4b56 aa2a 9aae 1daf 6d5f f12d
00000150: 5844 aa2e a7ec e92b e951 f22f 012a 382d
00000160: 9cf2 072d c6a3 5029 27a8 9f2d f581 1a28
00000170: 90d8 b82a edcd 132a 306c cf29 1d9a 9d30
00000180: 73bc ae2c 38a6 272a f241 9a32 e15d 522e

encoder.lstm.weight_hh_l0 f4 [100, 25]
-1.5148575e-18 -3.5034805e-18 -6.384966e-20 2.0176238e-18 -4.52992e-19 -3.1663142e-18 -1.2188437e-18 3.7593632e-17
-3.1279618e-18 6.8805264e-18 -4.562917e-19 1.2838289e-17 1.9709017e-18 8.50615e-18 4.0153483e-15 1.0263352e-19
-6.0687825e-20 1.0026085e-18 8.700049e-19 -3.101954e-19 -3.8956978e-17 -1.0845812e-18 -2.3711873e-13 -1.6226315e-14
-3.8633144e-18 1.5657459e-17 -5.063103e-17 -1.7687241e-18 -2.3688138e-17 3.2514885e-17 -7.179161e-16 -7.5215905e-18
-2.6562262e-16 -1.9847133e-16 1.2605035e-16 -2.4362555e-17 3.04698e-16 3.6855138e-17 -6.523509e-17 9.585856e-13
6.8467546e-17 -9.01038e-19 -1.0323039e-17 -9.411341e-18 6.4942914e-18 6.9990624e-16 -4.4194497e-17 1.4636525e-11
1.0669069e-11 9.184121e-17 3.0521264e-21 -4.609521e-20 -6.325561e-22 -6.8830935e-21 1.4665589e-20 -2.4889647e-19
-7.816943e-21 -2.878492e-20 -7.425139e-20 6.018703e-20 -7.5867794e-21 1.3688225e-19 2.9081835e-20 -2.226553e-20
3.4750795e-16 3.2124687e-20 -7.868326e-22 -3.7725866e-21 -1.821174e-21 2.4760206e-21 1.8685618e-19 -1.6791962e-20
4.727956e-15 4.652585e-15 3.9316854e-20 -1.8043289e-18 -2.4059834e-18 -8.420584e-20 1.5523232e-18 -1.052483e-19
-8.76975e-18 -1.3213105e-18 2.5029417e-17 -4.129365e-18 9.4358345e-18 -5.6044645e-19 1.2175621e-17 2.2267297e-18
6.1839857e-18 1.9667876e-14 6.4102444e-19 -1.00021904e-19 6.490324e-19 8.145198e-19 -2.0550355e-19 -1.8072245e-17
-1.3504754e-18 8.5755005e-15 1.9889587e-13 -5.337136e-18 5.6359563e-19 -1.5780811e-17 -2.9265118e-19 -1.3684489e-18
4.4025005e-18 -8.241273e-17 -1.7836138e-18 -2.8994335e-18 -2.3020784e-17 2.4424137e-17 -3.1387079e-18 5.870778e-17
8.8541305e-18 -2.8989686e-18 -8.087641e-16 1.0156789e-17 -2.521778e-19 -7.609077e-19 -9.615358e-19 7.180311e-19
6.396297e-17 -5.823387e-18 -1.058224e-13 -6.933694e-14 1.315108e-17 2.060132e-17 -4.773456e-15 -8.31148e-17
-2.4478762e-16 5.3304916e-16 -8.541427e-15 -6.5748095e-16 -3.248561e-16 -1.948938e-15 6.904327e-15 -8.3297755e-16
1.5198541e-14 2.6632607e-15 -1.403393e-15 2.2900003e-11 1.818284e-15 -7.6569284e-17 -1.0848117e-16 -2.0519835e-16
1.5352428e-16 1.0888395e-14 -1.0868532e-15 3.7066022e-10 3.1706393e-10 3.5384469e-15 6.4256765e-19 -9.105004e-19
-1.9373937e-20 -7.710773e-19 2.3006023e-19 -5.420506e-18 -2.352615e-19 -1.0636098e-17 -1.2870833e-18 2.3299638e-19
1.7343409e-19 4.8808014e-19 -6.857634e-19 -2.113571e-18 1.4474222e-13 4.7841366e-19 4.117518e-21 -2.5493187e-19
-3.295255e-19 1.2491537e-19 8.7333315e-18 -8.4659196e-20 1.9374136e-12 1.8122485e-12 1.7179029e-18 -4.9884936e-16
-1.2439738e-15 -6.357272e-19 3.6124256e-16 -9.444301e-17 1.160926e-15 -1.9122424e-16 -4.568929e-16 -1.0643837e-15
1.7354141e-15 -1.1024734e-16 -5.329058e-16 6.9765996e-16 1.5568825e-15 2.2532345e-12 -1.9810702e-16 -1.4179983e-17
1.9396128e-16 2.9535157e-16 -6.917831e-17 -7.971718e-15 -1.3504359e-16 -2.8433663e-11 -2.0301016e-11 -1.0863409e-15
3.2535508e-17 -1.5703721e-17 -2.5698636e-18 -4.892233e-17 1.9640838e-17 -3.4373894e-16 -7.164028e-18 -6.1619095e-16
1.5371234e-17 1.7310177e-16 -2.0977166e-17 2.7243256e-16 6.810704e-17 -1.506537e-16 2.157901e-12 5.692269e-17
-1.1018389e-18 -2.3414808e-17 -1.8067812e-17 1.03861005e-17 8.9591e-16 -1.15356234e-17 3.6634994e-11 2.7164795e-11
1.6194865e-16 7.973845e-17 4.9575303e-17 -3.4341708e-18 -1.0191589e-16 5.223591e-17 -5.335866e-16 1.5837514e-17
-1.491958e-15 -9.6828724e-17 2.6315045e-16 5.7307586e-18 -2.1936552e-16 4.8947513e-17 -2.903614e-16 3.6244968e-13
1.0017087e-16 -2.74161e-19 -4.662312e-17 -2.7121356e-17 1.819272e-17 1.6381777e-15 1.28324466e-17 1.1939521e-11
4.0993454e-12 2.4877715e-16 4.2800372e-19 -1.1017008e-17 -1.3477631e-19 -7.277809e-19 1.9332958e-18 -3.3967202e-17
00000000: b38d dfa1 7041 81a2 c0c2 969f d6df 1422
00000010: 1cb3 05a1 fca1 69a2 9dde b3a1 ba5e 2d24
00000020: 87cd 66a2 bcd8 fd22 6dac 06a1 1bd3 6c23
00000030: 486d 1122 28e9 1c23 0dab 9027 2856 f21f
00000040: 8a4b 8f9f 7af5 9321 db63 8021 671b b7a0
00000050: 48a8 33a4 520e a0a1 697c 85aa 5627 92a8
00000060: f987 8ea2 216a 9023 927e 69a4 4182 02a2
00000070: 097c daa3 cdf2 1524 dcec 4ea6 b5bf 0aa3
00000080: fb1e 99a5 66d2 64a5 7f53 1125 75b4 e0a3
00000090: 7da5 af25 def6 2924 006c 96a4 b0e8 862b
000000a0: 1be0 9d24 41f8 84a1 2c6d 3ea3 cd9b 2da3
000000b0: d998 ef22 f7bb 4926 a7cf 4ba4 86be 802d
000000c0: 37b1 3b2d 7bc5 d324 b69c 661d b1ad 599f
000000d0: a82d 3f9c 9904 029e 3883 8a1e 2cec 92a0
000000e0: 6ba8 139e d5ee 079f 3652 af9f d41c 8e1f
000000f0: 6a4f 0f9e 1f9a 2120 c855 091f c04a d29e
00000100: 1f53 c825 5db4 171f 39ce 6d9c 3886 8e9d
00000110: a19a 099d 3415 3b1d d199 5c20 7998 9e9e
00000120: b257 aa27 86a0 a727 29ab 391f cf22 05a2
00000130: be87 31a2 4fd3 c69f 1d15 e521 b282 f89f
00000140: f9c5 21a3 b3fd c2a1 0adb e623 c058 98a2
00000150: 780f 2e23 236a 25a1 bf99 6023 bc4d 2422
00000160: 1826 e422 0927 b128 7032 3d21 882b ec9f
00000170: 808f 3f21 6067 7021 a39d 72a0 e2af a6a3
00000180: 854b c7a1 847b 1a28 d5ef 5f2a d3e7 c4a2
00000190: 1558 2621 638d 91a3 32c0 aca0 8af2 c9a1
000001a0: 716c a222 e407 bea4 839b 03a2 c0f0 55a2
000001b0: 4a54 d4a3 dd45 e123 8498 67a2 f55e 8724
000001c0: 7354 2323 f8e7 55a2 421c 69a6 145c 3b23
000001d0: 08dc 94a0 8f94 60a1 cce5 8da1 e5ec 5321
000001e0: 137d 9324 56d8 d6a2 764a eea9 0622 9ca9
000001f0: 3898 7223 7e03 be23 5cfb aba7 51a6 bfa4
00000200: 471c 8da5 16a4 1926 61de 19a8 8881 3da6
00000210: 4c44 bba5 8f6f 0ca7 2dc1 f827 e516 70a6
00000220: 73e5 8828 7de8 3f27 1040 caa6 396e c92d
00000230: 6b05 0327 878e b0a4 fb23 faa4 dd93 6ca5
00000240: 5f00 3125 dc25 4428 cea1 9ca6 cac5 cb2f
00000250: c84e ae2f d3f8 7e27 0aa7 3d21 bc5d 86a1
00000260: 4efb b69e f494 63a1 b8cd 8720 3bfb c7a2
00000270: b6df 8aa0 8d33 44a3 a2f0 bda1 6b89 8920
00000280: 3dc1 4c20 4b0e 1021 d166 4aa1 3af4 1ba2
00000290: 1bf7 222a ea33 0d21 318e 9b1d 377c 96a0
000002a0: 7c84 c2a0 5b79 1320 fe19 2123 58e5 c79f
000002b0: 5755 082c 220d ff2b 8984 fd21 96c8 0fa6
000002c0: 8846 b3a6 30a2 3ba1 fe3d d025 50c5 d9a4
000002d0: 9c4e a726 6f77 5ca5 bfb0 03a6 d464 99a6
000002e0: 7b19 fa26 8b36 fea4 8299 19a6 3816 4926
000002f0: d35e e026 aa8e 1e2c df66 64a5 8ac9 82a3
00000300: 449f 5f25 3342 aa25 ab83 9fa4 0f9b 0fa8
00000310: d5b1 1ba5 eb1a faad d391 b2ad e88e 9ca6
00000320: 260b 1624 5dd7 90a3 5a9f 3da2 4b9d 61a4
00000330: 9e27 b523 ea26 c6a5 2a27 04a3 de9a 31a6
00000340: 4dc6 8d23 a092 4725 ef7a c1a3 f30b 9d25
00000350: 4d0b 9d24 20b1 2da5 4ad9 172c 3a41 8324
00000360: 4c9a a2a1 a7f6 d7a3 6aa5 a6a3 f996 3f23
00000370: 3f1d 8126 71cb 54a3 561f 212e aef1 ee2d
00000380: ceb6 3a25 46dd b724 30a0 6424 a765 7da2
00000390: 8600 eba4 47e5 7024 becb 19a6 4613 9223
000003a0: 8903 d7a6 9745 dfa4 27b2 9725 7c6d d322
000003b0: 46e9 7ca5 06bb 6124 c861 a7a5 810a cc2a
000003c0: 72fa e624 0ad6 a1a0 dd02 57a4 7e26 faa3
000003d0: 58cc a723 1716 ec26 84b7 6c23 d30a 522d
000003e0: 9f3b 902c 0769 8f25 18a6 fc20 593a 4ba3
000003f0: a41d 1fa0 92cd 56a1 eda6 0e22 65a5 1ca4

encoder.lstm.bias_ih_l0 f4 [100]
2.058284e-12 5.4667815e-13 4.0365817e-15 8.5466763e-13 4.2277974e-12 3.2496247e-10 1.2443258e-13 1.4739569e-10
-1.5249064e-11 5.991476e-11 1.3840199e-12 1.9226024e-10 1.1372802e-11 3.1743944e-11 5.9943424e-14 1.9309214e-11
7.64953e-15 7.4132513e-13 5.2680294e-13 1.01096066e-13 1.9655313e-09 5.1214597e-12 1.6136628e-13 6.772368e-08
7.370255e-11 1.7470034e-12 5.871824e-12 5.382351e-15 1.9208563e-12 3.5509698e-12 6.5242124e-11 4.7068154e-13
5.5448306e-11 1.8660555e-12 4.9544684e-11 1.0970867e-12 9.3650684e-11 7.1501667e-12 1.3526066e-11 4.626193e-14
1.5913331e-11 7.3726815e-15 5.8120636e-13 3.3917078e-13 9.56565e-14 1.5793639e-09 3.215875e-12 1.3835176e-13
1.3747814e-08 4.5418082e-11 -6.439701e-07 -6.5537466e-07 -1.8418428e-09 7.379418e-07 -3.8101197e-07 2.6897874e-06
-3.0338748e-07 9.621565e-06 1.2364974e-07 3.7686314e-07 -2.6539348e-08 3.5563318e-07 3.103586e-07 2.2374545e-06
-4.922268e-08 -5.433618e-07 -8.847642e-09 3.2992168e-07 3.358232e-07 -1.0700625e-07 -1.2409574e-05 -1.0610683e-07
2.9263413e-08 -0.00010484612 -1.9996603e-06 2.0383502e-12 -4.3952376e-12 3.2257344e-15 6.981229e-13 4.085078e-12
3.2638442e-10 2.0215244e-14 1.4609587e-10 -1.617846e-11 5.7935417e-11 1.3623006e-12 1.935715e-10 1.1228114e-11
3.140486e-11 5.678312e-14 1.9266255e-11 7.4990774e-15 7.312779e-13 5.2577815e-13 9.177822e-14 1.9228368e-09
5.111781e-12 1.5938341e-13 6.746762e-08 7.322865e-11
00000000: c0d6 102c 50e0 192b e56e 9127 4b91 702b
00000010: 9dc0 942c 67a6 b22f 4019 0c2a 3310 222f
00000020: d721 86ad 03c1 832e 92c8 c22b 7264 532f
00000030: 8c12 482d 819c 0b2e 08fb 8629 7cd8 a92d
00000040: 3bcd 0928 1baa 502b 2748 142b eaa5 e329
00000050: fe11 0731 0232 b42c aaae 352a 7d6f 9133
00000060: d912 a22e 6ede f52b b098 ce2c 6deb c127
00000070: 122b 072c 96e0 792c 0d78 8f2e 2e7c 042b
00000080: 3edd 732e de4f 032c 5be6 592e b766 9a2b
00000090: a6f0 cd2e fa92 fb2c fcf3 6d2d 6058 5029
000000a0: a3f9 8b2d 7ed0 0428 5598 232b a9ef be2a
000000b0: 3866 d729 ed10 d930 0e4c 622c 2ec5 1b2a
000000c0: 872f 6c32 37c0 472e 4add 2cb5 01ed 2fb5
000000d0: 1524 fdb0 f916 4635 e38d ccb4 3282 3436
000000e0: 42e1 a2b4 4f6c 2137 95c4 0434 ad53 ca34
000000f0: a5f8 e3b2 daed be34 5c9f a634 2d27 1636
00000100: e968 53b3 8adb 11b5 5700 18b2 1720 b134
00000110: 304b b434 4fcb e5b3 b732 50b7 d9dc e3b3
00000120: ed5e fb32 d5e0 dbb8 e731 06b6 a76f 0f2c
00000130: c8a4 9aac 4c70 6827 0e81 442b 1dbb 8f2c
00000140: 866e b32f 2e15 b628 55a2 202f a74e 8ead
00000150: 7bcd 7e2e 0dba bf2b 89d5 542f ee86 452d
00000160: bb1e 0a2e 7bba 7f29 c077 a92d 6417 0728
00000170: 20d6 4d2b 4ffe 132b 8baa ce29 e722 0431
00000180: d4da b32c 2473 332a b7e2 9033 1108 a12e

encoder.lstm.bias_hh_l0 f4 [100]
2.058285e-12 5.466757e-13 4.0365796e-15 8.546678e-13 4.227798e-12 3.2496275e-10 1.2443232e-13 1.473955e-10
-1.5249073e-11 5.991474e-11 1.3840201e-12 1.9226007e-10 1.1372806e-11 3.1743944e-11 5.9943424e-14 1.9309223e-11
7.64953e-15 7.413249e-13 5.268031e-13 1.01096066e-13 1.965531e-09 5.1214605e-12 1.613662e-13 6.772368e-08
7.3702565e-11 1.7470039e-12 5.871829e-12 5.38235e-15 1.9208563e-12 3.55097e-12 6.5241555e-11 4.706812e-13
5.544839e-11 1.8660815e-12 4.954471e-11 1.0970868e-12 9.36508e-11 7.150165e-12 1.3526061e-11 4.6261934e-14
1.5913331e-11 7.3726815e-15 5.812064e-13 3.3917078e-13 9.565643e-14 1.579364e-09 3.2158737e-12 1.383518e-13
1.3747838e-08 4.541808e-11 -6.4415235e-07 -6.5451627e-07 -1.830906e-09 7.3796974e-07 -3.810949e-07 2.689613e-06
-3.033779e-07 9.624538e-06 1.2334537e-07 3.769487e-07 -2.6871422e-08 3.552381e-07 3.1064374e-07 2.2371632e-06
-4.9228444e-08 -5.4245174e-07 -8.764514e-09 3.284789e-07 3.3630948e-07 -1.07006414e-07 -1.2409419e-05 -1.0696494e-07
2.951781e-08 -0.00010484817 -1.9997076e-06 2.0383504e-12 -4.395239e-12 3.2257336e-15 6.981227e-13 4.0850773e-12
3.263848e-10 2.0215109e-14 1.4609604e-10 -1.6178477e-11 5.7935403e-11 1.3623007e-12 1.9357173e-10 1.1228111e-11
3.1404858e-11 5.678311e-14 1.9266259e-11 7.4990774e-15 7.3127805e-13 5.2577826e-13 9.1778276e-14 1.9228372e-09
5.1117786e-12 1.5938341e-13 6.7467646e-08 7.322865e-11
00000000: c4d6 102c 23e0 192b e06e 9127 4e91 702b
00000010: 9ec0 942c 71a6 b22f 2d19 0c2a 2510 222f
00000020: dc21 86ad 00c1 832e 94c8 c22b 6664 532f
00000030: 9112 482d 819c 0b2e 08fb 8629 81d8 a92d
00000040: 3bcd 0928 17aa 502b 2a48 142b eaa5 e329
00000050: fd11 0731 0432 b42c a4ae 352a 7d6f 9133
00000060: db12 a22e 73de f52b bc98 ce2c 6beb c127
00000070: 122b 072c 97e0 792c bb77 8f2e 287c 042b
00000080: 56dd 732e 5650 032c 62e6 592e b866 9a2b
00000090: b7f0 cd2e f692 fb2c f7f3 6d2d 6158 5029
000000a0: a3f9 8b2d 7ed0 0428 5698 232b a9ef be2a
000000b0: 2d66 d729 ee10 d930 084c 622c 31c5 1b2a
000000c0: a22f 6c32 36c0 472e d0e9 2cb5 04b2 2fb5
000000d0: 47a3 fbb0 e518 4635 4999 ccb4 337f 3436
000000e0: f1df a2b4 1379 2137 eb70 0434 6f5f ca34
000000f0: e2d2 e6b2 8db7 be34 8dc6 a634 2c22 1636
00000100: 3f6f 53b3 009d 11b5 bd92 16b2 cc59 b034
00000110: 068e b434 66cb e5b3 0c32 50b7 99b4 e5b3
00000120: 5a8e fd32 efe1 dbb8 b732 06b6 a86f 0f2c
00000130: cba4 9aac 4870 6827 0b81 442b 1bbb 8f2c
00000140: 946e b32f de14 b628 61a2 202f b14e 8ead
00000150: 77cd 7e2e 0eba bf2b 99d5 542f eb86 452d
00000160: ba1e 0a2e 78ba 7f29 c277 a92d 6417 0728
00000170: 23d6 4d2b 51fe 132b 93aa ce29 e922 0431
00000180: cfda b32c 2473 332a bbe2 9033 1108 a12e

encoder.lstm.weight_ih_l0_reverse f4 [100, 1]
0.27342722 2.6255398e-07 0.033067964 1.17010995e-05 0.036327615 6.173868e-08 0.029040521 0.039397098
0.03925887 0.037255876 0.048328582 0.039067186 3.659374e-05 0.0005138549 0.043884534 0.03097246
0.03490818 0.030096967 0.043020308 0.051503424 7.679963e-05 0.042010646 0.0279102 0.04431731
7.106664e-05 0.32144985 2.0362911e-07 0.017066892 1.0517368e-05 0.012365656 1.08815525e-08 0.007090358
0.017354412 0.020245606 0.009851371 0.019935282 0.014208734 3.0708623e-05 0.0004267803 0.022839557
0.012771325 0.010165404 0.0056171548 0.017671993 0.019149425 5.8242014e-05 0.011451013 0.0033703619
0.033243384 5.624168e-05 -1.2319571 0.00015491545 -0.31712177 -0.0023108157 0.47201762 -0.00044376383
0.45170346 0.45724946 0.42595077 0.38329157 0.46465394 -0.36833948 -0.002706855 -0.010848754
-0.29195803 -0.37210158 0.4580234 0.44033355 -0.41186458 0.463375 -0.00069647323 -0.41503137
-0.4398458 0.57536435 0.0011132129 0.19380933 2.2244198e-07 0.036219932 1.0666569e-05 0.041059222
5.3902497e-08 0.03187256 0.041544348 0.04570769 0.03975442 0.054968834 0.040174786 3.1740572e-05
0.0004295812 0.046368044 0.030600458 0.040146455 0.03500653 0.044323094 0.056107454 6.652721e-05
0.04711653 0.030945603 0.04821909 6.04942e-05
00000000: a7fe 8b3e 25f5 8c34 4672 073d d74f 4437
00000010: 44cc 143d 3395 8433 63e6 ed3c da5e 213d
00000020: e9cd 203d 9e99 183d 31f4 453d ea04 203d
00000030: 3b7c 1938 38b4 063a 45c0 333d f5b9 fd3c
00000040: e1fb 0e3d ea8d f63c 1036 303d 41f5 523d
00000050: 7d0f a138 5b13 2c3d efa3 e43c 1186 353d
00000060: 9d09 9538 1395 a43e 25a5 5a34 decf 8b3c
00000070: c073 3037 5299 4a3c 93f1 3a32 3c56 e83b
00000080: d72a 8e3c 1dda a53c a567 213c 514f a33c
00000090: c0cb 683c 22cd 0038 7bc1 df39 061a bb3c
000000a0: d23e 513c cb8c 263c 1c10 b83b dbc4 903c
000000b0: 41df 9c3c e348 7438 089d 3b3c 4ae1 5c3b
000000c0: 372a 083d 0be5 6b38 c5b0 9dbf cd70 2239
000000d0: c95d a2be 0e71 17bb 4bac f13e f9a8 e8b9
000000e0: ad45 e73e 9a1c ea3e 3816 da3e cb3e c43e
000000f0: 1fe7 ed3e fe96 bcbe 7e65 31bb f9be 31bc
00000100: 867b 95be 1984 bebe 0b82 ea3e 6673 e13e
00000110: eadf d2be 7d3f ed3e 8793 36ba fe7e d4be
00000120: 7833 e1be 144b 133f 3ae9 913a f475 463e
00000130: 63d8 6e34 5a5b 143d 91f4 3237 b72d 283d
00000140: 6c82 6733 cd8c 023d 682a 2a3d fd37 3b3d
00000150: 88d5 223d 0027 613d 518e 243d 2e21 0538
00000160: 6a39 e139 6bec 3d3d d0ad fa3c 9c70 243d
00000170: 0263 0f3d 228c 353d eed0 653d 8684 8b38
00000180: 43fd 403d a281 fd3c 6181 453d 27bb 7d38

encoder.lstm.weight_hh_l0_reverse f4 [100, 25]
-0.088522255 -1.679046e-05 -0.034172967 -0.00033966653 0.04696105 -3.085402e-05 0.049568858 0.045304958
0.043461546 0.04159468 0.042919755 -0.038994677 -0.0005352142 -0.0023234587 -0.030516982 -0.037987337
0.048251852 0.048721924 -0.041227542 0.04245658 -0.00042576744 -0.04385653 -0.084027514 0.13061458
0.0005228975 -2.861295e-07 -2.541861e-10 -1.5369321e-07 -2.202003e-09 1.7525163e-07 1.0880372e-10 1.6991606e-07
1.6234812e-07 1.8127683e-07 1.7438025e-07 1.6630403e-07 -1.5736175e-07 -3.674889e-09 -1.335563e-08 -1.6056225e-07
-1.5444711e-07 1.7614202e-07 1.65655e-07 -1.5891878e-07 1.7631741e-07 -4.7611746e-09 -1.6645555e-07 -1.6447365e-07
1.7473822e-07 5.105682e-09 -0.034773957 -2.1050817e-05 -0.01114252 -0.00017766032 0.012439053 1.0222045e-05
0.011998383 0.011848914 0.013026035 0.01213269 0.012235125 -0.0110059 -0.00026555848 -0.0009829637
-0.011223941 -0.010860149 0.012516365 0.011850691 -0.011363183 0.012671613 -0.00036817262 -0.012196408
-0.011240881 0.013488424 0.00037189285 -9.359281e-06 -8.509939e-09 -5.2477462e-06 -7.344674e-08 6.31202e-06
3.409503e-09 6.0195985e-06 5.935717e-06 6.4832184e-06 5.9602417e-06 6.148674e-06 -5.47043e-06 -1.143786e-07
-4.2967034e-07 -5.5104133e-06 -5.508542e-06 6.222253e-06 5.861605e-06 -5.641395e-06 6.4011047e-06 -1.5513484e-07
-5.935103e-06 -6.3004068e-06 6.055319e-06 1.5580586e-07 -0.021704633 -2.0037493e-05 -0.011260629 -0.0001508603
0.012178086 7.6090537e-06 0.011765147 0.011404486 0.012916211 0.012072765 0.012092898 -0.010764251
-0.00026288693 -0.0009976954 -0.011454119 -0.010668385 0.012288433 0.011620881 -0.010876683 0.012383965
-0.0003683296 -0.012457713 -0.010993371 0.012756409 0.00036703292 -6.390121e-08 -4.8247434e-11 -2.5639736e-08
-3.930948e-10 3.0269586e-08 2.2505192e-11 2.7928072e-08 2.8085188e-08 3.159391e-08 2.8873247e-08 2.9671138e-08
-2.6569372e-08 -6.096687e-10 -2.1637023e-09 -2.6697114e-08 -2.6561805e-08 3.008551e-08 2.7334687e-08 -2.666168e-08
3.1332057e-08 -8.311016e-10 -2.8162388e-08 -2.3580975e-08 3.2962472e-08 8.110554e-10 -0.023597686 -1.665994e-05
-0.008184526 -9.288989e-05 0.0077769393 4.6360383e-06 0.0077925986 0.0074859452 0.008604689 0.007933727
0.008111656 -0.007352754 -0.0002115067 -0.0008512375 -0.008291191 -0.0069374526 0.007937008 0.007898759
-0.007531751 0.0079065515 -0.00030445974 -0.008420093 -0.008225641 0.008762329 0.00030461626 -0.028472206
-1.6744923e-05 -0.009043918 -0.00016583795 0.009650301 1.1978534e-05 0.009345413 0.009282757 0.010514708
0.009481364 0.009561987 -0.00893192 -0.00018278889 -0.0007250127 -0.009368352 -0.008729686 0.009886532
0.009387362 -0.008862489 0.009987013 -0.00028926873 -0.009407212 -0.008386371 0.010262749 0.00027897526
-0.03091061 -1.3596408e-05 -0.008708174 -7.938874e-05 0.009401293 7.4235704e-06 0.009070972 0.009103091
0.010077059 0.009379467 0.009412728 -0.008426162 -0.00014885797 -0.0005508271 -0.008683094 -0.008260651
0.009805605 0.009135278 -0.00872955 0.00981771 -0.00022690518 -0.009572147 -0.010702231 0.0095860725
0.00022373797 -0.014671889 -1.9433459e-05 -0.0099367695 -0.000112994145 0.010819092 5.40084e-06 0.010616453
0.010433954 0.011311916 0.0105441185 0.010952178 -0.009643793 -0.00024490056 -0.0009561553 -0.010106942
-0.0092606945 0.011009221 0.010648722 -0.010021141 0.0108670015 -0.00035082115 -0.010637148 -0.007007635
0.013116302 0.00035121792 -0.008014489 -2.1903914e-05 -0.0071847946 -0.00016729736 0.0072937305 1.2769992e-05
00000000: 284b b5bd 3dd9 8cb7 f4f8 0bbd 4515 b2b9
00000010: 3b5a 403d 4069 01b8 b708 4b3d b191 393d
00000020: bc04 323d 2f5f 2a3d a0cc 2f3d e2b8 1fbd
00000030: 9e4d 0cba 2b45 18bb c0fe f9bc 9c98 1bbd
00000040: bca3 453d a490 473d 36de 28bd f3e6 2d3d
00000050: 8a39 dfb9 e8a2 33bd 9e16 acbd d4bf 053e
00000060: 0f13 093a 579d 99b4 83bd 8baf de06 25b4
00000070: 0c52 17b1 cd2c 3c34 0d43 ef2e 2c72 3634
00000080: e951 2e34 ffa4 4234 473d 3b34 4e91 3234
00000090: 45f7 28b4 5589 7cb1 af72 65b2 0467 2cb4
000000a0: 19d6 25b4 8d21 3d34 e6de 3134 43a3 2ab4
000000b0: c351 3d34 bc97 a3b1 f4ba 32b4 2c9a 30b4
000000c0: ad9f 3b34 0e6e af31 236f 0ebd 4996 b0b7
000000d0: 1e8f 36bc 544a 3ab9 2bcd 4b3c 597f 2b37
000000e0: de94 443c f321 423c 276b 553c 31c8 463c
000000f0: d575 483c 1752 34bc a83a 8bb9 cad6 80ba
00000100: 9fe4 37bc c4ee 31bc 7111 4d3c 6729 423c
00000110: a52c 3abc 999c 4f3c 4b07 c1b9 71d3 47bc
00000120: ac2b 38bc 8dfe 5c3c 9dfa c239 ce05 1db7
00000130: 1c33 12b2 cc15 b0b6 c6b9 9db3 d7cb d336
00000140: 9c4c 6a31 f5fb c936 6c2b c736 6c8a d936
00000150: 16fe c736 b550 ce36 a38e b7b6 4da0 f5b3
00000160: 71ad e6b4 17e6 b8b6 04d6 b8b6 bfc8 d036
00000170: ceae c436 374b bdb6 12c9 d636 2493 26b4
00000180: 2626 c7b6 1568 d3b6 cb2e cb36 974b 2734
00000190: eacd b1bc 3016 a8b7 807e 38bc 4130 1eb9
000001a0: 9886 473c 4651 ff36 9ac2 403c e2d9 3a3c
000001b0: 849e 533c d9cc 453c 4a21 463c 8b5c 30bc
000001c0: 16d4 89b9 1ac5 82ba 0faa 3bbc 73ca 2ebc
000001d0: 6c55 493c 8265 3e3c 1d34 32bc 1de6 4a3c
000001e0: 5d1c c1b9 6f1b 4cbc 8a1d 34bc 4200 513c
000001f0: 536e c039 103a 89b3 c831 54ae 603e dcb2
00000200: 2d1b d8af c301 0233 30f5 c52d 7be6 ef32
00000210: fb3f f132 dfb1 0733 f104 f832 86df fe32
00000220: ab3a e4b2 9f95 27b0 41b0 14b1 9353 e5b2
00000230: 072a e4b2 5e37 0133 9dcd ea32 a805 e5b2
00000240: f691 0633 9373 64b0 bfe9 f1b2 1d8f cab2
00000250: 9f92 0d33 f3f0 5e30 ef4f c1bc f3c0 8bb7
00000260: 6418 06bc e1cd c2b8 b2d5 fe3b 448f 9b36
00000270: 0e59 ff3b a94c f53b aefa 0c3c 77fc 013c
00000280: c0e6 043c 5fef f0bb e6c7 5db9 9525 5fba
00000290: c7d7 07bc 9253 e3bb 390a 023c cc69 013c
000002a0: e8cc f6bb 7b8a 013c e59f 9fb9 6ef4 09bc
000002b0: d7c4 06bc df8f 0f3c e7b4 9f39 8b3e e9bc
000002c0: 7377 8cb7 f12c 14bc c9e4 2db9 4c1c 1e3c
000002d0: 69f7 4837 811d 193c b416 183c e245 2c3c
000002e0: b957 1b3c e1a9 1c3c 3057 12bc 05ab 3fb9
000002f0: c70e 3eba b77d 19bc f506 0fbc 1ffb 213c
00000300: 73cd 193c f933 11bc 92a0 233c fea8 97b9
00000310: b520 1abc fd66 09bc 1725 283c 6d43 9239
00000320: 3f38 fdbc 211c 64b7 bbac 0ebc 817d a6b8
00000330: e107 1a3c fc17 f936 6a9e 143c 2225 153c
00000340: 401a 253c 56ac 193c d837 1a3c e30d 0abc
00000350: c216 1cb9 6265 10ba 8943 0ebc ae57 07bc
00000360: b0a7 203c 22ac 153c 6306 0fbc 76da 203c
00000370: 65ed 6db9 7fd4 1cbc 6958 2fbc e70e 1d3c
00000380: 349b 6a39 5d62 70bc 0905 a3b7 d5cd 22bc
00000390: 45f7 ecb8 9042 313c dd38 b536 a2f0 2d3c
000003a0: 2df3 2a3c 9d55 393c 3dc1 2c3c c470 333c
000003b0: 0001 1ebc ff65 80b9 7fa6 7aba 9697 25bc
000003c0: 2bba 17bc 0560 343c fa77 2e3c b62f 24bc
000003d0: 820b 323c 6bee b7b9 6f47 2ebc 4ea0 e5bb
000003e0: c2e5 563c ac23 b839 344f 03bc 4cbe b7b7
000003f0: 6d6e ebbb 8b6c 2fb9 3f00 ef3b b33e 5637

encoder.lstm.bias_ih_l0_reverse f4 [100]
0.2724329 2.9867877e-07 0.05938584 1.1394001e-05 0.08550501 -6.286025e-08 0.08799249 0.07737707
0.07367378 0.093566075 0.094325654 0.0743283 4.567768e-05 0.0007065199 0.07571873 0.0632965
0.091146104 0.08450812 0.07776093 0.09482783 8.856062e-05 0.08396743 0.082541116 0.06470703
8.750225e-05 0.4247078 2.2257817e-07 0.030322948 7.787739e-06 0.037937034 -2.6714652e-08 0.033031818
0.035019044 0.040949453 0.033285398 0.032097507 0.024987523 3.2552918e-05 0.00049492926 0.03151826
0.02399324 0.032543078 0.02829096 0.03234633 0.03548347 6.6129614e-05 0.018766958 0.025909944
0.05338055 6.435685e-05 0.45160586 -0.00012369297 0.020209128 -0.00029522294 -0.044994045 0.00020603354
-0.047172226 -0.040362936 -0.0141664995 -0.031327724 -0.030913798 0.029986411 -0.00023458539 9.9625955e-05
0.020305403 0.020094952 -0.03344786 -0.04820163 0.04276241 -0.02986155 -0.0009974805 0.026500948
0.02621521 -0.08954658 0.0007700496 0.47146645 2.950034e-07 0.06978314 1.1237504e-05 0.101539895
-8.253498e-08 0.10528639 0.0914176 0.08900625 0.108406134 0.10593626 0.08496065 4.4776672e-05
0.00069824187 0.08457083 0.07298272 0.10782796 0.10045318 0.0900439 0.10914291 8.72909e-05
0.096090116 0.09834162 0.09010174 8.5501255e-05
00000000: 537c 8b3e 195a a034 913e 733d dd28 3f37
00000010: 401d af3d cafd 86b3 6835 b43d df77 9e3d
00000020: 47e2 963d 929f bf3d cf2d c13d 7039 983d
00000030: 0996 3f38 bf35 393a 6c12 9b3d 98a1 813d
00000040: cfaa ba3d 9812 ad3d 1f41 9f3d 1835 c23d
00000050: 9fb9 b938 1ef7 ab3d 510b a93d 1f85 843d
00000060: 6a81 b738 4d73 d93e d2fd 6e34 d567 f83c
00000070: 16a8 0237 dd63 1b3d 247a e5b2 5f4c 073d
00000080: 2170 0f3d 9dba 273d 4556 083d ad78 033d
00000090: a2b2 cc3c 6e89 0838 24be 013a 4a19 013d
000000a0: 798d c43c e44b 053d 71c2 e73c 967d 043d
000000b0: 1d57 113d 11af 8a38 2abd 993c 1741 d43c
000000c0: 90a5 5a3d 52f7 8638 e238 e73e 94b3 01b9
000000d0: 9d8d a53c 27c8 9ab9 ad4b 38bd b50a 5839
000000e0: aa37 41bd 9b53 25bd 9b1a 68bc 8051 00bd
000000f0: ef3e fdbc 10a6 f53c 09fb 75b9 47ee d038
00000100: 8457 a63c 2b9e a43c a000 09bd 136f 45bd
00000110: a327 2f3d 36a0 f4bc e4bd 82ba 8418 d93c
00000120: 48c1 d63c 3364 b7bd 27dd 493a 0d64 f13e
00000130: f560 9e34 77ea 8e3d b688 3c37 26f4 cf3d
00000140: 163e b1b3 64a0 d73d 2739 bb3d e948 b63d
00000150: 0904 de3d 1cf5 d83d d9ff ad3d 96ce 3b38
00000160: 380a 373a 7933 ad3d f777 953d e8d4 dc3d
00000170: 66ba cd3d f068 b83d 5186 df3d f20f b738
00000180: e5ca c43d 5567 c93d 4387 b83d 234f b338

encoder.lstm.bias_hh_l0_reverse f4 [100]
0.272433 2.9867877e-07 0.05938584 1.1394001e-05 0.08550498 -6.286031e-08 0.08799249 0.07737708
0.073673785 0.09356609 0.094325654 0.074328296 4.5677683e-05 0.00070651976 0.075718746 0.063296475
0.09114608 0.08450814 0.07776093 0.09482782 8.856063e-05 0.083967425 0.08254114 0.06470701
8.750226e-05 0.42470783 2.2257814e-07 0.030322965 7.78774e-06 0.037937 -2.6714677e-08 0.033031814
0.035019066 0.04094946 0.033285405 0.032097504 0.024987519 3.255292e-05 0.0004949293 0.03151827
0.02399323 0.03254308 0.028290961 0.032346338 0.03548345 6.612961e-05 0.018766955 0.025909953
0.053380568 6.435684e-05 0.4515914 -0.00012369534 0.020209186 -0.00029522128 -0.04499388 0.00020602717
-0.047172397 -0.04036394 -0.014166714 -0.031327754 -0.030914184 0.029986463 -0.00023458178 9.961962e-05
0.02030544 0.020094736 -0.033447947 -0.04820174 0.04276245 -0.029861469 -0.0009974758 0.026500968
0.026215253 -0.08956062 0.0007700481 0.47146642 2.9500342e-07 0.06978314 1.1237506e-05 0.10153987
-8.253492e-08 0.10528639 0.091417626 0.08900627 0.108406164 0.10593627 0.08496063 4.4776672e-05
0.0006982417 0.084570825 0.07298272 0.10782794 0.10045323 0.090043925 0.109142914 8.72909e-05
0.09609012 0.098341644 0.09010171 8.550125e-05
00000000: 577c 8b3e 195a a034 913e 733d dd28 3f37
00000010: 3c1d af3d d2fd 86b3 6835 b43d e077 9e3d
00000020: 48e2 963d 949f bf3d cf2d c13d 6f39 983d
00000030: 0a96 3f38 bd35 393a 6e12 9b3d 95a1 813d
00000040: ccaa ba3d 9b12 ad3d 1f41 9f3d 1735 c23d
00000050: a0b9 b938 1df7 ab3d 540b a93d 1c85 843d
00000060: 6b81 b738 4e73 d93e d0fd 6e34 de67 f83c
00000070: 17a8 0237 d463 1b3d 327a e5b2 5e4c 073d
00000080: 2770 0f3d 9fba 273d 4756 083d ac78 033d
00000090: a0b2 cc3c 6f89 0838 25be 013a 4d19 013d
000000a0: 738d c43c e54b 053d 72c2 e73c 987d 043d
000000b0: 1857 113d 10af 8a38 28bd 993c 1c41 d43c
000000c0: 95a5 5a3d 51f7 8638 fd36 e73e 37b4 01b9
000000d0: bc8d a53c eec7 9ab9 814b 38bd ff08 5839
000000e0: d837 41bd a954 25bd 811b 68bc 8851 00bd
000000f0: be3f fdbc 2ca6 f53c 11fa 75b9 e0ea d038
00000100: 9857 a63c b79d a43c b700 09bd 306f 45bd
00000110: ae27 2f3d 0aa0 f4bc bcbd 82ba 8f18 d93c
00000120: 5fc1 d63c 8f6b b7bd 0edd 493a 0c64 f13e
00000130: f660 9e34 77ea 8e3d b988 3c37 23f4 cf3d
00000140: 0d3e b1b3 64a0 d73d 2a39 bb3d eb48 b63d
00000150: 0d04 de3d 1df5 d83d d7ff ad3d 96ce 3b38
00000160: 350a 373a 7833 ad3d f777 953d e5d4 dc3d
00000170: 6cba cd3d f368 b83d 5286 df3d f20f b738
00000180: e6ca c43d 5867 c93d 3f87 b83d 224f b338

encoder.lstm.weight_ih_l1 f4 [100, 50]
3.635631e-18 1.0653394e-17 3.856851e-19 2.0359345e-18 5.413893e-18 -8.885001e-17 5.3166976e-18 1.7958211e-18
3.739094e-17 3.4899074e-17 -1.0931053e-18 -5.4558378e-17 -2.5694867e-17 -6.4997917e-18 -5.777006e-19 -7.355902e-18
1.71948e-19 4.11703e-19 -8.001098e-19 -6.6927385e-19 2.4079087e-17 4.98881e-19 8.815259e-19 1.1887413e-19
-2.5772875e-17 1.581833e-12 3.2415924e-16 4.3106263e-13 2.6473189e-15 -2.3110057e-13 -1.2321448e-15 -1.08236635e-13
-2.4133554e-13 -2.128104e-15 -5.8632976e-13 -4.2709225e-13 7.86136e-13 9.00706e-15 2.5025448e-14 1.131352e-12
8.659668e-13 -4.9777494e-13 -6.2464134e-13 2.3908742e-13 -6.3346946e-13 6.9850746e-15 4.620917e-13 9.98471e-13
-5.067538e-13 -1.3733974e-14 -1.1387635e-21 -4.213478e-20 -5.260845e-22 2.8954497e-22 -4.8712287e-21 -2.0532087e-20
-3.0606527e-21 2.1404342e-21 -4.8733905e-20 9.177398e-21 1.3138409e-21 -1.27266e-20 2.198856e-21 7.9022996e-22
3.1723671e-22 8.4715016e-21 -2.7802722e-22 2.9333486e-22 -2.7375596e-22 2.6515453e-22 2.5608436e-20 -5.4087672e-21
5.213888e-22 1.4497453e-19 2.2888908e-20 -1.1101354e-15 -4.34157e-19 -3.2309587e-16 -1.9589945e-18 6.4871464e-16
3.8127275e-19 -8.8398397e-17 4.3442168e-16 -5.798115e-17 4.2893166e-16 6.7503264e-16 -4.254114e-16 -1.9071173e-17
4.644733e-18 -8.519283e-16 -3.9969552e-16 8.779636e-16 5.682496e-16 -1.8795688e-16 7.4736554e-16 -1.0571025e-17
-5.4259485e-16 -5.4100397e-16 4.942112e-16 2.1547282e-17 -1.6809143e-22 -5.5938566e-21 -1.13320256e-23 2.0064803e-23
-1.9468419e-21 3.9719517e-21 9.7884714e-23 -2.6681866e-22 1.873356e-21 -1.1828175e-20 1.5249403e-21 -7.896721e-21
-3.3055296e-22 4.99919e-22 -2.5185877e-23 -2.8095018e-21 5.840782e-23 -3.6652746e-23 -9.13127e-24 -4.2119568e-23
-4.7251517e-21 2.267943e-21 -3.3649754e-22 9.876871e-21 1.8435222e-21 -4.844298e-16 8.7886105e-20 1.9549865e-17
1.7118998e-18 -1.3516086e-17 2.458358e-20 -2.1435222e-16 -3.69625e-17 -7.90179e-17 -6.582092e-18 -9.883636e-17
-5.1435735e-17 -8.950388e-19 3.4574849e-18 -1.3954999e-16 -2.7435404e-17 -2.7725354e-17 2.1137793e-17 1.0688908e-16
5.1305007e-17 8.295033e-19 5.852627e-17 1.8249111e-17 -1.4762309e-17 1.409951e-18 -1.458297e-20 -3.308596e-19
-3.0232805e-21 -1.8192975e-20 -1.4623307e-19 7.081507e-20 2.5669957e-20 7.850193e-20 -5.4543535e-19 -2.9095863e-19
1.089302e-19 3.161993e-19 -4.6778514e-20 9.1448306e-20 -4.199916e-21 2.4964385e-20 6.6704426e-21 -3.5517197e-21
-6.1328516e-21 8.523312e-21 2.2228414e-19 -8.629294e-20 -4.4592612e-21 1.9170984e-18 3.3906493e-19 -1.7296501e-14
-4.419202e-18 -1.0907832e-14 1.1569401e-17 1.284305e-14 -5.0076806e-19 -3.9088716e-15 1.8965508e-15 2.5795258e-15
1.2310117e-15 1.689565e-14 -6.8811987e-15 -3.1082364e-16 3.2555007e-16 -2.085275e-14 -4.5026463e-15 1.6724017e-14
9.680844e-15 -4.0282723e-15 4.679044e-15 -1.646494e-17 -1.1775389e-14 -7.467043e-15 5.7216195e-15 2.794103e-16
-2.2054868e-20 -1.420722e-19 -4.553346e-21 3.0605384e-21 -4.1001042e-20 6.0158584e-21 -2.8341227e-20 2.38772e-19
-3.643477e-19 -4.6521807e-20 3.2971678e-20 7.018949e-19 1.9456535e-19 4.232498e-20 7.001864e-21 1.4926315e-19
-3.45183e-21 2.6150657e-21 -5.690816e-21 1.6067235e-21 2.4796535e-19 -5.209983e-20 3.5869132e-21 8.024683e-19
1.3405651e-19 -1.0550755e-14 -6.3868466e-19 -5.1881704e-15 -5.2035977e-17 6.7939467e-15 4.20669e-18 -1.6825882e-16
7.8864686e-16 1.8240262e-15 2.7998945e-15 5.6523716e-15 -7.261873e-15 -7.7154094e-17 3.8663775e-17 -8.73767e-15
-2.8447995e-15 7.646624e-15 6.0255506e-15 -3.806182e-15 8.141686e-15 -3.406902e-17 -8.0937225e-15 -5.8562113e-15
6.5212025e-15 1.0150221e-16 -2.088006e-30 -7.770798e-29 -7.6132044e-31 -2.682375e-31 -1.0941202e-29 1.5019197e-28
00000000: 9021 8622 3b85 4423 16ab e320 b739 1622
00000010: c6bc c722 cadf cca4 ca26 c422 1a82 0422
00000020: 6e6f 2c24 8ef1 2024 5a50 a1a1 2a9b 7ba4
00000030: 4afe eca3 cccc efa2 d381 2aa1 44b1 07a3
00000040: 1800 4b20 cc06 f320 9626 6ca1 e788 45a1
00000050: 2317 de23 623e 1321 1b17 8221 8057 0c20
00000060: 7bb6 eda3 8a9f de2b 76dd ba25 acaa f22a
00000070: 6ac2 3e27 1a19 82aa 1f92 b1a6 2cba f3a9
00000080: 1edc 87aa 9758 19a7 8309 25ab 7b6e f0aa
00000090: 1247 5d2b bc41 2228 c168 e128 4039 9f2b
000000a0: 7cbf 732b 771c 0cab 27d2 2fab 2198 862a
000000b0: 494e 32ab f1a9 fb27 3711 022b b685 8c2b
000000c0: 76a3 0eab c768 77a8 c715 ac9c d3f9 469f
000000d0: d1ff 1e9c ea04 af1b a207 b89d 8aeb c19e
000000e0: a241 679d 05ba 211d ad23 669f 2c5b 2d1e
000000f0: c28a c61c 1066 709e 1024 261d 15d5 6e1c
00000100: 01c2 bf1b ab05 201e a10e a89b 5f4f b11b
00000110: af79 a59b ad46 a01b 66dd f11e 6356 cc9d
00000120: 8194 1d1c dd27 2b20 fc2d d81e c4fc 9fa6
00000130: fa23 00a1 8940 baa5 5c8c 10a2 b1fa 3a26
00000140: 4f10 e120 34d5 cba4 536d fa25 08b2 85a4
00000150: 2443 f725 9e90 4226 a43b f5a5 89e6 afa3
00000160: 435c ab22 378d 75a6 a668 e6a5 480e 7d26
00000170: 6bc9 2326 14b3 58a5 d869 5726 4100 43a3
00000180: 6f64 1ca6 0cef 1ba6 5a72 0e26 15bd c623
00000190: c735 4b9b 7654 d39d 7931 5b99 0c0e c219
000001a0: 6619 139d 5c0e 961d b4ab ec1a 3048 a19b
000001b0: fa8b 0d1d 8b6d 5f9e 4571 e61c 332a 159e
000001c0: 98ce c79b 5c17 171c 3695 f399 ab47 549d
000001d0: b138 8d1a e73d 319a dc9f 3099 80ad 4b9a
000001e0: dd82 b29d 665c 2b1d 7966 cb9b 9e91 3a1e
000001f0: e84a 0b1d 9ca0 0ba6 e483 cf1f d050 b423
00000200: bfa1 fc21 e953 79a3 732f e81e 9c21 77a5
00000210: 9e75 2aa4 ef33 b6a4 1ad6 f2a2 b0e6 e3a4
00000220: 9934 6da4 9c15 84a1 0b1e 7f22 e3e3 20a5
00000230: 040c fda3 a4b8 ffa3 34f6 c223 2d78 f624
00000240: 439a 6c24 7fd3 7421 d0f3 8624 7f51 a823
00000250: 8428 88a3 7112 d021 75bb 899e 174e c3a0
00000260: c06e 649d ead3 ab9e 3ca4 2ca0 1535 a71f
00000270: 2672 f21e 815b b91f eefb 20a1 6dc0 aba0
00000280: 229a 0020 b0a6 ba20 c1e7 5c9f 1ced d71f
00000290: 18ab 9e9d 2ec8 eb1e 9000 fc1d 202e 869d
000002a0: 4db1 e79d 3500 211e a136 8320 e2c0 cb9f
000002b0: 5477 a89d f774 0d22 0b26 c820 04cb 9ba8
000002c0: 2f0a a3a2 7f7f 44a8 f46a 5523 1d5c 6728
000002d0: f7cc 13a1 fad4 8ca7 30a9 0827 dadf 3927
000002e0: 5168 b126 b72e 9828 dbeb f7a7 792d b3a5
000002f0: b6aa bb25 2bd3 bba8 9539 a2a7 f5a2 9628
00000300: 0365 2e28 4122 91a7 9094 a827 bedc 97a3
00000310: 6620 54a8 a883 06a8 a024 ce27 af11 a125
00000320: 664d d09e b0ba 27a0 4305 ac9d 6c3f 671d
00000330: 389f 419f d045 e31d 71d6 059f 34f2 8c20
00000340: ab12 d7a0 6ab1 5b9f 50b4 1b1f ae29 4f21
00000350: c5b3 6520 c3df 471f f042 041e 0538 3020
00000360: 0d68 829d ba96 451d 32fe d69d 1bcd f21c
00000370: 775f 9220 d408 769f 7f82 871d cad8 6c21
00000380: 1844 1e20 c510 3ea8 a681 3ca1 6dec baa7
00000390: 3df9 6fa4 19c7 f427 1033 9b22 3dfd 41a5
000003a0: de4f 6326 586f 0327 f0c0 4927 eda5 cb27
000003b0: 7ad1 02a8 bde7 b1a4 214e 3224 6467 1da8
000003c0: 4afd 4ca7 d4bf 0928 e517 d927 d521 89a7
000003d0: e6aa 1228 991d 1da4 b5cd 11a8 04fe d2a7
000003e0: 7af3 ea27 540c ea24 3066 298e 5d03 c590
000003f0: 0710 778d 9918 ae8c f8e9 5d8f 1564 3e11

encoder.lstm.weight_hh_l1 f4 [100, 25]
1.5871893e-18 -3.788044e-20 -6.138416e-20 3.1231894e-20 3.6194332e-19 -1.0577632e-23 1.9224758e-21 -1.2841181e-20
2.9603014e-20 1.0000556e-19 2.6260678e-21 -1.0857701e-16 -3.9462225e-16 4.1943837e-21 -3.4609286e-15 -2.0986796e-22
2.1209581e-21 -7.323768e-21 2.4988964e-17 -3.089983e-20 3.2391092e-18 1.9525994e-25 -3.582921e-14 -4.9083005e-14
-5.918367e-16 -3.6160136e-21 6.388128e-23 1.1732856e-22 -1.0335882e-21 -6.105456e-22 1.1953513e-26 6.387099e-26
4.3352423e-24 -4.4297774e-23 -2.996504e-23 1.1177015e-24 9.1842884e-20 2.341155e-19 -5.758438e-24 -8.764634e-19
7.8905424e-26 -2.1381552e-25 3.9494625e-24 -1.9732607e-20 3.8222116e-23 -5.8431783e-22 -1.1025898e-28 -1.0830533e-17
-1.2861632e-17 6.7174226e-19 7.886957e-22 -6.3237997e-24 -1.47071e-23 5.873715e-23 4.5615677e-23 -1.1229998e-27
1.1110799e-25 -4.9897913e-25 6.303446e-24 2.6633906e-24 2.3009875e-25 -6.4943073e-21 -1.0814264e-20 1.1725985e-24
1.0441943e-19 -1.1421022e-26 -5.1558184e-25 -1.1361826e-25 2.0505088e-21 -4.086046e-24 7.8217484e-23 9.8920765e-30
1.2357013e-18 1.2464128e-18 -2.01069e-20 5.4383716e-21 1.8561632e-23 2.2565163e-22 -1.084123e-20 2.9395154e-21
1.508966e-25 -6.590908e-26 1.01009915e-22 -6.2203306e-22 -7.068882e-22 -1.4293093e-23 1.5332757e-18 4.2984432e-18
-2.8098777e-23 -7.970353e-18 5.8816453e-25 8.927164e-25 -2.2921616e-23 -1.7832316e-19 6.2089457e-22 9.1127515e-21
-1.3526466e-27 -9.3003986e-17 -1.2199636e-16 -2.403932e-18 -1.2648578e-20 3.818889e-22 2.1840206e-21 -6.2810696e-21
-6.1213954e-21 5.218343e-26 -5.9644286e-24 9.9169345e-23 -7.227997e-22 -1.6762673e-22 5.9183067e-24 1.5665507e-18
4.1132826e-18 -1.5077477e-22 1.5812662e-19 4.3433597e-25 -1.02454036e-23 5.1561435e-23 -3.047413e-19 4.167907e-22
-1.9269903e-20 -2.3820383e-27 9.894433e-18 -5.7412117e-18 3.2945299e-18 -1.937878e-29 1.8047416e-32 4.929722e-31
-7.648548e-31 -7.594514e-31 4.760776e-32 2.3091143e-31 1.8431246e-32 -8.207045e-33 -1.2394121e-31 -1.4932599e-32
1.5565509e-28 5.400633e-28 -1.622854e-32 6.744234e-28 6.514182e-32 9.275988e-33 7.983718e-33 -3.7377582e-29
9.164382e-32 -4.8610818e-30 -1.3687752e-38 1.0790601e-26 6.911064e-27 1.2734256e-27 -2.5274808e-26 3.2034811e-27
8.118404e-28 -2.1698776e-26 -5.49883e-27 -3.282928e-31 1.7345307e-29 6.384346e-29 -2.6316822e-28 1.5826268e-28
7.3453265e-29 3.0820466e-24 4.4801296e-24 -1.6839112e-28 -8.9274865e-23 -4.0378043e-32 3.8239568e-29 3.144129e-29
-5.889158e-25 2.234389e-28 2.0727306e-26 -4.4018627e-33 -1.290898e-21 -9.301624e-22 1.2485581e-23 6.2765406e-24
1.3993304e-25 -2.767844e-26 -2.837391e-26 -5.2615543e-26 1.4141773e-30 7.3806917e-28 3.4146565e-27 1.22638366e-26
-2.993891e-26 1.0229696e-27 -1.5606281e-23 6.973299e-23 2.336783e-27 -2.025407e-21 -2.9705778e-29 -3.331219e-27
-3.1021255e-28 -4.8876418e-24 1.1277297e-26 2.790814e-24 -1.5610311e-32 -2.2288732e-20 -2.5531308e-20 8.258017e-23
2.787865e-23 -9.860842e-25 -1.1948126e-24 5.986931e-24 5.0861373e-24 -1.7830797e-28 3.630068e-27 3.8728285e-26
1.480359e-25 4.20223e-25 1.3620456e-28 -2.9711142e-22 -1.4130457e-21 9.8180186e-26 7.371273e-21 -1.0935858e-27
8.345776e-27 4.387255e-27 1.5183762e-22 -3.008711e-26 -1.4279911e-23 1.806806e-30 8.087107e-20 5.2680377e-20
-2.722792e-21 -2.0438944e-22 -5.2123136e-24 9.678241e-25 1.9969137e-23 6.8401885e-24 1.4882827e-28 -3.971365e-26
5.239301e-25 -1.0277365e-24 -3.3495263e-24 -4.4788604e-26 2.9249022e-21 7.676038e-21 -1.9044859e-25 -1.2698934e-19
1.6352158e-27 6.043292e-26 1.8789965e-25 -2.9493533e-22 7.7503484e-25 -8.3788785e-23 -2.887065e-31 -1.2907893e-18
-1.5559183e-18 1.796105e-20 -5.607858e-24 -6.5848585e-27 7.139674e-26 -7.033338e-25 -2.067128e-25 5.701103e-30
00000000: 513a ea21 a4e2 329f 73f0 909f 0b7d 131f
00000010: 54a7 d520 e699 4c99 1742 111d 2490 729e
00000020: d9cb 0b1f a721 ec1f 8a6b 461d 8e5c faa4
00000030: f77b e3a5 9775 9e1d dd62 79a7 fdb6 7d9b
00000040: 4c41 201d 9257 0a9e 867b e623 9aeb 119f
00000050: 0b01 6f22 58b8 7116 445c 21a9 da0c 5da9
00000060: d795 2aa6 f09b 889d 9974 9a1a 6ed7 0d1b
00000070: 0231 9c9c ae86 389c 83c3 6c14 0d23 9e15
00000080: 29b6 a718 fd35 569a ece6 109a b8f4 ac17
00000090: 9edb d81f 8932 8a20 cfc4 de98 da57 81a1
000000a0: 415c c315 6c58 8496 95c9 9818 845e ba9e
000000b0: b0d4 381a 6799 309c 16c5 0b91 bfc9 47a3
000000c0: 5741 6da3 6943 4621 605e 6e1c e1a3 f498
000000d0: 043d 8e99 8904 8e1a 7995 5c1a 49f2 b192
000000e0: 878b 0916 336d 1a97 4eda f318 e311 4e18
000000f0: 9a6c 8e16 1659 f59d 9246 4c9e 6a73 b517
00000100: ac8d f61f 7637 6294 9a90 1f97 10a7 0c96
00000110: 9cee 1a1d 3d12 9e98 471e bd1a 99a2 480f
00000120: 7a5b b621 25f0 b721 80e7 bd9e b474 cd1d
00000130: 6084 b319 e665 881b f9c8 4c9e 7f1a 5e1d
00000140: 0bcd 3a16 d82e a395 1c3a f41a 7aff 3b9c
00000150: d3a4 559c fc3b 8a99 8545 e221 a695 9e22
00000160: 9ae0 079a ee06 13a3 3207 3617 2424 8a17
00000170: 2caf dd99 de86 52a0 64a7 3b1c 9022 2c1e
00000180: dd55 d692 dd73 d6a4 f8a6 0ca5 fe60 31a2
00000190: c5ec 6e9e 72d6 e61b 1a05 251d c74a ed9d
000001a0: 8142 e79d 2e33 8115 d7bc e698 dac6 ef1a
000001b0: eb73 5a9c f6a5 4a9b 12f4 e418 9d2e e721
000001c0: dbc0 9722 8846 369b d7ae 3a20 a46b 0617
000001d0: c82c 4699 f755 791a 34e3 b3a0 3def fb1b
000001e0: c4ff b59e 7ab9 3c93 2485 3623 36d0 d3a2
000001f0: e917 7322 3086 c48f 436a bb0a 87fa 1f0d
00000200: a735 788d c174 768d 9131 770b bede 950c
00000210: a866 bf0a 2374 2a8a 88e2 208c a811 9b8a
00000220: f750 4511 2427 2b12 dc86 a88a babb 5512
00000230: 2a1e a90b 9da7 400a bad0 250a e086 3d90
00000240: c4eb ed0b 5c30 c58e e20b 9580 d9ba 5514
00000250: 42e3 0814 47c8 c912 404f fa94 51ce 7d13
00000260: 29a4 8012 efe4 d694 c3d4 d993 ff12 d58c
00000270: fee6 af0f c6dc a110 7ccd a691 2d9f 4811
00000280: e539 ba10 3976 6e18 0e51 ad18 0b76 5591
00000290: 77da d79a a0a7 518b cce5 4110 216d 1f10
000002a0: b742 3697 099f 8d11 f745 cd14 a2d8 b689
000002b0: 3313 c39c ea8f 8c9c 9a81 7119 d9cf f218
000002c0: 8d3a 2d16 970e 0995 3480 0c95 1045 8295
000002d0: a076 e50d 49e7 6912 bb44 8713 0ae9 7214
000002e0: 1440 1495 9418 a212 48ef 9699 a19a a81a
000002f0: 9723 3913 1209 199d 4ea0 1690 93f6 8393
00000300: dd9e c491 dc14 bd98 b05e 5f14 c4ed 5718
00000310: 531b a28a d982 d29e ea22 f19e a6aa c71a
00000320: 19d0 061a d296 9897 67e3 b897 b19b e718
00000330: aac2 c418 3f08 6291 43cd 8f13 efc5 3f15
00000340: 7342 3716 7f0d 0217 e8a8 2c11 c497 b39b
00000350: 8f88 d59c 1615 f315 4a3d 0b1e 1c49 ad92
00000360: 1d4e 2514 0dcc ad13 788f 371b f1fb 1495
00000370: 591b 8a99 e495 120e 90f3 be1f abc6 781f
00000380: 75ba 4d9d 7817 779b 41a4 c998 76c3 9517
00000390: 3021 c119 f94e 0419 89a9 3c11 08a7 4495
000003a0: 0526 2217 d608 9f97 1a94 8198 4dc8 5d95
000003b0: d6ff 5c1d 0bff 101e 91c3 6b96 2cec 15a0
000003c0: 1e8e 0113 ea9f 9515 c79b 6816 0847 b29b
000003d0: 96dc 6f17 bf96 ca9a 9861 bb8c a47c bea1
000003e0: ee9c e5a1 27a3 a91e 89f1 d898 336d 0294
000003f0: 0fc5 b015 d8ab 5997 e7e5 7f96 a343 e70e

encoder.lstm.bias_ih_l1 f4 [100]
-9.155941e-12 -1.3044393e-15 -3.9060363e-16 4.0700584e-14 5.3529166e-15 -4.624813e-24 -1.6365179e-19 1.6568473e-18
2.0873532e-17 3.951864e-17 -8.785589e-18 -2.538366e-10 1.3070259e-09 2.0244712e-18 -1.6675475e-23 -3.7998034e-22
-1.01867e-17 -1.659599e-18 9.243456e-12 2.6673873e-17 -3.4400217e-13 4.1326797e-28 4.8817e-11 -2.858742e-18
1.473151e-08 -1.1384786e-11 -2.9060436e-15 -3.8955384e-16 2.5308021e-14 1.841141e-15 -5.1832686e-24 -2.5882843e-19
9.2219775e-20 1.9906298e-17 1.2934517e-17 -1.0463013e-17 -3.184645e-10 1.4174143e-09 1.9391272e-18 -2.6649637e-22
-4.153035e-22 -8.407647e-18 -2.0359824e-18 7.886086e-12 2.4815647e-17 -5.752405e-13 3.3942727e-28 4.05457e-11
-3.7581533e-18 1.3373136e-08 -7.5139644e-07 1.4017519e-08 2.2011795e-08 -6.953688e-08 -9.295237e-08 1.7378787e-12
7.1316473e-12 8.0376683e-10 -7.739521e-09 -5.5923612e-09 4.0484163e-10 1.5300893e-05 3.63564e-05 -1.3150029e-09
-1.8404537e-11 1.5544474e-11 -5.927326e-10 5.051711e-10 -3.1022132e-06 5.3716485e-09 -1.334974e-07 -2.1148244e-14
7.2639054e-06 -5.6464583e-10 8.055189e-05 5.23221e-20 3.0734634e-24 1.9312415e-23 -2.306399e-22 6.0027776e-22
1.403794e-31 -1.7709594e-27 -4.6861567e-26 -1.4490137e-24 -1.5257625e-23 1.7982194e-27 4.7380786e-18 -1.424534e-17
-6.730757e-26 1.1118375e-23 -1.8056555e-29 7.3893094e-26 8.082514e-26 -8.818069e-20 -9.6039557e-26 -2.3339754e-20
-1.8020017e-35 2.052335e-17 5.023874e-22 -1.8443539e-16
00000000: b112 21ad 51fd bba6 ec2a e1a5 944c 3729
00000010: f1db c027 eee9 b298 b834 41a0 ec81 f421
00000020: 3c86 c023 603f 3624 c510 22a3 538c 8baf
00000030: e3a2 b330 2e61 1522 7a46 a199 1caf e59b
00000040: 55e9 3ba3 e1e9 f4a1 d39c 222d e705 f623
00000050: f0a7 c1aa 48f8 0212 0eb3 562e 1cf0 52a2
00000060: de15 7d32 8548 48ad 0b67 51a7 0090 e0a5
00000070: 53f4 e328 0fab 0427 9b84 c898 0cc9 98a0
00000080: 6fbf d91f 6b9a b723 8899 6e23 2f02 41a3
00000090: e513 afaf d5ce c230 1415 0f22 5116 a19b
000000a0: 1b09 fb9b fe17 1ba3 9f3a 16a2 c6bb 0a2d
000000b0: 4ae2 e423 72ea 21ab 3923 d711 6652 322e
000000c0: c1a6 8aa2 adbf 6532 92b3 49b5 b3d1 7032
000000d0: 7314 bd32 4e54 95b3 1b9d c7b3 ae95 f42b
000000e0: 2bec fa2c 10f0 5c30 c6f6 04b2 ee26 c0b1
000000f0: 6590 de2f 6b5a 8037 637d 1838 8dbb b4b0
00000100: 55e3 a1ad 0bbb 882d d9ed 22b0 42dc 0a30
00000110: 9e2f 50b6 8591 b831 7c57 0fb4 887c bea8
00000120: 79bc f336 6b35 1bb0 f7ed a838 8a15 771f
00000130: 37cc 6d18 39c7 ba19 cc69 8b9b 3e6c 351c
00000140: 0f39 360c 534f 0c93 180c 6895 5939 e097
00000150: 0d90 9399 3978 0e13 e3cd ae22 dc63 83a3
00000160: 3ea5 a695 870f 5719 7f1d b78f 50f3 b615
00000170: 051d c815 f535 d09f 4dc8 ed95 1070 dc9e
00000180: 279f bf85 644b bd23 58d6 171c b8a3 54a5

encoder.lstm.bias_hh_l1 f4 [100]
-9.155938e-12 -1.3044397e-15 -3.9060358e-16 4.070057e-14 5.3528997e-15 -4.6248103e-24 -1.6365183e-19 1.6568459e-18
2.0873522e-17 3.951862e-17 -8.7855895e-18 -2.5383642e-10 1.3070248e-09 2.0244716e-18 -1.667528e-23 -3.7998046e-22
-1.0186701e-17 -1.6595987e-18 9.24346e-12 2.6673863e-17 -3.4400214e-13 4.1326783e-28 4.8817e-11 -2.8587434e-18
1.4731511e-08 -1.13847855e-11 -2.9060426e-15 -3.8955403e-16 2.5308025e-14 1.8411409e-15 -5.1832753e-24 -2.5882848e-19
9.222019e-20 1.9906302e-17 1.2934544e-17 -1.0463013e-17 -3.1846445e-10 1.4174152e-09 1.939128e-18 -2.6649524e-22
-4.153035e-22 -8.407654e-18 -2.0359824e-18 7.886081e-12 2.4815645e-17 -5.7524005e-13 3.3942698e-28 4.0545678e-11
-3.758152e-18 1.3373141e-08 -7.5139656e-07 1.4017508e-08 2.20118e-08 -6.953686e-08 -9.2952334e-08 1.7378769e-12
7.1324253e-12 8.0376666e-10 -7.739522e-09 -5.592359e-09 4.048413e-10 1.5300891e-05 3.63564e-05 -1.3150031e-09
-1.8404538e-11 1.5544486e-11 -5.927303e-10 5.051709e-10 -3.1022112e-06 5.3716476e-09 -1.3349836e-07 -2.1148232e-14
7.263917e-06 -5.646455e-10 8.0551894e-05 5.2321045e-20 3.0733729e-24 1.9312411e-23 -2.3063986e-22 6.00286e-22
1.403813e-31 -1.7709592e-27 -4.6855296e-26 -1.449013e-24 -1.5257629e-23 1.798263e-27 4.7380757e-18 -1.4245281e-17
-6.730773e-26 1.11183594e-23 -1.805655e-29 7.389294e-26 8.0824753e-26 -8.818072e-20 -9.604012e-26 -2.333971e-20
-1.8020107e-35 2.0523362e-17 5.023833e-22 -1.8443534e-16
00000000: ae12 21ad 55fd bba6 ea2a e1a5 904c 3729
00000010: c9db c027 e7e9 b298 bb34 41a0 de81 f421
00000020: 3686 c023 5a3f 3624 c610 22a3 4d8c 8baf
00000030: d9a2 b330 3061 1522 fe45 a199 21af e59b
00000040: 56e9 3ba3 dee9 f4a1 d89c 222d e105 f623
00000050: efa7 c1aa 45f8 0212 0eb3 562e 23f0 52a2
00000060: df15 7d32 8448 48ad 0667 51a7 0790 e0a5
00000070: 55f4 e328 0eab 0427 ac84 c898 0ec9 98a0
00000080: afbf d91f 6d9a b723 a899 6e23 2f02 41a3
00000090: e313 afaf ddce c230 1815 0f22 2416 a19b
000000a0: 1b09 fb9b 0618 1ba3 9f3a 16a2 c0bb 0a2d
000000b0: 49e2 e423 6aea 21ab 2d23 d711 6052 322e
000000c0: bea6 8aa2 b2bf 6532 94b3 49b5 a7d1 7032
000000d0: 7614 bd32 4b54 95b3 169d c7b3 9d95 f42b
000000e0: 2df3 fa2c 0df0 5c30 c7f6 04b2 e926 c0b1
000000f0: 5990 de2f 6a5a 8037 637d 1838 8fbb b4b0
00000100: 56e3 a1ad 12bb 882d b0ed 22b0 3edc 0a30
00000110: 952f 50b6 8391 b831 c057 0fb4 817c bea8
00000120: 92bc f336 6535 1bb0 f8ed a838 4314 771f
00000130: 6cca 6d18 37c7 ba19 ca69 8b9b e16c 351c
00000140: b039 360c 524f 0c93 2504 6895 5239 e097
00000150: 0f90 9399 1b79 0e13 dccd ae22 b863 83a3
00000160: 58a5 a695 730f 5719 7c1d b78f 37f3 b615
00000170: c61c c815 f935 d09f a8c8 ed95 f56f dc9e
00000180: 669f bf85 6b4b bd23 06d6 171c b4a3 54a5
