DL_PROJECT_FREIBURG/error_signed_model_3.npy (npy, 4128 bytes, 1 tensors)

array f8 [500]
0	0x400e6d4e80000000	3.803372383117676
1	0x4006d401a0000000	2.8535187244415283
2	0x3fce18b000000000	0.23512840270996094
3	0x3fbe7e4000000000	0.11911392211914062
4	0xc005f82860000000	-2.74617075920105
5	0x3ffc9dd480000000	1.7885327339172363
6	0x400887e840000000	3.0663609504699707
7	0xbfe0ebe280000000	-0.528794527053833
8	0xbfeb762080000000	-0.8581697940826416
9	0xc00411ed60000000	-2.508753538131714
10	0xc03b19f530000000	-27.10139751434326
11	0x4002d52de0000000	2.3540914058685303
12	0xbfb2148400000000	-0.07062554359436035
13	0x4012422540000000	4.5645952224731445
14	0xbfeecb0200000000	-0.9622812271118164
15	0xbfb2280c00000000	-0.0709235668182373
16	0x3ff7f7d700000000	1.4980077743530273
17	0x40228536c8000000	9.260183572769165
18	0xbfd7170900000000	-0.3607809543609619
19	0xc007b5f560000000	-2.9638469219207764
20	0xc0112190b0000000	-4.28277850151062
21	0x3fcd064600000000	0.22675395011901855
22	0xbf7b580000000000	-0.00667572021484375
23	0xc00b330980000000	-3.3999204635620117
24	0x4029349d24000000	12.602761387825012
25	0xc008af1780000000	-3.085494041442871
26	0x40110374e0000000	4.25337553024292
27	0x3f92be7000000000	0.01830458641052246
28	0x3ff3382a80000000	1.2012124061584473
29	0x3fc08d8000000000	0.1293182373046875
30	0xbffa57f200000000	-1.6464710235595703
31	0x3fdfd6af00000000	0.4974782466888428
32	0xc00418b0a0000000	-2.5120556354522705
33	0x4014750940000000	5.114293098449707
34	0xbffba376c0000000	-1.7274081707000732
35	0x400d6c3d20000000	3.6778509616851807
36	0xc004f503c0000000	-2.619636058807373
37	0xbffd54e300000000	-1.8332242965698242
38	0x3feb73fa80000000	0.8579075336456299
39	0x400fcc03c0000000	3.974616527557373
40	0xc003d19260000000	-2.477329969406128
41	0xc00d4b7040000000	-3.661835193634033
42	0x3fe5557980000000	0.6666839122772217
43	0x3ff4daa5c0000000	1.3033807277679443
44	0xc0092ec0c0000000	-3.1478285789489746
45	0x4001a79480000000	2.2068262100219727
46	0x3fe4325000000000	0.6311416625976562
47	0x3fe2efe680000000	0.5917847156524658
48	0x3fcba3c800000000	0.21593570709228516
49	0x40034866c0000000	2.4103522300720215
50	0xbff7ff7500000000	-1.4998674392700195
51	0x3fec084500000000	0.876009464263916
52	0x400d0af600000000	3.630352020263672
53	0x401fbdbb80000000	7.935285568237305
54	0x4027014c28000000	11.50253415107727
55	0x3ffaa0a680000000	1.6642212867736816
56	0xbff98edf00000000	-1.5973806381225586
57	0xbfdc865800000000	-0.44569969177246094
58	0x3ff9cebd00000000	1.6129732131958008
59	0x3fd1af3f00000000	0.2763211727142334
60	0x4009a30980000000	3.2046079635620117
61	0x4002cbc7a0000000	2.349501848220825
62	0x4000ad9ac0000000	2.0847678184509277
63	0xc0100b9c70000000	-4.011338949203491
64	0x3fde1abd00000000	0.4703819751739502
65	0xc0203dc380000000	-8.12063217163086
66	0xc018411370000000	-6.063550710678101
67	0x3fedb6b080000000	0.9285509586334229
68	0x3ffa8d8f00000000	1.659560203552246
69	0x3ff55a6e40000000	1.3345777988433838
70	0xbff3fd4f40000000	-1.2493431568145752
71	0x3ffb157f00000000	1.6927480697631836
72	0xbfee5ccd80000000	-0.9488284587860107
73	0x4038280114000000	24.156266450881958
74	0x4015c79dd0000000	5.4449379444122314
75	0xbfced97600000000	-0.241011381149292
76	0x402482e1c8000000	10.255628824234009
77	0x40120f45d0000000	4.5149147510528564
78	0xc022570d98000000	-9.17002558708191
79	0xbfef05f180000000	-0.969475507736206
80	0xc01b7b8f20000000	-6.870663166046143
81	0x3fe39dc700000000	0.6130099296569824
82	0xbfecd90280000000	-0.9014904499053955
83	0x3ffbabb740000000	1.7294228076934814
84	0xbffb7d3b40000000	-1.718074083328247
85	0x40167b1ef0000000	5.620235204696655
86	0x40117f7950000000	4.374486207962036
87	0x400b478ea0000000	3.409940004348755
88	0x3fe6cdcb00000000	0.7126212120056152
89	0xc00bc6c760000000	-3.472059965133667
90	0xbf88380000000000	-0.0118255615234375
91	0x3fe8dbd180000000	0.7768332958221436
92	0xbff141a080000000	-1.0785222053527832
93	0xc001c466a0000000	-2.2208988666534424
94	0x400a6597c0000000	3.2996058464050293
95	0x400985d9a0000000	3.190356492996216
96	0x4025468240000000	10.637712478637695
97	0x404773c3f7000000	46.904417872428894
98	0xc00364cea0000000	-2.424222230911255
99	0xc00c2ad250000000	-3.5209089517593384
100	0xc003691dc0000000	-2.426326274871826
101	0x3ff6c6cf80000000	1.4235377311706543
102	0xbffe49d540000000	-1.8930256366729736
103	0x402f667eb0000000	15.700185298919678
104	0xbff733b8c0000000	-1.450127363204956
105	0x3ff3a1a8c0000000	1.2269675731658936
106	0x3feea6d380000000	0.95786452293396
107	0xc0084f6380000000	-3.038763999938965
108	0xc02336e4b8000000	-9.607213735580444
109	0x3feefd9800000000	0.9684562683105469
110	0xc0065c9c00000000	-2.7952194213867188
111	0x403469f104000000	20.41383385658264
112	0xc0084f1ec0000000	-3.038632869720459
113	0x4004a38540000000	2.5798439979553223
114	0xc01614ff30000000	-5.520504713058472
115	0xbff6e8e480000000	-1.4318585395812988
116	0x3fb7b1a000000000	0.09255409240722656
117	0x3ffdd05f80000000	1.8633723258972168
118	0x4004967580000000	2.5734663009643555
119	0x3fe4d84780000000	0.6514012813568115
120	0xc0137fbc60000000	-4.874742031097412
121	0xbfe752b400000000	-0.7288455963134766
122	0xbff1c88a00000000	-1.111459732055664
123	0xbfe39ad900000000	-0.6126523017883301
124	0x402d390d38000000	14.61142897605896
125	0xbff4cd5140000000	-1.300126314163208
126	0x3ffe076700000000	1.8768072128295898
127	0xbfe6347900000000	-0.6939053535461426
128	0x40136483a0000000	4.848158359527588
129	0x4012b97500000000	4.681110382080078
130	0x3f673e0000000000	0.0028371810913085938
131	0x400911e860000000	3.13374400138855
132	0xc002bf5a60000000	-2.3434340953826904
133	0xc007f33ce0000000	-2.9937684535980225
134	0xbfecca5000000000	-0.8996963500976562
135	0x40307e5d64000000	16.49361252784729
136	0x3ff00df600000000	1.003408432006836
137	0x3fe63cc600000000	0.6949186325073242
138	0xc00fab9180000000	-3.958773612976074
139	0x4011c6cb20000000	4.44413423538208
140	0xbfe9f31100000000	-0.8109211921691895
141	0xc0121fec50000000	-4.531174898147583
142	0xbff222f800000000	-1.1335372924804688
143	0xbfbea99c00000000	-0.11977553367614746
144	0x402a147bb0000000	13.040006160736084
145	0xbff0564cc0000000	-1.0210692882537842
146	0x402b58b9be000000	13.673292100429535
147	0x4010b8d5c0000000	4.180502891540527
148	0x40199b31b0000000	6.401556730270386
149	0x401d11c2a0000000	7.267343997955322
150	0x40099c1da0000000	3.201228380203247
151	0x3ff884f400000000	1.5324592590332031
152	0x3fd5139b00000000	0.32932162284851074
153	0x401988e6e0000000	6.383693218231201
154	0x4008cb4400000000	3.0992507934570312
155	0x3ff71e6880000000	1.4449238777160645
156	0xbfdc74ab00000000	-0.44462084770202637
157	0x3fcc25aa00000000	0.21989941596984863
158	0x3fefa4c800000000	0.9888648986816406
159	0xbfffa0ec80000000	-1.97678804397583
160	0xc000144f00000000	-2.009916305541992
161	0x3fa9000000000000	0.048828125
162	0x3fa3c04000000000	0.03857612609863281
163	0x400e25f1c0000000	3.7685275077819824
164	0xc0163451f0000000	-5.551093816757202
165	0xc000c875c0000000	-2.0978808403015137
166	0x4010882a60000000	4.132974147796631
167	0x3fd488d600000000	0.32085180282592773
168	0x3ff9bb79c0000000	1.6082704067230225
169	0xc00a2bc4a0000000	-3.2713711261749268
170	0xbfef700c00000000	-0.9824275970458984
171	0xbfe8c2c500000000	-0.773775577545166
172	0x3fff1c4e80000000	1.944410800933838
173	0x3f72a70000000000	0.004553794860839844
174	0xc010b218c0000000	-4.173922538757324
175	0x401073e550000000	4.113179445266724
176	0x4000b4f400000000	2.0883560180664062
177	0xbfee9b3480000000	-0.9564459323883057
178	0xbfc4457400000000	-0.1583695411682129
179	0x401ebf4230000000	7.6867759227752686
180	0xc03b303804000000	-27.18835473060608
181	0x402296ceb0000000	9.294545650482178
182	0xbfeca74100000000	-0.8954167366027832
183	0xc000fbd3c0000000	-2.122962474822998
184	0xbfe287b380000000	-0.5790650844573975
185	0x4032d54bf4000000	18.833190202713013
186	0xc000b06ca0000000	-2.0861446857452393
187	0xc009a66b20000000	-3.20625901222229
188	0xbff9216c40000000	-1.570659875869751
189	0x4004e73240000000	2.612888813018799
190	0xc00242b500000000	-2.282571792602539
191	0xbfe6e27280000000	-0.7151424884796143
192	0xbff346c400000000	-1.2047767639160156
193	0x402b4bcfb0000000	13.648068904876709
194	0xbff1507240000000	-1.0821402072906494
195	0x3fb54d8400000000	0.08321404457092285
196	0x3feace4180000000	0.8376777172088623
197	0x40168b3bf0000000	5.635970830917358
198	0xc002465b60000000	-2.2843539714813232
199	0x3fc3356200000000	0.15006661415100098
200	0xbff03c9780000000	-1.0147929191589355
201	0x400ac18f80000000	3.3445119857788086
202	0x3ffdb10040000000	1.855713129043579
203	0xc00b6576e0000000	-3.4245431423187256
204	0xc00e02b700000000	-3.7513256072998047
205	0x400de4c560000000	3.7367045879364014
206	0x402adb7dc8000000	13.428694009780884
207	0x4015000040000000	5.250000953674316
208	0x3ffb46d640000000	1.70479416847229
209	0x4003bb41e0000000	2.4664342403411865
210	0x3ff8f08bc0000000	1.5587270259857178
211	0x3fe6453880000000	0.6959497928619385
212	0x3fd43def00000000	0.3162801265716553
213	0x400ec44820000000	3.8458406925201416
214	0xc0052fa200000000	-2.6482582092285156
215	0x4022fc5168000000	9.49280858039856
216	0xc00171b2c0000000	-2.1805167198181152
217	0xc00ebc1a60000000	-3.8418471813201904
218	0x3fe0c26180000000	0.5237281322479248
219	0xbfe3a9e300000000	-0.6144881248474121
220	0xbfe32a1a80000000	-0.5988895893096924
221	0xc01ddd78a0000000	-7.466280460357666
222	0xbfff53ccc0000000	-1.9579589366912842
223	0x3ff62c4500000000	1.385807991027832
224	0xc00b2a6b40000000	-3.395712375640869
225	0x4004d39780000000	2.603316307067871
226	0xc0138bd220000000	-4.8865437507629395
227	0x4007198040000000	2.887451648712158
228	0xc013d57420000000	-4.958450794219971
229	0x401e2cfb50000000	7.543927431106567
230	0xc00b647380000000	-3.42404842376709
231	0xc00206a2e0000000	-2.2532403469085693
232	0xc00c6d9360000000	-3.5535037517547607
233	0x401c161810000000	7.021576166152954
234	0xbfd1c8ee00000000	-0.27788877487182617
235	0x401770bb80000000	5.860090255737305
236	0xc01536c170000000	-5.303472280502319
237	0x3ff9559ec0000000	1.5834033489227295
238	0x401a269c50000000	6.537705659866333
239	0x400b8051e0000000	3.4376561641693115
240	0x4009158880000000	3.135514259338379
241	0xc0020ab9c0000000	-2.255237102508545
242	0xc001375620000000	-2.152019739151001
243	0x3fe2531d00000000	0.5726456642150879
244	0xbfcd67ee00000000	-0.22973418235778809
245	0xc005f58ba0000000	-2.7448952198028564
246	0xbff4f65b80000000	-1.3101458549499512
247	0xbfe5061480000000	-0.6569921970367432
248	0xbff3981d00000000	-1.2246370315551758
249	0xbfe9c63e00000000	-0.8054494857788086
250	0x3fdae65400000000	0.42030811309814453
251	0xc0146e2850000000	-5.1075756549835205
252	0x40297c8a08000000	12.743240594863892
253	0xc0041069e0000000	-2.508014440536499
254	0xbfefe08c00000000	-0.9961605072021484
255	0x40000c7be0000000	2.0060956478118896
