DL_PROJECT_FREIBURG/error_signed_model_4.npy (npy, 4128 bytes, 1 tensors)

array f8 [500]
-1.7693400382995605 2.4480998516082764 -9.15464162826538 -1.4060139656066895 -9.284728765487671 -4.895484447479248 10.78835129737854 -4.8630475997924805
0.2751946449279785 9.06306505203247 11.602073907852173 3.2187998294830322 -3.813403844833374 -4.7154247760772705 -5.32689094543457 4.072415828704834
1.050180196762085 14.21383023262024 4.451256990432739 1.0347247123718262 -2.233898639678955 5.874419212341309 -2.870011329650879 -3.029221296310425
30.40701448917389 2.3756682872772217 0.5000412464141846 5.686068534851074 -10.006171464920044 3.1431078910827637 -3.7941694259643555 1.6211152076721191
2.7343451976776123 -4.162633419036865 18.97302269935608 -12.021064758300781 -11.513268947601318 -0.0014126300811767578 -6.569075584411621 -8.615273237228394
-7.053613662719727 0.4751920700073242 -7.240259647369385 -5.7055652141571045 -0.6803035736083984 0.06186962127685547 -11.624717712402344 -0.42624473571777344
2.2820353507995605 4.224276542663574 1.920539140701294 3.716474771499634 5.163711309432983 12.038058042526245 14.345508813858032 4.385006427764893
-6.275224685668945 -3.6991000175476074 1.3081729412078857 -6.066817045211792 -2.263474464416504 -8.398401737213135 -6.368160247802734 4.138374328613281
-2.786034345626831 6.593793630599976 -18.781304359436035 -5.7229697704315186 14.258354902267456 -9.094363451004028 9.903591871261597 7.920420169830322
-1.843959093093872 16.27415418624878 11.23124361038208 -4.588896036148071 14.359688758850098 5.083972215652466 -27.486521005630493 -0.5468368530273438
-13.907891511917114 2.48258113861084 12.83113956451416 4.972898960113525 -0.23328661918640137 -5.5680930614471436 2.6965200901031494 15.351766347885132
3.24360728263855 7.205337285995483 2.154773473739624 6.173449754714966 8.706808090209961 -1.4723896980285645 3.0625879764556885 -6.397652626037598
9.505009651184082 33.51140320301056 -7.8047215938568115 15.027278661727905 -9.22253131866455 2.6558279991149902 -4.215019941329956 14.938962459564209
1.3076364994049072 0.19775032997131348 1.4340698719024658 11.080962419509888 -2.2881031036376953 -0.3295421600341797 -0.6021618843078613 70.78685760498047
-3.8482069969177246 12.897896766662598 -21.503180265426636 -5.262541770935059 -0.04613995552062988 -3.3395886421203613 -3.332042694091797 3.8516640663146973
-5.338311195373535 -1.0765492916107178 3.3708274364471436 -3.1199514865875244 12.95771598815918 4.7251880168914795 4.122179746627808 6.340134143829346
-6.578159332275391 2.118927240371704 0.3036975860595703 5.111402273178101 2.414911985397339 -3.7171483039855957 -0.8304059505462646 5.570518970489502
-5.286216735839844 -12.107628583908081 -1.9308805465698242 9.246838092803955 -8.908170461654663 16.796070337295532 0.7469236850738525 0.9930014610290527
9.716063737869263 -2.504974603652954 56.998519599437714 3.3134877681732178 -3.8344919681549072 4.427230358123779 -14.272153377532959 -3.26840877532959
-3.9614439010620117 -4.284191131591797 -6.246453523635864 5.987042188644409 -5.848550796508789 -7.8076183795928955 0.18178820610046387 -0.02205967903137207
2.79618501663208 3.1131505966186523 -0.44461488723754883 -2.5603890419006348 -5.830419063568115 -10.251981019973755 4.527312517166138 -4.639923572540283
-8.93736481666565 -2.655714750289917 15.937834978103638 4.992467164993286 -2.274048328399658 -9.035336971282959 -3.7981808185577393 -1.4397740364074707
7.7328503131866455 -5.396610498428345 -0.8009195327758789 3.1677603721618652 21.020156145095825 3.9249420166015625 -6.259429454803467 -4.349774122238159
4.166543483734131 19.956713914871216 -2.115917205810547 -4.440754652023315 2.8707146644592285 -11.43418550491333 -7.2957634925842285 -7.867509126663208
3.353583812713623 22.192490100860596 -2.697110176086426 1.281726360321045 1.0656476020812988 -0.6917238235473633 -1.5836358070373535 14.630144834518433
3.9569973945617676 -0.5343139171600342 -3.546905517578125 3.974717855453491 -0.5519568920135498 5.331361293792725 12.031471729278564 4.951184988021851
2.865469455718994 1.0442376136779785 -7.4423134326934814 3.769773244857788 -8.302956819534302 -3.4572720527648926 3.842592239379883 1.9387662410736084
-0.6710588932037354 -4.771387577056885 1.1803925037384033 -1.7603278160095215 8.879858255386353 5.076009035110474 8.541685342788696 -5.567091703414917
3.6377787590026855 -0.7342815399169922 10.423719882965088 -0.21491050720214844 -2.459096908569336 4.1654884815216064 -11.643737554550171 -9.609013795852661
0.338059663772583 -0.7351040840148926 -3.003251552581787 13.469457626342773 -5.962079763412476 -5.6649863719940186 -28.885948657989502 -0.325620174407959
2.489745616912842 1.9895076751708984 8.989274501800537 5.126953125 -1.724475622177124 -2.908223867416382 0.4772186279296875 0.5633354187011719
-4.837191104888916 -1.3888120651245117 2.6914477348327637 -3.8952112197875977 2.3969829082489014 -6.564497947692871 -6.40643835067749 2.4432241916656494
00000000: 0000 0080 374f fcbf 0000 0060 b595 0340
00000010: 0000 0030 2d4f 22c0 0000 0080 087f f6bf
00000020: 0000 00f8 c791 22c0 0000 00e0 f994 13c0
00000030: 0000 00c8 a293 2540 0000 00c0 c273 13c0
00000040: 0000 0000 ca9c d13f 0000 0010 4a20 2240
00000050: 0000 0008 4334 2740 0000 0020 1ac0 0940
00000060: 0000 00e0 d981 0ec0 0000 0050 98dc 12c0
00000070: 0000 0080 bc4e 15c0 0000 0060 274a 1040
00000080: 0000 00c0 89cd f03f 0000 0028 7b6d 2c40
00000090: 0000 0050 16ce 1140 0000 0080 3b8e f03f
000000a0: 0000 0040 06df 01c0 0000 00c0 677f 1740
000000b0: 0000 0080 c8f5 06c0 0000 0060 d83b 08c0
000000c0: 0000 001a 3268 3e40 0000 0060 5e01 0340
000000d0: 0000 0080 5600 e03f 0000 00c0 88be 1640
000000e0: 0000 00e8 2803 24c0 0000 00c0 1525 0940
000000f0: 0000 0080 755a 0ec0 0000 0080 16f0 f93f
00000100: 0000 0060 f0df 0540 0000 0060 89a6 10c0
00000110: 0000 0004 18f9 3240 0000 0000 c90a 28c0
00000120: 0000 0030 cb06 27c0 0000 0000 0025 57bf
00000130: 0000 00c0 bb46 1ac0 0000 0018 053b 21c0
00000140: 0000 0080 e636 1cc0 0000 0000 8c69 de3f
00000150: 0000 00a0 06f6 1cc0 0000 00b0 7fd2 16c0
00000160: 0000 0000 0cc5 e5bf 0000 0000 60ad af3f
00000170: 0000 0000 db3f 27c0 0000 0000 9847 dbbf
00000180: 0000 00c0 9b41 0240 0000 00c0 a8e5 1040
00000190: 0000 0040 87ba fe3f 0000 0020 57bb 0d40
000001a0: 0000 00f0 a3a7 1440 0000 0058 7c13 2840
000001b0: 0000 0088 e6b0 2c40 0000 0020 3f8a 1140
000001c0: 0000 0080 d419 19c0 0000 00c0 c197 0dc0
000001d0: 0000 00c0 46ee f43f 0000 00b0 6b44 18c0
000001e0: 0000 0080 981b 02c0 0000 0050 fbcb 20c0
000001f0: 0000 0000 ff78 19c0 0000 0000 b28d 1040
00000200: 0000 0060 cc49 06c0 0000 0070 0b60 1a40
00000210: 0000 0090 03c8 32c0 0000 0030 52e4 16c0
00000220: 0000 0018 4784 2c40 0000 0068 5030 22c0
00000230: 0000 0098 a3ce 2340 0000 00a0 82ae 1f40
00000240: 0000 0040 db80 fdbf 0000 00f8 2e46 3040
00000250: 0000 0090 6576 2640 0000 0090 075b 12c0
00000260: 0000 0020 29b8 2c40 0000 00d0 fc55 1440
00000270: 0000 00a4 8c7c 3bc0 0000 0000 b07f e1bf
00000280: 0000 0028 d7d0 2bc0 0000 0080 53dc 0340
00000290: 0000 0020 8ba9 2940 0000 00a0 3fe4 1340
000002a0: 0000 0000 56dc cdbf 0000 0030 ba45 16c0
000002b0: 0000 0020 7992 0540 0000 00b8 1ab4 2e40
000002c0: 0000 0060 e8f2 0940 0000 00f0 43d2 1c40
000002d0: 0000 00e0 f93c 0140 0000 00d0 9cb1 1840
000002e0: 0000 00c0 e269 2140 0000 0080 e88e f7bf
000002f0: 0000 0020 2e80 0840 0000 0040 3297 19c0
00000300: 0000 00a0 9002 2340 0000 00a9 75c1 4040
00000310: 0000 00f0 0838 1fc0 0000 0078 f70d 2e40
00000320: 0000 00a0 ef71 22c0 0000 00c0 223f 0540
00000330: 0000 0030 2edc 10c0 0000 00b0 bfe0 2d40
00000340: 0000 0040 14ec f43f 0000 0000 e24f c93f
00000350: 0000 0040 f3f1 f63f 0000 00e8 7329 2640
00000360: 0000 0000 094e 02c0 0000 0000 3817 d5bf
00000370: 0000 0000 e944 e3bf 0000 00e0 5bb2 5140
00000380: 0000 00c0 20c9 0ec0 0000 0020 b9cb 2940
00000390: 0000 006c d080 35c0 0000 00c0 d70c 15c0
000003a0: 0000 0000 a89f a7bf 0000 0040 7ab7 0ac0
000003b0: 0000 0000 06a8 0ac0 0000 0040 35d0 0e40
000003c0: 0000 0040 6e5a 15c0 0000 00c0 8b39 f1bf
000003d0: 0000 0060 74f7 0a40 0000 0020 a9f5 08c0
000003e0: 0000 00c0 59ea 2940 0000 00b0 97e6 1240
000003f0: 0000 00b0 1c7d 1040 0000 0020 4c5c 1940
00000400: 0000 0000 0950 1ac0 0000 0020 90f3 0040
00000410: 0000 0000 c86f d33f 0000 0070 1372 1440
00000420: 0000 0060 bd51 0340 0000 0040 b8bc 0dc0
00000430: 0000 0080 af92 eabf 0000 0020 3648 1640
00000440: 0000 0000 1625 15c0 0000 0018 1b37 28c0
00000450: 0000 0000 e3e4 febf 0000 0090 617e 2240
00000460: 0000 00b8 fbd0 21c0 0000 0044 cbcb 3040
00000470: 0000 0080 cce6 e73f 0000 0000 abc6 ef3f
00000480: 0000 00e8 9f6e 2340 0000 0020 300a 04c0
00000490: 0000 807d cf7f 4c40 0000 00e0 0582 0a40
000004a0: 0000 0020 0aad 0ec0 0000 00e0 7bb5 1140
000004b0: 0000 00b0 578b 2cc0 0000 0080 b325 0ac0
000004c0: 0000 0080 09b1 0fc0 0000 0000 0323 11c0
000004d0: 0000 0050 5efc 18c0 0000 0030 bbf2 1740
000004e0: 0000 0080 ea64 17c0 0000 0050 003b 1fc0
000004f0: 0000 0000 d644 c73f 0000 0000 d096 96bf
00000500: 0000 0040 965e 0640 0000 0080 bbe7 0840
00000510: 0000 0000 9274 dcbf 0000 0040 ad7b 04c0
00000520: 0000 0060 5952 17c0 0000 00a8 0381 24c0
00000530: 0000 00d0 f71b 1240 0000 0020 488f 12c0
00000540: 0000 0048 eedf 21c0 0000 0060 e73e 05c0
00000550: 0000 00e8 2be0 2f40 0000 0050 49f8 1340
00000560: 0000 0040 4031 02c0 0000 00b0 1712 22c0
00000570: 0000 00a0 ac62 0ec0 0000 0080 5009 f7bf
00000580: 0000 0050 70ee 1e40 0000 0010 2196 15c0
00000590: 0000 0000 22a1 e9bf 0000 00c0 9257 0940
000005a0: 0000 00f4 2805 3540 0000 0000 4866 0f40
000005b0: 0000 00e0 a709 19c0 0000 0030 2b66 11c0
000005c0: 0000 0060 8aaa 1040 0000 0034 ebf4 3340
000005d0: 0000 0000 66ed 00c0 0000 0030 55c3 11c0
000005e0: 0000 0040 39f7 0640 0000 0090 4dde 26c0
000005f0: 0000 00a0 dc2e 1dc0 0000 0050 5478 1fc0
00000600: 0000 00c0 23d4 0a40 0000 0008 4731 3640
00000610: 0000 0080 ae93 05c0 0000 0080 f381 f43f
00000620: 0000 0080 e40c f13f 0000 0000 9a22 e6bf
00000630: 0000 0080 9256 f9bf 0000 0058 a242 2d40
00000640: 0000 0040 eea7 0f40 0000 0080 1919 e1bf
00000650: 0000 0000 1060 0cc0 0000 00e0 38cc 0f40
00000660: 0000 0080 a1a9 e1bf 0000 0060 5053 1540
00000670: 0000 0010 1d10 2840 0000 0070 03ce 1340
00000680: 0000 0040 7bec 0640 0000 0080 32b5 f03f
00000690: 0000 00d0 edc4 1dc0 0000 00e0 7e28 0e40
000006a0: 0000 0028 1d9b 20c0 0000 0040 7ea8 0bc0
000006b0: 0000 0000 a1bd 0e40 0000 00c0 2f05 ff3f
000006c0: 0000 0080 5079 e5bf 0000 00a0 e615 13c0
000006d0: 0000 0040 e3e2 f23f 0000 0080 4d2a fcbf
000006e0: 0000 00c8 7cc2 2140 0000 0050 d54d 1440
000006f0: 0000 00c8 5715 2140 0000 00b0 b344 16c0
00000700: 0000 00c0 2b1a 0d40 0000 0000 3c7f e7bf
00000710: 0000 00d0 f1d8 2440 0000 0000 3082 cbbf
00000720: 0000 0000 3bac 03c0 0000 00d0 75a9 1040
00000730: 0000 00f8 9749 27c0 0000 00a8 d037 23c0
00000740: 0000 0000 c5a2 d53f 0000 0000 f985 e7bf
00000750: 0000 00c0 a806 08c0 0000 00c0 5cf0 2a40
00000760: 0000 0070 2bd9 17c0 0000 0030 f2a8 16c0
00000770: 0000 0088 cde2 3cc0 0000 0000 f6d6 d4bf
00000780: 0000 00c0 ffea 0340 0000 0000 06d5 ff3f
00000790: 0000 0030 82fa 2140 0000 0000 0082 1440
000007a0: 0000 00c0 7397 fbbf 0000 00e0 0a44 07c0
000007b0: 0000 0000 c08a de3f 0000 0000 d806 e23f
000007c0: 0000 00a0 4859 13c0 0000 0000 9338 f6bf
000007d0: 0000 00c0 1588 0540 0000 0080 6429 0fc0
000007e0: 0000 0060 052d 0340 0000 00c0 0b42 1ac0
000007f0: 0000 0060 31a0 19c0 0000 0020 b98b 0340
