DL_PROJECT_FREIBURG/error_signed_model_3.npy (npy, 4128 bytes, 1 tensors)

array f8 [500]
000000 00 00 00 40 d1 01 ff 3f 00 00 00 00 5c 63 c8 bf
       1.937943696975708 -0.19053220748901367
000010 00 00 00 00 a9 7f dd bf 00 00 00 00 2d 76 eb bf
       -0.46091675758361816 -0.8581757545471191
000020 00 00 00 40 6c 4b 02 c0 00 00 00 40 2f aa f8 3f
       -2.286827564239502 1.5415489673614502
000030 00 00 00 80 a5 bc ed bf 00 00 00 80 97 1d f1 bf
       -0.9292781352996826 -1.0697245597839355
000040 00 00 00 c0 14 6b f5 3f 00 00 00 c0 db fc 01 40
       1.3386428356170654 2.2484660148620605
000050 00 00 00 90 b8 26 18 40 00 00 00 e0 97 9f 1f 40
       6.037813425064087 7.905852794647217
000060 00 00 00 80 8f 80 f0 bf 00 00 00 10 d9 49 13 40
       -1.0313868522644043 4.82211709022522
000070 00 00 00 00 31 92 e9 bf 00 00 00 c0 7c 04 f4 bf
       -0.799095630645752 -1.2510955333709717
000080 00 00 00 00 44 2d b1 bf 00 00 00 b8 6b 2d 13 c0
       -0.06709694862365723 -4.7943562269210815
000090 00 00 00 a0 8b 26 02 40 00 00 00 00 61 a3 d9 bf
       2.2688210010528564 -0.40059685707092285
0000a0 00 00 00 30 a1 63 11 40 00 00 00 c0 55 96 0c c0
       4.347294569015503 -3.5734057426452637
0000b0 00 00 00 60 63 f8 1b c0 00 00 00 80 26 4e e5 3f
       -6.9925665855407715 0.6657898426055908
0000c0 00 00 00 44 ba e8 2d 40 00 00 00 e0 d1 92 0a c0
       14.954546093940735 -3.3216893672943115
0000d0 00 00 00 c0 8b 20 01 40 00 00 00 40 9c 78 fe 3f
       2.1408915519714355 1.9044458866119385
0000e0 00 00 00 40 b6 87 f8 3f 00 00 00 a0 32 d5 01 40
       1.533132791519165 2.229100465774536
0000f0 00 00 00 40 3b 8a fd 3f 00 00 00 00 61 90 e8 bf
       1.846247911453247 -0.7676243782043457
000100 00 00 00 20 80 d9 02 40 00 00 00 a0 94 ef 0c 40
       2.356201410293579 3.6169826984405518
000110 00 00 00 40 50 bd 16 40 00 00 00 80 d7 9b e6 3f
       5.684876441955566 0.7065236568450928
000120 00 00 00 80 97 db fb 3f 00 00 00 00 3c 48 0c 40
       1.7411112785339355 3.5352706909179688
000130 00 00 00 e0 4c 1f 03 40 00 00 00 00 ba bc 0a c0
       2.3902833461761475 -3.342151641845703
000140 00 00 00 c0 a9 c4 f2 3f 00 00 00 20 fb b2 03 40
       1.17301344871521 2.462393045425415
000150 00 00 00 b0 6a 25 10 40 00 00 00 00 b4 08 db 3f
       4.036539793014526 0.4224061965942383
000160 00 00 00 a0 02 ab 01 c0 00 00 00 00 2d e6 e9 3f
       -2.208501100540161 0.8093476295471191
000170 00 00 00 00 9f d2 e5 bf 00 00 00 00 bb 60 01 c0
       -0.6819605827331543 -2.172231674194336
000180 00 00 00 40 f4 fb f5 bf 00 00 00 20 a4 c6 10 40
       -1.3740122318267822 4.193985462188721
000190 00 00 00 00 e8 4d b5 bf 00 00 00 40 d9 0c 16 c0
       -0.08322000503540039 -5.512547492980957
0001a0 00 00 00 c0 af df fe bf 00 00 00 60 25 1d 12 40
       -1.9296109676361084 4.528462886810303
0001b0 00 00 00 60 cd 98 16 40 00 00 00 c0 6b 0b 14 c0
       5.649220943450928 -5.011153221130371
0001c0 00 00 00 00 e1 c7 d5 bf 00 00 00 00 8e 29 01 40
       -0.34032464027404785 2.1452903747558594
0001d0 00 00 00 00 56 ff e3 3f 00 00 00 00 ae 98 d8 bf
       0.6249189376831055 -0.38431882858276367
0001e0 00 00 00 80 4c 94 02 40 00 00 00 a0 9c aa 08 40
       2.32241153717041 3.0833065509796143
0001f0 00 00 00 e0 59 cb 08 40 00 00 00 00 19 43 d2 bf
       3.099292516708374 -0.28534531593322754
000200 00 00 00 40 0a f0 f5 bf 00 00 00 80 6c a6 fc bf
       -1.3711035251617432 -1.79063081741333
000210 00 00 00 80 89 8b ff bf 00 00 00 80 03 32 03 40
       -1.9715666770935059 2.399420738220215
000220 00 00 00 d4 c0 59 2b c0 00 00 00 40 80 3e 05 40
       -13.675299286842346 2.655518054962158
000230 00 00 00 40 12 49 09 40 00 00 00 00 23 73 d9 bf
       3.160679340362549 -0.39765238761901855
000240 00 00 00 00 90 e8 f8 bf 00 00 00 e0 9b 4e 22 c0
       -1.5567779541015625 -9.153532981872559
000250 00 00 00 e0 be fc 0d 40 00 00 00 60 fe a0 04 40
       3.748410940170288 2.5786101818084717
000260 00 00 00 a0 93 33 01 c0 00 00 00 00 49 54 12 40
       -2.150183916091919 4.582309722900391
000270 00 00 00 00 3b cb e2 bf 00 00 00 80 cb 40 09 40
       -0.587308406829834 3.1566381454467773
000280 00 00 00 c0 f6 5d 08 c0 00 00 00 40 a4 69 11 40
       -3.0458807945251465 4.353165626525879
000290 00 00 00 00 eb b0 d3 bf 00 00 00 00 14 17 c6 3f
       -0.30767321586608887 0.17257928848266602
0002a0 00 00 00 e0 b9 49 02 c0 00 00 00 00 44 5a e6 3f
       -2.285999059677124 0.6985187530517578
0002b0 00 00 00 60 1d fd 11 40 00 00 00 e0 9b d8 04 40
       4.497182369232178 2.6057660579681396
0002c0 00 00 00 90 f8 1e 12 c0 00 00 00 80 20 5d eb bf
       -4.530245065689087 -0.8551180362701416
0002d0 00 00 00 c0 4a 8a ff 3f 00 00 00 e0 09 64 11 40
       1.9712626934051514 4.347693920135498
0002e0 00 00 00 30 87 dc 11 40 00 00 00 80 01 3f fc 3f
       4.465359449386597 1.7653822898864746
0002f0 00 00 00 80 3b 13 f8 3f 00 00 00 00 8c 73 04 c0
       1.5046954154968262 -2.5564193725585938
000300 00 00 00 98 5a 01 21 c0 00 00 00 24 dc 9a 29 40
       -8.502644300460815 12.802460789680481
000310 00 00 00 a0 0f 68 00 c0 00 00 00 10 24 5c 00 c0
       -2.0508110523223877 -2.044990658760071
000320 00 00 00 60 4f 4a 0a 40 00 00 00 80 d1 c9 0b 40
       3.2862842082977295 3.473544120788574
000330 00 00 00 80 05 81 ec 3f 00 00 00 d8 dd 6b 30 40
       0.8907496929168701 16.421353816986084
000340 00 00 00 20 e4 7d 19 40 00 00 00 c0 a0 39 ff bf
       6.372940540313721 -1.9515693187713623
000350 00 00 00 00 7e ae fe bf 00 00 00 00 60 29 8c 3f
       -1.9176006317138672 0.013750791549682617
000360 00 00 00 40 88 e1 f4 3f 00 00 00 20 71 0e 15 40
       1.3050615787506104 5.264103412628174
000370 00 00 00 20 f7 ff 10 40 00 00 00 26 f6 05 40 40
       4.249966144561768 32.04657435417175
000380 00 00 00 a0 66 02 10 c0 00 00 00 00 5a 98 12 40
       -4.002344608306885 4.648780822753906
000390 00 00 00 40 61 44 00 c0 00 00 00 00 48 dc dc 3f
       -2.033388614654541 0.4509449005126953
0003a0 00 00 00 00 bc bf ef 3f 00 00 00 00 21 af d6 bf
       0.9921550750732422 -0.35443902015686035
0003b0 00 00 00 00 b8 d7 d0 3f 00 00 00 80 b5 a8 f2 3f
       0.2631664276123047 1.1661887168884277
0003c0 00 00 00 20 61 85 0c c0 00 00 00 40 66 62 ff 3f
       -3.565126657485962 1.9615232944488525
0003d0 00 00 00 00 ab d0 d5 bf 00 00 00 00 c0 36 b3 3f
       -0.34086108207702637 0.07505416870117188
0003e0 00 00 00 40 66 49 1f 40 00 00 00 80 c6 8e f1 3f
       7.82167911529541 1.0973572731018066
0003f0 00 00 00 00 d9 10 e1 3f 00 00 00 00 b1 f7 df bf
       0.5333065986633301 -0.499492883682251
000400 00 00 00 00 30 d7 01 c0 00 00 00 e0 ae 6a 0a 40
       -2.230072021484375 3.302091360092163
000410 00 00 00 40 5a 74 04 40 00 00 00 80 72 2c 03 c0
       2.5568127632141113 -2.396702766418457
000420 00 00 00 00 4a ca e8 3f 00 00 00 00 19 65 0d c0
       0.774693489074707 -3.6743640899658203
000430 00 00 00 60 fe 4f 05 c0 00 00 00 80 18 03 f4 3f
       -2.6640594005584717 1.250755786895752
000440 00 00 00 00 b3 e3 f3 bf 00 00 00 90 2f 1a 12 c0
       -1.2430906295776367 -4.525572061538696
000450 00 00 00 80 c1 ed fb 3f 00 00 00 00 dc c6 06 40
       1.7455458641052246 2.8470993041992188
000460 00 00 00 20 93 7d 05 40 00 00 00 58 11 ef 20 c0
       2.6863157749176025 -8.466929197311401
000470 00 00 00 c0 3c 70 0a c0 00 00 00 00 b0 23 98 bf
       -3.3048033714294434 -0.023573637008666992
000480 00 00 00 e0 62 3b 0d 40 00 00 00 c0 b1 3e fd 3f
       3.6539971828460693 1.8278062343597412
000490 00 00 00 10 5b 21 f9 bf 00 00 00 e0 4c a2 02 40
       -1.5706434845924377 2.3292481899261475
0004a0 00 00 00 00 4b 46 de bf 00 00 00 08 ee a3 2f c0
       -0.4730403423309326 -15.820175409317017
0004b0 00 00 00 70 13 7e 12 40 00 00 00 80 c9 1e e5 3f
       4.623121023178101 0.6600081920623779
0004c0 00 00 00 20 f1 5f 16 40 00 00 00 80 2c 8d fb bf
       5.593693256378174 -1.72196626663208
0004d0 00 00 00 00 3d 9d eb bf 00 00 00 80 b6 db ef 3f
       -0.8629441261291504 0.9955704212188721
0004e0 00 00 00 00 72 fe f1 3f 00 00 00 40 72 3a fd 3f
       1.1246204376220703 1.8267691135406494
0004f0 00 00 00 00 60 cc ae 3f 00 00 00 00 0c 03 04 40
       0.06015300750732422 2.5014877319335938
000500 00 00 00 40 8e 2d fd 3f 00 00 00 60 29 d7 17 40
       1.8236219882965088 5.960118770599365
000510 00 00 00 00 3c f6 b8 3f 00 00 00 00 00 7c 65 3f
       0.09750723838806152 0.0026226043701171875
000520 00 00 00 00 44 35 d8 bf 00 00 00 40 86 e1 0b 40
       -0.3782510757446289 3.485119342803955
000530 00 00 00 80 35 22 0e 40 00 00 00 20 6a 2c 0c 40
       3.7667036056518555 3.5216867923736572
000540 00 00 00 80 f9 5b e6 bf 00 00 00 20 8b a1 02 40
       -0.6987273693084717 2.32887864112854
000550 00 00 00 c0 69 57 0f 40 00 00 00 80 82 27 f2 3f
       3.91768217086792 1.134645938873291
000560 00 00 00 40 02 41 08 40 00 00 00 70 52 80 12 c0
       3.031742572784424 -4.625314474105835
000570 00 00 00 e0 b7 28 02 40 00 00 00 00 c0 db dd 3f
       2.2698819637298584 0.4665374755859375
000580 00 00 00 40 0d 42 fb 3f 00 00 00 00 f0 21 d1 bf
       1.7036259174346924 -0.2676963806152344
000590 00 00 00 00 c3 7b f6 bf 00 00 00 f0 b9 b5 18 c0
       -1.4052152633666992 -6.177467107772827
0005a0 00 00 00 00 82 0d 26 c0 00 00 00 00 0e 7c c6 bf
       -11.026382446289062 -0.1756608486175537
0005b0 00 00 00 80 da 67 00 c0 00 00 00 00 90 db e6 3f
       -2.0507097244262695 0.7143020629882812
0005c0 00 00 00 00 af fb ed bf 00 00 00 b4 a0 9f 25 c0
       -0.9369730949401855 -10.81177294254303
0005d0 00 00 00 c0 d1 0e 09 40 00 00 00 c0 56 1c 08 40
       3.1322360038757324 3.0138373374938965
0005e0 00 00 00 a0 40 07 03 40 00 00 00 00 af c7 05 c0
       2.3785412311553955 -2.722501754760742
0005f0 00 00 00 00 11 cf df 3f 00 00 00 20 e5 30 0a c0
       0.4970133304595947 -3.273874521255493
000600 00 00 00 00 52 bd c3 bf 00 00 00 70 ed ae 26 40
       -0.15421509742736816 11.341655254364014
000610 00 00 00 00 06 06 cc 3f 00 00 00 e0 34 99 00 40
       0.2189338207244873 2.07480788230896
000620 00 00 00 80 38 01 19 40 00 00 00 c0 13 f3 0f 40
       6.251192092895508 3.993690013885498
000630 00 00 00 00 0f 86 d5 3f 00 00 00 34 b3 08 25 c0
       0.3363072872161865 -10.516992211341858
000640 00 00 00 00 8c de d7 3f 00 00 00 c0 c0 55 0f 40
       0.3729581832885742 3.9168715476989746
000650 00 00 00 80 13 aa 12 40 00 00 00 40 c3 46 ff 3f
       4.66609001159668 1.9547760486602783
000660 00 00 00 40 07 95 0e c0 00 00 00 00 04 c5 b8 3f
       -3.822767734527588 0.0967562198638916
000670 00 00 00 00 73 85 d1 3f 00 00 00 00 ac 0b 01 40
       0.2737700939178467 2.1306991577148438
000680 00 00 00 00 87 04 0f c0 00 00 00 80 d2 2a f9 bf
       -3.8772106170654297 -1.5729546546936035
000690 00 00 00 00 19 5f de 3f 00 00 00 40 ae e9 f3 bf
       0.47455430030822754 -1.2445509433746338
0006a0 00 00 00 00 3a 58 d8 bf 00 00 00 00 3e 0f 12 40
       -0.3803849220275879 4.514884948730469
0006b0 00 00 00 80 53 55 fd bf 00 00 00 10 2e 52 10 40
       -1.83333158493042 4.080253839492798
0006c0 00 00 00 60 58 f0 05 40 00 00 00 00 a0 b7 d6 bf
       2.742356061935425 -0.35495758056640625
0006d0 00 00 00 c0 54 7f fb 3f 00 00 00 40 df 90 fd 3f
       1.7185866832733154 1.8478691577911377
0006e0 00 00 00 60 1c 76 02 c0 00 00 00 00 79 10 0c 40
       -2.307671308517456 3.5080432891845703
0006f0 00 00 00 80 46 fc 0e 40 00 00 00 60 cf c6 08 c0
       3.8731813430786133 -3.0970752239227295
000700 00 00 00 80 cd 9f e7 3f 00 00 00 20 0a 16 0a 40
       0.7382571697235107 3.2607614994049072
000710 00 00 00 e0 ae 2a 24 40 00 00 00 a0 ac e2 01 40
       10.083365440368652 2.2356808185577393
000720 00 00 00 00 d8 c2 c4 bf 00 00 00 00 cc 1e ff 3f
       -0.16219615936279297 1.9450187683105469
000730 00 00 00 e0 a8 2a 00 c0 00 00 00 80 b5 ed 03 c0
       -2.020829916000366 -2.4910688400268555
000740 00 00 00 40 53 d1 0d c0 00 00 00 00 07 17 fe bf
       -3.7272095680236816 -1.8806219100952148
000750 00 00 00 00 48 2a e0 3f 00 00 00 80 4a 88 1b 40
       0.5051612854003906 6.883096694946289
000760 00 00 00 80 bf f5 e0 3f 00 00 00 e0 d5 c0 05 c0
       0.5299985408782959 -2.7191579341888428
000770 00 00 00 80 0a 47 e0 3f 00 00 00 c0 37 1c 04 40
       0.5086719989776611 2.5137782096862793
000780 00 00 00 80 40 ca fa bf 00 00 00 00 00 f3 c6 3f
       -1.6743779182434082 0.179290771484375
000790 00 00 00 c0 f0 2a 00 40 00 00 00 e0 53 df 09 c0
       2.0209670066833496 -3.234046697616577
0007a0 00 00 00 00 b5 81 14 c0 00 00 00 00 18 cf a3 bf
       -5.126667022705078 -0.038689374923706055
0007b0 00 00 00 00 38 fe f4 3f 00 00 00 50 4f 87 15 40
       1.3120651245117188 5.38213849067688
0007c0 00 00 00 00 1b b7 d9 3f 00 00 00 c0 c1 5c 02 40
       0.40180087089538574 2.2952914237976074
0007d0 00 00 00 40 fd a9 f8 3f 00 00 00 00 be ca c2 3f
       1.5415012836456299 0.14681220054626465
0007e0 00 00 00 a0 9a 6a 19 c0 00 00 00 60 18 0e 00 c0
       -6.354105472564697 -2.006882429122925
0007f0 00 00 00 00 34 54 fd 3f 00 00 00 b8 aa f7 23 40
       1.8330574035644531 9.983724355697632
