DL_PROJECT_FREIBURG/error_signed_model_2.npy (npy, 4128 bytes, 1 tensors)

array f8 [500]
00000000: 0000 00e0 a006 19c0 0000 0030 ce87 1040
00000010: 0000 0030 c752 10c0 0000 0020 cc35 05c0
00000020: 0000 0020 44a5 0440 0000 0080 0bf0 ea3f
00000030: 0000 0040 7ea1 f83f 0000 0080 23ff fb3f
00000040: 0000 0000 4fff df3f 0000 0020 633c 1d40
00000050: 0000 0020 a041 27c0 0000 0060 95a5 1440
00000060: 0000 0000 2105 d1bf 0000 00c0 6707 0240
00000070: 0000 0000 ec45 c93f 0000 0000 880c e63f
00000080: 0000 0080 8988 e33f 0000 00b0 6e7b 3540
00000090: 0000 0080 dbe2 e13f 0000 0000 76b1 d4bf
000000a0: 0000 0040 6652 1140 0000 00c0 7b00 0440
000000b0: 0000 0000 9945 ecbf 0000 0000 bd3e d83f
000000c0: 0000 0094 d6a9 2840 0000 0040 60eb 0940
000000d0: 0000 0000 2bb0 1040 0000 0020 ea8d 1240
000000e0: 0000 0040 d945 f93f 0000 0080 90fd f9bf
000000f0: 0000 0000 2420 db3f 0000 0000 1e3a db3f
00000100: 0000 0060 4651 07c0 0000 0000 3aed f43f
00000110: 0000 00f0 35b7 23c0 0000 0040 e7dc fe3f
00000120: 0000 0000 625b 0540 0000 00a0 5db9 0140
00000130: 0000 0000 f972 0640 0000 0000 2dea e03f
00000140: 0000 0040 ed76 0ac0 0000 0000 8b75 d33f
00000150: 0000 0000 ad57 ee3f 0000 0080 e08e eabf
00000160: 0000 0000 85bb f4bf 0000 0000 bce9 d83f
00000170: 0000 0000 fd74 f03f 0000 0038 efb3 2ac0
00000180: 0000 00c0 bfc4 20c0 0000 0000 514a d9bf
00000190: 0000 0080 1151 e33f 0000 0000 c0f9 b8bf
000001a0: 0000 0050 f78b 2840 0000 00c0 0397 2340
000001b0: 0000 0010 ff76 2040 0000 0000 f899 c33f
000001c0: 0000 0040 cf98 01c0 0000 0060 7885 0fc0
000001d0: 0000 00a0 38d6 0940 0000 0000 e2d7 13c0
000001e0: 0000 0020 28b3 1840 0000 00e0 37d4 1dc0
000001f0: 0000 00e0 a348 10c0 0000 0000 7eac f6bf
00000200: 0000 0080 5c26 f63f 0000 0038 66d8 20c0
00000210: 0000 0050 9a80 12c0 0000 00a0 e9e3 1440
00000220: 0000 00a8 d91d 25c0 0000 0000 c416 fb3f
00000230: 0000 0078 336b 21c0 0000 0070 7b75 22c0
00000240: 0000 0020 cff0 05c0 0000 0060 e997 3440
00000250: 0000 0000 e140 0f40 0000 0000 7825 fcbf
00000260: 0000 0070 4f04 1440 0000 0060 0afc 2140
00000270: 0000 0040 3b0d fdbf 0000 00c0 04dc fd3f
00000280: 0000 00a0 a011 0740 0000 0000 79fc d63f
00000290: 0000 0040 534d 0ac0 0000 0080 3a78 f33f
000002a0: 0000 0000 85e8 e93f 0000 0000 fd36 e23f
000002b0: 0000 0010 451f 1340 0000 0000 178c e13f
000002c0: 0000 0050 1c96 1640 0000 00a0 72e1 1040
000002d0: 0000 0000 2c0c c33f 0000 0010 d14f 1540
000002e0: 0000 0060 232e 0240 0000 0060 c905 17c0
000002f0: 0000 0000 9d04 fdbf 0000 0080 f0bb e93f
00000300: 0000 00f8 ebbf 1ac0 0000 001d b8ab 4540
00000310: 0000 0080 83f6 0e40 0000 0020 4abe 08c0
00000320: 0000 0080 bf94 ecbf 0000 0020 58f5 0440
00000330: 0000 0010 ff80 1fc0 0000 0078 6db8 3640
00000340: 0000 00f8 0d9d 2140 0000 00a0 66c1 0e40
00000350: 0000 0000 412f d7bf 0000 0080 8db3 eb3f
00000360: 0000 00f0 94db 12c0 0000 0000 67b4 e63f
00000370: 0000 0010 525a 1640 0000 0080 2f87 2e40
00000380: 0000 0000 82e2 c8bf 0000 0080 fc9e f1bf
00000390: 0000 0000 e0f4 e1bf 0000 0000 be7a f73f
000003a0: 0000 0000 63d7 fabf 0000 00c0 ec0f 0640
000003b0: 0000 00c0 3f55 f4bf 0000 00c0 1230 f1bf
000003c0: 0000 0000 dc96 0e40 0000 00c0 2ae2 f4bf
000003d0: 0000 0040 1671 f53f 0000 00e0 c17d 07c0
000003e0: 0000 0010 2456 2140 0000 0040 013d f8bf
000003f0: 0000 0000 a2b8 e33f 0000 00b0 09fa 1440
00000400: 0000 0080 e5d2 f2bf 0000 0080 1c22 fe3f
00000410: 0000 0010 4e19 1a40 0000 00c0 6fc9 10c0
00000420: 0000 00e0 4c5d 0140 0000 0000 b48b cabf
00000430: 0000 0070 841c 22c0 0000 0080 d9d0 fb3f
00000440: 0000 00e0 7c49 03c0 0000 00e0 7d9f 0640
00000450: 0000 00c0 90be 1340 0000 0040 dc0b 1440
00000460: 0000 00a0 dd94 0540 0000 00c4 718e 2dc0
00000470: 0000 0000 ed80 d43f 0000 0000 c042 0140
00000480: 0000 0000 ef71 dcbf 0000 0000 6a44 0ac0
00000490: 0000 00f3 08bc 3a40 0000 0000 68e3 f33f
000004a0: 0000 0010 c759 15c0 0000 0040 c564 f3bf
000004b0: 0000 0040 5235 f53f 0000 0000 45e0 d13f
000004c0: 0000 00d0 3c97 1f40 0000 0020 1b47 09c0
000004d0: 0000 0040 7237 01c0 0000 00e0 7cba 05c0
000004e0: 0000 0030 8b96 17c0 0000 0000 00b6 ac3f
000004f0: 0000 0040 9a79 f03f 0000 0040 7232 0640
00000500: 0000 00a0 2c5c 1d40 0000 0040 11f9 0440
00000510: 0000 0000 41d6 f03f 0000 0000 842f fabf
00000520: 0000 0040 46a8 f7bf 0000 00c0 9d4b fa3f
00000530: 0000 00c0 4da7 f8bf 0000 0070 97a3 1d40
00000540: 0000 00f0 9927 1240 0000 0040 76fd f43f
00000550: 0000 0000 c65b d5bf 0000 00a0 29bf 07c0
00000560: 0000 0050 8825 1140 0000 0080 bff6 0440
00000570: 0000 0080 f0ba e5bf 0000 0020 d39e 0dc0
00000580: 0000 0020 5af1 16c0 0000 0000 06c1 ca3f
00000590: 0000 0020 7623 1940 0000 0080 a48c fc3f
000005a0: 0000 0080 b78c 18c0 0000 0020 d8aa 0640
000005b0: 0000 0080 ac80 eb3f 0000 0050 480e 1840
000005c0: 0000 00a0 a955 0a40 0000 0040 79ef 3040
000005d0: 0000 00f0 f337 1140 0000 00c0 8c40 0d40
000005e0: 0000 0050 f4d5 1240 0000 00c0 4016 1bc0
000005f0: 0000 0000 36ba de3f 0000 00d0 6221 1a40
00000600: 0000 00c0 3bb8 febf 0000 0090 97b5 18c0
00000610: 0000 00c0 28e3 ff3f 0000 00c0 953f 0fc0
00000620: 0000 00c0 af55 0c40 0000 00c0 999d 1240
00000630: 0000 0000 3862 c53f 0000 00a0 f1bf 07c0
00000640: 0000 0000 b49f bfbf 0000 00c0 2cf1 f7bf
00000650: 0000 0080 7f41 1440 0000 00c0 0bd9 febf
00000660: 0000 00e0 441a 1b40 0000 0030 bb2c 1f40
00000670: 0000 0000 0031 f53f 0000 0000 446f bfbf
00000680: 0000 0000 790e d43f 0000 0050 da42 15c0
00000690: 0000 0000 4502 ddbf 0000 00e0 a883 06c0
000006a0: 0000 0000 8819 e8bf 0000 00c0 d437 1040
000006b0: 0000 0000 fc6b e53f 0000 0000 1162 f4bf
000006c0: 0000 0020 52c3 1040 0000 00c0 9841 0040
000006d0: 0000 0000 c9f0 f33f 0000 0010 9435 1240
000006e0: 0000 0040 a7c6 f03f 0000 0060 ad25 0840
000006f0: 0000 00e0 6a29 0d40 0000 00f0 45fe 16c0
00000700: 0000 0020 4e45 0a40 0000 0000 b418 0040
00000710: 0000 00f0 2f15 21c0 0000 0080 fa01 e53f
00000720: 0000 0040 28cb f23f 0000 00c0 41b7 fe3f
00000730: 0000 00c0 0228 10c0 0000 00c0 b703 f63f
00000740: 0000 0000 a76b ef3f 0000 0080 105c fd3f
00000750: 0000 0000 45f0 1fc0 0000 0040 f6f9 0f40
00000760: 0000 0060 ac0d 03c0 0000 00c0 f057 f5bf
00000770: 0000 0000 41fe da3f 0000 0080 3900 eebf
00000780: 0000 0080 5a50 e63f 0000 0070 574c 1e40
00000790: 0000 0060 91c2 09c0 0000 00a0 8d1b 0140
000007a0: 0000 00c0 98e5 1640 0000 00c0 82b4 fc3f
000007b0: 0000 0080 b187 e93f 0000 00c0 1f51 f0bf
000007c0: 0000 00a0 5b34 01c0 0000 0070 b039 1e40
000007d0: 0000 0080 08f6 0740 0000 0000 7536 f33f
000007e0: 0000 00c0 3cc5 f03f 0000 0050 8f1c 13c0
000007f0: 0000 0000 dcc2 0f40 0000 00c0 3c1d 1340
-6.256473064422607 4.132622480392456 -4.080837965011597 -2.651268243789673 2.5806963443756104 0.8418023586273193 1.5394270420074463 1.7497897148132324
0.499957799911499 7.308971881866455 -11.628174781799316 5.161702632904053 -0.26593804359436035 2.2536158561706543 0.19744634628295898 0.6890296936035156
0.6104171276092529 21.482157707214355 0.5589425563812256 -0.323331356048584 4.33046817779541 2.5002360343933105 -0.8834958076477051 0.3788292407989502
12.3317152261734 3.239929676055908 4.172039031982422 4.6385884284973145 1.5795528888702393 -1.6244053840637207 0.42383670806884766 0.42542219161987305
-2.914685010910034 1.3079166412353516 -9.85783338546753 1.928931474685669 2.6696205139160156 2.215510606765747 2.8061389923095703 0.5285859107971191
-3.3080697059631348 0.3040492534637451 0.9482026100158691 -0.8299410343170166 -1.295781135559082 0.3892660140991211 1.0285615921020508 -13.351434469223022
-8.384275436401367 -0.3951609134674072 0.6036460399627686 -0.09756088256835938 12.27337121963501 9.794950485229492 8.232414722442627 0.1531362533569336
-2.1996140480041504 -3.940171003341675 3.229600191116333 -4.960823059082031 6.174957752227783 -7.457244396209717 -4.070937633514404 -1.4171123504638672
1.3843655586242676 -8.422654867172241 -4.625588655471802 5.222570896148682 -10.558301210403442 1.6930580139160156 -8.70937705039978 -9.229457378387451
-2.7425825595855713 20.59340476989746 3.906679153442383 -1.7591476440429688 5.004209280014038 8.992266654968262 -1.815730333328247 1.866215467453003
2.8836071491241455 0.3591597080230713 -3.2877564430236816 1.2168526649475098 0.809633731842041 0.5692124366760254 4.780536890029907 0.5483508110046387
5.646592378616333 4.220163822174072 0.14880895614624023 5.327945947647095 2.2725284099578857 -5.755650997161865 -1.8136262893676758 0.8041918277740479
-6.687423586845398 43.3415561914444 3.870368003845215 -3.0929148197174072 -0.8931577205657959 2.6197969913482666 -7.8759729862213135 22.720420360565186
8.806747198104858 3.8444340229034424 -0.3622591495513916 0.8656680583953857 -4.714435338973999 0.7095217704772949 5.58820366859436 15.264034271240234
-0.1944124698638916 -1.1013150215148926 -0.5611419677734375 1.4674663543701172 -1.6775846481323242 2.7577757835388184 -1.270812749862671 -1.0742366313934326
3.8236618041992188 -1.3052165508270264 1.34010910987854 -2.9364049434661865 8.668243885040283 -1.5148937702178955 0.6162881851196289 5.244177579879761
-1.1764883995056152 1.8833279609680176 6.524711847305298 -4.196715354919434 2.1705567836761475 -0.20738840103149414 -9.055697917938232 1.7384886741638184
-2.4108827114105225 2.8278768062591553 4.936099052429199 5.011582374572754 2.697688341140747 -14.77821171283722 0.32036900520324707 2.1575927734375
-0.4444539546966553 -3.283405303955078 26.73451155424118 1.2430191040039062 -5.3376734256744385 -1.2121021747589111 1.3255178928375244 0.279313325881958
7.897692918777466 -3.159719705581665 -2.152073383331299 -2.7160584926605225 -5.897015333175659 0.0560760498046875 1.0296881198883057 2.774631977081299
7.3400139808654785 2.621614933013916 1.0523080825805664 -1.6366004943847656 -1.4785826206207275 1.643460988998413 -1.5408456325531006 7.409757375717163
4.538673162460327 1.311880350112915 -0.3337264060974121 -2.968341112136841 4.2866528034210205 2.6204824447631836 -0.6790697574615479 -3.7025511264801025
-5.7356953620910645 0.2090156078338623 6.284630298614502 1.7843365669250488 -6.137418746948242 2.8334200382232666 0.85945725440979 6.0139477252960205
3.291827440261841 16.935443878173828 4.304641485214233 3.6565184593200684 4.708939790725708 -6.771731376647949 0.4801154136657715 6.53260350227356
-1.9199788570404053 -6.177335977554321 1.9929587841033936 -3.9060473442077637 3.541839122772217 4.65390682220459 0.16705989837646484 -2.9687225818634033
-0.12353062629699707 -1.4963805675506592 5.063962936401367 -1.9279897212982178 6.77565336227417 7.793682813644409 1.324462890625 -0.12279152870178223
0.3133833408355713 -5.315285921096802 -0.453263521194458 -2.814286947250366 -0.7531166076660156 4.054522514343262 0.6694316864013672 -1.273941993713379
4.1907429695129395 2.032029628753662 1.2462854385375977 4.552322626113892 1.048499345779419 3.018397092819214 3.645223379135132 -5.748313665390015
3.2838404178619385 2.0120620727539062 -8.541381359100342 0.6564915180206299 1.1745989322662354 1.9197404384613037 -4.0390729904174805 1.3759076595306396
0.9818911552429199 1.8349766731262207 -7.984638214111328 3.99705171585083 -2.381676435470581 -1.3339698314666748 0.4217684268951416 -0.9375274181365967
0.6973087787628174 7.574552297592163 -3.220003843307495 2.138453722000122 5.724215507507324 1.7940700054168701 0.797814130783081 -1.019805669784546
-2.1505653858184814 7.556337118148804 2.995133399963379 1.2007951736450195 1.0481536388397217 -4.77789044380188 3.9701461791992188 4.778552055358887
