DL_PROJECT_FREIBURG/full_model_4.pth (torch_old, 9337 bytes, 5 tensors)

weight f4 [16, 8]
00000000: fe06 d73d 4895 5f3d f2e5 edbc 2848 88ba
00000010: 6810 d4bf e415 f8bd 422c 593d 5cb9 53bf
00000020: 2b57 8dbd 81e6 7bbb 3ccd 41bd 3a83 cebd
00000030: 23c2 373e 79dc 14bc ab0e a7bd aad7 cc3e
00000040: 1b71 d6bd b10e b6bd 494a f4bc 017d 24be
00000050: 9232 4f3e 7383 4a3d 8ce3 f1bd bd60 cc3e
00000060: 93b9 64bd e3b6 89bc 8acf b23c 5943 a9bd
00000070: d66c c13d f25c 3d3b 895b a1bd 108f 103f
00000080: 1964 4bbc 0b62 baba dc69 fdb9 b6a7 7a39
00000090: c90b 4e3d fe5d d63c b2d1 e2bd e889 0f3f
000000a0: 0cf6 3abd 0d2a 91bd 49c5 a1bc 2122 d9bd
000000b0: 10e9 2b3e e637 a93c c473 d3bd a173 e13e
000000c0: 4fec 183e 37e6 cdbe 7668 043e 5a3e bfbe
000000d0: 292f bfbe f255 9ebe a81f afbe 484e 1d3e
000000e0: 0649 933d fb34 c83c c77a 953c 6359 1f3e
000000f0: cca1 b6be 5543 54bd 86b4 7fbd 5fb0 123f
00000100: 28ee f5bb fcd8 7dbb a2a8 593c 6857 1abd
00000110: e23f 0c3e 01a0 be3b 34b7 71bd 9977 f93e
00000120: 10c4 07bc 393b 03bc 09d1 e1bc d530 a8bc
00000130: 8cf6 ef3d 3a44 f9bb a998 afbd 9c5d f83e
00000140: 9baf c53c b73f 8a3c cc99 593c e9a3 673d
00000150: e22e 05be 94d8 fdbb 23d9 4ebd 6a33 153f
00000160: cef1 35be b633 313e 76ef 4a3d 6c2e 12bc
00000170: 20ca 253d d9d8 46bd 9911 edbd 0c9a b0be
00000180: 57db 8ebb 1eba 643c 4353 af3c 4c8b 093d
00000190: b6f8 1dbd 63e6 aabb 7dd3 7bbd 8096 ee3e
000001a0: dc9c 81bd b85a 35bd ab0d 2bbc fbcb 80bd
000001b0: 6f32 693d da9f 7bbc 29a8 9fbd 54a8 ff3e
000001c0: 4531 9abe e07a cf3d a090 5b3c e0f6 e6bc
000001d0: 2965 61be c843 68be a0d8 363d 9ae9 7cbe
000001e0: 1d07 70be 5f31 66be 8094 d23c f190 60be
000001f0: 231d 91be 1483 9b3d 6923 a0be e9a6 90be
0.104993805 0.054585725 -0.02904031 -0.0010397481 -1.6567507 -0.1211355 0.053020723 -0.8270471
-0.069013916 -0.0038436952 -0.047314867 -0.10083623 0.17945151 -0.009085768 -0.081570946 0.4000829
-0.10470792 -0.08889521 -0.029820578 -0.1606331 0.20234135 0.049441766 -0.11810979 0.39917555
-0.05584104 -0.01681084 0.021827478 -0.08264799 0.09444587 0.002889451 -0.07878787 0.56468296
-0.012414002 -0.0014219893 -0.00048334792 0.00023904335 0.050304208 0.026167866 -0.110751525 0.56069803
-0.045644805 -0.07088099 -0.019747393 -0.10602213 0.16788125 0.020656537 -0.10324815 0.4403353
0.14933895 -0.40214702 0.12930474 -0.37352258 -0.37340668 -0.30924946 -0.3420384 0.15361893
0.071916625 0.024439326 0.018247021 0.15561442 -0.35670316 -0.051822025 -0.06242802 0.5730037
-0.007505197 -0.003873407 0.013284834 -0.037681013 0.13696244 0.005817414 -0.059012607 0.48724058
-0.008286491 -0.008009725 -0.027565496 -0.020531097 0.11716947 -0.00760701 -0.085740395 0.48508918
0.024131587 0.016876085 0.013281297 0.0565528 -0.13006166 -0.0077467654 -0.050500046 0.58281577
-0.17768022 0.17304882 0.049544774 -0.008922201 0.040475965 -0.048546646 -0.11575622 -0.34492528
-0.0043596434 0.013960389 0.021402007 0.03358011 -0.038567267 -0.0052154525 -0.061480988 0.46599197
-0.06328747 -0.04427597 -0.01044027 -0.06288906 0.056932863 -0.015357936 -0.07795746 0.49933112
-0.30115715 0.101308584 0.0134011805 -0.028193891 -0.22011246 -0.22682106 0.044640183 -0.24698487
-0.23440214 -0.22479771 0.025705576 -0.21930291 -0.28342542 0.075933605 -0.31277016 -0.28252342

bias f4 [16]
00000000: 80cc e83e 0b82 21bd b8c1 cd3d 907d 4ebe
00000010: 8d6d 70be 2b76 6f3b 5aa0 46be c5e4 dbbe
00000020: 4594 21be bbda 3bbe 0855 aebe 99ab 8abd
00000030: 2758 75be 6009 d2bd 72f2 dfbd 40ab 26bd
0.4546852 -0.03943066 0.100467145 -0.20165086 -0.2347929 0.003653894 -0.19397107 -0.42947975
-0.15779217 -0.18345158 -0.3404925 -0.06771011 -0.23959409 -0.102556944 -0.10934915 -0.04069066

weight f4 [8, 16]
00000000: be79 34bf 63be e93d d7b5 e33d 2cdf e73d
00000010: 42f2 ee3d 92e8 1d3e 2a4a 1abd 496a 8a3e
00000020: c084 013e ba1f 083e e9fe a53e a0b5 ffbc
00000030: 85a1 593e 2314 f13d 206b 663c f8db 12bd
00000040: e759 1dbf e2e3 f93d 6222 f63d 8a72 d23d
00000050: 319b 013e 78f0 d93d f0d0 09be 5743 c63e
00000060: 27de 163e 0b67 343e c855 333e 3ea3 72be
00000070: 4962 fd3d 1e5c c93d a0cb 813c a0d7 09bc
00000080: 99e1 b8bd a67f f9bd 524c 77be 2b5e babd
00000090: 98cd 153e 91a8 5e3d a09c 583c 8fea d03b
000000a0: 57da 87be 421e 1ebd fae3 d5bd 80a8 33bc
000000b0: 5f1d 06be 24eb 36be e079 cf3c 28bc dbbd
000000c0: b8f5 c9be b8e1 453d 3d33 823d c378 a23d
000000d0: c5f5 ed3d 7680 3d3d 87b0 2d3e 96f8 313e
000000e0: 5843 b63d 3172 ad3d 7814 d53d d171 333e
000000f0: 3ba9 273e ccf4 813d 84bc fd3d 8c96 3e3e
00000100: e24d 3dbe 3728 36be 8c24 3bbe 2fb5 afbc
00000110: 7fee 12be 1d5c 5abe b712 a53c 8547 babe
00000120: 44ee 91be 849b 0abe cbee 313c 4a85 4dbe
00000130: 9b27 ee3d 6ecb 4c3d fc30 763e 10f6 733e
00000140: 3cb9 1fbf 358c 8e3d 3c54 d43d 794d 223e
00000150: 52bf 9f3d e519 d03d 57c4 683d dbcb 733e
00000160: 7c6a 063e d80b 2c3e c544 5c3e e01f 093e
00000170: 56cf 163e 914c b33d 3e3a 66be 003d 023d
00000180: 2735 dbbd f26a f0bd 4daa 0cbe b8b1 14be
00000190: b329 f5bd d76d 5f3d 58f9 01be 85f0 2ebb
000001a0: a54f 263e b096 e13d df82 0ebe 4062 2ebc
000001b0: fd9a f5bc dea7 82be 6465 d03d fc05 50be
000001c0: fee8 0fbf 6163 273e 8b1b 593d 69e7 1c3e
000001d0: d2aa 443e e11b bd3d ab8d bebd b058 9c3e
000001e0: 65c3 103e 9b6d 6f3e 943a 4f3e e14c 8fbd
000001f0: edeb 813e b43f 2e3e 1613 75be 70af 143d
-0.70498264 0.114132665 0.111186676 0.113218635 0.11667301 0.1542075 -0.037668385 0.27034214
0.12648296 0.13293353 0.32421044 -0.031214535 0.21253021 0.11771419 0.0140636265 -0.03585431
-0.61465305 0.12201668 0.12018277 0.10275753 0.12656857 0.10641569 -0.1345861 0.3872325
0.14733182 0.17617433 0.17513192 -0.23695084 0.12372262 0.09832023 0.015844166 -0.008413225
-0.09027404 -0.1218255 -0.24150208 -0.09099992 0.14629209 0.054359976 0.013220936 0.006375618
-0.26533768 -0.038603075 -0.10443874 -0.0109654665 -0.13097142 -0.17863137 0.02532667 -0.10729247
-0.3944528 0.048310965 0.06357429 0.0793319 0.116191424 0.046265088 0.16961871 0.17379984
0.088995636 0.08469046 0.10404295 0.17523886 0.1637315 0.063455194 0.12389472 0.18612117
-0.18486741 -0.17788778 -0.1827566 -0.0214487 -0.14348792 -0.21324201 0.020150525 -0.3638269
-0.28502095 -0.13535887 0.010860155 -0.20070377 0.11628648 0.049998693 0.24042124 0.23824334
-0.6239202 0.06960336 0.10367629 0.15849866 0.07800163 0.10161189 0.05682787 0.23808233
0.13126558 0.16801393 0.21510608 0.13391066 0.1472753 0.08754838 -0.22483155 0.031796455
-0.107034974 -0.11739148 -0.1373684 -0.1452092 -0.11970844 0.05454811 -0.12692773 -0.0026693654
0.1624132 0.110150695 -0.13917111 -0.010643542 -0.02998113 -0.25518698 0.10175589 -0.20314783
-0.5621489 0.16346504 0.053004783 0.15322651 0.19205788 0.09233833 -0.09304365 0.30536413
0.14137037 0.23381655 0.2023719 -0.06997085 0.2537531 0.17016488 -0.23933062 0.036300123

bias f4 [8]
00000000: 2f80 d33d 1bee ae3d c25b 49be 2f7c a83d
00000010: b604 abbd 9e74 be3d 5b32 44be 2a38 ca3d
0.103271835 0.08541509 -0.19663909 0.08226811 -0.08350508 0.09299587 -0.19159834 0.09873994

weight f4 [1, 8]
00000000: 45d9 c03d 4d73 e43d 3b54 d2bd 3ff2 273e
00000010: de1f 00be 71b4 f83d 6f1d 0d3c 0ea2 c63d
0.09416441 0.111548044 -0.10269972 0.16401003 -0.12512156 0.121437915 0.008612975 0.09698878
