DL_PROJECT_FREIBURG/full_model_0.pth (torch_old, 9337 bytes, 5 tensors)

weight f4 [16, 8]
0	0x3dd45ec7	0.1036964
1	0x3da874af	0.08225381
2	0xbb909b88	-0.004413072
3	0x3d4bcf98	0.049758524
4	0xbfe6cc54	-1.8031106
5	0xbdd0c857	-0.10194462
6	0x3da9dbba	0.08293863
7	0xbf60815a	-0.87697375
8	0x3da186a0	0.07887006
9	0x3d694757	0.0569528
10	0xbe301b9e	-0.17198035
11	0xbebb939c	-0.36636055
12	0x3e398cd0	0.18120122
13	0x3c8d11ec	0.01722046
14	0x3dfd445c	0.12366554
15	0x3d6ae143	0.057343733
16	0x3dce2cc7	0.10067134
17	0xbd34b25e	-0.044115417
18	0x3ca8abbe	0.020589706
19	0xbd0b66e2	-0.034033664
20	0xbebcc7df	-0.3687124
21	0xbddf82d6	-0.10913627
22	0xbe24d1fb	-0.16095726
23	0xbecd494e	-0.4009499
24	0xbe178b51	-0.14799239
25	0x3d91878a	0.0710593
26	0x3dcbd163	0.09952047
27	0xbedddf78	-0.43334556
28	0x3c8c500b	0.017128011
29	0x3d638946	0.055550836
30	0x3e15d6e3	0.14632754
31	0x3e081ed9	0.13293017
32	0x3d5feac1	0.05466724
33	0xbabcd832	-0.0014407693
34	0x3caae7b2	0.020862434
35	0x3d3dc96e	0.046334676
36	0xbd99a533	-0.075022124
37	0xbcf4cfe9	-0.029884296
38	0xbdba19f4	-0.090869814
39	0x3ef5465c	0.47905242
40	0xbcf9eb93	-0.030507838
41	0xbd18a78b	-0.037269156
42	0xbd3f0a6b	-0.046640795
43	0x3e38ddbb	0.18053333
44	0x3e144529	0.14479508
45	0x3cc29fe9	0.023757892
46	0xbecc366f	-0.3988528
47	0x3ea366a2	0.3191424
48	0x3c1cac05	0.009562497
49	0xbd0d4f4a	-0.034499444
50	0xbbbd4dee	-0.005777112
51	0x3e454c71	0.19267441
52	0xba85c966	-0.0010207116
53	0x3b842f14	0.0040339325
54	0xbe958fa5	-0.29211155
55	0x3e962455	0.29324594
56	0xbbf93aaf	-0.0076058726
57	0x3cf6c72c	0.03012427
58	0x3ae3c509	0.0017377447
59	0xbd844205	-0.06457905
60	0xbfa77152	-1.3081458
61	0xbcb6d62e	-0.022318926
62	0xbb87dcf0	-0.004146211
63	0xbf1a6a2a	-0.60318244
64	0x3e000b2f	0.12504266
65	0xba57790e	-0.00082196377
66	0xbc03658b	-0.008019815
67	0x3e0bbd9e	0.13646552
68	0xbf2ff790	-0.68737125
69	0x3d3e2469	0.046421442
70	0x3e4188c7	0.18899833
71	0xbf74e558	-0.9566245
72	0xbcdf4c1a	-0.027257968
73	0xbcfe736e	-0.0310609
74	0x3ce12719	0.027484464
75	0xbde1943a	-0.110146
76	0x3ddba260	0.1072433
77	0x3b15ea3c	0.002287521
78	0xbe529b2b	-0.20567004
79	0x3f2c1177	0.6721415
80	0x3c822177	0.015885098
81	0x3ddb7f69	0.10717661
82	0xbcf2a3d8	-0.029619142
83	0xbcabc89b	-0.02096968
84	0xbf616608	-0.8804631
85	0xbd1cc32e	-0.038272075
86	0x3cddbf36	0.027068716
87	0xbf08f3a0	-0.5349674
88	0xbbaed8fe	-0.005335926
89	0xbcd39003	-0.025825506
90	0xbc5a4c0e	-0.013323797
91	0xbd64506e	-0.055740766
92	0x3d7f2068	0.062286764
93	0x3bff726b	0.007795622
94	0xbdcceccd	-0.10006104
95	0x3ec6d2d8	0.38832736
96	0xbeaa4071	-0.3325229
97	0xbd032a69	-0.032022867
98	0x3e83ab4b	0.25716624
99	0x3c85dde9	0.016341167
100	0xbe885e93	-0.26634654
101	0x3e15cb01	0.14628221
102	0x3dccae2d	0.09994159
103	0xbdbe400b	-0.09289559
104	0xbcc2e499	-0.023790644
105	0xbcec20e0	-0.02882427
106	0xbc8debc0	-0.017324328
107	0xbd260986	-0.040536426
108	0xbca7e9a8	-0.020497158
109	0xbb5bd56b	-0.0033543955
110	0xbdbac3d5	-0.09119383
111	0x3ed56f72	0.4168659
112	0xbdf4b625	-0.11948804
113	0xbdc828e6	-0.09773426
114	0xbd9643fe	-0.07337187
115	0x3e1f7085	0.15570267
116	0x3db60196	0.08887021
117	0x3cf3b043	0.029747134
118	0xbf00f93b	-0.50380296
119	0x3e3c6d6b	0.18401115
120	0x3d95708f	0.072968595
121	0x3d9402d8	0.07227105
122	0xbd8040a6	-0.06262331
123	0x3e83e092	0.2575727
124	0xba73cd3b	-0.0009300296
125	0xbbf49de6	-0.007465112
126	0x3f115c02	0.5678102
127	0xbf0bb316	-0.5457014

bias f4 [16]
0	0x3ec2903f	0.38000676
1	0xbd51963f	-0.051168676
2	0x3ed3d6dd	0.41374865
3	0xbdaee3ae	-0.0853952
4	0xbec1fca6	-0.37888068
5	0xbe3ce5d9	-0.18447055
6	0xbe74e703	-0.23916249
7	0x3ee66f64	0.4500686
8	0x3e697cb8	0.22801483
9	0xbddf8b69	-0.10915262
10	0x3edb23af	0.42800662
11	0xbe33a49a	-0.1754326
12	0xbea2a12d	-0.31763592
13	0xbe552a60	-0.20816946
14	0xbdb3439a	-0.08753128
15	0xbe5ab916	-0.21359667

weight f4 [8, 16]
0	0xbecd21d6	-0.40064877
1	0x3d67ddc9	0.056607995
2	0xbe0c7bf6	-0.13719162
3	0x3da1c321	0.07898546
4	0x3e6f9289	0.23395742
5	0x3e0c47a7	0.13699208
6	0x3e39b2a3	0.18134551
7	0xbeb527e7	-0.35382006
8	0xbf3ae90c	-0.7301185
9	0x3e1e8dbf	0.1548376
10	0xbe4be4ff	-0.19911574
11	0x3d61af31	0.055098716
12	0x3e2e841d	0.17042585
13	0x3dc8108a	0.097687796
14	0x3e01d717	0.12679707
15	0xbe708a28	-0.23490202
16	0xbef4a951	-0.47785428
17	0x3dc9a8dd	0.09846661
18	0xbe4791d1	-0.19489218
19	0x3b3c5068	0.002873445
20	0x3e0cd078	0.137514
21	0x3d5cbef7	0.053893056
22	0x3d95e89c	0.07319757
23	0xbeb94840	-0.36187935
24	0xbf32ff8d	-0.6992119
25	0x3e478cdb	0.19487326
26	0xbe61a2ce	-0.22034761
27	0x3e0e2ac1	0.13883497
28	0x3e400596	0.18752131
29	0x3d08b8cd	0.033379365
30	0x3d7c46a8	0.06159082
31	0xbe331d83	-0.17491727
32	0xbf61cd9f	-0.8820438
33	0x3cf4b1e6	0.029869985
34	0xbe3e2515	-0.18568833
35	0xbc6f63e3	-0.014611217
36	0x3cb8e21a	0.022568751
37	0x3dd7676f	0.10517775
38	0x3d1c97f0	0.038230836
39	0xbf087836	-0.5330843
40	0xbf2eb2e1	-0.682417
41	0x3d8dd9d5	0.06926314
42	0xbea2b292	-0.31776863
43	0x3cad8958	0.021183655
44	0x3dac41b7	0.084109716
45	0x3cd7def1	0.026351424
46	0x3cdbde22	0.02683932
47	0xbdf3c61e	-0.11903022
48	0xbf3451a2	-0.7043706
49	0x3d9214c4	0.07132867
50	0xbe11cc36	-0.14238057
51	0x3e037662	0.12838128
52	0x3e5298af	0.20566057
53	0x3d19b0f7	0.037522282
54	0x3d3bc810	0.04584509
55	0xbeb978cb	-0.3622497
56	0xbf2b73e7	-0.6697373
57	0xbf6a75d2	-0.9158603
58	0xbe8ab4c7	-0.27091047
59	0x3e154e7b	0.14580719
60	0x3e84da12	0.25947624
61	0x3e1f00d6	0.15527663
62	0x3da3a0b6	0.079896376
63	0xbe1f52c1	-0.15558912
64	0xbf0a8f05	-0.5412448
65	0x3d8b269e	0.06794475
66	0xbe81b4f6	-0.25333375
67	0x3cf14bf8	0.02945517
68	0x3e7c9d1d	0.24669309
69	0x3db2c8bc	0.08729693
70	0x3e247606	0.16060647
71	0xbeea0531	-0.45707086
72	0xbf6479ae	-0.8924817
73	0x3e0c95df	0.13729046
74	0xbe92f805	-0.2870485
75	0x3e053e0f	0.13011955
76	0xbd883ba6	-0.06652002
77	0x3da8359d	0.08213351
78	0x3e04b639	0.12960137
79	0xbe98b3e5	-0.2982475
80	0xbccd70b0	-0.025078148
81	0xbe0c79d0	-0.13718343
82	0xbe73330a	-0.23749939
83	0x3c0f6700	0.008752584
84	0xbe10b688	-0.1413213
85	0x3d57dd18	0.052701086
86	0xbe3db78a	-0.18527046
87	0x3dadce2f	0.08486592
88	0x3cc6a413	0.024248159
89	0xbd28e5d0	-0.04123479
90	0xbcd65c6b	-0.026167115
91	0x3e27cdcc	0.16387099
92	0xbccc58b0	-0.024944633
93	0xbd57206a	-0.052521147
94	0xbe5fbaf9	-0.21848668
95	0x3d54ee4a	0.051985063
96	0xbebc621d	-0.36793604
97	0x3da388f5	0.07985107
98	0xbded9b96	-0.11601941
99	0x3e1a630a	0.15076843
100	0x3de3ebb8	0.11128944
101	0x3e40bf2d	0.18822928
102	0x3e3c0117	0.1835979
103	0xbeab9cd0	-0.33518076
104	0xbf3d79e3	-0.7401411
105	0x3dcc3822	0.09971644
106	0xbe62a020	-0.22131395
107	0x3caafaa8	0.020871475
108	0xbe4f25fb	-0.20229332
109	0x3e0fb255	0.14032872
110	0x3d912fac	0.07089171
111	0xbe334e0b	-0.1751024
112	0xbed62617	-0.41825935
113	0x3dcf9533	0.10135879
114	0xbda7a442	-0.081856266
115	0x3cd6b2bc	0.026208274
116	0x3d15aa4b	0.036539357
117	0x3e219ca5	0.15782411
118	0x3e109842	0.14120582
119	0xbeb02d04	-0.34409344
120	0xbf3a6d2f	-0.7282285
121	0x3e0ae5a9	0.13564171
122	0xbe6b4763	-0.2297645
123	0x3d94953e	0.07255028
124	0xbe2e4596	-0.17018732
125	0x3dc27ce3	0.094964765
126	0xbdd53202	-0.10409929
127	0xbe4010be	-0.18756387

bias f4 [8]
0	0x3e624a42	0.2209864
1	0x3e7a65d1	0.24452902
2	0x3e0ab963	0.13547282
3	0x3ddcfea5	0.10790757
4	0x3e817755	0.25286356
5	0xbe016b97	-0.12638699
6	0x3e4e6e49	0.20159258
7	0x3e49222f	0.19641946

weight f4 [1, 8]
0	0x3e224b8e	0.15849134
1	0x3e18fc8e	0.14940092
2	0x3e87d2ed	0.2652811
3	0x3eb85b66	0.3600723
4	0x3e17c737	0.14822088
5	0xbe050405	-0.12989815
6	0x3e1e14cf	0.15437625
7	0x3e20a842	0.15689185
