DL_PROJECT_FREIBURG/full_model_1.pth (torch_old, 12946 bytes, 5 tensors)

weight f4 [34, 17]
0	0xbddaacea	-0.10677512
1	0xbdbde258	-0.09271687
2	0x3e13b5d7	0.14424835
3	0x3d7a8551	0.061162297
4	0x3db76317	0.08954447
5	0x3c485f36	0.012229731
6	0xbe5ea771	-0.21743561
7	0xbcc99c4d	-0.024610663
8	0x3e9e2720	0.30889225
9	0x3e7c1633	0.24617843
10	0xbd21ec0a	-0.039531745
11	0x3d19641e	0.037448995
12	0x3da8af21	0.08236528
13	0xbd9a152c	-0.075235695
14	0x3e5df19e	0.21674201
15	0xbe1bb460	-0.15205526
16	0xbddd8585	-0.108164825
17	0x3e76dc86	0.2410756
18	0xbe0039bc	-0.12522024
19	0xbd81e664	-0.06342772
20	0xbe4270bb	-0.18988316
21	0xbcc28e90	-0.02374962
22	0xbe099d60	-0.1343894
23	0xbe23465a	-0.15944806
24	0xbd938c4c	-0.07204494
25	0x3e733b20	0.23753023
26	0xbe4f77ff	-0.20260619
27	0xbe6ae82d	-0.2294013
28	0xbe398a9c	-0.18119282
29	0x3da0a434	0.07843819
30	0xbe1bd3fe	-0.15217587
31	0xbe2a8263	-0.16651301
32	0xbde45f36	-0.111509725
33	0x3d7e7b18	0.06212911
34	0xbd7ccebc	-0.061720595
35	0xbc91f25f	-0.017815767
36	0x3c85cd84	0.016333349
37	0x3e3708f8	0.17874515
38	0xbb0a1c5f	-0.002107404
39	0xbb76b08c	-0.0037641851
40	0x3e909f2c	0.28246439
41	0xbc84b4e0	-0.01619953
42	0xbe8b68e2	-0.27228457
43	0xbc527ce8	-0.012847163
44	0xbdf5de91	-0.12005342
45	0x3c0b5171	0.008503304
46	0xbe488a49	-0.19584002
47	0x3e4b3d3a	0.19847575
48	0x3cc6b6ce	0.02425709
49	0xbe4c24d6	-0.19935927
50	0x3d45b321	0.048266534
51	0x3d5918b3	0.05300207
52	0x3e20c5ff	0.1570053
53	0x3cf81a2d	0.03028592
54	0x3c10204c	0.008796763
55	0xbf2876ee	-0.6580647
56	0xbd99d21c	-0.07510778
57	0xbcdb100b	-0.026741048
58	0x3e107fbb	0.14111225
59	0xbe8bd1f7	-0.27308628
60	0xbc953c17	-0.01821713
61	0xbe213074	-0.1574114
62	0xbcfe3db3	-0.03103528
63	0x3e4c37de	0.19943187
64	0xbbb7a65c	-0.0056045484
65	0x3dc4575c	0.09586975
66	0xbe876cb2	-0.26450115
67	0xbe4988d2	-0.19681099
68	0xbe210209	-0.15723433
69	0x3dd7710b	0.10519608
70	0xbe55b844	-0.20871073
71	0xbe62a481	-0.22133066
72	0xbd855614	-0.06510559
73	0xbe636919	-0.2220806
74	0xbc73027e	-0.014832137
75	0x3c7fc51c	0.015610959
76	0xbcee6b08	-0.02910377
77	0xbe18ac1a	-0.14909402
78	0xbcc21d84	-0.023695715
79	0xbc5b4ee5	-0.013385509
80	0xbe1d1315	-0.1533931
81	0x3db70313	0.08936133
82	0x3e048028	0.12939513
83	0x3d9b8b6a	0.075949505
84	0xbe5077d1	-0.20358206
85	0xbdcc2c18	-0.09969348
86	0xbe0e87f6	-0.13919052
87	0xbe5d3a96	-0.2160438
88	0xbe4a14ec	-0.19734544
89	0x3e18b2ce	0.14911959
90	0x3db8e15c	0.09027359
91	0x3dbf48f8	0.093400896
92	0xbd8074ba	-0.06272264
93	0xbce4f0a0	-0.02794677
94	0x3e0cd36c	0.13752526
95	0x3e01c2f6	0.12672028
96	0xbe31d366	-0.17365798
97	0xbdd3713c	-0.10324332
98	0xbd4d6a28	-0.050150067
99	0xbe1a1093	-0.15045385
100	0xbe6cc7f9	-0.23123159
101	0x3e020214	0.12696105
102	0xbcb7dc6b	-0.02244397
103	0x3bc95c11	0.0061450084
104	0x3b90a171	0.0044137766
105	0x3dce7a8d	0.100819685
106	0xbdeee5c8	-0.11664921
107	0xbd472dd3	-0.048627686
108	0xbe38a684	-0.1803227
109	0xbdbefe82	-0.09325887
110	0x3e6a6453	0.22889833
111	0x3e6ac835	0.22927935
112	0x3e8ca783	0.2747155
113	0xbe0cddb5	-0.1375645
114	0xbcdabeeb	-0.026702365
115	0xbe020e88	-0.12700856
116	0xbdf67a3f	-0.12035035
117	0x3e8d66fc	0.27617633
118	0x3d93af06	0.072111174
119	0x3d006e46	0.031355165
120	0x3d0cdffc	0.034393296
121	0x3cb214b8	0.021738395
122	0xbd971e8e	-0.07378875
123	0xbf27c185	-0.6552966
124	0xbcde012a	-0.027100164
125	0xbd3616e3	-0.04445542
126	0x3d0fdb76	0.035121404
127	0xbe8a50f5	-0.2701489
128	0xbe0c0b06	-0.1367608
129	0xbb8c078b	-0.00427336
130	0x3d461407	0.048358943
131	0x3c86fa70	0.01647684
132	0xbe33e7e0	-0.17568922
133	0xbd08890f	-0.033333834
134	0x3d325642	0.043539293
135	0x3de6d35f	0.112707846
136	0x3e1f0d05	0.1553231
137	0xbd34c696	-0.0441347
138	0x3cd56ef0	0.026053876
139	0x3e1c10af	0.1524074
140	0xbded0119	-0.11572475
141	0x3e5a05e2	0.21291307
142	0xbd9f5278	-0.077794015
143	0xbe411d80	-0.1885891
144	0xbaf75445	-0.0018869719
145	0x3e60d728	0.21957076
146	0xbe1c8533	-0.15285186
147	0xbdfe96e7	-0.12431126
148	0xbe02e6af	-0.12783311
149	0xbe563ce0	-0.2092166
150	0xbe0cd723	-0.13753943
151	0x3dfd41f0	0.12366092
152	0xbe5564c6	-0.20839223
153	0x3d447ea8	0.04797235
154	0xbd5a90b0	-0.05336064
155	0xbddb8366	-0.10718422
156	0xba4cd000	-0.0007812977
157	0xbe70fccb	-0.23533933
158	0xbe5ba9fc	-0.21451563
159	0xbdeb73ca	-0.114966944
160	0xbe21e696	-0.15810618
161	0x3dd17858	0.10228032
162	0xbd4f0e30	-0.05055064
163	0xbe0875be	-0.13326165
164	0x3d5167f0	0.051124513
165	0xbcd268d8	-0.025684759
166	0x3d395ba8	0.045253426
167	0xbe5d87db	-0.21633856
168	0xbd5d7f80	-0.05407667
169	0xbc812480	-0.015764475
170	0xbb36e10c	-0.0027905134
171	0x3dce68ae	0.1007856
172	0xbdf69304	-0.1203976
173	0x3e774f8d	0.2415144
174	0x3d8ead50	0.069666505
175	0x3d6a3470	0.057178915
176	0x3e8ca5d5	0.2747027
177	0x3dc7df57	0.097593956
178	0x3c37917a	0.011204118
179	0xbe7fc565	-0.24977644
180	0x3e1fdf28	0.15612471
181	0xbe43989a	-0.19101182
182	0x3cb6e10c	0.022324108
183	0xbe84c472	-0.25931126
184	0x3e069df8	0.13146198
185	0xbe1230f6	-0.1427649
186	0xbd36f3ec	-0.044666216
187	0xbd2d1802	-0.042259224
188	0xbd4341dc	-0.04767023
189	0xbca4e5a6	-0.020129036
190	0x3e39f0a4	0.18158203
191	0x3daca34c	0.08429584
192	0x3d45fc90	0.048336565
193	0xbee76ca5	-0.45200077
194	0x3dd475c4	0.103740245
195	0xbcc0739d	-0.023492629
196	0xbcaf1e3d	-0.021376723
197	0x3a433171	0.0007446027
198	0x3e3c2bf4	0.18376142
199	0xbe15f180	-0.14642906
200	0x3e24ceb3	0.16094474
201	0x3e315a87	0.1731969
202	0x3cdfd112	0.027321372
203	0xba245068	-0.0006268085
204	0x3d304828	0.043037564
205	0x3d175e99	0.03695545
206	0x3cd88969	0.02643271
207	0x3e886ba7	0.26644632
208	0xbe894637	-0.26811382
209	0xbc854f05	-0.016273031
210	0x3e65cccd	0.22441407
211	0x3e48661c	0.19570202
212	0xbed0e27e	-0.407978
213	0xbe7b3d9d	-0.24535222
214	0xbe145c01	-0.14488222
215	0x3e140f57	0.14458977
216	0x3e6a94f0	0.22908378
217	0xbe03cbc6	-0.12870702
218	0xbe81990c	-0.25312078
219	0xbe098a3c	-0.13431638
220	0xbd33815c	-0.04382454
221	0xbe77ecf7	-0.24211489
222	0xbe7105ca	-0.23537365
223	0xbdbc0592	-0.0918075
224	0x3e38d116	0.1804851
225	0xbddfe48c	-0.10932264
226	0x3c5bba40	0.013411105
227	0xbe623cdd	-0.2209353
228	0xbe37d5da	-0.17952672
229	0xbe201b47	-0.15635405
230	0x3cc44680	0.023959398
231	0xbe016d1e	-0.12639281
232	0x3dbccda4	0.0921891
233	0x3dddc3c4	0.10828355
234	0xbcb49a18	-0.022046134
235	0xbd68088c	-0.056648776
236	0xbe0c2436	-0.13685688
237	0xbce5ce38	-0.028052434
238	0xbd8fbfd8	-0.07019013
239	0xbcacf623	-0.02111346
240	0xbcd5a3be	-0.026079055
241	0x3cc21d54	0.023695625
242	0x3d6462bc	0.055758223
243	0x3c4ca6b8	0.012490921
244	0xbea7b0f4	-0.32752192
245	0xbde869ae	-0.11348282
246	0x3ec33459	0.38125876
247	0x3eaf06a6	0.3418476
248	0x3e805442	0.25064284
249	0xbd5e591e	-0.054284208
250	0xbd7b0f94	-0.061294153
251	0xbe24d605	-0.16097267
252	0x3e83eea1	0.25767997
253	0x3dc2a6eb	0.09504493
254	0xbcdbada2	-0.026816193
255	0xbe550e82	-0.20806316

bias f4 [34]
0	0xbd2e5062	-0.042557128
1	0xbe629635	-0.22127612
2	0x3e4fb767	0.20284806
3	0x3ea6d8c5	0.32587257
4	0x3e0df3b4	0.13862497
5	0x3cb470d0	0.02202645
6	0xbe4b7c8e	-0.19871733
7	0x3ea908de	0.33014578
8	0xbe5bcb37	-0.21464239
9	0xbd8110c4	-0.06302026
10	0x3d8e4de8	0.06948453
11	0xbea3297b	-0.31867585
12	0xba8b46e1	-0.0010625982
13	0x3c8c52b0	0.017129272
14	0xbd748da3	-0.059705388
15	0xbd7135a0	-0.05888903
16	0xbe6f7dcd	-0.23387833
17	0xbe462a7c	-0.19352144
18	0xbe6fa7fc	-0.23403925
19	0x3b696b43	0.0035616911
20	0x3dc67ff8	0.09692377
21	0x3e898735	0.26860967
22	0xbde2d494	-0.11075702
23	0xbcb258ce	-0.021770861
24	0xbe65ed67	-0.22453843
25	0xbe35559d	-0.1770844
26	0x3db3e66c	0.08784184
27	0xbe146a6f	-0.14493726
28	0x3de7ba27	0.113148026
29	0xbdff5b8c	-0.12468633
30	0xbd81302b	-0.063080154
31	0xbe4a8139	-0.19775857
32	0xbe03563c	-0.12825865
33	0x3d828cee	0.063745365

weight f4 [16, 34]
0	0x3d5c2195	0.053742964
1	0xbdf74838	-0.120743215
2	0xbc2a786a	-0.0104046855
3	0xbdfac10c	-0.12243852
4	0x3dbbef36	0.09176485
5	0xba51a800	-0.0007997751
6	0xbe2fbec3	-0.17162614
7	0xbe1077aa	-0.14108148
8	0xbd5b0744	-0.053473726
9	0xbe288633	-0.16457443
10	0xbe124e53	-0.14287691
11	0xbc8d8705	-0.017276296
12	0xbe1a4678	-0.15065944
13	0x3db1c4ce	0.08680116
14	0xbd1c4643	-0.038152944
15	0x3e1ecdcd	0.15508194
16	0x3dd02416	0.10163133
17	0x3cd275a6	0.025690865
18	0xbdad66fb	-0.084669076
19	0x3d3743d3	0.044742417
20	0xbce47b7e	-0.027890917
21	0x3e0c0d36	0.13676915
22	0xbcdd8305	-0.027040014
23	0x3c222b81	0.009898067
24	0xbdfd4ff2	-0.12368764
25	0x3dff4226	0.12463789
26	0x3d44cfca	0.048049726
27	0x3d82f41e	0.06394218
28	0xbda95d38	-0.08269733
29	0xbe2052d6	-0.156566
30	0xbd63d1d2	-0.055620022
31	0xbc3d1b5b	-0.011542167
32	0xbc478630	-0.012177989
33	0x3ba43f18	0.005012404
34	0x3e1213c2	0.1426535
35	0x3cb70ff8	0.022346482
36	0xbea7fdb3	-0.32810745
37	0xbf034cd3	-0.512891
38	0x3df8eb52	0.12154259
39	0xbcd29ec8	-0.025710478
40	0xbceb64f1	-0.028734656
41	0xbe80ac88	-0.2513163
42	0x3e0f7c73	0.14012317
43	0x3de223ee	0.11042009
44	0xbe3226c5	-0.17397602
45	0x3ea3a3fb	0.31961045
46	0xbec127f4	-0.37725794
47	0xbdd6efd7	-0.104949646
48	0xbd0fb0ca	-0.03508071
49	0x3dfb2df6	0.12264626
50	0x3e0e0ccf	0.13872074
51	0x3a476cf5	0.00076074834
52	0x3dd566ba	0.10419984
53	0xbd0f2dca	-0.034955777
54	0x3da15c7d	0.07878969
55	0xbec4e5aa	-0.3845647
56	0xbd665254	-0.056230858
57	0xbe952d81	-0.2913628
58	0xbddb55bd	-0.10709713
59	0x3e22253e	0.1583452
60	0x3d08c572	0.033391424
61	0xbed5cdb5	-0.41758505
62	0x3d24a3c8	0.040195256
63	0x3d772a1a	0.060342886
64	0xbe633934	-0.2218979
65	0xbce36f28	-0.027762964
66	0xbd04e069	-0.032440577
67	0x3e33d2e0	0.17560911
68	0xbf562dc3	-0.83663577
69	0xbe088508	-0.13331997
70	0x3df2f47e	0.118630394
71	0x3c281bea	0.0102605615
72	0xbe250e74	-0.16118795
73	0x3dbac1e6	0.091190144
74	0xbf47b878	-0.7801585
75	0x3c658b81	0.014010311
76	0x3e1fdf6d	0.15612574
77	0x3d8240ec	0.06360039
78	0x3d9fc71e	0.078016505
79	0xbdd49367	-0.10379677
80	0x3d197265	0.03746261
81	0x3e1d4e4d	0.153619
82	0xbeed8c77	-0.4639623
83	0x3d22f934	0.03978844
84	0x3e04cf2f	0.1296966
85	0xbeac0a0c	-0.33601415
86	0x3e0fa961	0.14029457
87	0xbebfc1c2	-0.37452513
88	0xbf0dfcc6	-0.55463827
89	0x3da50dd6	0.080592796
90	0xbef9b468	-0.48770452
91	0x3e2ea1d4	0.1705392
92	0x3e1cee8b	0.15325372
93	0xbe33e079	-0.17566098
94	0xbf0e5a9c	-0.5560701
95	0x3e3edd6b	0.18639152
96	0xbe9309b8	-0.28718352
97	0xbea3f9d6	-0.32026547
98	0x3ea4e6ad	0.32207242
99	0xbede34b5	-0.43399587
100	0xbde1613a	-0.110048726
101	0xbea6a1eb	-0.3254541
102	0xbcddb364	-0.02706308
103	0xbd86d44c	-0.06583461
104	0xbe94a0a1	-0.290288
105	0xbef8f3b9	-0.48623446
106	0x3d2a480c	0.041572616
107	0x3dd19872	0.10234155
108	0xbb9eebb9	-0.0048498777
109	0xbecf01a7	-0.40430948
110	0x3c2fb773	0.01072489
111	0x3d9ed036	0.07754557
112	0xbe2e37e1	-0.17013504
113	0x3e2a3056	0.16620001
114	0xbe554d55	-0.20830281
115	0x3d0b2fa0	0.033980966
116	0xbc88d213	-0.016701734
117	0xbe097690	-0.13424134
118	0x3e0b0381	0.13575555
119	0x3c34317a	0.010998124
120	0xbe03dd6d	-0.12877436
121	0xbaa6e5e4	-0.0012733308
122	0x3cc46720	0.023974955
123	0xbee4ea65	-0.4471008
124	0x3c85e714	0.016345538
125	0xbecdf6b8	-0.40227294
126	0xbdfc69a2	-0.12324835
127	0x3da0e29a	0.07855721
128	0xbba6f983	-0.005095662
129	0xbe8e063b	-0.27739128
130	0xbb12b304	-0.0022384534
131	0x3d20f9dc	0.039300784
132	0xbec3cb15	-0.38240877
133	0x3c963e8d	0.018340373
134	0x3de9a566	0.114085004
135	0x3bfb3cf5	0.0076671788
136	0xbdf8fb7c	-0.12157342
137	0xbc23bbe0	-0.009993523
138	0xbaf15b90	-0.0018414129
139	0x3df57773	0.11985674
140	0x3c8d7578	0.017267928
141	0x3db4ea82	0.08833791
142	0xbdd9956b	-0.10624202
143	0xbe35b078	-0.17743099
144	0x3da85162	0.082186475
145	0xbe0d686e	-0.13809368
146	0xbdfce4dd	-0.1234834
147	0x3daaa1db	0.08331653
148	0xbd681a3e	-0.05666565
149	0x3de0790e	0.10960589
150	0xbe0ba0fa	-0.13635626
151	0xbc68d660	-0.014211267
152	0x3cbba270	0.022904605
153	0x3e0d6663	0.13808589
154	0xbd249ec0	-0.04019046
155	0x3dfe6aaa	0.12422688
156	0x3c155a6e	0.009115798
157	0xbc536e4f	-0.012904718
158	0xbe4544be	-0.19264504
159	0x3d88ff41	0.06689311
160	0x3e1c0501	0.15236284
161	0x3e08eead	0.13372298
162	0x3d7a41ab	0.061097782
163	0x3b4b45bb	0.0031016904
164	0x3cb95b52	0.022626553
165	0xbe28e42b	-0.16493289
166	0x3d0faf89	0.035079513
167	0x3c8b4203	0.01699925
168	0xbcf77b00	-0.030210018
169	0xbdf674e2	-0.120340124
170	0xbe364422	-0.17799428
171	0x3c2ae870	0.010431394
172	0xbe3291fd	-0.17438503
173	0x3b454b5c	0.0030104732
174	0x3df3f09e	0.119111285
175	0x3dfc9e2a	0.12334855
176	0x3c976a09	0.018483179
177	0x3d22e93f	0.039773222
178	0xbe1cd37c	-0.1531505
179	0x3d682704	0.056677833
180	0xbdc6dff8	-0.097106874
181	0x3d72438f	0.05914646
182	0xbd0dfa07	-0.034662273
183	0x3e2ab527	0.16670667
184	0xbdee3265	-0.11630706
185	0x3e0a7a71	0.1352327
186	0x3e0a72bd	0.13520332
187	0x3cd343ab	0.025789103
188	0x3ddd9162	0.10818745
189	0x3cf20db3	0.029547548
190	0xbe20f11a	-0.15716973
191	0xbe022ff4	-0.12713605
192	0xbe0de80e	-0.13858053
193	0xbdd6db3a	-0.10491033
194	0xbe108228	-0.1411215
195	0xbdb8022e	-0.08984791
196	0x3ca307c3	0.019901162
197	0xbdffc093	-0.124879025
198	0xbe3aa379	-0.18226422
199	0xbda1064b	-0.078625284
200	0x3d0fe1a8	0.035127312
201	0x3daa8659	0.08326406
202	0xbe1b6508	-0.15175259
203	0xbe31d4a8	-0.17366278
204	0x3cc150db	0.023598125
205	0x3d00b520	0.031422734
206	0xbe3d16be	-0.18465707
207	0xbebf3223	-0.3734294
208	0xbd3a10f3	-0.04542632
209	0xbe104542	-0.1408892
210	0xbc049025	-0.008091007
211	0xbec846e6	-0.3911659
212	0xbb36aa08	-0.0027872343
213	0xbe102ccf	-0.14079593
214	0xbd40176d	-0.04689734
215	0x3e5c5b9d	0.21519323
216	0xbe8fff0a	-0.28124267
217	0x3c9c1eb8	0.019057617
218	0xbc88f830	-0.016719908
219	0x3ca34598	0.019930646
220	0x3c86b3f0	0.016443223
221	0xbc4154a8	-0.011799969
222	0x3e13330f	0.14374946
223	0x3d84ebe9	0.06490309
224	0xb885655c	-6.360814e-05
225	0xbee065f6	-0.4382779
226	0xbbe2f313	-0.0069259494
227	0xbea89e72	-0.32933384
228	0xbdff4b92	-0.12465586
229	0xbd5ac72b	-0.053412598
230	0xbb9fb4b3	-0.004873836
231	0xbea7c30d	-0.32766
232	0xbc29f66d	-0.010373694
233	0x3c9a37c8	0.018825427
234	0xbea80ff4	-0.3282467
235	0x3d86a24c	0.065739244
236	0xbda59ab8	-0.08086151
237	0xbc5657b4	-0.0130824335
238	0x3db06c79	0.086144395
239	0x3d13bd34	0.03606911
240	0xbe05b7ca	-0.13058391
241	0xbe93f137	-0.2889497
242	0x3d85ed6d	0.06539426
243	0xbc6d3780	-0.014478564
244	0x3d84969c	0.06474039
245	0xbe9451cf	-0.28968665
246	0x3d2720b3	0.04080267
247	0xbd6bad7a	-0.057538487
248	0x3980c4db	0.0002456073
249	0x3e3a2b05	0.18180473
250	0xbebd3913	-0.36957607
251	0x3dac9cc6	0.0842834
252	0xbcaf94ab	-0.021433195
253	0xbe213c5d	-0.15745683
254	0xbcecc1c8	-0.028900996
255	0x3ce55965	0.027996728

bias f4 [16]
0	0xbe0d9a0b	-0.13828294
1	0x3e5e5b39	0.21714486
2	0x3e3f720e	0.18695852
3	0x3d83b62d	0.06431232
4	0xbe29754c	-0.16548651
5	0xbd85df72	-0.065367594
6	0x3dafde93	0.085873745
7	0x3df0e0de	0.1176164
8	0x3e085e33	0.13317184
9	0x3dcbbcff	0.099481575
10	0xbd45b4f9	-0.048268292
11	0x3d2b938c	0.04188876
12	0x3ded17e7	0.11576825
13	0x3e411ad3	0.18857889
14	0x3e129f2b	0.1431853
15	0x3e477117	0.19476734

weight f4 [1, 16]
0	0xbcdcb45c	-0.02694147
1	0x3d4f32df	0.050585624
2	0xbe8257b5	-0.2545754
3	0x3e389220	0.18024492
4	0xbe395c80	-0.18101692
5	0xbe165a00	-0.1468277
6	0x3de30d33	0.11086502
7	0x3d6696f7	0.056296315
8	0x3d531c39	0.051540587
9	0xbe7042d3	-0.23462991
10	0x3e80124a	0.25013953
11	0x3e245318	0.16047323
12	0x3d84552b	0.06461557
13	0x3d45006d	0.04809611
14	0x3d93a31f	0.07208847
15	0xbe94f157	-0.29090378
