DL_PROJECT_FREIBURG/full_model_3.pth (torch_old, 12946 bytes, 5 tensors)

weight f4 [34, 17]
0	0xbd6c1cd8	-0.057644695
1	0xbe651d9c	-0.22374576
2	0xbd0843df	-0.033267852
3	0xbe10689e	-0.14102408
4	0x3e067fcb	0.13134687
5	0x3cdfd1b1	0.027321668
6	0x3d29fbc6	0.041499875
7	0x3dad2413	0.08454146
8	0x3e7e59bc	0.24838918
9	0x3e10f2d2	0.14155129
10	0xbde5f318	-0.11228007
11	0xbdf9e0e1	-0.12201095
12	0xbe4ac38e	-0.1980116
13	0x3db3bb63	0.087759756
14	0xbd18c95a	-0.0373014
15	0x3e30f18c	0.17279643
16	0x3e5644d4	0.20924693
17	0xbd21b504	-0.03947927
18	0xbce07e9a	-0.027404118
19	0xbd1749b6	-0.03693553
20	0x3e0acab0	0.13553882
21	0xbe3067a2	-0.17227033
22	0xbd14e465	-0.036350626
23	0xbe2588ef	-0.16165517
24	0xbd008159	-0.031373356
25	0x3eb60772	0.35552555
26	0x3e82b347	0.25527403
27	0x3abb1b27	0.001427506
28	0xbe48e332	-0.19617918
29	0x3e38e387	0.18055545
30	0xbde3afff	-0.11117553
31	0x3e1835e6	0.1486431
32	0xbe131141	-0.1436205
33	0x3ded17f3	0.115768336
34	0xbc6efeda	-0.014587129
35	0x3eb1efb0	0.3475318
36	0x3d0db740	0.03459859
37	0x3e858194	0.26075423
38	0xbf2b8308	-0.6699681
39	0x3d08a7b3	0.033363055
40	0x3e89e060	0.26928997
41	0x3d8ce869	0.06880266
42	0xbe014edd	-0.1262774
43	0x3dddbc1c	0.10826895
44	0xbe657232	-0.22406843
45	0x3bc678fd	0.0060569034
46	0x3da25c3f	0.07927751
47	0xbd4be7d8	-0.04978165
48	0x3cf50db3	0.029913759
49	0xbea0fb36	-0.3144166
50	0xbe977601	-0.29582217
51	0xbdb47aab	-0.088124596
52	0xbe602d11	-0.21892191
53	0xbe3fca4b	-0.18729512
54	0xbd979107	-0.07400709
55	0xbe6ba2e1	-0.23011352
56	0xbe17723f	-0.14789675
57	0xbdd0876c	-0.1018208
58	0x3d7f6c68	0.062359244
59	0xbe272cba	-0.16325656
60	0x3d898c91	0.06716264
61	0x3e23fcfb	0.16014473
62	0xbe5d953f	-0.21638964
63	0xbc4b4943	-0.012407604
64	0x3d991b00	0.07475853
65	0x3b90f034	0.0044231657
66	0x3dfb599f	0.12272953
67	0x3e4d435e	0.2004523
68	0x3c81958b	0.015818378
69	0x3b586dbf	0.0033024398
70	0x3c05f2ef	0.008175596
71	0x3e1d950f	0.15388893
72	0x3cef18ea	0.029186685
73	0x3cfad00e	0.030616786
74	0xbe1d6fcb	-0.15374677
75	0xbaf70c6c	-0.0018848306
76	0x3e66b1de	0.22528788
77	0x3e626279	0.22107877
78	0x3c3bd14f	0.011463477
79	0x3d1ec097	0.038757887
80	0x3e2a06f4	0.16604215
81	0x3e1efe74	0.15526754
82	0xbe55877f	-0.20852469
83	0xbdaf8ea2	-0.08572127
84	0x3d98138f	0.074256055
85	0xbe3e7929	-0.18600906
86	0xbd1c4691	-0.038153235
87	0x3d83aae1	0.06429077
88	0xbec1eb32	-0.37874752
89	0x3c980680	0.018557787
90	0xbcf640cf	-0.0300602
91	0x3e13403f	0.14379977
92	0x3d46ed4e	0.048566155
93	0xbd8374f6	-0.06418793
94	0x3d4ec184	0.05047752
95	0x3e1c9d7f	0.15294455
96	0x3e46d6b9	0.19417848
97	0xbddc1d50	-0.107477784
98	0x3e0fd1c1	0.14044859
99	0x3e3dad56	0.18523154
100	0xbdfa34e5	-0.1221712
101	0x3d3edc96	0.046597086
102	0xbe00bb8b	-0.12571542
103	0xbb3c8679	-0.0028766675
104	0x3d76c704	0.06024839
105	0xbd259ad6	-0.040430866
106	0xbd3bed2d	-0.045880485
107	0x3d2764d7	0.040867653
108	0xbe0c501e	-0.13702437
109	0xbe4d6dec	-0.20061463
110	0x3e1da401	0.15394594
111	0x3e85b6d1	0.2611604
112	0x3c04e7c9	0.0081119025
113	0x3da482ff	0.08032798
114	0xbd7cd317	-0.06172475
115	0x3d4b67d3	0.04965956
116	0x3e4fb36e	0.2028329
117	0x3c988ca4	0.01862175
118	0x3d89af19	0.0672285
119	0x3cf35c41	0.029707076
120	0x3d5b54fb	0.05354784
121	0x3c67a641	0.014138759
122	0xbddf320e	-0.10898219
123	0xbf6a9d6b	-0.9164645
124	0xbd66210b	-0.056183856
125	0xbdbf4b37	-0.09340518
126	0x3d922082	0.071351066
127	0xbe6f14c8	-0.23347771
128	0xbe5d5d6a	-0.21617666
129	0xbdcaea25	-0.09907941
130	0x3e05dbad	0.13072081
131	0x3bad8e20	0.0052964836
132	0x3d8e1a75	0.0693864
133	0x39d906c2	0.000413945
134	0xbb674c8d	-0.003529343
135	0xbe50af10	-0.20379281
136	0x3d17987a	0.037010647
137	0xbcbb3177	-0.022850735
138	0x3b29773a	0.0025858418
139	0x3e419b3a	0.1890687
140	0x3d1e7048	0.0386813
141	0x3c53f768	0.012937404
142	0xbebad272	-0.36488682
143	0x3d6ba1c5	0.057527322
144	0x3de7bd0f	0.11315357
145	0x3e1ba2ad	0.15198775
146	0x3d967ad7	0.073476486
147	0x3e1d6bd2	0.15373161
148	0xbdaef538	-0.085428655
149	0x3ca77bcf	0.020444779
150	0xbe1e4a12	-0.15457943
151	0xbc40e461	-0.0117732
152	0x3e05f129	0.13080277
153	0xbd6d5e34	-0.057951167
154	0x3ddb9a63	0.10722806
155	0x3d2c1f04	0.042021766
156	0x3e26eba0	0.16300821
157	0x3d540630	0.051763713
158	0x3c04c865	0.008104418
159	0x3e6e2cc7	0.23259269
160	0xbde05f7a	-0.10955711
161	0x3d856d10	0.06514943
162	0x3ddb4dc3	0.10708191
163	0xbd8ecbde	-0.06972478
164	0x3dcea8e5	0.10090808
165	0xbdb7b207	-0.08969503
166	0xbc3a29d3	-0.011362511
167	0xbc05ed7e	-0.008174298
168	0xbd669a45	-0.056299467
169	0xbee1eb5a	-0.44124871
170	0xbdf0dd93	-0.11761012
171	0x3e1df520	0.15425539
172	0xbc30bda0	-0.010787398
173	0xbd59d3bc	-0.05318044
174	0xbd124a48	-0.03571537
175	0xbe389b68	-0.18028033
176	0x3da49978	0.08037084
177	0xbd83de9c	-0.06438944
178	0x3db5ac5c	0.088707656
179	0xbe6d0b10	-0.23148751
180	0x3e305e92	0.17223576
181	0xbe626210	-0.2210772
182	0xbe6dc3d1	-0.2321923
183	0xbe16c037	-0.14721762
184	0x3dc7ae78	0.09750074
185	0x3bcb4d40	0.0062042773
186	0x3e2f97a0	0.17147684
187	0xbd6ba621	-0.05753148
188	0x3e44dbff	0.19224547
189	0xbd10ffcb	-0.035400193
190	0x3e903afe	0.28170007
191	0x3ab049b5	0.0013449701
192	0x3d647837	0.05577871
193	0x3ea24423	0.3169261
194	0xbe25430e	-0.1613886
195	0xbeb71f12	-0.35765892
196	0x3d741a8c	0.05959563
197	0xbe67504d	-0.22589226
198	0xbe3f4f88	-0.18682683
199	0xbe329eb7	-0.17443357
200	0xbc3cbab5	-0.011519124
201	0x3d1750be	0.036942236
202	0x3cc5ece1	0.024160804
203	0x3d9b4fab	0.07583555
204	0xbda854b8	-0.08219284
205	0x38c9197a	9.589172e-05
206	0xbb9a805a	-0.0047150077
207	0xbe26c3e9	-0.16285671
208	0x3dac0191	0.08398736
209	0x3b312686	0.0027031018
210	0xbe567906	-0.20944604
211	0x3d36eaab	0.04465739
212	0x3e8f3062	0.279666
213	0x3d9d4453	0.076790474
214	0x3e0784f0	0.13234305
215	0xbe0956e5	-0.13412054
216	0x3da018d6	0.07817237
217	0xbdc269eb	-0.094928585
218	0x3d957ec1	0.07299567
219	0xbd58798b	-0.052850287
220	0x3e5d6729	0.21621384
221	0x3d563cc6	0.05230405
222	0x3d427886	0.04747822
223	0x3d74834a	0.05969552
224	0xbd0d396f	-0.0344786
225	0x3cfe40cf	0.031036763
226	0xbc65acd9	-0.014018261
227	0xbd9eeb7e	-0.0775976
228	0xbcc1a04f	-0.023636011
229	0x3eb1db85	0.34737793
230	0x3e1f00ac	0.155276
231	0xbd87ef5f	-0.06637453
232	0xbe10e28a	-0.14148918
233	0xbe450689	-0.19240774
234	0xbe0a117f	-0.13483237
235	0x3de4d353	0.111731194
236	0x3dc7492f	0.097307555
237	0x3e60d7fb	0.2195739
238	0xbe447920	-0.1918683
239	0x3df09a8a	0.11748226
240	0x3e132997	0.14371334
241	0xbe5fca0c	-0.21854419
242	0xbddcf67f	-0.10789203
243	0x3daf1b33	0.0855011
244	0xbdc97bc7	-0.09838062
245	0xbe5d8b65	-0.21635206
246	0xbda67c18	-0.08129138
247	0xbdf116b3	-0.11771908
248	0xbc6d405a	-0.014480675
249	0xbd62b309	-0.055346522
250	0x3d3892df	0.045061942
251	0xbe12813f	-0.14307116
252	0xbdd68dc0	-0.104762554
253	0x3e42cfbd	0.19024558
254	0xbe5b5415	-0.21418793
255	0x3bf080c5	0.0073395693

bias f4 [34]
0	0x3da5ee55	0.08102099
1	0xbe360f62	-0.17779306
2	0x3e0d0a8a	0.13773552
3	0xbe308946	-0.17239866
4	0xbe825c96	-0.25461262
5	0xbcf38b75	-0.029729584
6	0xbdef4399	-0.11682815
7	0x3ede3183	0.4339715
8	0xbea48f77	-0.32140705
9	0x3c90ae56	0.017661255
10	0xbdedacfc	-0.1160526
11	0xbe0cd453	-0.1375287
12	0xbe64f35c	-0.22358459
13	0xbe3b73df	-0.1830592
14	0x3e3b9b14	0.18320876
15	0xbe8ca822	-0.27472025
16	0xbd856b01	-0.0651455
17	0xbe1384c4	-0.14406115
18	0xbdfc0752	-0.12306084
19	0x3d4a6c1c	0.049419507
20	0x3d7e99fb	0.062158566
21	0xbe6d52df	-0.23176144
22	0xbe5d2502	-0.21596149
23	0xbda3956e	-0.07987486
24	0xbe9313da	-0.28726083
25	0xbdd60ef8	-0.10452074
26	0xbe4d68d9	-0.20059527
27	0xbd8cabee	-0.068687305
28	0xbe66e09c	-0.22546619
29	0xbe18bc14	-0.14915496
30	0x3cd1d76d	0.025615418
31	0xbe7afa4b	-0.24509542
32	0x3d86939d	0.06571124
33	0xbe99c038	-0.30029464

weight f4 [16, 34]
0	0xbb706962	-0.0036683907
1	0xbee9ba44	-0.45649922
2	0x3d678fb0	0.056533515
3	0x3e0254d5	0.12727673
4	0xbeb0796a	-0.34467632
5	0xbdfc6ad1	-0.12325061
6	0xbea71e08	-0.326401
7	0xbdedb641	-0.11607028
8	0xbdafee5f	-0.085903876
9	0x3e462c05	0.1935273
10	0xbd606378	-0.05478236
11	0x3da414d8	0.08011788
12	0xbdee3c0d	-0.116325475
13	0xbebb997c	-0.36640537
14	0x3d1c6030	0.03817767
15	0xbeef9bfc	-0.46798694
16	0xbe29e853	-0.16592531
17	0xbe194bb2	-0.14970282
18	0x3af750ed	0.0018868722
19	0xbe7c72ea	-0.24653211
20	0x3e535ec2	0.20641616
21	0xbdde85fa	-0.10865398
22	0x3d4ff1a0	0.05076754
23	0xbe48a7f5	-0.1959532
24	0xbe4cb497	-0.19990765
25	0x3d18c888	0.037300617
26	0xbead599a	-0.33857423
27	0x3b804609	0.003914599
28	0xbe0539e4	-0.13010365
29	0xbdbfb3da	-0.09360476
30	0xbec4083f	-0.3828754
31	0xbee58b1c	-0.44832695
32	0x3df2f4b6	0.11863081
33	0xbe37b224	-0.17939049
34	0x3cc6b61f	0.024256764
35	0x3dc00da6	0.09377603
36	0xbeadb207	-0.33924887
37	0xbe09ad30	-0.13444972
38	0x3e012a18	0.12613714
39	0x3d245d39	0.040127967
40	0x3d033293	0.032030653
41	0xbf068921	-0.5255299
42	0x3e4cb203	0.19989781
43	0xbc86bea0	-0.016448319
44	0xbd97a158	-0.07403821
45	0xbe85c985	-0.2613031
46	0x3bfbb1ee	0.007681123
47	0x3d97748a	0.07395275
48	0xbe308fd0	-0.1724236
49	0x3d2e3498	0.042530626
50	0x3d7f6417	0.062351312
51	0xbc95a9b8	-0.018269405
52	0xbd415665	-0.047201533
53	0x3da08786	0.07838349
54	0xbe057817	-0.13034092
55	0x3d6c6404	0.05771257
56	0x3db6573a	0.08903356
57	0x3d00abca	0.03141383
58	0x3d824741	0.06361247
59	0x3e0152af	0.12629198
60	0xbd7205bd	-0.059087504
61	0x3e0eea98	0.13956678
62	0x3cd934bd	0.026514405
63	0xbcf0165f	-0.029307542
64	0xbbb73be1	-0.005591855
65	0x3dc9bd10	0.09850514
66	0xbe70f33b	-0.23530285
67	0x3e189935	0.14902194
68	0xbde7061e	-0.11280464
69	0xbe618514	-0.22023422
70	0xb9262fc9	-0.00015848795
71	0xbe126c4d	-0.14299126
72	0xbe9d2d09	-0.30698422
73	0xbceec939	-0.029148685
74	0xbd5a1b5f	-0.05324876
75	0x3e28b63a	0.16475764
76	0xbeada2bc	-0.3391322
77	0x3d6d73d3	0.057971787
78	0x3dba4eda	0.09097071
79	0x3dbc9b5b	0.09209319
80	0xbe9b0c42	-0.3028279
81	0xbef4778e	-0.47747463
82	0x3db5c3be	0.088752255
83	0xbe81fe03	-0.25389108
84	0xbd5f6790	-0.054542124
85	0xbdae8343	-0.0852113
86	0xbdf1d68f	-0.11808502
87	0xbdbef060	-0.09323192
88	0x3ebf04c6	0.3730833
89	0x3df9784a	0.121811464
90	0x3e0b6fed	0.13616915
91	0xbe8d3d4d	-0.2758583
92	0xbe331084	-0.17486769
93	0xbd9b50b7	-0.075837545
94	0xbcdd167e	-0.026988264
95	0x3e057ac6	0.13035116
96	0xbd5230e7	-0.05131617
97	0xbd656af2	-0.056010194
98	0xbe4a2079	-0.1973895
99	0xbe2c295d	-0.16812654
100	0x3e9093b0	0.28237677
101	0xbe339d52	-0.17540482
102	0x3d5c0da8	0.05372396
103	0xbc0397c6	-0.008031791
104	0xbe6b6b35	-0.22990115
105	0xbd128734	-0.03577347
106	0x3de91084	0.11380103
107	0x3da4c0a0	0.08044553
108	0xbd430b58	-0.04761824
109	0xbf02af8e	-0.51049125
110	0x3e491ddb	0.19640295
111	0xbca2aba9	-0.019857245
112	0xbd02d3fc	-0.031940445
113	0xbe709d71	-0.23497559
114	0xbce30d22	-0.027716223
115	0xbd2dccf6	-0.042431794
116	0x3dffe510	0.12494862
117	0x3dae4bd7	0.08510559
118	0x3d933a16	0.071888134
119	0x3bfca1a0	0.007709697
120	0xbd0c4b75	-0.03425165
121	0xbd6f0b77	-0.058360543
122	0xbe39a7fc	-0.18130487
123	0x3dac9356	0.084265396
124	0xba94f080	-0.0011363178
125	0x3c73c334	0.014878083
126	0x3e3d8dd3	0.18511133
127	0xbde37fe1	-0.11108375
128	0x3daa90c0	0.0832839
129	0x3d99760c	0.07493219
130	0x3c3ed66d	0.011647803
131	0xbddd0fc9	-0.107940264
132	0xbc6d4890	-0.014482632
133	0x3d37eb42	0.044902094
134	0xbe4cf6ae	-0.20015976
135	0x3e848ee6	0.25890273
136	0x3c2ccbdc	0.010546651
137	0xbd3d25b7	-0.046178546
138	0xbe6a41c1	-0.22876646
139	0x3b91d594	0.0044505093
140	0xbc06f428	-0.008236922
141	0xbd6c465b	-0.057684284
142	0x3da59c48	0.08086449
143	0xbeef7bdb	-0.46774182
144	0x3e4ca629	0.1998526
145	0xbdc810a4	-0.09768799
146	0xbd9674aa	-0.07346471
147	0xbe878dfd	-0.26475516
148	0x3e20b5a2	0.15694287
149	0xbd3e72f9	-0.046496365
150	0xbd5e10b8	-0.054215163
151	0x3c52cc92	0.012866156
152	0xbd1c7093	-0.038193297
153	0xbe155fea	-0.1458737
154	0x3d24fbd8	0.04027924
155	0x3c24628b	0.01003326
156	0xbda1f49d	-0.079079844
157	0x3c4a1eb0	0.012336418
158	0xbe08a239	-0.13343133
159	0x3d964f5b	0.073393546
160	0x3df3fb97	0.11913221
161	0x3c229130	0.009922311
162	0x3cb0bc21	0.021574082
163	0x3d838711	0.06422246
164	0xbcae0b9e	-0.021245774
165	0xbe039884	-0.12851149
166	0xbd799c87	-0.06094029
167	0x3d38391f	0.04497635
168	0xbe504358	-0.2033819
169	0x3e75465d	0.23952623
170	0x3c457575	0.01205193
171	0xb9ee20b2	-0.00045419257
172	0xbecb0117	-0.3964927
173	0xbd722552	-0.059117623
174	0x3d914f77	0.07095235
175	0x3d864792	0.0655662
176	0x3d714323	0.058901917
177	0xbf18df8a	-0.59716094
178	0x3e067b3c	0.13132948
179	0xbd7d9738	-0.06191179
180	0xbe2b65da	-0.16738072
181	0xbefca30d	-0.49343148
182	0x3ce1ee36	0.027579408
183	0x3e26a948	0.16275513
184	0xbc074e47	-0.008258409
185	0x3d4cf9f2	0.050043054
186	0x3dc30365	0.09522132
187	0x3d0c8538	0.034306735
188	0xba97ade3	-0.0011572208
189	0xbc74d359	-0.014942967
190	0xbe6ec9ac	-0.23319119
191	0x3c14ccf0	0.009082064
192	0xbdef2648	-0.116772234
193	0xbd5d50bf	-0.054032084
194	0x3c50543a	0.012715394
195	0xbe222703	-0.15835194
196	0x3d279583	0.04091407
197	0x3e1a825b	0.15088789
198	0x3df0ec30	0.11763799
199	0x3da96acf	0.08272325
200	0x3c8852f5	0.01664112
201	0xb967fe96	-0.00022124717
202	0xbedfdada	-0.43721658
203	0x3e9f631a	0.31130296
204	0xbd672ac6	-0.056437276
205	0xbedf548e	-0.43619198
206	0x3dcdb39b	0.10044023
207	0x3c0ddd5a	0.008658731
208	0xbeed7285	-0.46376434
209	0xbdf1d5ee	-0.11808382
210	0xbeb3c05e	-0.35107702
211	0xbd782c27	-0.060588982
212	0xbe0919d5	-0.1338876
213	0x3e042be4	0.12907368
214	0xbdbf1dc8	-0.09331852
215	0x3e0ed7d5	0.13949521
216	0xbe415fbf	-0.1888418
217	0xbee9ff41	-0.45702556
218	0xbe0821b0	-0.13294101
219	0xbea1caf1	-0.31600145
220	0xbd3d0b0e	-0.04615312
221	0xbd440ce4	-0.047863856
222	0xbe09203d	-0.13391204
223	0x3c12ef17	0.008968136
224	0x3eb00e07	0.34385702
225	0x3e02b109	0.12762846
226	0xbe1d49ea	-0.15360227
227	0xbe5fb497	-0.21846233
228	0xbe4bbd8b	-0.19896524
229	0xbe164691	-0.14675356
230	0xbe2748a1	-0.163363
231	0xbe6bb9bd	-0.23020072
232	0x3d91ebf9	0.07125086
233	0xbddc61ec	-0.107608646
234	0xbe90312d	-0.28162518
235	0xbeb7c53d	-0.35892668
236	0xbd79d975	-0.0609984
237	0x3b87807a	0.0041351886
238	0xbd39ddd6	-0.045377575
239	0x3d71af56	0.059005104
240	0xbe36dc96	-0.17857584
241	0xbce763f7	-0.02824591
242	0x3d96ee32	0.07369651
243	0x3db0aab1	0.08626307
244	0x3d03921f	0.032121774
245	0xbf221efd	-0.63328534
246	0x3e87f401	0.26553348
247	0x3d88056c	0.06641659
248	0x3d871bc0	0.0659709
249	0xbe24702a	-0.16058412
250	0x3e1ad0f4	0.15118772
251	0x3d20959e	0.039205186
252	0xbd16e6e3	-0.036841284
253	0x3d7a55a4	0.06111683
254	0x3ce407a6	0.027835678
255	0xbe0d2e95	-0.13787301

bias f4 [16]
0	0x3dfd89ad	0.12379775
1	0x3c67f202	0.01415682
2	0x3e86421e	0.26222318
3	0xbc38ac0d	-0.011271489
4	0x3ce304a5	0.027712176
5	0x3d681509	0.056660686
6	0x3e209eb2	0.15685537
7	0xbc8895ac	-0.016672932
8	0xbdede8fa	-0.116167024
9	0x3d4901a8	0.049073845
10	0x3d8a2797	0.067458324
11	0x3df6aedc	0.120450705
12	0x3d69f33e	0.05711674
13	0x3e058444	0.13038737
14	0x3e21c767	0.15798722
15	0x3e2d7019	0.16937293

weight f4 [1, 16]
0	0xbe8618f8	-0.26190925
1	0x3d38e7b7	0.045142855
2	0xbe0f1454	-0.13972598
3	0x3d74b37e	0.05974149
4	0x3d9654d6	0.073404
5	0x3d41de1c	0.04733096
6	0xbe8a64e5	-0.270301
7	0x3d442643	0.04788805
8	0xbdffa479	-0.124825425
9	0x3db23597	0.08701628
10	0x3d3400f1	0.04394621
11	0xbe799a63	-0.243753
12	0x3d869eb3	0.06573238
13	0xbea43b45	-0.3207647
14	0xbe87d4e1	-0.265296
15	0xbe079e83	-0.13244061
