DL_PROJECT_FREIBURG/full_model_3.pth (torch_old, 9337 bytes, 5 tensors)

weight f4 [16, 8]
00000000: 3f1d 6b3d b82e 9f3c b62d e9bc a969 833c
00000010: 5d24 b8bd 1bbd e6bc a23f afbd ebf6 1c3f
00000020: c67e cd3d 5d77 b1be 280b 96be 325d 973e
00000030: fe6d 71bd b448 32bd f5ce 99be e38e fabd
00000040: 845c ba3d 1e44 993d c6f4 48bd a03a e63d
00000050: 9b2e afbf c7fc 22bc 6f94 373e de32 46bf
00000060: a840 11bc de31 20bc f44e 293b e9b0 b5bc
00000070: 6289 8f3c 9796 42bc 1dc8 ddbd f112 e33e
00000080: ef42 b4bd acb3 83bd c87e 07bc 9e37 61bb
00000090: 66ae 45bc 7518 833c c67d 3bbe 383d fa3e
000000a0: 7402 e73c 8d06 9c3d 8ae9 e03c 681d d3bd
000000b0: 44b3 f4bf aff6 44bc 75fd 78bd 677f 17bf
000000c0: 3682 8bbe 2957 22bc 270f 753c 550b e7be
000000d0: c388 9a3e 8812 6a3d c032 4dbd 17f6 c13d
000000e0: 099c adbd 55e4 b23c fe85 86bd 8c62 20bf
000000f0: 4b03 2d3e cf4f a83d b1be 463e 9886 d6bc
00000100: deba 15bc 09ed 963d eb8a 51bc 49a0 143e
00000110: a2ee 07bf b779 db3c 732d 2b3e dc54 2bbf
00000120: 4be3 473d 5fd5 103e 9b0d ecbd a82e d63e
00000130: 97b0 19be 838c af3c f7ee ce3e f78f 17bf
00000140: 4cec a1bd 64c4 b7bc 8c16 54bd 3d08 6e3e
00000150: aa69 453e 0eee 9d3d 1e67 02bf f636 b03e
00000160: 9382 a33d ae86 bd3d 09a4 663d 973a 1bbd
00000170: ee0b 86bf 4f6f 5dbc 11a3 68bd 517d 20bf
00000180: 7901 d53c 1eac 0dbc 45bb 213d 0ef0 f53b
00000190: efc4 62bd 801c a93c af35 26be e95f d53e
000001a0: 222f 0e3d 8b05 023e d9e5 ec3b d79f 9c3d
000001b0: 508a 93bf 319c 28bd 40bd aa3d 40de 46bf
000001c0: 34d4 193d db9b 5c3b 855f 94ba d226 cd3b
000001d0: 104d d1bc 824c aabc b196 b0bd 08a1 0e3f
000001e0: ad22 743d 111d e03c 77e3 603d 1374 c8be
000001f0: c62e 933e 75a5 5d3d b772 653b b382 7e3e
0.057400938 0.019431457 -0.02846418 0.016041594 -0.08991311 -0.028166344 -0.08557059 0.61314267
0.10033946 -0.3466138 -0.29305387 0.2956329 -0.058942787 -0.043526366 -0.30040708 -0.12234285
0.09099677 0.074836954 -0.04906156 0.112416506 -1.3686098 -0.009947962 0.17927717 -0.7742137
-0.008865513 -0.009777514 0.0025834413 -0.022179084 0.017521564 -0.011876724 -0.10829184 0.4435039
-0.08801829 -0.06430754 -0.008269973 -0.0034365426 -0.012065506 0.016002873 -0.18309698 0.4887483
0.028199412 0.07618437 0.02745511 -0.10308343 -1.9117208 -0.012021705 -0.06078859 -0.59178776
-0.2724778 -0.009908476 0.014957226 -0.45125833 0.30182466 0.05714658 -0.050097227 0.09470766
-0.08477027 0.021837393 -0.06568526 -0.6265037 0.16895787 0.08218347 0.1940868 -0.026187226
-0.009138791 0.073694296 -0.012789468 0.14514269 -0.530985 0.026791437 0.16716556 -0.6692636
0.048800748 0.14143895 -0.115260325 0.4183247 -0.1500877 0.021429306 0.4041669 -0.5920405
-0.07906398 -0.022432514 -0.051779315 0.2324533 0.19278589 0.07711421 -0.50938594 0.34416932
0.079838894 0.09254204 0.05630878 -0.037897673 -1.0472391 -0.013515308 -0.056796137 -0.6269122
0.026001679 -0.008646993 0.039485235 0.0075054234 -0.05536359 0.020643473 -0.16231416 0.41674736
0.034712918 0.12697427 0.0072295484 0.076476745 -1.1526585 -0.04116458 0.08336878 -0.77682877
0.03755589 0.0033662233 -0.0011319971 0.0062607313 -0.025549442 -0.020788435 -0.08622492 0.55714464
0.059603382 0.02735761 0.054904427 -0.39151058 0.28746623 0.05411287 0.0035011002 0.24854545

bias f4 [16]
00000000: f899 d0be eecd 97be eb22 663e d2c7 78be
00000010: de0f 76be 80e1 ff3e c7b9 573e 161d b33d
00000020: ee45 e33d 4fa2 bfbe 74b1 4fbe cc69 ce3e
00000030: 22e6 67be e93f 8e3e 2fa3 bebe 0038 7cbd
-0.4074247 -0.296493 0.22474258 -0.24294975 -0.2402949 0.4997673 0.21066962 0.08745782
0.110973224 -0.3742852 -0.20282537 0.40315092 -0.22646382 0.27783135 -0.37233874 -0.061576843

weight f4 [8, 16]
00000000: f3ab 34bf c00b 6d3c f72f 0a3e f8a8 0cbf
00000010: cb93 b4be d464 0b3e 2d1a 9ebe 7170 aabe
00000020: e0ba a83e 8d2b bc3e 7981 1ebc fa5a 113e
00000030: 7312 6dbe 2c9b 103e d6fe 43bf 8c44 47bf
00000040: d2e0 5d3c d428 3b3e afd9 25bf 63cc da3d
00000050: 3e55 233d 561d c5be 2ab9 8e3d 853f 0bbd
00000060: 9485 8dbe b7b5 e8be fe9f 3e3e b206 cbbe
00000070: 9bb2 633d abc2 12bf 2bed ea3d 3d96 0fb9
00000080: 39f3 f83d d28c 5dbe 6e20 22bf b095 423d
00000090: 750a 163e a92d ccbe b7c7 f93c 60ff 933d
000000a0: 9ff8 19be 0f92 cebe a5b9 f03c 181b dbbe
000000b0: 3ce2 1c3c e95e 18bf 7215 5b3e def6 1d3c
000000c0: a91f 42bf 606d 2e3d 5d27 413e 196e 7abf
000000d0: 2574 0bbf a364 6a3e edc3 c0be 883f 7cbe
000000e0: b0d5 453e 0945 fa3e 4f0c d8be 6d29 173e
000000f0: b673 f0be ca22 ba3e df0f 4cbf f89a 91be
00000100: cb16 3b3e 5295 b8bd 97d2 3fbf 6f32 3a3e
00000110: 349a 3f3e 7739 b5be aa3a e8bb 7f8a 743d
00000120: 74f6 71be 2890 dcbe ec88 ae3d fdc7 cabe
00000130: d547 eb3c 0760 f8be 9dd4 e63d 9375 8f3d
00000140: 241f 673d 8de4 6bbe 856c 16bf 12a2 343e
00000150: 8dff 213e 17ab 41bf 515f 963c a50b 1f3d
00000160: ad04 82bd 7175 b4be 49d7 0e3e 7082 e3be
00000170: 29de 933d 99d0 27bf 424e b33d 198a e33c
00000180: a049 ff3d ce10 763e 1d19 82bf e825 8d3c
00000190: 3566 953e 5cd0 e1be 2caa 283d 3a55 b43d
000001a0: 676e 59be 1c8d fdbe eda9 1f3e d698 98be
000001b0: 788d 103e 5aee 2fbf 4e8f 543e 1a5e fc3c
000001c0: 8b82 f03d ac30 623d 49f0 22bf 2c69 953e
000001d0: 4dcf 06bc 1358 24bf 5483 113d 7b07 c93d
000001e0: e950 3cbe e225 e9be 147f 183e 6b81 14bf
000001f0: bb82 383c a1d8 f5be 2795 1e3e 3351 22bc
-0.70574874 0.014468133 0.1349486 -0.54945326 -0.35269007 0.13612682 -0.30879346 -0.3328891
0.32955074 0.36751977 -0.009674423 0.14194861 -0.23151569 0.14121693 -0.76560724 -0.7783897
0.013542371 0.18277293 -0.64785284 0.10683515 0.039876215 -0.38498944 0.06968911 -0.033996124
-0.27640975 -0.45451137 0.1861572 -0.39653546 0.055590253 -0.5732829 0.114710175 -0.00013693511
0.12155766 -0.2163575 -0.63330734 0.047506034 0.14652427 -0.39878586 0.03049074 0.07226443
-0.15036248 -0.4034581 0.029385397 -0.42794108 0.009575423 -0.5951982 0.213949 0.009641377
-0.7582956 0.042584777 0.18862672 -0.97824246 -0.544741 0.22889952 -0.3764948 -0.2463361
0.19319797 0.48880795 -0.4219689 0.14761896 -0.4696328 0.36354667 -0.7971172 -0.28438544
0.18270414 -0.090128556 -0.7493071 0.18183301 0.18711168 -0.35395405 -0.0070870714 0.059702393
-0.2362917 -0.43078732 0.085222095 -0.39605704 0.028720776 -0.48510763 0.112710215 0.070048474
0.056426182 -0.23036404 -0.5875934 0.1763995 0.15820141 -0.7565169 0.018355997 0.038829464
-0.06348548 -0.3524585 0.13949312 -0.44435453 0.07220108 -0.6555267 0.08755161 0.027775811
0.12465215 0.24029848 -1.0163914 0.01722999 0.2917954 -0.44104278 0.041177914 0.08805318
-0.21233521 -0.4952172 0.15592165 -0.29804105 0.14116466 -0.6872307 0.20757791 0.03080659
0.11743649 0.0552222 -0.63647896 0.29181802 -0.008228135 -0.6419689 0.035525635 0.0981588
-0.1839024 -0.45536715 0.14892226 -0.58009976 0.011261637 -0.48016837 0.15486585 -0.009907055

bias f4 [8]
00000000: be90 ab3d d34d d03d 52de aa3d 5b74 f93d
00000010: 5dac da3d e3c6 873d 2839 2d3e 8d5b df3d
0.08377217 0.10171094 0.083431855 0.12180396 0.10677407 0.066297315 0.16916335 0.10906134

weight f4 [1, 8]
00000000: 65eb 8fbe a753 073e e122 093e 4e44 97be
00000010: 9422 cb3d 1b9f 1e3e 2e95 973d ee31 ee3d
-0.2810928 0.13215505 0.13392211 -0.295443 0.09918705 0.15490381 0.07401501 0.11630617
