DL_PROJECT_FREIBURG/full_model_1.pth (torch_old, 9337 bytes, 5 tensors)

weight f4 [16, 8]
000000 9c 2d 5b 3d e1 f1 26 3e 89 b0 e1 bd 7d 64 a2 3e
       0.053510293 0.16303207 -0.110199995 0.3171729
000010 f7 7a 68 bf d1 c6 bf 3d 7b a7 ac 3e af a8 4a bf
       -0.9081263 0.09364093 0.33721527 -0.7916364
000020 56 d8 17 be 74 c6 d2 bb 19 93 89 3d 7f 57 c5 3b
       -0.1482862 -0.006432349 0.0671751 0.0060223932
000030 20 8f 4a 3e 60 18 67 3d 7b cc 74 bd 5b 44 1f 3f
       0.1978116 0.05641973 -0.05976532 0.6221368
000040 c2 24 21 bd 89 78 63 3c 5d 9f 3c 3d 61 67 fd 3d
       -0.039341696 0.013883718 0.04605042 0.123732336
000050 db fb dd bd d7 8f 92 3c f9 67 c8 bd 0d 2a 28 3f
       -0.10839053 0.017890854 -0.09785456 0.65689164
000060 c3 21 15 be 9f 06 b8 bd 0b cf ea bc 2e 93 37 be
       -0.1456366 -0.08985638 -0.028663179 -0.17927238
000070 b5 6b 7c 3e 3a 3b cf 3d c6 29 11 be 6e 76 11 3f
       0.24650462 0.101187184 -0.14176092 0.56821334
000080 f1 c2 e9 3c 07 86 bf bc 7c f7 f3 bb 8a d9 e5 3c
       0.028535338 -0.023379339 -0.007445274 0.028057832
000090 2a c1 88 3c 00 ff c5 bb 1f db 40 be b5 ac de 3e
       0.01669367 -0.0060423613 -0.18833588 0.4349114
0000a0 af 21 4a 3e 1b 4b c9 3d f7 56 51 be e3 6a 03 bf
       0.19739412 0.09828778 -0.2044333 -0.5133497
0000b0 98 f4 60 3e c9 d3 36 3e b0 13 35 3e 5c d2 3a 3d
       0.21968305 0.17854227 0.17683291 0.04561077
0000c0 69 11 33 be bb 67 9c bd 62 1d ca bc 7f 53 81 bd
       -0.1748711 -0.076369725 -0.024672214 -0.06314754
0000d0 ae 98 8b 3d e9 e7 08 bc 6b 65 99 be e6 cb 07 3f
       0.06816231 -0.008356073 -0.29960188 0.530455
0000e0 cb 87 5b bd 26 1d 82 3e c4 63 7f be 48 c1 62 be
       -0.0535963 0.25412863 -0.24940401 -0.22144043
0000f0 77 95 5f be c9 00 e8 bd 0c 05 58 3e f4 b2 73 be
       -0.2183436 -0.11328275 0.21095675 -0.23798734
000100 44 ec e8 3c ff bc d5 3c d4 69 15 3c d6 00 14 bd
       0.028432973 0.026091097 0.00911947 -0.03613361
000110 c1 52 af bf cf 52 88 bc 4b c8 05 bd ae fa 20 bf
       -1.369713 -0.016641049 -0.032661717 -0.62882507
000120 91 8a 64 bb 88 6e 16 3d c1 41 0c 3c cc 40 1c bd
       -0.003487263 0.036726505 0.008560599 -0.038147733
000130 e8 d7 7d bf 7a ad da bb 3e 96 3a bc ca 1d 24 bf
       -0.9915757 -0.006673512 -0.01138836 -0.64107955
000140 20 75 d0 bc 3c fd 28 3d 75 db cc 3d fc 67 04 bf
       -0.025446475 0.041257128 0.100027956 -0.5172117
000150 58 48 0a 3d 23 53 59 bd a9 e7 5f 3e 66 7a 54 bd
       0.0337604 -0.0530578 0.21865715 -0.05187454
000160 d9 9f 43 bd 65 0c 13 3d 18 ad 10 3d 01 82 f2 3d
       -0.047759864 0.035900492 0.035321325 0.118412025
000170 90 fb 4c 3e d2 d9 da 3c f9 5b ac bd 6d 5c 30 3f
       0.20017838 0.026715193 -0.0841598 0.6889103
000180 b7 8c dd bb b2 53 b8 3d 6e 15 81 bc 2c ba 98 3e
       -0.0067611593 0.090003386 -0.015757289 0.29829538
000190 1a b8 ba bc b8 17 01 3c 54 37 e9 3e a6 a6 0f bf
       -0.022792865 0.00787919 0.45550025 -0.5611366
0001a0 58 5a 88 bc 6f b2 93 bc 59 9e a5 bc 9f fb 17 3e
       -0.016644642 -0.01802942 -0.020217108 0.1484208
0001b0 1c ed ae 3d a7 e9 13 3d 8d 42 d0 be 9e 51 f3 3e
       0.08541319 0.0361115 -0.40675774 0.47523206
0001c0 95 26 2d 3d f4 8d 5b 3e 15 56 7f 3d a4 1a 13 3e
       0.042273123 0.2144087 0.062337954 0.14365631
0001d0 4f 87 ef bf a1 5c 5b bd b8 56 02 3e 3c d9 33 bf
       -1.8713168 -0.053555135 0.12728393 -0.7025335
0001e0 e2 ee 75 bc 2b 50 b1 bc 5e 89 72 3e fe 58 06 be
       -0.015010567 -0.021644672 0.23685214 -0.13119885
0001f0 fb 87 14 3e b1 97 99 be 44 4d 9a 3e 6f 2b 97 be
       0.14504997 -0.29998544 0.30137074 -0.29525325

bias f4 [16]
000000 fa 9d 60 be fa a4 5d be 44 e1 d1 be 54 2c 80 3d
       -0.21935263 -0.21644965 -0.40992177 0.06258455
000010 c6 a8 81 be f3 85 3d 3e ca 63 fa bd d3 da 86 be
       -0.25324076 0.18508129 -0.122260645 -0.26338825
000020 3b 07 fe 3e 16 85 04 3f 9d ed 0c 3d 6e d0 af be
       0.4961489 0.51765573 0.034406293 -0.34338707
000030 de d8 66 bd 43 12 be be 64 a7 5f 3e 10 4b a4 be
       -0.056359164 -0.37123308 0.21841198 -0.32088518

weight f4 [8, 16]
000000 10 03 f5 bd e0 5d 28 be 20 6c 8c bc cc c8 af bd
       -0.11963475 -0.1644206 -0.017141402 -0.08583221
000010 e8 2c 07 3d 1b 83 92 bc bf cb 46 be 30 da 4d be
       0.03300181 -0.017884782 -0.1941366 -0.20102763
000020 ed 21 15 bc 3e 34 79 be 1d ee 15 3b 9d 95 14 3e
       -0.009102327 -0.24336335 0.0022877522 0.14510198
000030 0e d2 2a be 4c 68 8b bd 30 87 37 be fc 6a 24 3e
       -0.16681692 -0.068070024 -0.17922664 0.16056436
000040 29 d8 d7 be a7 93 9e 3b e3 fc 93 3c e3 5d 02 3d
       -0.42157105 0.004839379 0.018064922 0.03182782
000050 02 3c bf 3d 06 c6 1b 3c 71 c8 36 3d 72 84 25 be
       0.093376175 0.009507662 0.04462475 -0.16163805
000060 35 8a 40 bf 28 e0 15 bf 3a 5a 07 3d 90 cd 57 3c
       -0.7521089 -0.5854516 0.03304503 0.0131715685
000070 76 49 bd be ba 1b 03 3e 2e 22 74 bf 34 2e 38 3e
       -0.3697011 0.12803546 -0.95364654 0.17986375
000080 4a bb 26 bf 60 79 51 bc ff 20 f1 3b 20 ca 73 3c
       -0.6512953 -0.012785286 0.00735867 0.014879733
000090 b3 e3 b2 3d aa a9 0d 3b ca 70 59 3d 30 6a 54 3e
       0.087348364 0.002161602 0.05308608 0.20743632
0000a0 c8 6d 4c bf 44 82 fd be 6a 07 94 3c b8 df a8 ba
       -0.7985501 -0.49513447 0.018069942 -0.0012884056
0000b0 44 b2 70 be f1 7b ca 3d 77 f5 76 bf 48 4e ad 3c
       -0.23505503 0.09886921 -0.964683 0.021155491
0000c0 c6 6c e2 3b 44 bc bf bc 8f 5c 8b 3d cd b6 d2 3d
       0.0069099395 -0.023405202 0.068047635 0.10288773
0000d0 ca 84 2e be fd 4e 11 3e d0 72 55 3d 13 64 c0 3c
       -0.17042843 0.14190288 0.052111447 0.02348522
0000e0 b9 50 61 be 50 9d 5d 3d b2 9b 6c be c1 93 b4 bd
       -0.2200345 0.054105103 -0.23106268 -0.08817244
0000f0 44 ae 37 be 66 3f 45 be 82 e0 08 3e 98 7e b1 3d
       -0.17937571 -0.19262466 0.13366893 0.08666724
000100 f7 1e 28 3f df 2a 50 bf ca f6 89 bf 23 e3 c0 be
       0.6567225 -0.81315416 -1.0778439 -0.37673292
000110 5e b6 16 bf ee cf b6 be 29 d1 36 bf 99 83 23 be
       -0.5887202 -0.35705513 -0.71412903 -0.1596817
000120 db 30 4c 3e 4e a0 0c 3e b8 da 24 bf e8 e1 89 bf
       0.19940512 0.13733026 -0.6439624 -1.0772066
000130 a6 e3 22 3e 90 df 8f bf fb 91 5b 3e 8c 74 d7 bc
       0.15907153 -1.1240101 0.21442406 -0.026300691
000140 0f 72 43 bf 12 98 8f 3d 59 58 e0 3d cf 72 46 3d
       -0.76345915 0.07011427 0.10954351 0.048449334
000150 ed 6e a4 3e db 59 11 3c 45 fb 98 3d cf ed 43 bb
       0.3211588 0.008871521 0.07469801 -0.0029896384
000160 ae f3 03 bf a2 f4 b5 be ab 5b 89 3d 08 88 b3 3d
       -0.515437 -0.35538203 0.067069374 0.0876618
000170 78 85 25 be 40 b1 31 3e 57 88 4b bf df 52 24 be
       -0.16164196 0.17352772 -0.79504913 -0.16047238
000180 6d 17 72 bf 06 99 e6 3c 6f 1a b0 3c eb 29 c9 bc
       -0.94566995 0.02814914 0.02149698 -0.02455612
000190 a9 57 f7 3d f5 f8 88 3d 52 cd 0a 3e 4e b4 13 3e
       0.12077267 0.0668811 0.13554886 0.1442425
0001a0 2a ce 1d bf 22 c8 e5 be fa 46 b4 3d 39 cf b7 3b
       -0.61642706 -0.44879252 0.088026 0.0056094197
0001b0 85 07 85 be 2f 66 9e 3e 15 28 97 bf 16 51 0d be
       -0.259823 0.30937335 -1.1809107 -0.13800463
0001c0 a7 31 11 bf 48 a8 b5 3c 4d c4 f2 3d bc 20 8e 3c
       -0.5671639 0.02217497 0.11853848 0.017349593
0001d0 07 d1 fd 3d d6 9b 0b 3d eb a5 03 3e c0 3c 06 be
       0.123933844 0.034084164 0.12856261 -0.13109112
0001e0 b0 04 e9 be 42 d2 a0 be 98 21 d9 3d 8f 48 8e 3d
       -0.4551139 -0.31410414 0.106021106 0.06947433
0001f0 c3 f0 65 be ca 8e 88 3e 00 31 13 bf ec 0c 1e 3e
       -0.22455125 0.2667144 -0.57496643 0.15434617

bias f4 [8]
000000 95 03 08 be 47 35 ba 3d 5b 65 dd 3d b0 33 8c be
       -0.13282616 0.09092193 0.10810348 -0.27383184
000010 ec 50 43 3e a4 62 f6 3d 32 6b 2a 3e f0 40 f5 3d
       0.19073838 0.12030533 0.16642454 0.119752765

weight f4 [1, 8]
000000 48 53 8e be 51 14 7b 3e 66 ad 5c 3e 68 c7 22 bb
       -0.27797914 0.24519469 0.21550521 -0.0024838094
000010 5d eb d9 be 8a ed e5 3d 66 a3 d9 3d 4d 68 ff 3d
       -0.4256238 0.112269476 0.10626869 0.12471066
