DL_PROJECT_FREIBURG/full_model_2.pth (torch_old, 12946 bytes, 5 tensors)

weight f4 [34, 17]
0	0x3da8cf49	0.082426615
1	0x3e5ad252	0.21369293
2	0x3d5497ec	0.051902696
3	0x3e0533d8	0.13008058
4	0xbf145e15	-0.5795606
5	0xbd756431	-0.059910003
6	0x3cae9581	0.021311523
7	0x3eaa66fe	0.33281702
8	0xbe8dffb4	-0.27734149
9	0xbd650280	-0.055910587
10	0xbd83f381	-0.06442929
11	0xbe711be2	-0.23545793
12	0x3dd0e1c3	0.10199311
13	0x3db904f4	0.09034148
14	0x3cbc5234	0.022988416
15	0xbe8992d8	-0.26869845
16	0xbe071a26	-0.13193569
17	0xbd09a381	-0.033603195
18	0xbc647b5c	-0.013945427
19	0x3daa0047	0.08300834
20	0x3d2de648	0.04245594
21	0xbd319999	-0.043359373
22	0x3ce790f9	0.02826737
23	0xbe0064ef	-0.12538503
24	0xbe443e28	-0.19164336
25	0x3ea14ab4	0.31502306
26	0x3d2bc221	0.041933183
27	0x3dddb4e4	0.10825518
28	0xbdcedf71	-0.10101212
29	0x3e84b88c	0.25922048
30	0xbdcd16b7	-0.10014098
31	0x3e3bf42c	0.18354863
32	0x3e873816	0.26409978
33	0xbd865939	-0.065599866
34	0x3d3f8b13	0.04676349
35	0xbd224b7f	-0.03962278
36	0xbd792b8c	-0.060832545
37	0xbe263e62	-0.16234735
38	0xbc83ae7a	-0.016074408
39	0xbdaac8be	-0.0833907
40	0xbd346602	-0.044042595
41	0xbe445429	-0.1917273
42	0xbcd5c636	-0.02609549
43	0x3e7e77ae	0.24850342
44	0xbc515ee7	-0.012778974
45	0x3e2bd1d7	0.16779266
46	0xbdad5396	-0.084632084
47	0x3e04f52a	0.12984148
48	0x3e490d6e	0.1963403
49	0x3deaaac9	0.11458356
50	0x3b536461	0.0032255875
51	0x3dab5545	0.08365873
52	0xbd843b2c	-0.06456599
53	0xbc1483ad	-0.009064597
54	0xbe420cd2	-0.18950203
55	0xbf235e52	-0.63815796
56	0xbd6381ce	-0.055543713
57	0xbe44d162	-0.19220498
58	0xbc5b3b72	-0.013380872
59	0xbea2b866	-0.3178131
60	0xbe3790c4	-0.17926317
61	0xbe3b1b7a	-0.182722
62	0xbd80dcf4	-0.062921435
63	0x3e6240e0	0.2209506
64	0x3d61a4ef	0.055088934
65	0x3d9a0101	0.07519723
66	0x3e3601a9	0.17774071
67	0x3b80a29f	0.003925636
68	0x3c941a52	0.018078957
69	0x3e1ae645	0.15126903
70	0xbd86a5fb	-0.06574627
71	0x3e3aa265	0.18226011
72	0xbe1c22fd	-0.15247722
73	0xba417ca7	-0.00073809404
74	0x3e88c593	0.26713237
75	0x3d8fdd0b	0.070245825
76	0xbe4f055a	-0.20216885
77	0xbe86930b	-0.2628406
78	0xbe616a0a	-0.22013107
79	0xbe58f389	-0.21186651
80	0x3e0a5e56	0.13512549
81	0x3e61f366	0.22065505
82	0xbe80d19a	-0.25159913
83	0xbdb5fc6c	-0.08886036
84	0xbe1af84e	-0.15133783
85	0xbd35a122	-0.04434312
86	0xbd5570a5	-0.05210938
87	0xbc06e603	-0.00823355
88	0xbe568bab	-0.20951717
89	0x3b4e2ee9	0.0031461066
90	0xbd892a47	-0.06697517
91	0x3c217b3b	0.009856041
92	0xbe540f41	-0.20708944
93	0xbdde7808	-0.10862738
94	0xbe142ddc	-0.14470619
95	0x3c7f12d5	0.015568455
96	0xbd685c06	-0.056728385
97	0x3dc87a34	0.097889334
98	0x3cd04deb	0.02542778
99	0x3c1febb4	0.009760786
100	0x3e31dab9	0.17368592
101	0x3d351f54	0.04421933
102	0x3d629552	0.055318184
103	0x3c74a71c	0.01493242
104	0xbaca1ea5	-0.001542051
105	0x3e1dfeb7	0.15429197
106	0xbe291299	-0.16511
107	0x3ca766f2	0.02043483
108	0xbe21e4ed	-0.15809985
109	0xbe14ccfe	-0.14531323
110	0x3eb2364e	0.34807056
111	0x3e0e58b6	0.13901028
112	0x3e080c0a	0.13285843
113	0xbdc008c9	-0.09376676
114	0xbde14e2e	-0.1100124
115	0xbd4059bb	-0.046960574
116	0x3cf64eb3	0.030066824
117	0x3e3a9bdc	0.18223518
118	0x3d47fb78	0.048823804
119	0x3e0fc478	0.1403979
120	0x3dcd370e	0.100202665
121	0xbc842903	-0.016132837
122	0xbe82fdff	-0.2558441
123	0x3e14af9f	0.14520119
124	0x3d45c4b5	0.048283298
125	0x3e210915	0.15726121
126	0x3d7de3a2	0.061984666
127	0x3e4cf10f	0.20013832
128	0xbdb44ad1	-0.088033326
129	0xbe2b3e6e	-0.16723034
130	0xbe5b62ef	-0.21424459
131	0xbd0e53bd	-0.034747828
132	0x3e615fac	0.22009152
133	0x3d01e756	0.03171476
134	0x3d8b9ac0	0.068166256
135	0xbd50c7d7	-0.050971832
136	0x3d56b9e3	0.05242337
137	0x3ce200cd	0.027588272
138	0x3d49ea8b	0.049295943
139	0x3e73ec1f	0.23820542
140	0xbd0fe8df	-0.035134193
141	0x3d23a912	0.03995616
142	0xbe6c643e	-0.23085114
143	0xbb4f2a2f	-0.0031610837
144	0x3d1c3d10	0.03814417
145	0x3de1fef6	0.11034958
146	0x3e37bc48	0.17942917
147	0x3de1877e	0.11012171
148	0xbe1cf9fc	-0.15329736
149	0xbd171fdf	-0.03689563
150	0xbe748972	-0.23880556
151	0x3d855e77	0.06512158
152	0x3e231fa5	0.1593004
153	0xbc7d6d50	-0.015467957
154	0x3cabe8b0	0.020984977
155	0xbdc843d4	-0.09778562
156	0x3e0cfc06	0.13768014
157	0xbe5f80ed	-0.21826525
158	0x3c3f2b40	0.011668026
159	0x3dc0b648	0.094097674
160	0xbe54f74f	-0.20797466
161	0xbd8727c4	-0.065993816
162	0xbdcad122	-0.0990317
163	0x3e64038a	0.22266975
164	0x3d971c04	0.073783904
165	0x3c708060	0.0146790445
166	0xbe0e9a86	-0.13926134
167	0x3e392902	0.1808205
168	0xbde391f0	-0.1111182
169	0xbe3d32fe	-0.18476483
170	0xbde025b0	-0.10944688
171	0xbd24e048	-0.040252954
172	0xbb0c5a64	-0.0021416182
173	0xbceacf96	-0.028663438
174	0x3d09853f	0.03357434
175	0xbd22c074	-0.03973432
176	0xbe36c6d2	-0.17849281
177	0x3d2883e1	0.041141395
178	0x3e2a7b0c	0.16648501
179	0xbc4b10ee	-0.012394173
180	0x3bf69194	0.0075246785
181	0x3da7952d	0.0818275
182	0xbe15fd6c	-0.14647454
183	0xbdf59b5e	-0.119925246
184	0x3d3ef337	0.046618666
185	0x3e5a3aaa	0.21311441
186	0x3e6e764f	0.23287319
187	0x3cb882a9	0.022523241
188	0xbd65a541	-0.0560658
189	0x3d030f7f	0.0319972
190	0x3bdf7940	0.006819874
191	0xbd2b30f7	-0.041794743
192	0xbb1516ab	-0.0022749107
193	0xbe62aca0	-0.22136164
194	0xbc995866	-0.01871891
195	0x3e72d4c7	0.2371398
196	0x3d0a25e9	0.03372756
197	0x3a186272	0.00058130093
198	0x3e3efe03	0.18651585
199	0x3da34182	0.07971479
200	0x3e424234	0.18970567
201	0x3db722a9	0.08942158
202	0xbe4eb6ab	-0.2018687
203	0x3c3842c5	0.011246388
204	0x3d8f0828	0.069839776
205	0x3cc8eef4	0.024528004
206	0x3dd1d4b9	0.10245652
207	0xbe167026	-0.14691219
208	0x3b92d712	0.004481205
209	0x3e47acbd	0.19499488
210	0xbe381326	-0.17976055
211	0x3d85fc63	0.065422796
212	0x3d9c8959	0.076433845
213	0xbe5acc1a	-0.21366921
214	0xbdc31d25	-0.09527043
215	0xbd9d93a6	-0.07694177
216	0xbe0f41bb	-0.13989918
217	0x3b91312d	0.004430911
218	0x3d1a49e7	0.037668135
219	0x3dcb1416	0.099159405
220	0x3dcc91bd	0.09988735
221	0x3e217871	0.15768601
222	0xbd191296	-0.03737124
223	0xbcadb4cf	-0.02120438
224	0xbe30f4d5	-0.17280896
225	0x3db79337	0.08963626
226	0x3d26c15b	0.040711742
227	0xbdf2907b	-0.11843964
228	0x3ddc8b3a	0.10768743
229	0xbd09a9e6	-0.033609293
230	0xbd180f7e	-0.03712415
231	0x3e2ff23e	0.17182252
232	0x3dfa75ee	0.122295246
233	0x3e11525d	0.14191575
234	0xbdac7359	-0.08420438
235	0xbca790ad	-0.020454729
236	0xbad3b3a6	-0.0016151562
237	0x3dd8c08b	0.105836
238	0x3d9f2d98	0.07772368
239	0x3cb98922	0.022648398
240	0xbcdba61f	-0.026812611
241	0xbd33d8de	-0.043907993
242	0xbcf21cdb	-0.029554775
243	0xbd68dd4e	-0.056851678
244	0xbe112cb6	-0.14177212
245	0xbd657073	-0.056015443
246	0x3e6a0959	0.22855128
247	0x3c88a7d7	0.016681595
248	0x3e3c6a7d	0.18399997
249	0x3db372ad	0.08762107
250	0xbd960f30	-0.073271155
251	0x3e4edcf5	0.20201476
252	0x3e33f240	0.1757288
253	0xbe3b50c6	-0.18292531
254	0x3b8591ac	0.0040762033
255	0xbd801e50	-0.06255782

bias f4 [34]
0	0x3e684d2d	0.2268569
1	0xbe61dd11	-0.22056986
2	0xbe749f85	-0.23888977
3	0x3e88b9a2	0.26704127
4	0x3e997269	0.299701
5	0x3dded70c	0.10880861
6	0xbe57a813	-0.21060209
7	0xbd96f79a	-0.07371445
8	0xbe6e53a0	-0.23274088
9	0xbe6e5a89	-0.23276724
10	0xbe7939c3	-0.2433844
11	0xbe900cf2	-0.28134876
12	0xbe209276	-0.1568087
13	0x3b4b1ed2	0.0030993712
14	0xbea4f79b	-0.32220158
15	0x3e0d6027	0.1380621
16	0xbe78483a	-0.24246302
17	0xbdbe5330	-0.092932105
18	0xbdf740b5	-0.12072889
19	0xbeb1a23d	-0.3469409
20	0x3d4b43d3	0.04962523
21	0xbe1c85df	-0.15285443
22	0xbe625510	-0.22102761
23	0xbe460882	-0.19339183
24	0x3dc85bf8	0.09783167
25	0xbe28e5d6	-0.16493925
26	0x3e4e8a8f	0.20170043
27	0x3d299ca9	0.04140917
28	0xbdf655dc	-0.12028095
29	0xbeb0f021	-0.34558204
30	0x3e430552	0.19044998
31	0x3d5f28af	0.05448216
32	0xbda652ff	-0.08121299
33	0x3d55c9ea	0.052194513

weight f4 [16, 34]
0	0x3e013585	0.12618072
1	0xbecc2d03	-0.3987809
2	0xbd816480	-0.06317997
3	0xbded67e7	-0.115920834
4	0xbd7d68ef	-0.06186765
5	0xbe13dc62	-0.14439538
6	0xbede92a5	-0.43471256
7	0xbe42bfd1	-0.19018485
8	0xbea94d14	-0.33066618
9	0x3bcaa240	0.0061838925
10	0xbc5e4474	-0.013566125
11	0x3cb9dba3	0.022687739
12	0x3da9a451	0.08283294
13	0xbe81068c	-0.25200307
14	0xbe5be087	-0.21472369
15	0xbe81903d	-0.25305358
16	0x3d3bb5c8	0.045827657
17	0xbdc22f62	-0.09481694
18	0xbe123aa8	-0.14280188
19	0xbe8c7f73	-0.27440986
20	0x3e1015cd	0.14070816
21	0xbed5eb65	-0.41781154
22	0xbe20a4a6	-0.15687808
23	0xbe866aae	-0.26253265
24	0xbe0568f6	-0.1302832
25	0xbd5129ac	-0.051065132
26	0xbd7620b8	-0.060089797
27	0xbe0b6e4e	-0.13616297
28	0xbd8eaa7f	-0.06966113
29	0xbe0eb35f	-0.13935612
30	0x3cb75742	0.022380475
31	0xbe927ea8	-0.28612256
32	0xbdf8d65c	-0.12150261
33	0x3e8a8c0e	0.27059978
34	0xbe0dc36d	-0.1384408
35	0x3d2d3d93	0.04229505
36	0xbc79c577	-0.015244833
37	0xbe34cb9b	-0.17655794
38	0xbe4ef5bb	-0.20210926
39	0x3caedbb3	0.021344995
40	0xbd34cb23	-0.04413904
41	0xbd052c6b	-0.032513063
42	0x3e393106	0.18085107
43	0x3b7f3ec0	0.0038947314
44	0x3ddb8919	0.10719509
45	0x3e0cbb32	0.13743284
46	0xbb5a406e	-0.0033302563
47	0xbd9389f2	-0.07204045
48	0x3de0a2e9	0.10968573
49	0x3d0dbca2	0.034603722
50	0xbd113894	-0.035454348
51	0xbe56f83c	-0.20993131
52	0x3d424d28	0.047436863
53	0x3e356ebb	0.17718022
54	0x3bda88d2	0.0066691423
55	0x3d865216	0.065586254
56	0x3c39fc90	0.0113517195
57	0x3d22e919	0.03977308
58	0x3dfcb006	0.12338261
59	0x3d932d8a	0.0718642
60	0xbe198043	-0.14990334
61	0x3e17b4cf	0.14815067
62	0xbd9b4a9f	-0.07582592
63	0x3c950513	0.018190896
64	0xbcb4375d	-0.021999056
65	0x3cb3194d	0.02186265
66	0x3c31decd	0.0108563425
67	0xbe43ad92	-0.1910918
68	0x3de8261a	0.11335392
69	0xbf013dd7	-0.50484985
70	0xbe04796c	-0.12936944
71	0xbebabcc8	-0.36472154
72	0x3e7b20b4	0.24524194
73	0x3d8bf067	0.068329625
74	0xbeb0a64d	-0.34501877
75	0xbe93eb27	-0.28890345
76	0xbee024b6	-0.43778008
77	0xba3a3600	-0.00071033835
78	0xbe3cc520	-0.18434572
79	0x3d1125ca	0.03543643
80	0xbdc0c63c	-0.0941281
81	0xbe8853d9	-0.2662647
82	0xbdb48383	-0.08814146
83	0xbe153fe2	-0.1457515
84	0xbd166734	-0.036719516
85	0xbcfacfcb	-0.030616662
86	0xbe8f3f80	-0.27978134
87	0xbe2755af	-0.1634128
88	0x3d1ee9c7	0.038797166
89	0xbf2a51f5	-0.66531307
90	0x3bb08e40	0.0053880513
91	0xbe424c26	-0.18974361
92	0x3dbd489e	0.09242366
93	0x3d4acd28	0.04951206
94	0xbee15fb0	-0.44018316
95	0xbe53d2ae	-0.20685837
96	0xbd260bd3	-0.04053862
97	0xbe432d6e	-0.19060299
98	0x3df5bb1d	0.1199858
99	0xbec348da	-0.3814152
100	0xbe4acdcc	-0.19805068
101	0x3d400f16	0.046889387
102	0xbe63bfb5	-0.22241099
103	0xbc00cb18	-0.007860921
104	0x3ce89ef4	0.028396107
105	0xbd89a0e2	-0.06720139
106	0xbe9847de	-0.2974233
107	0x3d370113	0.04467876
108	0xbc2e0832	-0.010622071
109	0x3d58798c	0.05285029
110	0x3ddf6523	0.10907962
111	0xbdc92aa0	-0.09822583
112	0xbcf2ff34	-0.029662706
113	0xbb863e43	-0.0040967776
114	0x3d4436fb	0.047903996
115	0xbc56b452	-0.013104515
116	0xbd443c38	-0.04790899
117	0xbd039e2a	-0.03213326
118	0xbe11d579	-0.1424159
119	0xbe93e211	-0.28883412
120	0xbb692012	-0.0035572094
121	0x3e6b0d00	0.22954178
122	0x3d9cb0df	0.07650923
123	0x3c3844d6	0.0112468805
124	0x3df3824e	0.11890088
125	0x3d647cb7	0.055783
126	0x3d0bea94	0.034159258
127	0x3e27c765	0.16384657
128	0xbd2cedde	-0.042219035
129	0x3de40557	0.11133831
130	0xbbdf955c	-0.006823225
131	0x3dba7645	0.091045894
132	0xbe673d60	-0.22582006
133	0x3cc35b11	0.023847135
134	0x3de589dc	0.11207935
135	0xbe9e54e9	-0.30924156
136	0xbe028f52	-0.12749985
137	0xbcb6ca1c	-0.02231317
138	0x3c2b2a96	0.010447165
139	0xbe48e52c	-0.19618672
140	0xbe3c9f3e	-0.18420121
141	0xbd6e65c3	-0.058202516
142	0x3d8979a7	0.067126565
143	0x3df5e7d3	0.120071076
144	0x3e073434	0.13203508
145	0xbd9bd93a	-0.07609792
146	0x3de1266e	0.10993658
147	0xbda92500	-0.0825901
148	0x3c368564	0.011140201
149	0xbd0b9b64	-0.03408374
150	0x3d8f9f57	0.070128135
151	0xbbe8237f	-0.0070843096
152	0x3da8498e	0.082171544
153	0xbe482e75	-0.19548972
154	0x3de34fd8	0.11099213
155	0x3cd01867	0.025402261
156	0xbdd2a781	-0.10285855
157	0x3da8781d	0.08226035
158	0x3dafe39a	0.085883334
159	0xbafecc86	-0.0019439615
160	0x3cf2e6e8	0.02965112
161	0xbd022d54	-0.03178151
162	0x3e01bea8	0.12670386
163	0xbd09378c	-0.03350024
164	0xbb8a781a	-0.004225743
165	0x3e831d01	0.25608066
166	0xbdd6bebf	-0.10485601
167	0x3ca50029	0.020141678
168	0x3cccfd9d	0.025023276
169	0xbe78f354	-0.24311572
170	0xbe239c5b	-0.15977614
171	0x3c1db072	0.009624587
172	0x3da1f55a	0.07908125
173	0xbe986571	-0.29764894
174	0xbe6e683a	-0.23281947
175	0xbd7b445d	-0.061344493
176	0x3d3aa6ec	0.045569345
177	0x3c173e47	0.009231157
178	0x3d41016b	0.047120493
179	0x3db95e8e	0.09051238
180	0x3d8b29c4	0.067950755
181	0x3dc61b9a	0.09673233
182	0xbe03c93f	-0.12869738
183	0x3d8703c3	0.06592514
184	0x3e0ae125	0.13562448
185	0x3d56236f	0.052279886
186	0x3d98ae44	0.074551135
187	0xbe5f3e63	-0.21801142
188	0x3bf3c51d	0.007439269
189	0x3e2427e2	0.16030839
190	0xbd4ae4a7	-0.049534466
191	0xbcb49805	-0.022045145
192	0x3e125261	0.14289238
193	0x3b84ad46	0.004048976
194	0x3dc9be32	0.0985073
195	0x3d93d406	0.07218175
196	0x3e184cc1	0.1487303
197	0xbd2e47a1	-0.04254878
198	0xbe09a664	-0.13442379
199	0x3e3ffc9d	0.18748708
200	0xbe02c3c3	-0.1276999
201	0xbd90fd27	-0.07079535
202	0x3c064320	0.008194715
203	0xbe3c13f3	-0.18366985
204	0x3e7dd94b	0.24789922
205	0xbe06ec22	-0.13176015
206	0xbdd91e8d	-0.1060153
207	0xbd5c303c	-0.053756937
208	0x3e530620	0.20607805
209	0x3d968e42	0.07351352
210	0xbe6acbc9	-0.229293
211	0xbde43630	-0.11143148
212	0xbde18b62	-0.11012913
213	0xba86f180	-0.0010295361
214	0xbdf6320b	-0.12021264
215	0xbe6dcbd5	-0.23222287
216	0xbd7333b3	-0.059375476
217	0x3dfce307	0.123479895
218	0xbe871ead	-0.2639059
219	0x3d90a7b0	0.07063234
220	0x3e09af95	0.13445885
221	0x3d09497f	0.033517357
222	0xbde8565c	-0.11344597
223	0xbd181654	-0.03713067
224	0x3e11bec9	0.14232935
225	0xbdb817e0	-0.08988929
226	0xbdfee3f9	-0.12445826
227	0xbe2506fe	-0.16115949
228	0x3dcde092	0.10052599
229	0xbd4e0a88	-0.050303012
230	0xbe8c9db7	-0.27464077
231	0xbe25122e	-0.16120216
232	0x3e1e34bb	0.15449803
233	0xbd503310	-0.050829947
234	0x3e177c65	0.14793546
235	0xbcd22b0e	-0.025655296
236	0xbde28d2f	-0.11062085
237	0xbe129f6a	-0.14318624
238	0xbe5c6e8b	-0.21526544
239	0xbc42c600	-0.011888027
240	0x3d6250d3	0.05525286
241	0xbe73ae4f	-0.23796962
242	0xbeabaf69	-0.33532265
243	0x3e22ea5d	0.15909715
244	0xbd1d01ea	-0.038331904
245	0xbc2a455b	-0.010392512
246	0x3e040acb	0.12894742
247	0x3e28c8fb	0.16482918
248	0x3d4394b9	0.047749255
249	0x3dc832da	0.09775324
250	0xbdaea3ce	-0.08527337
251	0xbcaf4a7c	-0.021397822
252	0x3d0aaa8f	0.033854064
253	0x3d3c869f	0.046026822
254	0x3dda0d5e	0.10647081
255	0xbeacafc8	-0.3372786

bias f4 [16]
0	0x3df4a8e1	0.119462736
1	0x3d8449a4	0.06459358
2	0x3dfc2879	0.12312407
3	0x3d1c0141	0.038087133
4	0x3d5cea7e	0.053934567
5	0x3d9e7b1d	0.07738326
6	0x3c3b6b77	0.011439196
7	0x3d905155	0.07046763
8	0x3df46cda	0.11934824
9	0x3dd9f145	0.10641722
10	0x3e1b3b78	0.15159404
11	0x3cb543eb	0.022127112
12	0x3e53b68f	0.2067511
13	0x3e68c75a	0.22732297
14	0x3d1b8abb	0.0379741
15	0x3d2a97fb	0.041648846

weight f4 [1, 16]
0	0xbeaedb73	-0.341518
1	0x3d5a33ae	0.05327194
2	0xbe87780a	-0.2645877
3	0x3dc1ac5c	0.09456703
4	0x3d9fda69	0.0780533
5	0x3d94e2a5	0.072697915
6	0xbe3b4fb8	-0.18292129
7	0x3db62cff	0.08895301
8	0x3d30428d	0.043032218
9	0x3da8de03	0.082454704
10	0x3d26a60f	0.04068571
11	0x3da18a03	0.07887652
12	0xbe9ba466	-0.30398864
13	0xbe80b178	-0.25135398
14	0x3df31981	0.11870099
15	0x3e0e3def	0.13890813
