DL_PROJECT_FREIBURG/full_model_2.pth (torch_old, 9337 bytes, 5 tensors)

weight f4 [16, 8]
00000000: 2c7a f9bd fddf 343d bf66 cdbc 3eb0 13bf
00000010: f0af ab3e 147b dbbc 83f4 0e3d ddba 2e3e
00000020: 2b32 a6be c557 cbbb 47a2 b4be 7021 2dbe
00000030: d2d3 173e ef63 3a3d c7fd 6fbe a515 f1bd
00000040: 44b2 0abe bb0d 683b 134c 38be d049 97be
00000050: ec0d 263e 584d 3f3d 547b 823d 5a51 e63d
00000060: d10b 11bc 4ca7 4bbd ffe0 f1bc ea56 7f3e
00000070: 05f5 443d 0b3e 36bb bd36 debe b68f cf3e
00000080: 580d aa3d d771 bf3c 8e16 b23b 1b1b 2c3e
00000090: 3aa2 c8bf 6104 213b 97a0 0f3e 696b 76bf
000000a0: 0949 a6bc ea79 66bc b5b3 0bbd f4d0 dfbd
000000b0: 9cf4 083e 36f9 f0bc 193d 0fbe 8340 043f
000000c0: 32ae 1d3d 10c3 833d f0ab f73b df5e 94bd
000000d0: 1715 0fc0 5386 17bd a64f cbbd 32ef 0ebf
000000e0: 6449 ad3d 608e df3d 9d55 27bd 58ae 8c3e
000000f0: 662f 79bf 1b25 1b3d 6624 c43e 5840 63bf
00000100: 517d b5bd 1260 76bd b0de 413c b709 063d
00000110: 9550 89bc db88 af3d 525b a4bd 6b7d 0a3f
00000120: e2a1 813d e940 a0be 720e adbd e420 ddbd
00000130: 1e4c afbe 94b3 1c3d b0c2 613e f015 903d
00000140: 8c7c ccbc 0cf7 84bc 94b6 ca3d e7d4 523d
00000150: ea1a 6d3b 4abe 8c3d 4616 aebd 347a 143f
00000160: 1b70 0a3d 94cf b4bd 7472 2bbd 13f4 21bf
00000170: aa0f 08be d3c4 9dbd 2325 debe 4161 833e
00000180: 1dbf 46bc f60e 8dbc 4ffb 43bb c203 34bd
00000190: b39c 963c 6f2d 64ba 9343 f1bd e289 303f
000001a0: 1c5d 27bd 21ff 973d 427f 413a 14e0 e33d
000001b0: 4cd0 9cbd eccd 943c 1556 2e3e ca21 22bf
000001c0: 7cd3 ef3b e40d a83e 2b19 b93d ac1d 133e
000001d0: 9338 94bf 7661 e73c 9fc7 403e 601c 5abf
000001e0: 13b3 2039 c1e8 27bb 3bbb adba 9028 2e3d
000001f0: a4b4 dbbd 9eab b1bc bb8d 7abd c4f4 243f
-0.121815056 0.044158924 -0.025073407 -0.576908 0.33532667 -0.026792087 0.034901153 0.1706347
-0.3246015 -0.0062055313 -0.35280058 -0.16907287 0.14826897 0.04550546 -0.23436652 -0.117717065
-0.13544565 0.0035408575 -0.1799777 -0.29548502 0.16216248 0.04670462 0.06371179 0.11245985
-0.008852915 -0.049720094 -0.029526232 0.24935499 0.04808523 -0.0027807977 -0.43401137 0.4053933
0.08303326 0.023369713 0.0054348176 0.16807215 -1.5674508 0.002456926 0.14026104 -0.96257645
-0.020298498 -0.0140671525 -0.03410693 -0.109285265 0.13374561 -0.029415708 -0.1398815 0.5166094
0.038496204 0.064336896 0.0075583383 -0.07244658 -2.2356622 -0.036993336 -0.09927301 -0.55833733
0.08461264 0.10915828 -0.04085313 0.27476764 -0.9733795 0.037877183 0.3830902 -0.88770056
-0.08861793 -0.060150214 0.011832878 0.03272411 -0.016762057 0.08571025 -0.080252305 0.5409762
0.06329705 -0.31299523 -0.08450021 -0.10797289 -0.3423776 0.038257197 0.22046924 0.07035434
-0.024961732 -0.016231082 0.09898105 0.05147257 0.0036179372 0.06872232 -0.08500342 0.5799897
0.03379832 -0.08828655 -0.041857198 -0.6326305 -0.13287225 -0.07703557 -0.43387708 0.25660136
-0.012130526 -0.017219048 -0.002990443 -0.043948896 0.018385267 -0.000870428 -0.11780467 0.6896039
-0.04086028 0.07421709 0.00073813286 0.11126724 -0.07656917 0.018164597 0.17025025 -0.6333281
0.007318912 0.32823098 0.090380035 0.14366788 -1.1579765 0.028244715 0.1882615 -0.85199547
0.000153255 -0.002562091 -0.0013254652 0.042519152 -0.10727814 -0.021688279 -0.06117032 0.6443598

bias f4 [16]
00000000: 07d4 ae3d c4a6 7d3c ca18 91be 4975 91be
00000010: 58c5 953e 16b1 36be f38f e93e c4d7 acbc
00000020: 9a41 7abe 3772 a6be 355c a9be 4dcd 4e3c
00000030: 131d 10be 6995 a33e d8ab 103c 64e6 b2be
0.08536535 0.015481655 -0.28339225 -0.28409794 0.29252124 -0.1784099 0.45617637 -0.021098979
-0.24439088 -0.32509014 -0.3307816 0.01262219 -0.14073591 0.31949928 0.008830033 -0.349414

weight f4 [8, 16]
00000000: 705a 63bd a29c 513e dcf4 133e 92cb 103e
00000010: 5154 293e d0bb 893c 6376 38bd d08c b0bd
00000020: 9e6f 4abe d015 81bc 8c3a 00be 441c b5bd
00000030: d07f a5bc a468 d0bd da6b 14be 70e8 e2bd
00000040: 7d3f 653d ece1 ec3d 2e2b fb3d b6d8 643e
00000050: b62a 41bf e49a 0e3e a628 bdbe 3853 03bf
00000060: bbac 423d ccab 6ebd 1ec3 ba3d f22d 2bbc
00000070: afea 63bd 85cc d5bd b137 b5be 6575 2a3e
00000080: 680f 48bf 418d 39be e768 e73d c677 16bf
00000090: ce51 7e3e 2cbb 8ebf 4b2e 703e 2da4 de3e
000000a0: 57a4 9dbf dc2f 133b 1458 6abf b619 c9be
000000b0: 7b11 e6be e168 0c3e 2a3e b93e e909 afbf
000000c0: 9c59 a73d f55f 183e c75d 3cbe a5b9 693e
000000d0: fd8e 81bf 6f9f 413e a9f8 13bf 3709 48bf
000000e0: 7429 933d 184a 463e 717b df3d 7799 263d
000000f0: 948f 4dbd 116d 2fbe 6479 d1be 940b e03d
00000100: f00e aa3d dd72 6cbd c617 5fbe 609d 703e
00000110: f440 5dbf 5f1f 303e eb62 f6be 9d2a 3ebf
00000120: 89bb 8c3d 3ad4 873e 416f 393d 20a9 453c
00000130: 47e5 f4bc 94ab 2fbe 96c1 dbbe 947f 123e
00000140: fb0c 4a3d 7b2d 3cbe d9d8 153e e1d4 6f3e
00000150: 77d0 7dbf 289e 073e 26cd e3be 10d6 4abf
00000160: 6e6b 213d acf3 a1bd 3b4d 0c3d 4e84 81bb
00000170: 5186 a2bd a7a5 30be ac31 4cbf de4e 0a3e
00000180: f017 58bd 02e1 393e 61ae b7bd 78bc 84bd
00000190: 609d 5dbd c26c 31be 2f0a afbd cccb 70be
000001a0: 1869 79bd 3750 7a3e 00a4 86bd ecea 29be
000001b0: 3c9d 1e3f 77d4 ac3d 2a3e 6a3d db9c 18be
000001c0: 509d 243d 4557 d1bd 8d62 66be de4d 433e
000001d0: f322 53bf 018b 933d 15b0 71bf 0c7b 15bf
000001e0: 34f8 613d 777a 00be 622c 613d 0425 063d
000001f0: 9831 26bd 7470 47bf acb8 6fbf 032b d73d
-0.05550617 0.20469907 0.14448875 0.14140156 0.1653607 0.016813189 -0.045034777 -0.08620608
-0.19769141 -0.015757471 -0.12522334 -0.08843282 -0.020202547 -0.101762086 -0.14494267 -0.1107949
0.05596875 0.11566529 0.12264095 0.22348294 -0.75455797 0.13926274 -0.36945075 -0.51298857
0.04752801 -0.058269307 0.09119247 -0.010447966 -0.055643734 -0.104394 -0.35394052 0.16646345
-0.7814851 -0.1812029 0.112993054 -0.5877651 0.24835894 -1.115087 0.2345516 0.4348463
-1.2315778 0.0022458946 -0.91540647 -0.39277428 -0.44935212 0.13711883 0.3618024 -1.3674899
0.081713885 0.14880355 -0.18395148 0.22824724 -1.0121762 0.18908475 -0.578013 -0.7813906
0.07185641 0.19364202 0.109122165 0.0406737 -0.050185755 -0.1713145 -0.40912926 0.10939708
0.0830363 -0.05772673 -0.21786413 0.23497534 -0.86427236 0.17199467 -0.48122343 -0.7428377
0.06871707 0.26529104 0.045272116 0.012064248 -0.029894484 -0.17155296 -0.42921132 0.1430648
0.049328785 -0.18376724 0.14633502 0.2342105 -0.9914622 0.13243926 -0.44492453 -0.79232883
0.039409094 -0.07907805 0.03425334 -0.0039525395 -0.07935775 -0.17250691 -0.79763293 0.13506648
-0.052757204 0.1815224 -0.08968807 -0.0648126 -0.054105163 -0.17326644 -0.08546864 -0.23515242
-0.06089124 0.24444662 -0.06574249 -0.16593522 0.6195867 0.08438962 0.05718819 -0.14903586
0.040189087 -0.102217235 -0.22498532 0.19072673 -0.82475203 0.07204247 -0.94409305 -0.5839088
0.055168346 -0.12546717 0.054973967 0.032750145 -0.04057464 -0.77905965 -0.9364116 0.10506251

bias f4 [8]
00000000: 1c97 8dbe 255e 003e 7126 263e 87c3 243e
00000010: dd3b c43d 6fc3 e93d a4aa 46be 4679 a03d
-0.2765435 0.12535913 0.16225602 0.16090213 0.095817305 0.11414229 -0.19401032 0.07835631

weight f4 [1, 8]
00000000: 522b f13d 63d1 0f3e bd7a c6be 620e d03d
00000010: 9f02 0d3e 9282 143e 2506 d43e b197 5a3e
0.11775841 0.14044718 -0.38765517 0.10158993 0.13770531 0.14502934 0.41410938 0.21346928
