restricted_(Post)Conditional_RNN_models/models/model1.pt (torch_old, 175284 bytes, 35 tensors)

rnn1.weight_ih_l0 f4 [33, 1]
-0.05674002 -0.054696225 0.03420428 0.0746165 0.05805632 -0.064388745 0.05542556 0.056178074
0.06714468 0.05432221 0.057206966 0.0888893 0.067226365 -0.06599783 0.04796496 0.049595393
0.059749085 0.05951008 0.07946471 0.10218062 0.09075567 0.09584013 -0.044927385 -0.15922002
-0.12877283 0.06655915 0.05157759 0.04550711 -0.102684386 0.05152571 -0.06602166 -0.06769468
0.045921657
00000000: 3968 68bd 2609 60bd c919 0c3d 89d0 983d
00000010: 77cc 6d3d 3fde 83bd e905 633d fb1a 663d
00000020: 2683 893d f780 5e3d da51 6a3d 980b b63d
00000030: faad 893d df29 87bd e876 443d 8a24 4b3d
00000040: 75bb 743d d7c0 733d 65be a23d 1344 d13d
00000050: 1cde b93d d447 c43d c705 38bd 930a 23be
00000060: 06dd 03be 2a50 883d 0643 533d aa65 3a3d
00000070: 314c d2bd 9f0c 533d 5d36 87bd 82a3 8abd
00000080: 5918 3c3d

rnn1.weight_hh_l0 f4 [33, 33]
0.047830857 -0.02665239 0.008514077 0.1177806 0.008622089 0.026213555 -0.026873104 0.034992002
0.03292335 -0.007578772 0.082468994 0.13224709 0.11240021 -0.100940645 -0.052469015 -0.09130551
0.027534295 0.022007762 0.12543751 0.12981409 0.059430975 0.1300592 0.04693487 -0.12075127
-0.115645945 0.10273363 0.06287437 -0.13022162 -0.11343614 0.014574107 -0.09580037 -0.053658593
-0.11899823 0.03933798 0.00045482523 0.032391697 0.08152853 -0.0083014695 0.046289813 -0.008550843
0.015361054 -0.0023430083 0.0062681916 0.06406864 0.10139709 0.087619066 -0.07206976 -0.053339478
-0.053697877 0.004696417 -0.00026913048 0.100059845 0.09435226 0.1148479 0.115270086 0.060456235
-0.07428007 -0.07290058 0.07478603 0.056866 -0.08419811 -0.069927245 -0.0067742784 -0.06914141
-0.06430449 -0.07144313 0.01030463 0.022139195 -0.010049064 -0.02343703 -0.0073697474 0.011822187
-0.017949192 -0.018200487 0.005220336 -0.003486702 0.0013383952 -0.021777235 -0.043856096 0.042139623
-0.015597822 -0.002720056 -0.016501363 -0.016421583 -0.04286204 -0.061549325 -0.012230799 -0.039467208
0.012084811 0.053783484 0.051487915 -0.044320624 -0.012618054 0.013148925 0.054524288 -0.016570289
0.0132125495 0.020644771 -0.0007317916 -0.0003343831 0.009053218 -0.009575461 -6.88968e-05 -0.011030089
0.034754187 0.008159501 -0.005389099 -0.0012690822 0.02259751 0.016525568 -0.022085438 -0.01103305
0.012958343 -0.0060054488 0.009815055 -0.01706361 -0.0023162079 -0.028993757 -0.052307997 -0.019067105
-0.03354528 0.0023476717 0.047331363 0.045055214 -0.024214497 -0.0034363086 0.047939382 0.045330647
-0.0013659042 0.0071408316 0.038937207 0.036430668 0.15572785 0.1557083 -0.11078775 -0.12623148
-0.08346401 0.19748037 -0.1436013 -0.1567385 0.07797318 -0.13296175 -0.13953686 -0.108671896
-0.12934606 0.13099259 -0.14245234 -0.15096465 -0.04234857 -0.051150955 -0.123491146 -0.11920154
-0.12652838 -0.105345555 0.12551165 0.12572627 0.114516735 -0.13979843 -0.13714129 -0.10273875
0.120551884 -0.14190118 0.12076927 0.15983157 -0.12485595 0.079680994 -0.029799137 0.042464666
0.13380802 -0.047621686 0.068257004 -0.04431404 0.054121528 -0.031057596 -0.01697983 0.11984774
0.17323655 0.11984637 -0.11826284 -0.14363946 -0.117330104 -0.031676035 -0.032702673 0.13513163
0.10708629 0.19648445 0.18689181 0.14543115 -0.07167447 -0.08243041 0.10912897 0.09798432
-0.16026333 -0.08516998 0.00010471945 -0.12323823 -0.09413249 -0.15225224 0.09445375 0.10916153
-0.08344763 -0.12934211 -0.10335409 0.12042245 -0.1299082 -0.10835246 0.044374276 -0.1258243
-0.1331126 -0.09805947 -0.13188002 0.1280121 -0.11737565 -0.08254166 -0.060443364 -0.07603749
-0.14054064 -0.14780858 -0.059732288 -0.09578796 0.09932658 0.14773603 0.14860833 -0.1457479
-0.09972934 -0.05097856 0.14067622 -0.0919797 0.12049654 0.12228175 -0.06318843 -0.047381543
0.008484885 -0.043387827 -0.07341022 0.0010831321 -0.049946632 0.006023214 -0.019150885 -0.010178491
0.00093676324 -0.042357393 -0.08556141 -0.070082374 0.07547254 0.044485077 0.04911673 -0.01089391
-0.009673449 -0.08880907 -0.09334783 -0.07583593 -0.0892617 -0.048097458 0.07910445 0.07860823
00000000: 4aea 433d 1d56 dabc a17e 0b3c f536 f13d
00000010: aa43 0d3c cfbd d63c fc24 dcbc c653 0f3d
00000020: a2da 063d 5957 f8bb 81e5 a83d c86b 073e
00000030: 1532 e63d f8b9 cebd c0e9 56bd 62fe babd
00000040: 9a8f e13c 9f49 b43c b172 003e fced 043e
00000050: e56d 733d 3d2e 053e c73e 403d 714c f7bd
00000060: c8d7 ecbd 0266 d23d 47c4 803d d158 05be
00000070: 3551 e8bd 3cc8 6e3c fc32 c4bd 1dc9 5bbd
00000080: 58b5 f3bd dd20 213d 9c75 ee39 28ad 043d
00000090: 6ef8 a63d e302 08bc 639a 3d3d d618 0cbc
000000a0: eeac 7b3c 288d 19bb 6765 cd3b 6b36 833d
000000b0: 47a9 cf3d a071 b33d 4f99 93bd 7f7a 5abd
000000c0: 4ef2 5bbd 67e4 993b 151a 8db9 2dec cc3d
000000d0: c23b c13d 6035 eb3d b912 ec3d f5a0 773d
000000e0: 2620 98bd e64c 95bd 6b29 993d 53ec 683d
000000f0: 0f70 acbd 0436 8fbd c4fa ddbb 039a 8dbd
00000100: 13b2 83bd c750 92bd c0d4 283c 425d b53c
00000110: d4a4 24bc 04ff bfbc ec7d f1bb d9b1 413c
00000120: 2f0a 93bc 3019 95bc 5a0f ab3b 2781 64bb
00000130: 176d af3a 2c66 b2bc 73a2 33bd 999a 2c3d
00000140: 028e 7fbc f842 32bb de2d 87bc 8e86 86bc
00000150: 1b90 2fbd 251b 7cbd b063 48bc 5ea8 21bd
00000160: 5fff 453c 124c 5c3d fee4 523d 8b89 35bd
00000170: f4bb 4ebc 976e 573c dc54 5f3d 6abe 87bc
00000180: 7379 583c 391f a93c b4d5 3fba 2450 afb9
00000190: f353 143c 65e2 1cbc b07c 90b8 8cb7 34bc
000001a0: 685a 0e3d 6daf 053c 0a97 b0bb 5557 a6ba
000001b0: 6a1e b93c a160 873c 85ec b4bc f7c3 34bc
000001c0: 3b4f 543c 5bc9 c4bb 53cf 203c fcc8 8bbc
000001d0: 85cb 17bb 5184 edbc e940 56bd 9e32 9cbc
000001e0: c766 09bd 65db 193b 88de 413d d18b 383d
000001f0: 7b5d c6bc b133 61bb 165c 443d a1ac 393d
00000200: 2408 b3ba a3fd e93b 9f7c 1f3d 5338 153d
00000210: 1f77 1f3e ff71 1f3e b0e4 e2bd d342 01be
00000220: 2eef aabd 4b38 4a3e 380c 13be 0f80 20be
00000230: 67b0 9f3d 2027 08be c0e2 0ebe 5f8f debd
00000240: 4b73 04be ec22 063e 07df 11be 7a96 1abe
00000250: b275 2dbd aa83 51bd ede8 fcbd f01f f4bd
00000260: a890 01be 69bf d7bd 2086 003e 63be 003e
00000270: c087 ea3d 5227 0fbe c46e 0cbe b268 d2bd
00000280: e8e3 f63d 8b4e 11be e155 f73d e3aa 233e
00000290: 7ab4 ffbd ca2f a33d 521d f4bc 6eef 2d3d
000002a0: f804 093e f50e 43bd 54ca 8b3d a482 35bd
000002b0: 89ae 5d3d 806c febc 4919 8bbc bb72 f53d
000002c0: ec64 313e 0372 f53d ca33 f2bd 3916 13be
000002d0: c44a f0bd bbbe 01bd 3df3 05bd f25f 0a3e
000002e0: 0f50 db3d 3833 493e 9160 3f3e e7eb 143e
000002f0: 11ca 92bd 46d1 a8bd 027f df3d 01ac c83d
00000300: 121c 24be 996d aebd d49c db38 5364 fcbd
00000310: 89c8 c0bd 03e8 1bbe f870 c13d 1590 df3d
00000320: 97e6 aabd 4272 04be 4fab d3bd 0ca0 f63d
00000330: a806 05be e5e7 ddbd cdc1 353d 16d8 00be
00000340: ab4e 08be 67d3 c8bd 8e0b 07be 9b15 033e
00000350: a562 f0bd 9a0b a9bd 7693 77bd 8bb9 9bbd
00000360: e3e9 0fbe 225b 17be d8a9 74bd 7a2c c4bd
00000370: bc6b cb3d 1d48 173e c82c 183e f03e 15be
00000380: e53e ccbd e5ce 50bd 6d0d 103e da5f bcbd
00000390: e4c6 f63d db6e fa3d f068 81bd 2613 42bd
000003a0: 3004 0b3c 6fb7 31bd 1958 96bd e2f7 8d3a
000003b0: d794 4cbd 625e c53b 51e2 9cbc afc3 26bc
000003c0: 1e91 753a f27e 2dbd d23a afbd 5987 8fbd
000003d0: 5991 9a3d fc35 363d a02e 493d 5f7c 32bc
000003e0: 637d 1ebc 88e1 b5bd 262d bfbd de4f 9bbd
000003f0: d7ce b6bd d701 45bd 8401 a23d 5afd a03d

rnn1.bias_ih_l0 f4 [33]
0.08539546 0.06520406 -0.09659579 -0.13084592 -0.11397133 0.0039671846 -0.1508472 -0.093194045
-0.10916872 -0.17538966 -0.13078582 -0.2083671 -0.13170417 0.117556974 -0.035667572 -0.13701604
-0.09494287 -0.108551785 -0.1010589 0.0068251607 -0.24555238 -0.23790391 0.014201945 -0.025981586
-0.022841657 -0.07255658 -0.10199762 -0.24677849 -0.010983032 -0.08487937 0.12681642 0.059473556
-0.185305
00000000: d1e3 ae3d b589 853d 03d4 c5bd 79fc 05be
00000010: cd69 e9bd 28ff 813b b077 1abe 85dc bebd
00000020: da93 dfbd 5999 33be b8ec 05be 2f5e 55be
00000030: 75dd 06be b6c1 f03d 2918 12bd ef4d 0cbe
00000040: 6871 c2bd 6650 debd f8f7 cebd 99a5 df3b
00000050: 1572 7bbe 159d 73be 46af 683c 56d7 d4bc
00000060: 6d1e bbbc 8b98 94bd 21e4 d0bd 80b3 7cbe
00000070: 2df2 33bc 3cd5 adbd 2adc 013e 8b9a 733d
00000080: 98c0 3dbe

rnn1.bias_hh_l0 f4 [33]
0.085357234 0.065195024 -0.0965957 -0.13084587 -0.11648689 0.003966409 -0.14567484 -0.0931939
-0.10744836 -0.17492189 -0.13078575 -0.20836693 -0.13170417 0.117557 -0.035665683 -0.13694485
-0.10471172 -0.12124208 -0.10105889 0.006825206 -0.24570101 -0.23790145 0.014201678 -0.025981588
-0.022841668 -0.07255715 -0.10199742 -0.24674654 -0.010983039 -0.08481679 0.12681636 0.059472267
-0.18522435
00000000: c6cf ae3d f884 853d f7d3 c5bd 76fc 05be
00000010: ae90 eebd a6f8 813b c92b 15be 72dc bebd
00000020: e30d dcbd b91e 33be b3ec 05be 245e 55be
00000030: 75dd 06be b9c1 f03d 2e16 12bd 453b 0cbe
00000040: 1973 d6bd c54d f8bd f7f7 cebd faa5 df3b
00000050: 0c99 7bbe 709c 73be 28ae 683c 57d7 d4bc
00000060: 731e bbbc d898 94bd 06e4 d0bd 20ab 7cbe
00000070: 34f2 33bc 6db4 adbd 26dc 013e 3199 733d
00000080: 74ab 3dbe

rnn1.weight_ih_l0_reverse f4 [33, 1]
-0.00023877785 0.00038499344 0.0003636059 0.00038290923 -0.00011970613 -6.248447e-06 -0.00038612224 -0.00028386046
0.00026665465 0.0002539373 9.506244e-05 -3.608199e-05 0.00012313413 0.00020036232 0.00030261104 -0.0001115498
-0.00040974282 -0.00077150017 0.000115558774 -0.00030618414 0.00052909803 0.00022973328 0.00027147142 9.420896e-05
0.0003562203 -0.00013986883 0.00046617482 -0.0005891054 0.00022612094 -0.00012090462 -0.00023940697 -0.00014480462
3.0071533e-06
00000000: 7160 7ab9 f2d8 c939 5ca2 be39 35c1 c839
00000010: bd0a fbb8 c0a9 d1b6 7370 cab9 1bd3 94b9
00000020: c8cd 8b39 e322 8539 425c c738 be56 17b8
00000030: 911d 0139 5a18 5239 c4a7 9e39 d8ef e9b8
00000040: c0d2 d6b9 803e 4aba 2558 f238 5787 a0b9
00000050: 2bb3 0a3a 8fe4 7039 4754 8e39 0d92 c538
00000060: 14c3 ba39 c1a9 12b9 ed68 f439 326e 1aba
00000070: e11a 6d39 2c8e fdb8 5209 7bb9 b2d6 17b9
00000080: 80ce 4936

rnn1.weight_hh_l0_reverse f4 [33, 33]
-0.0057189437 0.0025504737 0.0026075193 0.0023475182 -0.0030572447 -0.004378582 0.012244765 0.005170525
0.0006510555 -0.00035990513 -0.0058810236 -0.007948688 0.0076374672 0.0020901954 0.0043614027 0.00295805
0.00017921283 -0.003643322 0.0034069996 0.006075619 0.0032966433 -0.006216307 0.005584394 7.7068325e-05
0.00019509508 -0.0005830961 -0.005569734 -0.004023299 0.008540267 0.008846809 0.0026504267 0.001942768
-0.0076502166 -0.006976643 0.010407623 -0.0100432765 -0.002640039 0.0061624604 0.0054126177 0.0037757636
0.0005462238 0.003998968 -0.0020845137 -0.005370558 -0.0059928205 -0.019726003 0.008360471 0.0041673416
-0.0044708787 0.01095657 0.011067689 -0.002595925 0.0025730124 -0.0022726324 0.0013853821 0.007272772
0.012852812 -0.015024694 0.0012758131 -0.0037300189 0.0008056891 -0.003906413 0.008258513 0.007970717
-0.0020543237 0.010512251 -0.00085366494 0.0074351374 -0.004031632 0.002609726 0.00012909103 -0.0033733184
0.012223831 0.0062307725 0.0040277257 -0.0050832713 -0.0076843 -0.0073085735 0.00043263033 0.0014569444
0.0010228608 0.007849527 -0.00014595425 0.0024099902 0.00026811493 0.011879445 -0.0012035732 -0.008770574
0.005245715 0.0018778087 0.00089408056 0.00079297967 0.0031718072 -0.0020942544 -0.0013993366 0.010864344
0.0067437235 0.0033224232 -0.0035985783 0.004028921 -0.000242715 -0.0016810969 -0.0024191802 0.0055304663
0.0050348784 -0.009424055 -0.0029305883 0.0003714652 -0.0008509247 0.004212995 0.0074662776 -0.009806934
-0.00014210245 -0.0033711854 -0.00040236677 0.0016959519 0.0036181486 -0.0031767236 -0.0020501437 -0.004994882
0.0045251823 -0.0029804148 0.0010647036 -0.00011655286 -0.0005650367 0.0071661132 0.0039051783 -0.01022084
-0.0053752856 0.0002574388 -0.0015160172 0.008878011 0.0037122336 -0.0072859456 0.0063553136 0.0031693177
-0.009470718 -0.0069884686 -0.007594244 -0.005235495 -0.0017741236 0.0011116533 0.0086207725 0.0050129285
0.0072949002 -0.004800677 -0.006040301 -0.009167556 -0.009978885 0.008378567 -0.0032925964 -0.008502689
0.006410025 0.0014289591 -0.01678552 -0.002104454 0.0052972655 0.010825751 0.01728353 -0.0009973461
-0.0042521395 -0.013422211 -0.010649867 -0.0034689922 0.006939734 0.0017414967 -0.004910224 0.0032443544
-0.00017280568 -0.0012526289 -0.003166361 -0.0014285459 -0.002609435 0.004082248 0.006712451 0.0021805346
0.0067325262 -0.00029124558 -0.0036401523 -0.012161953 -3.9272963e-06 0.0014491396 -0.0067448732 -0.0017081483
-0.0023144747 -0.00079115294 0.0019797364 -0.0051733823 0.0008829536 0.0019875858 -0.005231222 -0.006414061
-0.00069181365 -0.0016338491 -0.01312941 -0.0023758002 -0.0014507179 -0.0042115315 -0.003923659 -0.0037611653
0.0008290548 -2.7031621e-05 -0.003510469 0.004102856 0.0011947086 0.0020801865 -0.0074262638 0.00014824932
-0.0038031775 -0.0039821165 0.0059513324 -0.0029238383 0.013135394 -0.004590722 -0.002053965 -0.0009901011
0.00426892 -0.00775495 0.002748429 -0.0028845728 0.0041920356 0.00095001014 -0.003702038 -0.0011723003
-0.00468258 0.0022220854 0.011491531 0.0065624854 -0.0010107288 0.0067801974 0.0012508542 0.0010567678
-0.008124045 0.007986843 -0.002357351 -0.0056586196 -0.006999251 -0.0062121055 -0.0073752394 -0.00076078397
0.007839133 0.006882017 0.0056081167 0.006232859 -0.0046850843 -0.005542591 -0.015651045 -0.005635596
-0.0020231735 0.0005937491 -0.012340366 0.007171103 0.0076142456 -0.013779889 -0.0032276704 0.0003318511
00000000: fa65 bbbb d925 273b eae2 2a3b d2d8 193b
00000010: 0e5c 48bb 357a 8fbb 449e 483c 826d a93b
00000020: 98ab 2a3a a6b1 bcb9 9ab5 c0bb 373b 02bc
00000030: b843 fa3b a9fb 083b 19ea 8e3b d8db 413b
00000040: 14eb 3b39 cdc4 6ebb f847 5f3b fc15 c73b
00000050: 7f0c 583b 2ab2 cbbb 4bfd b63b be9f a138
00000060: 7092 4c39 ebda 18ba 5182 b6bb e1d5 83bb
00000070: 7aec 0b3c 35f2 103c c8b2 2d3b 7aa4 fe3a
00000080: abae fabb 539c e4bb bc84 2a3c 8e8c 24bc
00000090: 8104 2dbb 77ee c93b 545c b13b cd72 773b
000000a0: 7530 0f3a c609 833b 569c 08bb 81fb afbb
000000b0: 6c5f c4bb 6d98 a1bc 5bfa 083c 328e 883b
000000c0: 7380 92bb 2f83 333c 4155 353c 6520 2abb
000000d0: fc9f 283b 72f0 14bb b695 b53a 6f50 ee3b
000000e0: 9a94 523c 222a 76bc 2f39 a73a 5573 74bb
000000f0: e134 533a 5e01 80bb b74e 073c 9c97 023c
00000100: d5a1 06bb 943b 2c3c 7cc8 5fba 74a2 f33b
00000110: c81b 84bb f007 2b3b 9c5c 0739 e412 5dbb
00000120: 7746 483c 822b cc3b 03fb 833b 9291 a6bb
00000130: 95cc fbbb c27c efbb a9d2 e239 f1f6 be3a
00000140: 8311 863a 4d9b 003c 4c0b 19b9 edf0 1d3b
00000150: c791 8c39 01a2 423c 37c1 9dba 74b2 0fbc
00000160: 3fe4 ab3b ce20 f63a bb60 6a3a f7df 4f3a
00000170: 18de 4f3b c23f 09bb f269 b7ba 5d00 323c
00000180: 74fa dc3b 03bd 593b 20d6 6bbb 0a05 843b
00000190: 5081 7eb9 4058 dcba 1c8b 1ebb ea38 b53b
000001a0: 9ffb a43b 5a67 1abc 1d0f 40bb 37c1 c239
000001b0: 9710 5fba 2a0d 8a3b ada7 f43b 43ad 20bc
000001c0: 5601 15b9 1bef 5cbb c1f4 d2b9 b44a de3a
000001d0: 761e 6d3b 9430 50bb b45b 06bb 1bac a3bb
000001e0: fb47 943b 1053 43bb 868d 8b3a d76d f4b8
000001f0: f91e 14ba b7d1 ea3b 05ee 7f3b 4f75 27bc
00000200: 2a23 b0bb daf8 8639 19b5 c6ba 1475 113c
00000210: f248 733b f1be eebb 3c40 d03b 54b4 4f3b
00000220: 122b 1bbc 86ff e4bb 23d9 f8bb 848e abbb
00000230: b689 e8ba e5b4 913a 243e 0d3c 7e43 a43b
00000240: 0f0a ef3b ff4e 9dbb b8ed c5bb 8433 16bc
00000250: 7a7e 23bc 4246 093c 9ac8 57bb dd4e 0bbc
00000260: 300b d23b e94b bb3a c981 89bc e1ea 09bb
00000270: af94 ad3b 7e5e 313c 3196 8d3c 62b9 82ba
00000280: 8855 8bbb d5e8 5bbc c87c 2ebc 0858 63bb
00000290: b566 e33b ef42 e43a f2e5 a0bb 3c9f 543b
000002a0: 2c33 35b9 402f a4ba b982 4fbb 0c3e bbba
000002b0: 0e03 2bbb 61c4 853b 1ff4 db3b 4de7 0e3b
000002c0: 869c dc3b 52b2 98b9 9f8f 6ebb ee42 47bc
000002d0: 38c7 83b6 0ef1 bd3a 1904 ddbb f2e3 dfba
000002e0: 71ae 17bb 6065 4fba 77be 013b 7a85 a9bb
000002f0: 0376 673a 2842 023b ac6a abbb 0b2d d2bb
00000300: d45a 35ba e126 d6ba bd1c 57bc 50b3 1bbb
00000310: 0426 beba e300 8abb 0a92 80bb e27d 76bb
00000320: ed54 593a f7c1 e2b7 e60f 66bb 4071 863b
00000330: c597 9c3a bd53 083b 0458 f3bb 6073 1b39
00000340: bb3e 79bb 6a7c 82bb 6503 c33b de9d 3fbb
00000350: d635 573c c46d 96bb d19b 06bb 48c6 81ba
00000360: 4ce2 8b3b 3c1d febb fd1e 343b 1a0b 3dbb
00000370: 585d 893b 1a0a 793a e49d 72bb dfa7 99ba
00000380: 5470 99bb 68a0 113b f946 3c3c 1e0a d73b
00000390: 6e7a 84ba 6b2c de3b b4f3 a33a 3e83 8a3a
000003a0: b71a 05bc 3fdb 023c c97d 1abb f16b b9bb
000003b0: f959 e5bb eb8e cbbb feab f1bb 596f 47ba
000003c0: b56f 003c 8b82 e13b 4bc4 b73b 033d cc3b
000003d0: 5685 99bb a09e b5bb 9f36 80bc ceaa b8bb
000003e0: 3897 04bb d4a5 1b3a 3f2f 4abc 92fb ea3b
000003f0: ec80 f93b 0bc5 61bc 5387 53bb 4dfc ad39

rnn1.bias_ih_l0_reverse f4 [33]
3.8068632e-05 -0.0003679688 0.0005973918 0.00074513134 0.0009317143 0.00070835097 -0.0011567407 0.0005288699
-0.0012786586 -0.00048094906 -0.00080233096 -0.00024427247 0.00097569264 -0.00030887665 0.00069683086 0.0013705533
0.0013972186 -0.002755651 0.0020568764 0.0014327671 4.172576e-05 0.00019025592 0.00054737495 0.00090108183
0.0008573891 -0.000738936 0.001493988 0.00027156575 0.0016381305 3.610963e-05 -0.00015273968 -0.0009635872
0.0004338675
00000000: e2ab 1f38 f0eb c0b9 499a 1c3a eb54 433a
00000010: 4a3e 743a a1b0 393a c79d 97ba dca3 0a3a
00000020: aa98 a7ba e427 fcb9 8553 52ba b211 80b9
00000030: a0c5 7f3a b9f0 a1b9 87ab 363a 23a4 b33a
00000040: e022 b73a 2798 34bb a9cc 063b b0cb bb3a
00000050: b202 2f38 6f7f 4739 b67d 0f3a 9436 6c3a
00000060: 69c2 603a 28b5 41ba ebd1 c33a f060 8e39
00000070: 8ab6 d63a 6c74 1738 bf28 20b9 3e99 7cba
00000080: b678 e339

rnn1.bias_hh_l0_reverse f4 [33]
3.8066617e-05 -0.00036796872 0.00059738365 0.0007451274 0.00093170936 0.000708353 -0.0011567365 0.0005288728
-0.0012786542 -0.0004809552 -0.00080233294 -0.000244277 0.0009756924 -0.0003088765 0.0006968282 0.0013705429
0.0013972224 -0.0027556443 0.002056881 0.0014327711 4.1731393e-05 0.0001902538 0.0005473759 0.0009010815
0.0008573871 -0.00073893 0.0014940007 0.00027156674 0.001638143 3.610712e-05 -0.00015273616 -0.00096358475
0.00043387606
00000000: b8a9 1f38 edeb c0b9 bd99 1c3a a754 433a
00000010: f53d 743a c4b0 393a a39d 97ba 0ea4 0a3a
00000020: 8498 a7ba b728 fcb9 a753 52ba 4e12 80b9
00000030: 9cc5 7f3a b4f0 a1b9 59ab 363a caa3 b33a
00000040: 0123 b73a 0a98 34bb bdcc 063b d2cb bb3a
00000050: be08 2f38 de7e 4739 c67d 0f3a 8e36 6c3a
00000060: 46c2 603a c1b4 41ba 58d2 c33a 1261 8e39
00000070: f5b6 d63a ba71 1738 cd27 20b9 1499 7cba
00000080: dc79 e339

rnn1.weight_ih_l1 f4 [33, 66]
-0.07172782 -0.06892554 0.01839123 0.010442056 0.025374137 -0.10147873 0.020976 0.055491086
0.04765987 0.008605555 0.011760989 -0.017855989 0.014888871 -0.017081965 0.07112172 0.08626338
0.030489173 0.02346171 0.015885284 0.039456967 -0.09848902 -0.026240911 -0.07683063 -0.044427384
-0.042993385 0.020625077 0.04539708 0.115206346 -0.04272488 0.06284954 -0.014996303 -0.059236463
0.10730607 -0.00064335373 0.0031022963 0.0025636542 0.00029745616 0.0021292495 -0.0024218038 0.0010567965
-0.002992836 -0.0016335673 0.0019934918 -0.0012359254 -0.0011176437 -0.00073056616 -0.0014450217 0.0004011524
0.0011783382 -0.0011206842 -0.00059926615 -0.00095590384 -0.0007922176 -0.0018751384 0.00027853777 0.002203148
-0.0015299057 -0.00033997078 -0.0025414582 -0.00063158746 0.0022830258 -0.0009922052 0.00020517141 -0.00055794383
-0.00030303648 -4.1615873e-05 -0.06576151 -0.058030996 0.027984925 0.011901131 0.04136408 -0.07320798
0.039365552 0.053715933 0.06429837 0.033697158 0.016618097 0.0008667994 0.015338344 -0.01645991
0.055837218 0.07875255 0.046758965 0.043437894 0.014856449 0.019228688 -0.033578265 -0.0033759214
-0.0564671 -0.018332921 -0.018726334 0.017724643 0.04242982 0.10139629 -0.01979718 0.056747247
-0.016135253 -0.04472278 0.0934334 -0.00015491116 -0.00075125904 -0.00163915 -0.00026934245 0.0013682775
0.0030166006 -0.0017561907 0.001847031 0.0024368193 -0.0027387936 0.0017038853 -0.00136242 0.002523744
-0.00079371553 0.0012601513 0.0004960055 0.0001560148 0.00020655675 0.0011690563 -0.000743639 0.0008593681
-0.0020170528 -0.00067811675 0.0011310804 0.000354244 0.0014294727 -0.0007472224 0.001548452 -0.0010579884
3.6573627e-05 0.0030290184 0.0022112755 -0.0010494706 -0.063661784 -0.056021336 0.028610647 0.012687059
0.04108022 -0.07030666 0.039945483 0.052561287 0.060640167 0.035230536 0.017643267 0.00400552
0.01592939 -0.016853936 0.05256785 0.07374609 0.045817383 0.04299466 0.01510296 0.016680894
-0.022257525 0.00050344365 -0.05265645 -0.014977076 -0.015416778 0.017552262 0.04134991 0.09016571
-0.017058361 0.055097047 -0.016705375 -0.04309069 0.084207356 0.0003296247 -0.00076651806 -0.0013862103
-0.0005561735 0.0010243881 0.003228312 -0.0020735934 0.001657707 0.0026354305 -0.0025416748 0.0015468688
-0.0006228322 0.0022426117 -0.0010714683 0.0006503967 0.0010136819 -0.00020645489 -0.0007114555 0.0016730629
-0.000886548 0.0011207529 -0.0018285434 -0.0003257639 0.0013461522 -0.00015974049 0.0013800473 -0.0014377814
0.0017663458 -0.00034461648 -0.00058447383 0.0025557936 0.0014445169 -0.00039812017 -0.07139074 -0.06541199
0.023458503 0.012111403 0.034278546 -0.087505035 0.030371713 0.0571264 0.06064058 0.021560406
0.014511779 -0.0076668006 0.01587548 -0.01757184 0.064240366 0.087581046 0.039996017 0.034972742
0.01645305 0.028829357 -0.065602414 -0.013640183 -0.06782775 -0.029696422 -0.029489942 0.01953506
0.045734867 0.120656915 -0.030903157 0.061784916 -0.016421437 -0.05316005 0.11029269 -0.00059809117
0.00091453857 0.000121815756 0.0002077103 0.0020429308 0.00049672136 -0.00047854264 -0.00023487124 0.00061979867
-0.0007940788 0.00036253038 -0.0012398319 0.0010467897 -0.0010961605 0.0008514305 0.00040765438 5.58839e-06
0.00022481126 0.00024174525 -0.0006595256 -0.00055628445 -0.0009700596 0.00045473856 -8.099096e-05 0.0003135261
00000000: 09e6 92bd d528 8dbd 34a9 963c 2815 2b3c
00000010: 6cdd cf3c 15d4 cfbd dcd5 ab3c 9f4a 633d
00000020: ff36 433d 50fe 0c3c 2ab1 403c b946 92bc
00000030: 74f0 733c 7aef 8bbc 44a8 913d dbaa b03d
00000040: 6ec4 f93c c632 c03c db21 823c a19d 213d
00000050: 9cb4 c9bd 2ef7 d6bc 6159 9dbd 7df9 35bd
00000060: d519 30bd ecf5 a83c 4af2 393d 4ef1 eb3d
00000070: 4900 2fbd 42b7 803d 0eb3 75bc efa1 72bd
00000080: 49c3 db3d bda6 28ba e54f 4b3b fb02 283b
00000090: e4f3 9b39 e18a 0b3b 20b7 1ebb 3584 8a3a
000000a0: 7523 44bb 6c1d d6ba 3ea5 023b c6fe a1ba
000000b0: e67d 92ba 7783 3fba e266 bdba c451 d239
000000c0: 7872 9a3a ece3 92ba 1218 1dba 9f95 7aba
000000d0: d3ac 4fba 34c7 f5ba b508 9239 b162 103b
000000e0: 1e87 c8ba 1b3e b2b9 988e 26bb 1e91 25ba
000000f0: d19e 153b e20c 82ba 4823 5739 fa42 12ba
00000100: dee0 9eb9 b48c 2eb8 f8ad 86bd e9b1 6dbd
00000110: a440 e53c f6fc 423c 626d 293d 11ee 95bd
00000120: c63d 213d 3d05 5c3d ddae 833d 0806 0a3d
00000130: ad22 883c ec39 633a ad4d 7b3c efd6 86bc
00000140: 91b5 643d 0449 a13d 5486 3f3d efeb 313d
00000150: 7768 733c 7b85 9d3c 5d89 09bd 903e 5dbb
00000160: 0c4a 67bd ec2e 96bc f867 99bc 4533 913c
00000170: e4ca 2d3d dca8 cf3d b22d a2bc cd6f 683d
00000180: 142e 84bc 3c2f 37bd 035a bf3d a66f 22b9
00000190: 24f0 44ba bfd8 d6ba 8836 8db9 c657 b33a
000001a0: 29b2 453b fb2f e6ba 1318 f23a 0bb3 1f3b
000001b0: 557d 33bb e754 df3a 3b93 b2ba 6665 253b
000001c0: 5911 50ba a92b a53a 5e06 023a e797 2339
000001d0: 2897 5839 053b 993a c5f0 42ba 3847 613a
000001e0: 8830 04bb a5c3 31ba c340 943a d3b9 b939
000001f0: 255d bb3a 3fe1 43ba 6df5 ca3a 33ac 8aba
00000200: a266 1938 7f82 463b 0ceb 103b 648e 89ba
00000210: 1c61 82bd a176 65bd e060 ea3c 62dd 4f3c
00000220: bc43 283d f0fc 8fbd e09d 233d 814a 573d
00000230: d361 783d e54d 103d 9d88 903c bd40 833b
00000240: 5a7e 823c 4411 8abc 6351 573d 3108 973d
00000250: 02ab 3b3d 2b1b 303d 6872 773c 5fa6 883c
00000260: 6a55 b6bc 88f9 033a 4aae 57bd 6962 75bc
00000270: a796 7cbc c3c9 8f3c 865e 293d cda8 b83d
00000280: fabd 8bbc 71ad 613d b6d9 88bc dd7f 30bd
00000290: e874 ac3d 7ad1 ac39 28f0 48ba 80b1 b5ba
000002a0: 2ccc 11ba c344 863a 1692 533b 20e5 07bb
000002b0: 6b47 d93a 30b7 2c3b 3a92 26bb 4ec0 ca3a
000002c0: 9045 23ba c8f8 123b 8370 8cba 627f 2a3a
000002d0: 85dd 843a d07b 58b9 f880 3aba ad4a db3a
000002e0: 3b67 68ba 3ae6 923a bcab efba 4acb aab9
000002f0: 5f71 b03a 0380 27b9 b4e2 b43a f073 bcba
00000300: bb84 e73a a4ad b4b9 6037 19ba 1a7f 273b
00000310: f255 bd3a c9ba d0b9 4f35 92bd b9f6 85bd
00000320: 0c2c c03c e86e 463c a967 0c3d d735 b3bd
00000330: 19ce f83c 5ffd 693d 4262 783d 739f b03c
00000340: d0c2 6d3c c939 fbbb 4b0d 823c d2f2 8fbc
00000350: 7490 833d b15d b33d ddd2 233d 943f 0f3d
00000360: 8cc8 863c 8b2b ec3c 8f5a 86bd 137b 5fbc
00000370: 47e9 8abd e945 f3bc e494 f1bc fd07 a03c
00000380: 7c54 3b3d f91a f73d 9e28 fdbc 2e12 7d3d
00000390: 4086 86bc 5abe 59bd 22e1 e13d 38c9 1cba
000003a0: a5bd 6f3a 5677 ff38 cfcc 5939 b1e2 053b
000003b0: 6836 023a e8e4 fab9 c547 76b9 fc79 223a
000003c0: ba29 50ba 0112 be39 db81 a2ba 6f34 893a
000003d0: 0bad 8fba 8932 5f3a 72ba d539 e883 bb36
000003e0: 50bb 6b39 ff7c 7d39 04e4 2cba 9ed3 11ba
000003f0: 994b 7eba fa69 ee39 b1d9 a9b8 c360 a439

rnn1.weight_hh_l1 f4 [33, 33]
0.01946098 0.0048656757 0.002057268 0.015632031 0.050983604 0.016433032 -0.0065038623 0.025888506
-0.0026845133 0.000514398 0.019261038 0.031609043 0.0014198219 -0.005925835 0.006488881 0.0040711546
-0.009186902 -0.0075621093 0.020999767 0.12402594 -0.0011817942 0.017438592 0.0017482254 -0.0028118975
-0.009016568 -0.009238497 -0.001131495 0.0019523806 -0.0477258 0.024370877 0.02223041 0.046622302
-0.008137627 0.014030448 0.006803249 0.007931791 0.015159528 0.03649472 0.012916432 0.0018123443
0.01894275 -0.0023516824 0.006559162 0.013223249 0.028526329 0.00110581 0.0045280065 0.007940358
0.0030447468 0.002119624 -0.0022337355 0.020700494 0.044713482 -0.0043889643 0.01101587 -0.0010677254
-0.009112408 0.001588215 -0.007993205 0.007007658 0.004103576 0.0012868091 0.022201166 0.0056947577
0.026023224 -0.0040837745 0.015726183 0.008525258 0.012257743 0.016658554 0.03139528 0.015193155
0.003667698 0.020279342 -0.0018254161 0.0077866777 0.012291258 0.027346676 0.0018652738 0.0070167384
0.009616505 0.0033607422 0.005866807 -0.0013452731 0.01947904 0.04053815 -0.00409713 0.0100996
-0.0011793611 -0.0087775905 0.0046231225 -0.009129314 0.011002681 0.004021527 0.008021342 0.022256792
0.004592003 0.025175065 -0.0025009867 0.0125986375 0.0031259998 -0.00026247866 0.011873142 0.049000025
0.011257764 -0.004909263 0.019136755 -0.0034391126 0.0023746903 0.01628556 0.03219354 0.00030931004
-0.0022661183 0.0065754093 0.0039002604 -0.0075277872 -0.005346899 0.025606595 0.073794566 -0.0032117285
0.01468537 -0.00019794221 -0.005722097 -0.0073188557 -0.009677377 -0.0005337083 0.0042124745 -0.023898441
0.024015078 0.011757443 0.033301502 -0.008923847 -0.11924043 -0.14937544 -0.14414819 -0.14797124
0.08434666 -0.11615327 -0.13568044 -0.13400006 0.17777674 -0.0015336009 -0.1812291 -0.19405395
-0.0023330927 -0.093288094 -0.13894913 0.0005160759 -0.1287576 0.17089255 -0.12199793 -0.29305485
-0.112667285 -0.15710336 0.0025188085 0.0019995796 -0.13628061 0.0026808013 -0.13453476 0.0018969838
-0.09046532 -0.19101198 0.16220391 -0.13880019 -0.1403961 0.020373097 0.0055175764 0.004177472
0.01674107 0.051405698 0.017060021 -0.0036663336 0.026448948 -0.005252785 0.0011062209 0.01901173
0.035002317 0.0015160857 -0.0023158237 0.008768689 0.003858526 -0.0067783957 -0.00834708 0.027352761
0.11276503 -0.0014311218 0.017106269 0.0010397794 -0.0040053134 -0.0066246963 -0.009129882 0.0013320533
0.0027006953 -0.0388934 0.026545255 0.0151574295 0.04435371 -0.005515249 0.013599434 0.0051033343
0.008266438 0.015808929 0.032439526 0.0120960325 0.0035169446 0.017444314 -0.0038647063 0.0072893244
0.01421771 0.03023297 0.0007349098 0.00484673 0.006313827 0.0018768609 0.00314638 -0.0016870799
0.023002233 0.03940282 -0.0058226814 0.009843384 -0.0002986752 -0.01244488 0.0028029708 -0.0033971707
0.006938585 0.0056345672 0.007517133 0.0241208 0.001569601 0.023238106 -0.001704356 0.009941653
-0.000115187424 -0.005942875 0.0083717285 0.05543654 0.008357346 -0.009951624 0.01736792 -0.0025048223
0.0009635465 0.016489973 0.031559583 -0.0006016055 -0.007888422 0.0036012188 0.00451483 -0.013358506
-0.005830714 0.025556542 0.09007381 -0.003099856 0.015123851 -0.00015485229 -0.0038038257 -0.012585394
00000000: a26c 9f3c 3f70 9f3b 3bd3 063b bf0e 803c
00000010: 2fd4 503d 919e 863c 5a1e d5bb 2214 d43c
00000020: a9ee 2fbb aad8 063a 53c9 9d3c 7c78 013d
00000030: 5119 ba3a 822d c2bb aea0 d43b 5267 853b
00000040: a984 16bc 92cb f7bb b407 ac3c 5001 fe3d
00000050: 6fe6 9aba 61db 8e3c b624 e53a d047 38bb
00000060: 3aba 13bc 115d 17bc ac4e 94ba 06e7 ff3a
00000070: 217c 43bd 6fa5 c73c 8c1c b63c 07f7 3e3d
00000080: ae53 05bc f7df 653c caed de3b 58f4 013c
00000090: ab5f 783c 7d7b 153d 719f 533c 2f8c ed3a
000000a0: d32d 9b3c af1e 1abb 3dee d63b 54a6 583c
000000b0: 0cb0 e93c d4f0 903a ac5f 943b 4618 023c
000000c0: 608a 473b 64e9 0a3b dd63 12bb 1594 a93c
000000d0: 7c25 373d 4dd1 8fbb e87b 343c ebf2 8bba
000000e0: 364c 15bc a72b d03a eff5 02bc 7fa0 e53b
000000f0: 4a77 863b 26aa a83a 38df b53c 179b ba3b
00000100: a82e d53c 2fd1 85bb 32d4 803c 86ad 0b3c
00000110: b3d4 483c 8577 883c 5698 003d b6ec 783c
00000120: c35d 703b dd20 a63c cd42 efba 6327 ff3b
00000130: 4661 493c 2306 e03c 347c f43a abec e53b
00000140: 8c8e 1d3c e63f 5c3b 583e c03b e053 b0ba
00000150: 8292 9f3c 550b 263d 3841 86bb cb78 253c
00000160: cb94 9aba e2cf 0fbc 907d 973b 1e93 15bc
00000170: 9744 343c 03c7 833b f26b 033c e053 b63c
00000180: 8378 963b f03b ce3c 98e7 23bb 846a 4e3c
00000190: 93dd 4c3b 4a9d 89b9 9187 423c 40b4 483d
000001a0: 7c72 383c e2dd a0bb afc4 9c3c bc62 61bb
000001b0: b1a0 1b3b 4b69 853c 60dd 033d e42a a239
000001c0: 2883 14bb 8876 d73b 839b 7f3b a8ab f6bb
000001d0: 0a35 afbb ecc4 d13c 9b21 973d dd7b 52bb
000001e0: e89a 703c b58e 4fb9 6e80 bbbb 03d3 efbb
000001f0: dc8d 1ebc 8fe8 0bba cc08 8a3b aac6 c3bc
00000200: 45bb c43c 4aa2 403c 2867 083d 5435 12bc
00000210: 5434 f4bd e0f5 18be 959b 13be c685 17be
00000220: f1bd ac3d c4e1 edbd d0ef 0abe 5037 09be
00000230: 1b0b 363e 1b03 c9ba 1f94 39be 14b6 46be
00000240: cde6 18bb d40d bfbd ae48 0ebe 4449 073a
00000250: 08d9 03be 75fe 2e3e 0dda f9bd 490b 96be
00000260: 1bbe e6bd b4df 20be 9812 253b 610b 033b
00000270: 258d 0bbe 62b0 2f3b 7bc3 09be 37a4 f83a
00000280: e245 b9bd a598 43be c818 263e a321 0ebe
00000290: ffc3 0fbe 7be5 a63c c9cc b43b 2de3 883b
000002a0: 9224 893c c88e 523d 75c1 8b3c df46 70bb
000002b0: 77ab d83c 8e1f acbb 9dfe 903a 7dbe 9b3c
000002c0: 975e 0f3d 65b7 c63a 13c5 17bb 8caa 0f3c
000002d0: 53df 7c3b 4e1d debb 31c2 08bc e612 e03c
000002e0: 5af1 e63d 7b94 bbba 7222 8c3c 3549 883a
000002f0: 013f 83bb fb13 d9bb 8095 15bc 4b98 ae3a
00000300: 26fe 303b b04e 1fbd 6f75 d93c de56 783c
00000310: 3cac 353d 43b9 b4bb 29d0 5e3c df39 a73b
00000320: f46f 073c ba81 813c 4fdf 043d 702e 463c
00000330: 8a7c 663b 61e7 8e3c 0347 7dbb 49db ee3b
00000340: 66f1 683c 22ab f73c f6a6 403a 51d1 9e3b
00000350: 38e4 ce3b 0001 f63a 7f33 4e3b 0221 ddba
00000360: 2e6f bc3c da64 213d 31cc bebb 2546 213c
00000370: 8297 9cb9 9ce5 4bbc 0cb2 373b 11a3 5ebb
00000380: 125d e33b 2da2 b83b 4852 f63b fc98 c53c
00000390: 12bb cd3a d75d be3c b364 dfba 51e2 223c
000003a0: c790 f1b8 73bc c2bb 9329 093c 6d11 633d
000003b0: 40ed 083c 230c 23bc 2b47 8e3c f227 24bb
000003c0: 8396 7c3a fb15 873c 9f44 013d 10b5 1dba
000003d0: 713e 01bc 6d02 6c3b 24f1 933b a3dd 5abc
000003e0: 930f bfbb f45b d13c 9e78 b83d f426 4bbb
000003f0: 07ca 773c d85f 22b9 9b49 79bb f832 4ebc

rnn1.bias_ih_l1 f4 [33]
0.046733722 0.016509727 0.013536162 0.027644413 -0.03609176 0.040039107 0.015324764 0.03441386
0.03930453 0.0005479943 -0.022792483 -0.052023426 -0.00081991585 0.024719846 0.016174452 -0.0013676402
0.014412978 0.03338385 -0.069764525 0.09140911 -0.011436084 -0.020108895 -0.00034127393 0.0011361098
0.012401099 0.00032806234 0.01755219 0.0015585504 -0.024483332 -0.040552538 0.09189557 0.037599064
0.012278643
00000000: dc6b 3f3d 683f 873c c7c6 5d3c 8976 e23c
00000010: f4d4 13bd 0c00 243d b814 7b3c 8cf5 0c3d
00000020: c9fd 203d 46a7 0f3a 4db7 babc 8416 55bd
00000030: 9fef 56ba 4681 ca3c 4980 843c 6442 b3ba
00000040: 6924 6c3c 81bd 083d b4e0 8ebd b334 bb3d
00000050: 6a5e 3bbc 69bb a4bc 03ed b2b9 85e9 943a
00000060: fb2d 4b3c c8ff ab39 9cc9 8f3c 4648 cc3a
00000070: 4591 c8bc 6b1a 26bd bf33 bc3d 7a01 1a3d
00000080: 5d2c 493c

rnn1.bias_hh_l1 f4 [33]
0.046763774 0.017203918 0.013557877 0.02764628 -0.03961514 0.04003733 0.015348215 0.034671616
0.039305054 0.0005480011 -0.02311437 -0.046255305 -0.00081990624 0.024722626 0.016180227 -0.0013676449
0.014408376 0.033383735 -0.082937725 0.09148029 -0.011435344 -0.019766504 -0.00034127358 0.0011361038
0.01240917 0.00032806786 0.017720694 0.0015585468 -0.024173385 -0.04013709 0.09188879 0.037627377
0.012304942
00000000: 5f8b 3f3d 3bef 8c3c dc21 5e3c 747a e23c
00000010: 7c43 22bd 2ffe 233d 1477 7b3c d303 0e3d
00000020: 56fe 203d bba7 0f3a 595a bdbc 3476 3dbd
00000030: faee 56ba 1b87 ca3c 658c 843c 8c42 b3ba
00000040: 1c11 6c3c 62bd 083d 41db a9bd 055a bb3d
00000050: 4f5b 3bbc 5ded a1bc f7ec b2b9 51e9 943a
00000060: d54f 4b3c 8600 ac39 fd2a 913c 2748 cc3a
00000070: 4307 c6bc ca66 24bd 3130 bc3d 2a1f 1a3d
00000080: ab9a 493c

rnn1.weight_ih_l1_reverse f4 [33, 66]
0.002149399 0.0015106029 -0.0012228208 -0.00023553937 0.00064324046 0.0025226257 -0.00020029815 -0.0011255321
0.00050764787 -0.00019970365 -0.00028990174 0.00013345924 -0.00026460923 0.00027318945 -0.0021977257 -0.0020619577
0.00073308917 0.0007314113 -0.0002517636 -0.00020310469 0.0014474466 0.00022022043 0.0023199779 8.960818e-05
0.00012933393 -0.0003271578 -0.0005763562 -0.001389853 0.00020425065 -0.0017470294 0.0002666296 0.0006116559
-0.0015499875 0.0008125673 -0.000786752 -8.5943495e-05 -0.0010324405 0.0004117842 -0.00041779224 0.0009875403
0.001045045 -0.0009838662 5.567268e-06 -0.00067022693 0.00072327093 -0.00029656064 -0.00033606982 0.0001255246
-0.0007566186 0.0009185486 0.0009701184 0.00021747264 0.0009531475 -0.000378535 0.0003431829 8.5124775e-05
-0.00014812018 -0.0011594055 0.00024045339 -0.0012976325 0.0006193644 -0.00029075373 -6.239257e-05 -5.6394227e-05
0.00010238627 0.0005235919 -0.00070615753 -3.756675e-05 0.00073812995 0.0001019414 -0.00084565923 -1.836165e-05
0.0003392699 -9.114781e-06 -0.0014361078 0.00021474232 0.00015980008 2.3866858e-05 9.2774404e-05 -0.00016666006
0.0010581629 0.0015078014 -0.0011138662 -0.001093515 0.00025175477 0.00094676035 -0.00083466317 -2.0552528e-05
-0.0010237867 -0.0011827941 -0.0011172405 0.00033692818 0.00013828954 0.0022667218 -0.00097999 0.00042540635
-0.00014670781 0.0001401101 0.0020813788 -0.000102033824 0.00019186689 0.00030539345 0.0001526792 -0.00063206704
7.4172094e-05 -0.00027577035 -0.00036632537 -6.5837594e-05 0.00017614242 -5.0511677e-05 2.520022e-05 -0.00010797159
0.0005623843 -8.208237e-06 4.499037e-05 -0.00017036952 -0.00055745407 9.7966804e-05 -7.685527e-05 0.00018480943
8.578895e-05 0.00024613 0.00018405258 0.00010817297 -0.00011955321 9.0879556e-05 -0.00016386402 0.00023525846
-0.0001284921 -0.00025333147 -0.00031261775 0.00023019552 -0.00010115717 -0.00011168654 3.854114e-05 0.0006315598
-2.5220288e-06 -0.00026026412 -0.00054987584 0.00017836614 0.0002556464 -0.0005241182 0.0005494821 0.0011024015
0.00062907935 -0.00054544635 -0.0006436049 -0.0002931602 0.00025502997 0.00018216291 0.00036795862 -0.00025726896
0.0009738665 0.0012410469 0.0004718454 0.00037067197 0.00032335022 0.00016265496 0.00023102485 -0.0014858153
0.00028733103 8.404146e-05 -0.0005804698 -0.0003267374 -0.0012160363 1.8326406e-05 -0.00081736 -0.0007061799
-0.00018052517 0.00056292134 0.00045385328 5.292509e-05 0.0010448511 -0.00014628872 -0.0008077637 0.0001267798
1.1708553e-05 0.0004450015 -0.00029233345 0.00023192391 -0.0005834045 0.0008449792 0.0013192841 8.1247046e-05
0.00044923267 3.8407212e-05 -0.00017439233 -0.0005547128 -1.4485842e-05 -0.0004409011 0.0006529059 -0.00076359505
0.00071572856 -0.00024312575 0.00031864323 0.000677853 0.0006181367 -0.00031859148 -0.04037428 -0.04387851
0.016228706 0.026867634 -0.018729838 -0.048588403 -0.02308378 0.04092849 0.0024114375 -0.027520582
0.020785378 0.022431377 0.02676678 -0.027516574 0.030094815 0.04131194 -0.012477942 -0.015581772
0.029551266 0.021864839 -0.000112521666 0.022307854 -0.037235275 -0.015221282 -0.01816183 0.023494711
0.036849894 0.058181908 -0.021442687 0.039754357 -0.027424084 -0.04375874 0.05103555 -0.0027927011
-0.003854149 -0.003070111 0.0012368335 0.0021995432 0.0032323308 -4.5224107e-05 0.002635323 -0.001752352
-0.004032395 0.0012736237 -0.004527387 0.0032192678 0.0019494621 0.0037019895 -0.002355714 0.006606408
0.007650722 -0.00014942158 0.0042692753 0.0011896489 -0.0035853342 -0.0024732177 0.0020384355 0.0028086675
00000000: eedc 0c3b 6cff c53a 0f47 a0ba 1efb 76b9
00000010: 239f 283a a352 253b 2007 52b9 9786 93ba
00000020: ac13 053a 8a67 51b9 f4fd 97b9 31f1 0b39
00000030: 40bb 8ab9 de3a 8f39 b807 10bb e921 07bb
00000040: c82c 403a 2ebc 3f3a 23ff 83b9 80f8 54b9
00000050: 40b8 bd3a f9ea 6639 c50a 183b 06ec bb38
00000060: d09d 0739 6086 abb9 9c16 17ba ba2b b6ba
00000070: 1e2c 5639 94fc e4ba 6bca 8b39 8857 203a
00000080: f328 cbba 7802 553a 083e 4eba 903c b4b8
00000090: f452 87ba bde4 d739 200b dbb9 5b70 813a
000000a0: e4f9 883a 12f5 80ba 78ce ba36 2bb2 2fba
000000b0: e499 3d3a b27b 9bb9 8732 b0b9 419f 0339
000000c0: d157 46ba c1ca 703a 8b4f 7e3a 5e09 6439
000000d0: a5dc 793a 1c76 c6b9 3bed b339 0485 b238
000000e0: b550 1bb9 31f7 97ba 3722 7c39 5215 aaba
000000f0: d75c 223a 4e70 98b9 c2d8 82b8 d788 6cb8
00000100: 36b8 d638 a841 093a 6e1d 39ba fe90 1db8
00000110: 107f 413a 5fc9 d538 3baf 5dba 5807 9ab7
00000120: 09e0 b139 b0eb 18b7 c83b bcba 742c 6139
00000130: 0290 2739 b035 c837 e18f c238 78c1 2eb9
00000140: 0eb2 8a3a 6ba1 c53a 26ff 91ba 4654 8fba
00000150: f4fd 8339 0330 783a 4ccd 5aba 3868 acb7
00000160: 9530 86ba fc07 9bba 5f70 92ba bca5 b039
00000170: d101 1139 488d 143b 0273 80ba 1309 df39
00000180: 94d5 19b9 85ea 1239 be67 083b fefa d5b8
00000190: e02f 4939 371d a039 8318 2039 4db1 25ba
000001a0: d78c 9b38 4595 90b9 5c0f c0b9 4a12 8ab8
000001b0: dfb2 3839 80dc 53b8 0f65 d337 ce6e e2b8
000001c0: f96c 133a 1cb6 09b7 0bb4 3c38 38a5 32b9
000001d0: 1c22 12ba 8773 cd38 5c2d a1b8 67c9 4139
000001e0: 98e9 b338 020b 8139 3dfe 4039 ecda e238
000001f0: a4b8 fab8 9796 be38 ead2 2bb9 b6af 7639
00000200: d6bb 06b9 93d1 84b9 d8e6 a3b9 a460 7139
00000210: 5824 d4b8 4139 eab8 3ca7 2138 438f 253a
00000220: 2040 29b6 0f74 88b9 8b25 10ba cc07 3b39
00000230: 4708 8639 fa64 09ba 1f0b 103a 757e 903a
00000240: cde8 243a 49fc 0eba 98b7 28ba 4cb3 99b9
00000250: 8bb5 8539 fc02 3f39 92ea c039 0ee2 86b9
00000260: 134b 7f3a a0aa a23a 0462 f739 c056 c239
00000270: 5587 a939 5c8e 2a39 433f 7239 b0bf c2ba
00000280: eba4 9639 6a3f b038 ab2a 18ba f44d abb9
00000290: 6863 9fba a8bb 9937 1a44 56ba ee1e 39ba
000002a0: 5b4b 3db9 0391 133a 28f3 ed39 e2fb 5d38
000002b0: 63f3 883a 1465 19b9 1bc0 53ba 32f0 0439
000002c0: da6f 4437 174f e939 5544 99b9 9a30 7339
000002d0: 9def 18ba 9881 5d3a d4eb ac3a 2d63 aa38
000002e0: fd86 eb39 6e17 2138 16dd 36b9 256a 11ba
000002f0: 3808 73b7 be28 e7b9 c627 2b3a ff2b 48ba
00000300: bb9f 3b3a 92ef 7eb9 920f a739 f2b1 313a
00000310: 740a 223a a008 a7b9 805f 25bd f4b9 33bd
00000320: 10f2 843c 8319 dc3c 516f 99bc a204 47bd
00000330: 321a bdbc a2a4 273d 3509 1e3b d872 e1bc
00000340: 1946 aa3c 02c2 b73c 0246 db3c 706a e1bc
00000350: 6789 f63c b536 293d 4870 4cbc b04a 7fbc
00000360: 7f15 f23c e41d b33c 9cf9 ebb8 f6be b63c
00000370: 0484 18bd af62 79bc 1ec8 94bc fb77 c03c
00000380: eaef 163d 2750 6e3d 93a8 afbc 77d5 223d
00000390: 79a8 e0bc 5d3c 33bd a70a 513d c005 37bb
000003a0: e495 7cbb ea33 49bb 3f1d a23a 3626 103b
000003b0: 83d5 533b 04af 3db8 62b5 2c3b 2daf e5ba
000003c0: 2e22 84bb b8ef a63a 7a5a 94bb 5afa 523b
000003d0: 1885 ff3a 149d 723b 5362 1abb 917a d83b
000003e0: e8b2 fa3b 0dae 1cb9 47e5 8b3b feed 9b3a
000003f0: edf7 6abb b515 22bb 4697 053b 9f11 383b

rnn1.weight_hh_l1_reverse f4 [33, 33]
-0.0013137596 0.006444136 0.00641988 -0.00514923 0.0018871422 0.012147479 0.006709834 -0.0013053165
0.0016553957 -0.003828833 0.008208605 0.006703463 -0.00030228304 -0.0016548322 -0.0023691766 0.004171073
0.00075075927 0.0058005103 -0.0014433694 -0.001834407 0.004432815 0.001985429 0.0017576633 0.017454281
0.0058345348 0.006285475 -0.010090168 -0.0062626894 -0.0012498699 0.0028554972 0.0013091441 0.0023902112
-0.003429695 -0.0036204932 -0.004182036 -0.0046605337 -0.0020364227 -0.0055224095 0.012886405 -0.002014673
0.00020066818 -0.0007696683 0.0015874958 0.0024840422 0.003106999 -0.0028554688 0.0030673372 -0.00087284733
0.00017707108 0.00044889358 -0.0017414107 0.004169063 -0.0054909675 0.0008915218 -0.002284262 0.0067187445
0.0040497957 0.0010946378 -0.0017115932 -0.0043022423 0.0009390259 -0.0043060575 -0.007888873 0.0007913422
-0.00084723823 -0.0016594139 0.0016743217 0.00032945035 0.0010622367 0.00211163 0.0013201815 -0.007866081
-0.0010101103 0.0014192191 -0.00041469134 -0.005060449 -0.0015381424 0.0013908766 0.0034366988 -0.0017132303
-0.0007856981 -0.0033719593 0.0016097274 0.001975123 -0.0036282972 -0.0011833032 0.0016900641 0.0034634857
-0.00481101 0.0020456316 0.0005181056 -0.0012677518 0.0018176174 -0.003871248 -0.00093548937 0.004140111
0.00019333563 -0.0007986966 0.0022415323 0.003483955 -0.010188016 -0.026970135 -0.006300528 -0.008109548
-0.037852023 -0.027457029 0.0136555405 0.0031848822 -0.0055203536 -0.0010528751 -0.01056611 0.009544831
0.009298077 -0.00906107 0.005944912 -0.0035592562 -0.0016965411 -0.018657459 0.0031942846 -0.005433427
0.0051146005 0.00906139 -0.004581078 0.0088898605 -0.0088821165 0.0127852615 0.010466246 -0.0056314575
0.0101748975 0.002942507 -0.016791278 -0.011798082 -0.0038012941 -0.0022829876 -0.000886487 -0.0011386417
-0.002753677 0.007744022 -0.0055090757 -0.0007488924 0.0013697724 -0.0042465874 0.00335179 -0.00024237059
-0.0013199394 0.0034582084 -0.0017165776 0.0002556872 -0.002926803 -0.0007250749 0.0082745245 -0.008788705
-0.000685888 -0.0025024724 0.0028206927 0.0070121605 0.0009154415 -0.0022744355 -0.0032840627 0.0034279437
0.00048111068 -0.007661344 0.001447337 -0.0030500402 9.462602e-05 0.0023666436 -0.019659184 -0.00066246756
0.0009879149 -0.01950254 0.013249951 -0.013034054 0.0027400963 -0.022446366 -0.007158239 -0.0031917072
0.008588282 -0.0023942124 0.0031037459 -0.0072763516 -0.01614226 -0.0009389366 -0.012959904 -0.00012591956
-0.020768207 0.015324869 -0.002763977 0.0045920974 -0.008462863 -0.0127217015 -0.017976236 -0.00498465
-0.010394122 -0.00998752 -0.012810245 0.007839173 -0.002880247 0.007937866 -0.0031187863 0.00043024728
-0.005346272 0.004926832 -0.0032198054 -0.005137425 -0.00811648 0.0038179252 -0.0006715564 -0.00485656
-0.006468924 0.0045557185 -0.00015781655 0.00039551232 0.0012383254 -0.00668039 0.0037486115 0.0015365917
-0.0035415848 -0.0039044686 -0.0013643987 0.0062499912 0.0006115094 -0.0020350858 -0.007295651 -0.003962692
0.0058956076 -0.0060943845 -0.0021607082 0.0041184234 0.00026028545 0.00014562802 0.0021453935 -0.002042613
-0.00047227254 0.00060560147 -5.1987736e-05 -0.001111703 0.005386939 -0.003078739 -0.0012350748 0.00037245918
-0.0013894049 -0.0004536432 -0.0024983198 -0.001553356 7.746303e-05 -0.00019237088 0.0007630191 6.895441e-05
0.000540352 0.005321804 -0.0029564458 -0.0013964422 0.000294219 -0.00032705814 0.0006091689 0.0010853222
00000000: 7532 acba 5529 d33b db5d d23b dfba a8bb
00000010: fc59 f73a 3806 473c 2bde db3b 2717 abba
00000020: ddf9 d83a 29ed 7abb 637d 063c b9a8 db3b
00000030: be7b 9eb9 f4e6 d8ba 3044 1bbb 7fad 883b
00000040: 9ace 443a 3512 be3b 712f bdba 7c70 f0ba
00000050: 2641 913b f91d 023b 6561 e63a 48fc 8e3c
00000060: a02f bf3b 63f6 cd3b 3b51 25bc 3f37 cdbb
00000070: add2 a3ba 4b23 3b3b 9697 ab3a 17a5 1c3b
00000080: bcc4 60bb cc45 6dbb 7609 89bb 64b7 98bb
00000090: 8175 05bb 54f5 b4bb 8021 533c 9b08 04bb
000000a0: 746a 5239 91c3 49ba 8513 d03a 50cb 223b
000000b0: cb9e 4b3b d122 3bbb 6105 493b cbcf 64ba
000000c0: 28ac 3939 7a59 eb39 0c40 e4ba a39c 883b
000000d0: 93ed b3bb 04b5 693a 8fb3 15bb ea28 dc3b
000000e0: 26b4 843b f379 8f3a 8a57 e0ba d3f9 8cbb
000000f0: f628 763a d419 8dbb 5540 01bc 1372 4f3a
00000100: 3219 5eba b180 d9ba ea74 db3a 14ba ac39
00000110: c03a 8b3a 4663 0a3b f109 ad3a bce0 00bc
00000120: ad65 84ba 1705 ba3a ee6a d9b9 1fd2 a5bb
00000130: 7f9b c9ba 134e b63a 3d3a 613b 788e e0ba
00000140: 4ff7 4dba 17fc 5cbb 7dfd d23a 1171 013b
00000150: bac8 6dbb 1119 9bba 2485 dd3a a6fb 623b
00000160: ada5 9dbb 0110 063b 7ad1 073a b12a a6ba
00000170: 1f3d ee3a c4b4 7dbb a13b 75ba c5a9 873b
00000180: 23ba 4a39 9f5f 51ba ace6 123b 1153 643b
00000190: a3eb 26bc 79f0 dcbc a974 cebb e9dd 04bc
000001a0: b90a 1bbd 90ed e0bc 7dbb 5f3c 75b9 503b
000001b0: 15e4 b4bb a000 8aba 7a1d 2dbc ec61 1c3c
000001c0: f656 183c e274 14bc 89cd c23b 6942 69bb
000001d0: 795e deba 87d7 98bc 3457 513b e40a b2bb
000001e0: 6198 a73b 3976 143c de1c 96bb c7a6 113c
000001f0: 4c86 11bc 4679 513c 9e7a 2b3c 1788 b8bb
00000200: 9db4 263c 13d7 403b dd8d 89bc be4c 41bc
00000210: 221f 79bb 2d9e 15bb 2363 68ba 7a3e 95ba
00000220: 0977 34bb 91c1 fd3b 7a85 b4bb 5151 44ba
00000230: ef89 b33a f526 8bbb b4a9 5b3b dc24 7eb9
00000240: d101 adba 1ca3 623b c9fe e0ba c10d 8639
00000250: 9bcf 3fbb f412 3eba df91 073c 80fe 0fbc
00000260: 2acd 33ba 8500 24bb 5fdb 383b 44c6 e53b
00000270: 3dfa 6f3a b20e 15bb 6e39 57bb 5aa7 603b
00000280: 953d fc39 030c fbbb 92b4 bd3a 2fe3 47bb
00000290: f571 c638 b119 1b3b 4c0c a1bc 72a9 2dba
000002a0: ec7c 813a cac3 9fbc 5316 593c c98c 55bc
000002b0: 3093 333b 71e1 b7bc a98f eabb f62b 51bb
000002c0: deb5 0c3c 38e8 1cbb 3768 4b3b 766e eebb
000002d0: c63c 84bc f822 76ba c755 54bc 4609 04b9
000002e0: 1622 aabc 2915 7b3c d723 35bb 4e79 963b
000002f0: d2a7 0abc af6e 50bc e642 93bc 4656 a3bb
00000300: 1c4c 2abc b2a2 23bc 10e2 51bc e06f 003c
00000310: 87c2 3cbb d30d 023c 8d64 4cbb d092 e139
00000320: c82f afbb 4371 a13b 5f03 53bb d857 a8bb
00000330: fcfa 04bc 2836 7a3b 630b 30ba c723 9fbb
00000340: 45f9 d3bb 2348 953b 8f7b 25b9 c45c cf39
00000350: 4e4f a23a 2ce7 dabb 44ab 753b 7667 c93a
00000360: ef19 68bb 1de2 7fbb a0d5 b2ba bacc cc3b
00000370: b34d 203a 135f 05bb 5b10 efbb 78d9 81bb
00000380: f12f c13b 67b3 c7bb ab9a 0dbb d7f3 863b
00000390: ec76 8839 b9b3 1839 bb99 0c3b 5cdd 05bb
000003a0: 599b f7b9 3ac1 1e3a 680d 5ab8 90b6 91ba
000003b0: eb84 b03b abc4 49bb 3ce2 a1ba a046 c339
000003c0: b11c b6ba f6d6 edb9 daba 23bb fa99 cbba
000003d0: a673 a238 2ab7 49b9 5805 483a 9e9b 9038
000003e0: 69a6 0d3a 8762 ae3b eec0 41bb d308 b7ba
000003f0: 6841 9a39 0079 abb9 a2b0 1f3a 5f41 8e3a

rnn1.bias_ih_l1_reverse f4 [33]
-5.0395476e-05 0.0012482521 -0.00048304224 0.007371629 0.0017487896 0.00014147063 0.0014784663 0.0006941027
-0.001368676 -0.00023922152 0.00018318428 0.0004911104 -0.0009260762 0.00013456635 0.00012183802 -0.00049799733
-0.00034957606 0.0011817963 -0.00036565794 0.00084929704 -0.0003907628 0.0009541409 0.0008652179 -0.0006863269
-0.0007104168 -0.0018520644 0.0013161643 0.00080766296 0.010219491 0.0009233601 0.0024498766 -0.0004604326
-0.0005748885
00000000: bb5f 53b8 649c a33a d540 fdb9 b58d f13b
00000010: a437 e53a bc57 1439 19c9 c13a 72f4 353a
00000020: 2565 b3ba 8ad7 7ab9 2815 4039 dcbd 003a
00000030: ecc3 72ba 611a 0d39 4a83 ff38 098c 02ba
00000040: 4e47 b7b9 81e6 9a3a c7b5 bfb9 5ca3 5e3a
00000050: 4cdf ccb9 501f 7a3a cacf 623a 9eea 33ba
00000060: 443b 3aba f8c0 f2ba 2583 ac3a 58b9 533a
00000070: a76f 273c a60d 723a 1c8e 203b 3866 f1b9
00000080: 1db4 16ba

rnn1.bias_hh_l1_reverse f4 [33]
-5.0393694e-05 0.001248254 -0.0004830428 0.0073151197 0.001748785 0.00014147106 0.0014784615 0.00069410214
-0.0013686793 -0.00023922071 0.00018318093 0.00049110653 -0.0009260748 0.00013456591 0.0001497399 -0.00049799855
-0.00034957557 0.0011817997 -0.00036565406 0.0008492967 -0.00039076118 0.0009541389 0.00086521084 -0.00068632176
-0.00071042124 -0.0018520714 0.0013161642 0.000807662 0.00891225 0.0009233578 0.0024692963 -0.00046043246
-0.0005748865
00000000: d15d 53b8 749c a33a e840 fdb9 acb3 ef3b
00000010: 7d37 e53a d957 1439 f0c8 c13a 68f4 353a
00000020: 4265 b3ba 52d7 7ab9 4214 4039 9abd 003a
00000030: d4c3 72ba 431a 0d39 8003 1d39 1e8c 02ba
00000040: 3d47 b7b9 9ee6 9a3a 42b5 bfb9 56a3 5e3a
00000050: 14df ccb9 2d1f 7a3a 51cf 623a 46ea 33ba
00000060: 903b 3aba 34c1 f2ba 2483 ac3a 48b9 533a
00000070: b004 123c 7e0d 723a ebd3 213b 3366 f1b9
00000080: fbb3 16ba
