restricted_(Post)Conditional_RNN_models/models/model2.pt (torch_old, 175284 bytes, 35 tensors)

rnn1.weight_ih_l0 f4 [33, 1]
000000 f4 9f 25 3d dc ef 30 3d f4 7b 62 3d 2b 7f 49 3d
       0.040435746 0.043197498 0.055293992 0.049193542
000010 b5 e0 39 3d 8e 91 33 3d 94 b1 37 3d b5 a6 34 3d
       0.045380313 0.043839984 0.044847086 0.044104297
000020 ec 91 28 3d 96 b5 39 3d 58 08 83 3d 1f cb 4b 3d
       0.041154787 0.04533919 0.06398076 0.04975426
000030 6f 33 65 3d 51 a4 56 3d 51 8c 55 3d 62 74 3f 3d
       0.055957254 0.052402798 0.05213577 0.04674185
000040 13 90 75 3d 7e 3d 60 3d e9 10 57 3d 17 d6 80 3d
       0.059951853 0.054746144 0.05250636 0.062908344
000050 55 72 40 3d e3 a8 41 3e 8e dc 26 3d 0b 30 49 3e
       0.046984036 0.18912081 0.04073768 0.19647233
000060 ec d4 83 3d 36 4f 26 3d 5a 9e 2f 3d fb cb 55 3d
       0.06437096 0.040602885 0.042875625 0.052196484
000070 da 16 51 bd 0d 15 1f 3d 3a 92 2f 3d 1c a7 41 3d
       -0.051047184 0.038838435 0.042864062 0.04727851
000080 9b ab 7d 3d
       0.061931234

rnn1.weight_hh_l0 f4 [33, 33]
000000 48 c3 03 3c e9 8a 5e bc 30 bf b4 bb 4d 36 b6 3c
       0.008042164 -0.013582923 -0.0055159554 0.02224269
000010 77 f0 06 ba 74 40 5b 3b d4 47 54 bc 4f d3 fb 3b
       -0.00051475264 0.0033455165 -0.012956578 0.007685102
000020 56 7b 2d bc a7 0a 61 bb 23 89 95 bb 48 54 62 3c
       -0.010588488 -0.0034338625 -0.004563467 0.0138140395
000030 51 3a 7a bc ab 7c 41 3c 0e 4d 36 bb 75 b6 27 bb
       -0.015272693 0.011809508 -0.0027816924 -0.002559093
000040 a8 f2 82 bc fa 44 a6 3a 84 d9 12 3c 30 08 72 ba
       -0.015984848 0.0012685352 0.008962993 -0.00092327874
000050 f8 01 b2 bc 2a e9 2b bd 02 0b 72 bb ae 0b 08 bd
       -0.021729454 -0.04197041 -0.003693283 -0.033214264
000060 1e dd 9c 3b 6a 62 46 3b d9 09 2b bc f0 7e 98 3c
       0.0047871014 0.0030271062 -0.01043936 0.018615216
000070 e6 f2 a4 3b 06 ac 6a 3a 89 54 ef bb 2d 5b 71 3c
       0.0050338386 0.0008952025 -0.0073037785 0.014731211
000080 60 af 06 bc 1e 34 b8 ba 82 34 0c 3b 4b 29 66 3c
       -0.008220524 -0.0014053618 0.0021393602 0.014047931
000090 4e c6 2d 3b d5 84 3c 3c 6c 93 8e 3a cd c0 9d bc
       0.0026515904 0.011506279 0.0010877675 -0.019256974
0000a0 11 41 ca ba 69 63 58 bc bb 95 29 bc d0 8f 23 3c
       -0.0015430768 -0.013207295 -0.01035064 0.009983018
0000b0 fe 5d 28 bc 7d 0e 78 bc 2c 52 35 3c bc 00 26 bb
       -0.010276316 -0.015140173 0.011066955 -0.0025330028
0000c0 7a 09 eb 3b 8e ea 0c bc 3e 74 c8 bb e7 9a 25 bb
       0.0071727606 -0.008600844 -0.006117373 -0.002526933
0000d0 2c ed 39 bc 52 e9 5f bb 6a a0 16 bd 21 34 c4 3b
       -0.01134805 -0.003416617 -0.036774077 0.0059876596
0000e0 b4 22 ea bc b9 f0 08 3b 66 c1 73 b9 42 9c 9c bc
       -0.028581 0.0020895435 -0.00023246332 -0.019117478
0000f0 59 4a a1 3c 58 33 f8 3b 32 05 15 3a b2 90 0b bc
       0.019688772 0.00757448 0.0005684673 -0.008518385
000100 f6 ac 2b 3a 9b 32 36 bc 34 9f 17 bd 43 05 36 bd
       0.00065489055 -0.011120464 -0.037017062 -0.04443861
000110 eb 1b dc 3e 4f 42 16 3d 2f 6f ab bd be d2 8d bd
       0.4299005 0.03668433 -0.08370816 -0.069249615
000120 d2 e9 78 bd 7f 67 8f bd b7 c5 c8 bb 6d 62 fa 3c
       -0.060769863 -0.07002162 -0.006127085 0.030564511
000130 84 10 1a be b2 a7 09 3d df fb d6 bd af ff c7 3d
       -0.15045363 0.033607192 -0.10497259 0.09765565
000140 85 70 ab bd c1 98 af bd 10 01 ab bd 80 e8 f0 bd
       -0.08371071 -0.08574057 -0.08349812 -0.11763096
000150 c2 41 da bd 89 ba 8d bc 1f 17 a0 bd e2 ed 7c be
       -0.106570736 -0.017300861 -0.0781691 -0.2470012
000160 e6 fe ab bc 22 25 7d be 12 33 30 3d 76 c6 90 bc
       -0.020995568 -0.24721196 0.043017454 -0.017672759
000170 b3 7c 14 bd b2 a8 bd 3d d0 df 71 3e 07 0f 8b bb
       -0.036251735 0.09260692 0.23620534 -0.0042437348
000180 22 c7 8e bc d1 02 bb 3c 47 fe 09 be 81 71 07 bd
       -0.017428938 0.022828491 -0.13475905 -0.03306723
000190 cc 9c 5c bd f8 d5 78 3d 56 78 a0 3d fa 04 5a bd
       -0.05386047 0.06075093 0.07835452 -0.053227402
0001a0 81 e9 07 bd be 12 2c bd c9 16 4a bd 42 e1 37 3d
       -0.03318167 -0.04201006 -0.049338136 0.044892557
0001b0 01 ba 08 3d 59 92 8d bd 7c 6f 97 3d 30 dd 6a bd
       0.033380512 -0.06912679 0.07394311 -0.057339847
0001c0 d4 8e 84 3d 2a dc 1d bd c2 66 43 bd 5c 79 93 bd
       0.06472555 -0.038540043 -0.04770542 -0.07200882
0001d0 27 4e 7e bd 6b 23 76 bd 96 14 5c bd 45 76 5b bd
       -0.06208625 -0.06009237 -0.05373057 -0.053579587
0001e0 db 29 ad bd e9 49 e9 bc b5 88 ac bd fc de 8c 3d
       -0.08455249 -0.028477626 -0.08424512 0.068784684
0001f0 cf dd 0e bd 26 84 4a bd 7d a6 6a 3d 6e c2 c8 3d
       -0.034879502 -0.049442433 0.05728768 0.098027095
000200 77 02 c8 bc ea 93 a9 bc 58 b5 40 3d 91 75 84 bd
       -0.024415238 -0.020700414 0.047047943 -0.064677365
000210 84 65 c3 3b e2 a2 4b bc e5 2c 14 3d 15 0c ab 3b
       0.0059630293 -0.012428971 0.036175627 0.005219946
000220 10 ee 07 3c 0f 60 e4 bb 1a 41 8c bc 25 6d a0 bb
       0.008296505 -0.006969459 -0.017120887 -0.0048958235
000230 da 55 51 bc c3 b9 0f bc e8 fd 38 bc 73 db 88 bb
       -0.012776816 -0.008772316 -0.011291005 -0.004176551
000240 db 52 89 bc 29 50 8c 3c 65 bf b0 bb bc 5b 1f 3a
       -0.016763141 0.017128067 -0.0053939098 0.0006079038
000250 42 1e 08 bc 12 0f 0c bc 44 ca 55 bc 70 d4 87 ba
       -0.008307995 -0.008548515 -0.013048712 -0.0010362994
000260 5f f2 69 bc 47 b2 4b bd 4a 7f 17 bb 4e 97 10 bd
       -0.014278977 -0.049730565 -0.0023116642 -0.035300545
000270 fb b4 3f bb 68 4d 1b 3b 8c 94 49 bc 4f 04 9f 3c
       -0.002925216 0.002369726 -0.012303483 0.019411234
000280 af 2d 25 3c 6c a5 2a ba 12 ba 11 bc 8d fd 83 3b
       0.010081693 -0.0006509635 -0.00889446 0.0040280283
000290 86 f7 b6 bc ae d8 30 3c 3f fd c8 bb 8c 58 16 3d
       -0.022334825 0.010793848 -0.006133705 0.03670554
0002a0 b4 39 5d 3b 10 93 bc bb b4 9a 78 3b b0 47 3f bc
       0.0033756318 -0.005754836 0.0037934007 -0.0116748065
0002b0 80 c5 f5 36 2a e3 4b bc 92 b3 e4 bb f0 82 60 bc
       7.324561e-06 -0.012444297 -0.0069794143 -0.013703093
0002c0 f7 da e1 ba b2 52 3e bc e7 54 52 3c 73 78 9d 3a
       -0.0017231394 -0.011616396 0.012837625 0.0012014046
0002d0 29 34 53 bb c8 83 06 bc f9 87 77 bc f4 0b 0a bc
       -0.0032227135 -0.00821013 -0.015108102 -0.008425701
0002e0 59 22 3f bb b7 a1 d5 bc da 0b 15 bd b2 82 4c bc
       -0.002916476 -0.026078088 -0.036388256 -0.012482332
0002f0 90 76 1b bd fd 36 53 bb cb 7d f0 bb c7 bd 1d bc
       -0.037954867 -0.003222882 -0.0073392144 -0.009627766
000300 84 5a bd 3c 7e 0d b3 3b 3b b8 df bb 62 98 54 bc
       0.02311445 0.005464255 -0.006827382 -0.012975784
000310 fe d2 55 3c bd ec 54 bc 4d 4e dd 3b c7 de e6 3a
       0.013050793 -0.012995896 0.006753719 0.0017614
000320 7f 78 23 3d 41 f0 4c bc fe 7e fc ba 68 fa 4c 3b
       0.039909836 -0.012508453 -0.0019263921 0.0031277183
000330 9a 70 64 bc cb 95 7d ba 2a e9 00 bc 1c fb 06 bb
       -0.013942862 -0.0009673505 -0.007868091 -0.002059645
000340 1e 49 0e bc 97 50 ff bb 09 a5 2b bc 3e 52 80 3c
       -0.008684425 -0.0077915895 -0.010476359 0.015664216
000350 66 ee 0b bc 74 32 fc 3a 88 83 bc b8 69 62 8d bb
       -0.008540725 0.001924111 -8.989038e-05 -0.00431471
000360 4c 32 6b 3b 3b 2d 56 3b 39 a0 8c bc 03 b3 15 bd
       0.0035888134 0.0032680768 -0.017166244 -0.036547672
000370 5b 60 f6 bb 2c 43 f7 bc c8 e1 86 bb a0 b9 ea 3a
       -0.0075188107 -0.030183397 -0.0041162707 0.0017908104
000380 5c 40 69 bc fb c4 ad 3c 04 83 f2 3b 0f 97 2e bc
       -0.014236536 0.021212092 0.007400872 -0.010656132
000390 2b 94 8e bc b5 be fd 3b d5 9e 88 bc 03 7a 9c 3b
       -0.017404636 0.0077436813 -0.0166773 0.004775287
0003a0 cf db 82 bb 5e 71 21 3d 66 70 d9 3a b7 25 a7 3a
       -0.0039934884 0.039414756 0.0016589283 0.0012752329
0003b0 1b c8 ac 3a 8a e7 9c bc 4c 13 31 3c 7d 38 16 bc
       0.0013182195 -0.019153375 0.010807823 -0.009168741
0003c0 57 96 1d bc c2 73 4d bc ca 88 e3 bb 68 91 54 bc
       -0.009618363 -0.012539806 -0.0069437968 -0.012974121
0003d0 59 41 63 3c 64 8f e8 3a d9 95 1a 3b 63 3a 1e bc
       0.013870561 0.0017742929 0.0023587851 -0.009657475
0003e0 72 7f ec bb c2 91 91 ba c4 b0 cb 39 37 14 c7 bc
       -0.007217341 -0.0011106061 0.00038850878 -0.024301631
0003f0 51 5f 03 bd ff f6 0e bc 82 9f ea bc cd 47 d6 bb
       -0.032073323 -0.008725881 -0.028640512 -0.006539321

rnn1.bias_ih_l0 f4 [33]
000000 88 1b 10 be bc b5 06 be dc 91 c6 be 85 a9 86 be
       -0.14073002 -0.13155264 -0.38783157 -0.26301208
000010 36 59 e3 bd d8 d1 df bd 5c ee f4 bd 19 de f3 bd
       -0.11101 -0.109286964 -0.11959526 -0.11907596
000020 b7 21 3f be e2 f7 57 be 68 47 ae bd 26 db 58 be
       -0.18665205 -0.21090654 -0.085097134 -0.21177348
000030 3b 3b c9 bd de 69 96 be 87 f9 96 bd 9a 92 e5 bd
       -0.098257504 -0.29377645 -0.07371812 -0.11209603
000040 c0 18 53 bd 9d df b6 bd ff 1e d3 bd 86 83 15 bd
       -0.051537275 -0.089293696 -0.103086464 -0.036502384
000050 6d 8c e6 bd f7 86 db 3c 3c 95 0b be 6d fd db 3c
       -0.11257253 0.026797755 -0.13631147 0.026854241
000060 77 fc 96 be e2 bd 0a be a7 db 00 be bb c7 42 be
       -0.2948949 -0.13548997 -0.1258379 -0.19021504
000070 3b 85 b0 bc 1e 9e 03 be 18 f0 14 be ab aa 73 be
       -0.021547904 -0.12853286 -0.14544713 -0.23795573
000080 3b 9e c8 bd
       -0.09795805

rnn1.bias_hh_l0 f4 [33]
000000 8b 1b 10 be d8 b5 06 be 1d 99 c6 be a2 aa 86 be
       -0.14073007 -0.13155305 -0.3878869 -0.26302058
000010 40 59 e3 bd d9 d1 df bd 64 ee f4 bd 0d de f3 bd
       -0.111010075 -0.10928697 -0.11959532 -0.11907587
000020 42 1e 3f be b6 f7 57 be 76 47 ae bd ab 7f 58 be
       -0.18663886 -0.21090588 -0.08509724 -0.21142451
000030 3a 3b c9 bd c7 4c 96 be b8 b0 b0 bd 95 92 e5 bd
       -0.0982575 -0.2935545 -0.086274564 -0.11209599
000040 1c 00 47 bd 95 df b6 bd 06 1f d3 bd 07 aa 2f bd
       -0.04858409 -0.08929364 -0.103086516 -0.04288676
000050 6e 8c e6 bd f3 86 db 3c 18 95 0b be 6d fd db 3c
       -0.112572536 0.026797747 -0.13631094 0.026854241
000060 85 0e 97 be f4 bd 0a be a8 db 00 be 9f cd 44 be
       -0.29503265 -0.13549024 -0.12583792 -0.19219063
000070 cc 4b 80 bc 1e 9e 03 be 3b ec 14 be bc ac 73 be
       -0.015661143 -0.12853286 -0.1454324 -0.23796362
000080 3d 9e c8 bd
       -0.097958066

rnn1.weight_ih_l0_reverse f4 [33, 1]
000000 59 81 ae ba 9a 5c 8f ba f6 d7 1b ba 3e 01 98 b9
       -0.0013313695 -0.0010937632 -0.00059449614 -0.00028992625
000010 7f b4 0b 3b a9 58 e5 ba 7c 0a 86 b8 b8 91 ef b9
       0.00213173 -0.0017497736 -6.391571e-05 -0.000456942
000020 ee 3a a6 b9 5d 86 a8 3a 9f 66 23 3a 15 87 4c ba
       -0.00031705893 0.0012857426 0.0006233248 -0.0007802111
000030 a1 a5 1c b9 9d 89 a8 ba 96 99 ae 39 4a 39 4f b9
       -0.00014939021 -0.0012858395 0.00033302297 -0.000197624
000040 eb 5c 8c ba 2a bc 8d ba c4 a9 34 ba 7b b4 36 3a
       -0.0010708844 -0.0010813524 -0.0006891752 0.0006969643
000050 10 16 30 39 c8 f3 91 ba 0f a3 f5 39 b8 b7 07 bb
       0.00016792887 -0.0011135275 0.0004685153 -0.002070887
000060 09 a5 24 bb f5 19 f9 ba bc 03 5d bb aa 05 2e 3a
       -0.0025122783 -0.0019004928 -0.003372415 0.0006638417
000070 d0 c3 df 3a a7 09 13 bb 1d 7e 37 3a 47 c3 87 ba
       0.0017071906 -0.0022436173 0.00069996883 -0.001035788
000080 f8 35 1a b9
       -0.0001470669

rnn1.weight_hh_l0_reverse f4 [33, 33]
000000 21 c6 0c bc ec e5 ef bb 59 00 b0 bb be af f9 3a
       -0.0085921595 -0.00732111 -0.005371135 0.0019049568
000010 02 28 3a 3b 35 2c 01 bc e1 31 9c ba 4c 3a 8e 3c
       0.0028405194 -0.007884075 -0.001191672 0.017361782
000020 e3 7a 0d 3b 57 ba 81 3b 9e 16 ff 3b bd bb b5 3b
       0.0021588139 0.003958981 0.0077846786 0.005546062
000030 33 b8 51 bb c7 c0 f2 3b 73 38 d7 3b 3e c0 48 ba
       -0.003200066 0.0074082348 0.0065680086 -0.0007658041
000040 91 8f 18 bb 59 2d 62 3c 05 4b 24 3c a4 db 31 3b
       -0.0023278932 0.013804757 0.010027652 0.0027138973
000050 2a 50 39 bb 64 4a 74 3c e4 aa ac 3b a1 1a 46 3c
       -0.0028276541 0.014910314 0.005269395 0.01209131
000060 68 e4 69 bb 0b be 9c 3b a0 0a cb 3b bb 7a 6a ba
       -0.003568912 0.004783397 0.006196335 -0.000894468
000070 57 40 b1 3b 32 e0 20 3a b1 38 ea 3b 71 4f 50 ba
       0.0054092812 0.00061369233 0.0071478714 -0.0007946408
000080 a7 10 55 b9 14 62 0f 3a 77 7c ca bb d2 69 52 3a
       -0.00020319466 0.0005469632 -0.006179388 0.0008026633
000090 7d c5 d8 ba e0 46 a9 3b 93 38 4a ba 0d 83 82 3b
       -0.0016538348 0.0051659197 -0.00077141187 0.0039829076
0000a0 c3 c0 81 3b 9b de cf 3b 66 1d 97 bb ba 88 9e 3b
       0.0039597466 0.0063436753 -0.004611659 0.0048380764
0000b0 66 c7 33 3b 08 96 aa b9 98 ba 6d 3b 6d 0f 1e bb
       0.0027432083 -0.0003253671 0.0036274549 -0.0024118081
0000c0 c0 a3 8c bb 7b af 3a 3b c5 49 5a 3c c5 40 d5 3b
       -0.0042919815 0.0028485942 0.013323252 0.0065079653
0000d0 a3 8f ea ba 13 f0 41 bc c6 79 3b 3c ee 83 b3 3b
       -0.001789559 -0.011837023 0.011442607 0.0054783737
0000e0 b1 7e 96 3b 3f 7f ba 3b b1 92 f9 3b 32 3e 9d 3b
       0.0045927395 0.0056914384 0.007616364 0.004798674
0000f0 26 4a 75 3b 80 2b 26 3c 9e 17 e0 3b bf 92 66 3a
       0.003742823 0.010142207 0.006838753 0.00087956706
000100 59 a8 02 bc 33 71 7a bb 30 c3 85 bc c5 4c c3 3b
       -0.0079747075 -0.0038214445 -0.016328424 0.0059600794
000110 fe 0e 57 bb b0 97 74 3a 9e fd 32 3b 1a 02 6a 38
       -0.0032815333 0.00093304645 0.0027311812 5.5791905e-05
000120 9c ed 39 bc db 49 8b bb d2 55 97 bc 3b e3 86 3b
       -0.011348154 -0.0042507476 -0.01847354 0.0041164435
000130 24 83 9a bc 47 67 00 3b 3c db 6f 3a 25 84 32 bc
       -0.01886136 0.0019592808 0.0009149795 -0.0108957635
000140 63 c3 21 3b c8 6f 83 3c b6 01 c6 bb ad dd 8f bc
       0.002468311 0.016044512 -0.0060426844 -0.017561758
000150 2a 98 20 3b 73 90 8b 3c c8 d5 08 3c bc 89 b6 ba
       0.002450476 0.017036652 0.008351751 -0.0013926546
000160 e9 ae f1 3b 7a 02 9a 3b 29 59 6e 3b 64 9c 9d bc
       0.0073755872 0.0047000023 0.0036369062 -0.019239612
000170 85 54 2e ba 13 35 07 bc 74 6b bb bb c2 b0 2e 3b
       -0.00066501676 -0.0082524 -0.0057195965 0.0026655649
000180 a5 38 7e bb d6 94 44 bc 4b 28 1a 3c ee 0f 80 3b
       -0.0038791087 -0.011998376 0.009409021 0.003908149
000190 e2 8d a4 bb a8 49 00 bc 4b 23 f1 ba 1f c2 41 bb
       -0.0050217966 -0.007830061 -0.0018397359 -0.0029565168
0001a0 e4 f4 f0 3b 73 ea 5d 3c 64 b2 b2 bb 2a f0 13 3c
       0.007353412 0.013544667 -0.0054533947 0.009029428
0001b0 ad 26 c3 bb 44 1c 30 3c 59 01 64 3c b0 74 3e bc
       -0.0059555382 0.010748927 0.013916337 -0.0116245
0001c0 96 c6 e1 3a a7 55 d6 bb 77 44 06 3b bc 83 26 3c
       0.0017225321 -0.0065409723 0.0020487586 0.010163244
0001d0 28 16 10 3b e4 d2 f9 3a 66 25 96 bc 85 83 c2 3b
       0.0021985862 0.0019060043 -0.01832838 0.0059360885
0001e0 56 bc 84 3c a2 db 23 bb f6 44 a4 3b bc f0 87 bb
       0.016203087 -0.0025002738 0.0050131036 -0.004148571
0001f0 0f d3 22 3c 70 64 32 3b 29 a1 a1 3b 6b a0 52 3b
       0.009938016 0.002722051 0.004932542 0.0032139074
000200 a0 ca 6a bc 8a 3a 1b 3b 80 e4 f0 3b a0 48 48 bc
       -0.014330536 0.0023686015 0.007351458 -0.012224346
000210 2c 95 ad bb 29 47 b2 3b f4 17 98 3a 61 95 a4 bb
       -0.0052973237 0.005440612 0.0011603818 -0.00502269
000220 65 04 2f 3b d2 41 83 bb c1 55 a7 3b 0b 35 3d 3b
       0.00267055 -0.004005649 0.005106658 0.0028870727
000230 88 c5 e6 ba a2 99 07 bc 6d 23 58 bc d0 6b e7 3b
       -0.0017606476 -0.008276375 -0.01319204 0.007062413
000240 91 cb 28 3b 70 18 b4 bb cf 3f df ba 29 f7 1d bc
       0.00257561 -0.0054960772 -0.0017032566 -0.009641447
000250 5f 88 83 ba 2d 3d 0a 3c 2f 95 28 bc 27 a2 09 3b
       -0.0010035149 0.008437437 -0.010289474 0.0021001191
000260 b2 ba 8c bc 9e 69 64 ba 5f 3c 2c bb fa 52 e0 39
       -0.017178867 -0.0008713248 -0.00262811 0.00042786432
000270 c4 94 35 3a e4 20 1e bc 0c b7 f2 bb f9 48 b2 3b
       0.000692677 -0.009651396 -0.007407075 0.005440828
000280 ab 10 a7 bb 64 1b a2 3b c9 1a fe bb 42 c6 aa bc
       -0.0050984225 0.004947113 -0.007754658 -0.02084649
000290 0e e6 5b bb 5c a6 be bc 27 eb 99 3b b9 64 80 bb
       -0.0033553871 -0.023272686 0.004697222 -0.003918257
0002a0 81 c4 04 3c 6d aa b0 b9 1c 57 b0 bb d5 24 36 bc
       0.008103491 -0.00033696313 -0.005381478 -0.01111718
0002b0 cd 54 0c bb 6d 6b a1 bc 12 0c 49 3b b7 47 a7 bc
       -0.002141285 -0.019704545 0.003067736 -0.020419938
0002c0 a7 33 db 3b 90 2b 40 bb f3 b1 18 bc 80 a6 0b 3b
       0.006689507 -0.002932284 -0.00931977 0.0021308959
0002d0 5f ac bb 3c 83 75 f4 bb d0 52 a4 bc bd 2a 01 3c
       0.022909341 -0.0074602976 -0.02005902 0.007883725
0002e0 04 b1 be 3c a6 5c 15 3c 5d 24 0e bb 9a 18 17 3c
       0.023277767 0.009116327 -0.0021689155 0.009222174
0002f0 6b 1b 0b 3c 36 e6 27 3b 0b 58 b1 bc d6 5a ce 3a
       0.008490424 0.0025619394 -0.021648427 0.0015743624
000300 47 f4 3f bc 95 00 b3 bb e4 32 be 3a 93 f0 a7 bb
       -0.011715955 -0.005462716 0.0014511016 -0.005125114
000310 dd 0b 76 bc f3 da 49 3c e6 22 4c 3b 5e 84 00 bc
       -0.015017477 0.012320268 0.003114873 -0.007844059
000320 62 61 a3 b9 d2 d3 4d 3b d3 e7 08 bb 98 ff ad bb
       -0.0003116234 0.0031406772 -0.002089013 -0.00531001
000330 d5 ec e3 3b e3 80 0c 3c 38 46 1a 3c 86 5e cf ba
       0.006955723 0.008575651 0.0094161555 -0.0015821017
000340 64 b1 60 3c ea b3 3b 3b d9 1e 0d bb 17 6a 06 3c
       0.013714168 0.0028641173 -0.002153328 0.008204005
000350 64 bc 0e ba 98 cb f5 bb df c8 16 3b b3 1e 73 3c
       -0.00054449425 -0.007501077 0.0023007912 0.014838862
000360 02 1e 00 3c cf 36 cb bb 44 c1 06 bc af 89 28 3c
       0.007819654 -0.006201602 -0.008224789 0.010286733
000370 58 a7 27 bb d1 16 4a 3b ea 8a 3c bb 37 78 30 3c
       -0.0025581922 0.0030836354 -0.0028769323 0.010770849
000380 f4 4c ea 3b 35 7f 9e 3b 14 b4 1d 3c e0 43 80 39
       0.007150287 0.0048369416 0.0096254535 0.00024464633
000390 c4 b8 ae 3b c9 44 b9 3b 8b 14 d4 ba 7b 77 bf 3b
       0.0053320844 0.005653952 -0.0016180439 0.0058431006
0003a0 d2 18 c5 bb 1d dc d7 b9 b1 45 64 3a 70 93 17 bb
       -0.0060149217 -0.00041171993 0.00087078946 -0.002312865
0003b0 e2 e6 a4 bb bc 5e 37 3c c5 df c6 3b 23 56 3f 3c
       -0.005032406 0.01119202 0.006069156 0.011678251
0003c0 0e e7 e7 bb 5d e1 4e 3c 99 23 ab 3a 05 ae 44 ba
       -0.0070771044 0.012626973 0.0013056874 -0.00075027376
0003d0 8f 97 a8 3b 9f 46 a3 bb a7 7c 2d bc 6f 54 64 3b
       0.0051450203 -0.004982784 -0.0105888015 0.0034840365
0003e0 38 13 6f 3c 80 9b a8 3b 43 62 d1 bb 51 1a 44 bc
       0.014591984 0.00514549 -0.0063898875 -0.011969165
0003f0 03 1b fc 3b 39 25 56 bb 5e 67 fa 39 c9 93 b2 3a
       0.0076936497 -0.0032675995 0.0004776073 0.0013624366

rnn1.bias_ih_l0_reverse f4 [33]
000000 51 a8 2a bb f2 18 13 bb ce e0 20 3a eb 71 c3 bb
       -0.0026040266 -0.0022445288 0.0006137014 -0.005964508
000010 8b a7 5c 3c 4f ff 91 ba a3 13 8c bb 01 e5 6e ba
       0.01346768 -0.001113871 -0.004274802 -0.0009113104
000020 1f 43 5e bb c1 1c e1 3a 29 68 65 3b 98 3c 06 bc
       -0.003391452 0.0017174707 0.0035004711 -0.008193158
000030 22 79 a4 3a e1 5a e3 bb 99 fd 8f 3b 79 68 5e 3a
       0.0012548307 -0.006938324 0.004394245 0.00084841956
000040 4e eb 3c bc 08 1d 9b ba 75 88 4d bb 07 4f 6a 3b
       -0.01153071 -0.0011834214 -0.0031361852 0.003575267
000050 e6 78 02 bc 33 83 65 3a f1 f7 89 bb 10 03 b3 b9
       -0.007963395 0.0008755207 -0.004210465 -0.00034143822
000060 14 fc c3 bb 95 b4 8e bb d2 4f 5c bc 5a a8 55 bb
       -0.005980978 -0.004355023 -0.013446765 -0.0032601566
000070 cd 5b 87 3b 76 c8 e3 39 e7 7b 1b 3c d2 08 18 bc
       0.0041308166 0.0004344617 0.00948999 -0.009279447
000080 24 39 0f 3c
       0.008741651

rnn1.bias_hh_l0_reverse f4 [33]
000000 43 a8 2a bb fe 18 13 bb 17 e1 20 3a e0 71 c3 bb
       -0.0026040233 -0.0022445316 0.00061370566 -0.0059645027
000010 8f a7 5c 3c 42 ff 91 ba a8 13 8c bb c7 e4 6e ba
       0.013467683 -0.0011138695 -0.004274804 -0.000911307
000020 2c 43 5e bb ce 1c e1 3a 22 68 65 3b 94 3c 06 bc
       -0.003391455 0.0017174722 0.0035004695 -0.008193154
000030 53 79 a4 3a e0 5a e3 bb 9b fd 8f 3b ed 68 5e 3a
       0.0012548364 -0.0069383234 0.004394246 0.0008484263
000040 48 eb 3c bc 1f 1d 9b ba 75 88 4d bb e6 4e 6a 3b
       -0.011530705 -0.001183424 -0.0031361852 0.0035752594
000050 e9 78 02 bc 64 83 65 3a f7 f7 89 bb d3 02 b3 b9
       -0.007963398 0.00087552355 -0.004210468 -0.00034143645
000060 1e fc c3 bb 97 b4 8e bb d4 4f 5c bc 54 a8 55 bb
       -0.0059809824 -0.004355024 -0.013446767 -0.0032601552
000070 c8 5b 87 3b 8e c8 e3 39 e3 7b 1b 3c c9 08 18 bc
       0.004130814 0.0004344624 0.009489986 -0.009279438
000080 26 39 0f 3c
       0.008741653

rnn1.weight_ih_l1 f4 [33, 66]
000000 d0 e7 3a 3d f7 14 39 3d 9a 14 30 3d 24 e7 50 3d
       0.04563123 0.04518601 0.042988397 0.051001683
000010 9d 56 2e 3d 0e c0 29 3d ed 39 33 3d b2 a5 30 3d
       0.04256307 0.041442923 0.043756414 0.04312677
000020 bd 90 b6 3c 62 63 26 3d 51 a0 19 3d ee 4a c9 3c
       0.022285813 0.040622123 0.037506405 0.024571862
000030 9c ee 22 3d e3 a3 39 3d 0c 28 d4 b8 5a 84 2e 3d
       0.039778337 0.04532231 -0.00010116407 0.04260669
000040 80 aa de bb f5 48 20 3d 05 e4 23 3d 81 8c 13 bc
       -0.0067952275 0.039132077 0.04001238 -0.009005667
000050 b6 25 2f 3d 01 16 7d bc 85 1c 31 3d a9 92 81 bc
       0.042760573 -0.015447141 0.04324009 -0.015817003
000060 71 ca 18 3d 7a a5 36 3d a6 f3 35 3d 4e 38 25 3c
       0.03730244 0.044591404 0.044421814 0.010084225
000070 8a 33 27 3c 83 40 1f 3d 05 8e 2c 3d e6 f0 48 3d
       0.010205159 0.038879883 0.042127628 0.049057864
000080 6c fe 21 3d 73 87 49 ba 3f 63 8b b9 72 a3 ea ba
       0.039549276 -0.0007687725 -0.0002658609 -0.0017901494
000090 aa e8 83 bb 17 a4 06 3c ef cb 9d bb 82 03 c4 ba
       -0.0040255385 0.008217833 -0.0048155705 -0.0014954659
0000a0 80 14 2c ba 2f ce 89 bb a6 fe 65 3b 63 35 9a 3a
       -0.0006564334 -0.004205487 0.003509441 0.0011765178
0000b0 98 c5 9a bb 31 46 11 ba 4b 84 32 bb 6b 6a 58 3b
       -0.004723262 -0.00055417704 -0.0027239497 0.0033022414
0000c0 5e 0a 58 ba ca 81 fe bb 57 c2 25 bb 11 b6 45 bb
       -0.0008241291 -0.007766937 -0.0025292838 -0.0030168334
0000d0 5f a7 15 3b 10 77 9d bb 6d 90 74 3a a4 c3 34 bb
       0.0022835357 -0.004805453 0.00093293824 -0.0027582431
0000e0 ab 16 8b bb 52 10 a0 bb f2 ea a1 bb c6 e7 0c bc
       -0.0042446456 -0.004884758 -0.0049413377 -0.008600181
0000f0 d3 2b 1e bb e4 a4 ea 3a 19 61 db 3a 83 73 d3 3b
       -0.0024135008 0.0017901924 0.0016737311 0.006452979
000100 73 26 d8 bb 2d 1f ff 3b 69 e6 7e 3d 28 75 85 3d
       -0.0065963804 0.007785699 0.062231455 0.065164864
000110 25 3c 75 3d a6 2c 91 3d 8c 0c 83 3d 44 c0 7c 3d
       0.05987181 0.07088594 0.063988775 0.061706796
000120 a3 b6 84 3d f9 05 83 3d 88 89 d5 3c 44 8c 61 3d
       0.06480148 0.063976236 0.026066557 0.05506541
000130 45 00 83 3d f0 a0 f8 3c 6c 06 85 3d 7d 6f 81 3d
       0.06396536 0.030350178 0.064953655 0.06320093
000140 66 5b bc b9 38 37 85 3d 52 fe 35 bc 7f 7b 81 3d
       -0.0003592625 0.06504673 -0.011107998 0.06322383
000150 f7 c6 83 3d 0c f2 83 bc 28 ce 83 3d e1 9a 4b bd
       0.06434434 -0.016106628 0.064358056 -0.04970825
000160 be 45 6d 3d 49 49 4e bd 05 3c 6d 3d 49 21 7c 3d
       0.05792784 -0.05036286 0.057918567 0.06155518
000170 fa 63 80 3d f8 c1 ca 3b 95 49 fd 3b f9 2d 4f 3d
       0.06269069 0.0061876737 0.007729719 0.050580952
000180 0d f1 70 3d e0 f3 8c 3d 04 ac 85 3d 6f c5 09 bb
       0.058823634 0.06882453 0.0652695 -0.002102222
000190 44 10 c4 3a 86 64 08 bb 08 d5 ac bb f2 68 57 3c
       0.0014958461 -0.002081187 -0.0052744187 0.0131475795
0001a0 49 ae c9 bb 74 c3 cb ba c3 09 1c 3a 44 6c fa bb
       -0.0061548096 -0.001554592 0.00059523823 -0.007642301
0001b0 7c bb f4 3b f0 15 2b 39 80 76 0c bc e7 6a 13 bb
       0.007468639 0.00016316003 -0.0085731745 -0.0022494139
0001c0 f6 9e 5a bb 5b 98 44 3b 4a a0 0f bb b9 17 41 bc
       -0.0033358908 0.0029998037 -0.0021915608 -0.011785441
0001d0 8b fa c0 bb 9b a5 d5 bb 3f 65 df 3a 57 26 b8 bb
       -0.005889242 -0.006519986 0.0017043723 -0.005619805
0001e0 dc 8d c6 b9 b8 b5 f3 ba 59 f9 07 bc 62 cf 13 bc
       -0.00037871196 -0.0018593585 -0.008299195 -0.009021612
0001f0 4e 13 16 bc 01 79 5e bc b8 79 22 bb 4f 7d 84 3b
       -0.009159876 -0.013578654 -0.0024791788 0.0040432583
000200 81 67 08 3b 8d 5a 2e 3c 79 71 25 bc 53 51 36 3c
       0.0020813646 0.010641706 -0.010097855 0.011127788
000210 f6 8a 73 3d c6 2c 82 3d 56 e9 85 3d b8 5d a1 3d
       0.059458695 0.06356196 0.06538646 0.078792036
000220 2f e2 81 3d 75 cf 7f 3d b3 f9 82 3d c3 14 81 3d
       0.06341969 0.062453706 0.063952826 0.06302788
000230 4c 5a b1 3d e8 46 ae 3d 09 41 8a 3d 9f fa b2 3d
       0.08659801 0.08509618 0.06750686 0.087392084
000240 0d 0f 89 3d 4c 05 b9 3d 55 24 7a 3d 1d 18 84 3d
       0.06692324 0.090342134 0.061069805 0.06449912
000250 7e 4d 80 3d 16 22 84 3d a1 f8 86 3d e0 1d 7c 3d
       0.062647805 0.06451814 0.06590391 0.06155193
000260 50 87 82 3d d4 4d 84 bd 74 e2 77 3d a0 80 85 bd
       0.06373465 -0.06460157 0.060518697 -0.06518674
000270 3b e8 1e 3e 0c d2 80 3d 7f 58 81 3d c5 23 f5 3c
       0.15518276 0.06290063 0.063157074 0.029924283
000280 e3 4a 83 bd 09 cd 74 3d 2a 7c 93 3d e8 b7 a0 3d
       -0.06410768 0.05976585 0.07201417 0.07847577
000290 ff c1 8a 3d 10 9d 78 3b 43 8b 1a 3b 18 3e 53 3b
       0.06775283 0.0037935413 0.0023581542 0.0032233056
0002a0 db 93 33 bc 1c e6 7b 3c bf 6a 05 bb 62 67 13 ba
       -0.010960544 0.015374687 -0.0020357815 -0.000562301
0002b0 c6 24 d1 3a 16 b5 91 bb da 02 11 3c 78 c1 f1 3a
       0.0015956394 -0.004446636 0.0088507775 0.0018444499
0002c0 37 a1 66 bc 73 fc d8 bb a6 25 79 ba e3 54 4e 3b
       -0.014076523 -0.006621891 -0.0009504206 0.0031483702
0002d0 37 e4 a6 bb da 42 49 bc 41 80 85 bb 76 80 2e bc
       -0.0050931233 -0.012284005 -0.004074127 -0.010650745
0002e0 75 08 33 bb ca 74 b5 bb 54 1a 83 3b 83 8f 18 bb
       -0.0027318273 -0.005537604 0.0040009413 -0.00232789
0002f0 06 bb 43 bc d2 b2 70 bc 92 81 fd bb 17 06 90 bc
       -0.011946445 -0.014691072 -0.0077363933 -0.017581029
000300 f3 da 63 bb 8b c7 e9 3b 84 11 39 3b b0 8d 61 3c
       -0.0034767955 0.007134383 0.00282392 0.013766691
000310 2b 0c 68 bc 8e 2a 2f 3c 2a ea ee 3c ff a9 cf 3c
       -0.014163057 0.010691298 0.029164393 0.025349615
000320 11 e3 9e bc ef b2 93 3c 6c 7e ba 3c ed 81 c2 3c
       -0.019395383 0.018029658 0.02276536 0.023743594
000330 d8 88 d3 3c 36 9e d5 3c cd ad ba 3d 90 29 fa 3c
       0.025822088 0.026076417 0.09115181 0.030537397
000340 28 05 f0 3c 8c ac d6 3d 42 78 bf 3c b9 23 53 3c
       0.029299334 0.104821295 0.023372773 0.012886935
000350 8a c1 42 3e 09 9d c3 3c 29 4e 80 3e fa a7 ac 3c
       0.19019142 0.023878591 0.2505963 0.021076191
000360 1a 25 b6 3c 5d 05 8d 3e 77 90 c0 3c 1f f4 47 bd
       0.022234488 0.27543154 0.023506386 -0.048816796
000370 38 46 e9 3c c0 d3 4d bd 4a f6 dd 3d 9c 32 d9 3c
       0.028475866 -0.05025077 0.108379915 0.02651339
000380 53 ea da 3c 1f cd 33 3e 1c b1 4a be 97 48 08 3d
       0.026723063 0.17558716 -0.19794124 0.033272352
000390 0f a2 d2 3c 60 c5 b6 3c 13 10 cd 3c 04 9f 06 bb
       0.025712041 0.022310913 0.025032079 -0.0020541558
0003a0 4f 98 2a bb 32 2f 47 3b 07 7c 60 bb ee 00 49 ba
       -0.0026030724 0.003039312 -0.0034253614 -0.000766768
0003b0 85 07 16 3b 01 ff 50 bb d4 66 5d bb 8a ca 8d 3b
       0.0022892666 -0.0031890275 -0.0033783214 0.004327123
0003c0 b8 46 1e bb 3b b2 0d 39 03 25 60 3b b2 e1 38 ba
       -0.0024151038 0.00013513204 0.0034201748 -0.0007052674
0003d0 bf 8a 17 bb e7 3c da 3a 1a 6f 4c 3b 1c cd 3e bb
       -0.002312347 0.001665023 0.0031194151 -0.0029113954
0003e0 73 ec ff 3a 17 32 21 bb a5 62 87 3b 07 69 16 bb
       0.0019525423 -0.0024596506 0.0041316324 -0.0022950785
0003f0 c5 51 75 3b c8 90 cf ba 1e 3e a9 ba 72 d1 7e ba
       0.0037432772 -0.0015835995 -0.0012912189 -0.0009720541

rnn1.weight_hh_l1 f4 [33, 33]
000000 d3 82 b8 3c 37 84 06 3d f3 ec 70 3d 75 8d 07 bc
       0.02252332 0.032840934 0.058819722 -0.008273472
000010 1b 83 3a 3c 68 ef 9f 3b ae 90 b9 3c 1e 64 19 3c
       0.011383797 0.0048808344 0.022651996 0.009362249
000020 e1 cb 7c 3b 91 ce 05 bb df 54 db 3c eb 7c 1f bc
       0.003857367 -0.0020417313 0.026773868 -0.009734373
000030 a3 12 0d bc 6a 0a 8d 3c e0 5d 5b 3d bd 3e 0e 3c
       -0.0086104 0.01721688 0.053556323 0.00868195
000040 1a a9 04 3c 72 7e 1c bc b9 37 08 3b 30 3b 3e 3c
       0.008096958 -0.009551631 0.0020785166 0.011610791
000050 d9 c3 45 3b d6 f1 dd bb 67 e1 62 3b c6 3f b2 3c
       0.0030176549 -0.006773214 0.0034619214 0.021758925
000060 d1 67 cd 3c 28 55 c7 bb 74 b6 8a 3c e2 b3 24 bc
       0.025073918 -0.0060831495 0.016932704 -0.010052653
000070 15 93 69 bb 34 6b de 3b 82 59 12 ba 23 dc 76 bc
       -0.0035640646 0.006787682 -0.0005582796 -0.015067133
000080 bf 68 69 3d 74 3a a9 3c d7 dc 12 3d 44 4d d2 3d
       0.05698466 0.020657755 0.03585514 0.102686435
000090 fe b8 db bb e5 bc 77 3c 6c c2 53 3c c8 a1 e0 3c
       -0.0067054024 0.01512072 0.012924772 0.027420893
0000a0 2b 79 49 3c 51 5c 67 ba 5a f2 db bb 1a d8 79 3d
       0.012296955 -0.0008825707 -0.00671224 0.060997106
0000b0 02 f8 12 bc af 76 f5 bb 03 ac c2 3c 34 f3 ce 3d
       -0.0089702625 -0.007490955 0.023763662 0.10104981
0000c0 3d 4b 18 3c 51 ca 49 3c 2c ca 2a bb c4 d2 7f 3b
       0.009295282 0.012316302 -0.0026060445 0.0039035538
0000d0 d1 0f 4a 3b ae 33 32 3c 9b 6a f1 bb af e7 18 3c
       0.0030832181 0.010876579 -0.0073674447 0.009332581
0000e0 6c 23 81 3d 2c 6a 74 3c 92 03 94 ba 50 c1 bf 3c
       0.06305584 0.0149178915 -0.0011292568 0.023407608
0000f0 b2 8d b1 bb ea dd 1a 3b 2e 6c 5e 3b e1 a0 da 3b
       -0.0054185027 0.0023630806 0.0033938992 0.0066720103
000100 5d 00 78 bc 97 56 c9 3d 9e 6f e5 bc 03 97 69 bc
       -0.015136805 0.09830969 -0.028007325 -0.014257195
000110 07 93 01 3e 7f 85 5b 3c db d7 af 3b e8 d3 db b9
       0.12653743 0.013398527 0.005366308 -0.00041928818
000120 ae 9d 98 3b 3a cc d5 3d a4 5d 16 bc f1 1a 0a bc
       0.0046574688 0.10439344 -0.009177599 -0.008429275
000130 b4 b5 42 3e 9b 52 fc 3c a8 84 e5 ba f1 4e 70 3d
       0.19014627 0.030801108 -0.0017510848 0.058669034
000140 29 6f 03 3e 58 29 f2 ba 02 3a 18 3c b9 bc bd 3b
       0.12835373 -0.0018475456 0.009291174 0.0057903198
000150 b4 45 b5 3d e4 a4 31 bd 6e a7 1d 3e f5 1e e3 bb
       0.088511854 -0.043370143 0.153959 -0.0069311806
000160 68 5c 19 3c 05 d3 40 3e 79 b2 42 bd 80 b4 e1 3c
       0.00936041 0.18830498 -0.047533486 0.02755189
000170 d8 b4 5b 3c e7 79 48 3b dd e8 d6 3c 3c 8e 35 bc
       0.013409816 0.0030590238 0.026234085 -0.011081275
000180 c2 31 33 3c 26 21 57 bc bd 19 e8 3d 2e 23 01 bd
       0.010937156 -0.013130462 0.11333034 -0.03152769
000190 22 fe 4b bc 92 49 b1 3c b3 ba 0d bc 98 99 d8 bc
       -0.012450727 0.021641526 -0.00865047 -0.026440427
0001a0 65 4f f4 bc eb f4 05 bd 6a 1a ad bd 48 04 0a 3a
       -0.029823015 -0.032704275 -0.08452304 0.000526492
0001b0 d2 6c da 39 a3 0f 3d be 7b 53 9b 3d 52 e5 33 bd
       0.00041661278 -0.18462996 0.07584282 -0.04391987
0001c0 ed 52 67 bd ea 8a 88 3c de f6 ef bc 5b 34 5d bb
       -0.05647557 0.016667802 -0.02929252 -0.003375313
0001d0 20 2d 0d bd 54 87 b9 bd 8c 4f 3c bc e1 9a 22 be
       -0.034466863 -0.09059015 -0.011493575 -0.15879394
0001e0 62 d7 0e 3c f7 28 00 bd 82 41 8e bd 78 50 9b bb
       0.008718343 -0.031289067 -0.069460884 -0.004739817
0001f0 67 fd d5 3b c7 27 2e bc 71 ff 83 ba 30 2e 29 3d
       0.006530452 -0.010629601 -0.0010070634 0.041303813
000200 6a fe f2 3a a7 6c 14 bb 04 64 14 bd 17 af 83 3c
       0.0018538956 -0.002264777 -0.036228195 0.0160747
000210 76 9e 35 3a 4a b8 2e 3b 5a d3 f1 3c bd e7 36 bc
       0.00069282146 0.0026660138 0.029519726 -0.011163649
000220 06 5d 1f bb 56 4b 20 bc 39 9c ad 3b bf da 66 3d
       -0.002431692 -0.0097835865 0.005298164 0.056360956
000230 a8 f6 16 3c a8 27 2c 3c c0 ce 38 3d 04 3e 0c bd
       0.009214081 0.010507502 0.045119047 -0.03423883
000240 89 82 85 bc 1b 2e 57 3c 67 c7 d8 3c 31 de 4b 3b
       -0.016297596 0.013133551 0.02646227 0.0031107778
000250 dd 34 4a b9 90 21 a6 bc e4 4f 1f 3d fc 36 12 bc
       -0.00019283914 -0.020279676 0.03889455 -0.008924242
000260 ff 9a ac 3c 35 de a0 3c 37 3c 91 ba 6b 1a af 3c
       0.021070002 0.019637207 -0.0011080567 0.021374902
000270 40 1a bc bb 45 17 22 bc c6 21 71 bc 18 a0 61 bb
       -0.005740434 -0.009893243 -0.014717525 -0.0034427699
000280 8f cb ee bc 33 77 63 bb ef 7c 10 bc 33 17 81 bc
       -0.029149799 -0.00347085 -0.008818849 -0.015758133
000290 86 01 08 3d 8e 07 69 3b 89 c1 10 3c 24 37 0b 3d
       0.033204578 0.0035557481 0.008835205 0.033988133
0002a0 ed 37 18 bc 7b 0a 16 bb f4 aa 04 bc 29 0a b4 3b
       -0.0092906775 -0.002289443 -0.008097399 0.0054943752
0002b0 3f 54 3a 3d ed b7 32 3c 2d 96 36 3c 50 7d 30 3d
       0.0454905 0.010908109 0.011144203 0.043088257
0002c0 c4 21 d0 bc b1 88 83 bc d7 49 67 3c 3d ac e7 3c
       -0.025406726 -0.01605639 0.014116726 0.028280372
0002d0 a6 9d a3 3b d0 b0 79 ba fd f5 9c bc de dd 04 3d
       0.0049931584 -0.00095249433 -0.019160265 0.03243815
0002e0 a8 ab 87 bb f8 3e b1 3c 3b 4f 75 3c 76 f5 8f 39
       -0.004140336 0.021636471 0.014972503 0.00027457968
0002f0 62 85 aa 3c 0c e2 ac 3a 75 73 fa bb f8 8f 50 bc
       0.020815555 0.0013189926 -0.007643158 -0.012729637
000300 5e a5 ac bb 58 78 ac bc 6c f2 31 39 9a 18 dc bb
       -0.0052687367 -0.021053478 0.00016970345 -0.0067168
000310 f5 51 4a bc 00 c0 0d 3d 4d 6c 29 3b 9b 9b d7 3b
       -0.012348642 0.034606934 0.0025851906 0.006579829
000320 12 b7 8e 3d 93 ca f7 bb 56 fb 88 3b ac 3d fe ba
       0.06968512 -0.0075619905 0.004180352 -0.0019397042
000330 d4 06 2d 3c 81 08 36 3d 85 7c 94 3b 6d 24 be 3a
       0.01056071 0.044441704 0.0045314454 0.0014506705
000340 04 ad 86 3d 38 28 8b bc ca 16 1c bc 79 44 e9 3c
       0.06575969 -0.016986951 -0.009526918 0.028475033
000350 24 c7 87 3d 23 18 9d 3b 2b a4 cb 3b a2 4c 32 bc
       0.0662978 0.004794137 0.0062146387 -0.0108825285
000360 2d 45 0a 3d 1f 7d 6c bc 07 1a 1a 3d 3f 63 85 3b
       0.033757377 -0.014434128 0.037622478 0.004070669
000370 86 10 5e 39 91 69 53 3d ef 09 12 bc 30 47 20 bb
       0.00021177725 0.051614348 -0.008913501 -0.0024456494
000380 4b 3c 92 3b 04 a7 d1 bb ef 07 66 bc 65 65 8a ba
       0.004462754 -0.0063980836 -0.014039977 -0.0010558782
000390 e8 75 fe ba bd 8a 7f bc 32 e2 86 3d 65 e6 4d bd
       -0.0019413801 -0.015597043 0.06586112 -0.05026855
0003a0 37 fa 82 bd df c7 55 3d b8 1b 29 3e c7 71 85 bc
       -0.06395381 0.052192565 0.1651448 -0.016289605
0003b0 b7 88 ae bc 9a da 7c bc 5f 79 02 3e 20 63 ed 3a
       -0.021305425 -0.015432978 0.12741612 0.0018111207
0003c0 14 cf 87 bb c9 f7 da bd ee 7e 34 3e f3 ec a6 3d
       -0.0041445587 -0.106917925 0.17626545 0.08150663
0003d0 63 bd 23 bd 24 d7 62 3d 11 51 6e bc fa 21 9b 3a
       -0.039975535 0.055380955 -0.014545695 0.0011835687
0003e0 ce f2 e3 3d fc 2f a4 3d 4b 73 6d bd 64 6e 26 be
       0.11130296 0.08016965 -0.05797128 -0.16253048
0003f0 c6 e7 62 3e 3a af c7 bc b9 a4 75 bd cb ff a9 bd
       0.22158727 -0.024375547 -0.059971545 -0.08300742

rnn1.bias_ih_l1 f4 [33]
000000 29 d4 9b bc cb 4f 69 bd 5d 74 96 bd bd ff 63 bd
       -0.019022064 -0.056960862 -0.07346413 -0.055663813
000010 be 39 4e bc 22 69 27 bc f8 76 ca bc 87 0a 11 bd
       -0.012587009 -0.010217937 -0.024714932 -0.03541043
000020 85 fa 98 3a 44 0f 25 3b 6c 37 12 b9 cf 96 8e bd
       0.001167134 0.00251861 -0.00013944291 -0.06962358
000030 e5 fc 6f bc c1 ab 32 bc df 0e a7 bd 3e 5b 4a bc
       -0.014647697 -0.010905207 -0.08157133 -0.012350855
000040 b0 0b 0c 3a 3e 36 cd bc 6e be 0f bd 54 18 e0 bc
       0.0005342318 -0.025050279 -0.035093717 -0.02735535
000050 6b fc 84 bc 7d e9 0c 3d 11 dc 62 bc 8c 27 db bb
       -0.016233644 0.03440236 -0.013846413 -0.006688064
000060 99 e8 20 bd bb 82 8e bd 62 58 0a bc ae 9b 26 3b
       -0.039284322 -0.069585286 -0.008443924 0.0025422382
000070 ab 58 99 bd 94 ed 70 bb a9 8e 16 bb dd 28 b3 bc
       -0.07487615 -0.0036762701 -0.0022973216 -0.021870071
000080 ea 62 a7 bd
       -0.08173163

rnn1.bias_hh_l1 f4 [33]
000000 87 ec 9b bc c2 4f 69 bd a2 79 96 bd 60 2b 64 bd
       -0.019033683 -0.05696083 -0.07347418 -0.055705428
000010 28 82 4c bc 7e 45 27 bc d0 77 c9 bc 7c f1 14 bd
       -0.012482204 -0.010209439 -0.024593264 -0.03636311
000020 be fa 98 3a 52 0f 25 3b 2d fd 23 b9 5e bc 80 bd
       0.0011671407 0.0025186134 -0.00015639207 -0.06285928
000030 7f 34 70 bc 17 84 33 bc e6 0c a7 bd c4 c9 4a bc
       -0.014660954 -0.010956786 -0.08156757 -0.012377206
000040 ff 0b 0c 3a a5 32 cb bc cd 73 0f bd e9 18 e0 bc
       0.0005342364 -0.024804423 -0.035022546 -0.027355628
000050 86 9a 81 bc f1 50 0e 3d b3 dd 62 bc 67 76 dc bb
       -0.015820753 0.03474516 -0.0138468025 -0.006727982
000060 c0 93 21 bd ff 78 80 bd 05 57 0a bc 9e 9b 26 3b
       -0.039447546 -0.06273078 -0.008443599 0.0025422345
000070 db 74 82 bd 81 ed 70 bb 52 04 18 bb b5 8b b3 bc
       -0.06369945 -0.0036762657 -0.0023195934 -0.021917203
000080 3d 0f a8 bd
       -0.082060315

rnn1.weight_ih_l1_reverse f4 [33, 66]
000000 54 bc f9 3a 64 44 ee 3a 1a 97 11 bb 4c 07 6c 3a
       0.0019053319 0.0018178341 -0.0022215308 0.0009003773
000010 fb 91 e5 3a 8c 79 e6 3a 55 7e e4 3a 42 6c e4 3a
       0.0017514819 0.0017583831 0.0017432669 0.0017427283
000020 d2 c6 91 ba 40 28 00 3a e6 45 ea 3a 19 5a 9f ba
       -0.0011121875 0.000488881 0.0017873615 -0.0012157588
000030 5d 1a f3 3a 95 1f 0a b9 a2 39 1f ba a5 89 ee 3a
       0.0018547286 -0.00013172471 -0.00060739566 0.001819898
000040 d6 ca 5c b9 e6 bc dd 3a 9f 6c f1 3a 54 65 64 b9
       -0.00021056397 0.0016917258 0.0018419212 -0.00021781522
000050 77 78 ed 3a bb 2c 3c 3a 0f 67 f3 3a 88 6d 3a 3a
       0.0018117566 0.0007178296 0.0018570143 0.00071116583
000060 2c 0d dc ba 85 12 e3 3a a9 1e db 3a 0f cc 85 b9
       -0.0016788593 0.0017324245 0.0016717511 -0.00025519772
000070 e5 ce a5 b9 04 f7 db 3a 6b 4f b8 3a 2d fd 90 3a
       -0.000316254 0.001678199 0.0014061754 0.001106178
000080 73 77 f4 3a 62 0d e6 3a 83 34 94 39 92 96 ad b9
       0.0018651321 0.0017551596 0.00028267884 -0.00033109315
000090 a9 9f 06 3b 3c 6e 6c 3b 81 82 b0 ba 78 34 4e 3a
       0.0020541942 0.0036076447 -0.0013466628 0.0007866095
0000a0 ae ec 63 3a 8a 8f 08 bb db 3d e6 3a bc 9d 72 3a
       0.0008694631 -0.002083751 0.0017566042 0.00092550716
0000b0 a1 69 87 bb ae 7a 19 3a de bd a3 39 34 6d bc 37
       -0.004132465 0.00058547675 0.00031231245 2.2462198e-05
0000c0 07 f8 07 bb 64 a1 48 b9 dc 02 52 ba 63 5b 7d b9
       -0.00207472 -0.00019133609 -0.00080112903 -0.00024162004
0000d0 77 34 db ba d4 63 df b9 26 2e 83 bb d2 62 0a 3a
       -0.001672401 -0.00042608252 -0.004003304 0.00052790076
0000e0 42 dc 4b ba c6 c5 0e bb c0 57 e3 ba e4 90 56 bb
       -0.00077766564 -0.0021785363 -0.0017344877 -0.003274017
0000f0 3d 86 be 3a 94 48 17 3a d5 2d 0e 3b 5e 6a da 3a
       0.0014535856 0.0005771008 0.0021694798 0.001666378
000100 54 6b 1d 3a b3 a4 33 39 d8 4e e2 3a fc 46 d1 3a
       0.0006005068 0.00017132126 0.0017265929 0.001596659
000110 3e bf 76 ba b9 dc bf 3a 13 4f c5 3a d5 59 c6 3a
       -0.00094126526 0.0014637924 0.0015053473 0.0015132973
000120 02 34 c9 3a 00 3e c8 3a 10 35 b0 3a a0 bb c0 3a
       0.0015350583 0.0015277267 0.0013443548 0.0014704354
000130 f2 9d d0 3a 97 fe b6 3a df 92 d4 3a e0 86 0f 3a
       0.0015916212 0.0013961372 0.0016218087 0.0005475115
000140 c4 0a 3c ba b0 d0 ce 3a 8e 23 11 ba 89 70 b5 3a
       -0.0007173235 0.0015778746 -0.0005536609 0.0013842742
000150 fb ef dc 3a fa c0 0e ba fb 4d d3 3a 7b 49 eb b9
       0.0016856188 -0.0005445626 0.0016121262 -0.0004487744
000160 56 22 ea 3a 83 80 ed b9 75 3f 90 3a 74 08 d1 3a
       0.0017863016 -0.0004529991 0.001100524 0.0015947954
000170 36 62 bf 3a b4 d3 9d 3a 74 13 1b 3a 32 48 d1 3a
       0.0014601413 0.0012041242 0.00059156795 0.001596695
000180 07 f0 d7 3a cb 80 d9 3a a8 4b d3 3a de 49 bb 3a
       0.0016474732 0.001659417 0.001612057 0.0014288982
000190 42 05 a7 39 fd d2 01 3a be ff db 3a 74 e4 04 3b
       0.0003185664 0.0004952399 0.0016784591 0.002027777
0001a0 e4 2e ec b8 8f d9 30 3a 06 ca 0b 39 45 88 0b ba
       -0.00011262091 0.0006746286 0.00013331333 -0.0005322735
0001b0 ac a4 05 3a 11 25 88 3a 0c a1 17 bb c4 0d 46 b9
       0.00050980854 0.0010387023 -0.0023136763 -0.0001888788
0001c0 d7 44 4d 39 34 e9 e6 36 3a 30 a5 ba 1c 34 41 3a
       0.00019575968 6.8816826e-06 -0.0012602874 0.00073701306
0001d0 c2 f4 b3 38 84 6e 21 b8 d5 af ac ba 76 3f 62 38
       8.580975e-05 -3.8488317e-05 -0.0013174961 5.39417e-05
0001e0 9e 30 3a bb 7b 9c c2 39 05 9a f7 b8 75 36 b0 ba
       -0.0028410326 0.0003711915 -0.00011806566 -0.0013443964
0001f0 aa cb a6 b9 c5 87 d4 ba 06 65 9d 3a 11 7b 4f 3a
       -0.0003181373 -0.0016214779 0.0012008257 0.00079147617
000200 f6 bb a8 3a d1 1b 69 3a d3 33 9f 3a dd 99 24 ba
       0.00128734 0.00088923896 0.0012146182 -0.0006279031
000210 96 30 a4 ba 06 be 77 ba 3c 9e ac 39 13 eb 1a bb
       -0.0012526687 -0.0009450618 0.0003292429 -0.002363865
000220 2e a3 69 ba bb 77 70 ba dd 99 4a ba 90 c3 67 ba
       -0.00089125603 -0.00091731147 -0.0007728616 -0.0008841092
000230 6a 57 54 3b 4b 19 bb ba af 13 97 ba 15 ce 51 3b
       0.0032400736 -0.0014274506 -0.0011526252 0.0032013704
000240 85 2d 7f ba 38 bb ae ba a1 02 a2 3b 7f 14 7c ba
       -0.0009734261 -0.0013330942 0.004944161 -0.0009616091
000250 54 40 5e 3b 47 25 58 ba f6 ed 8e ba 2c 32 34 3b
       0.0033912854 -0.0008245301 -0.0010904658 0.0027495725
000260 b4 16 5e ba b6 a5 0c ba 31 7c af ba af f7 0e ba
       -0.0008472011 -0.0005365269 -0.0013388452 -0.0005453778
000270 c2 68 66 3b c6 be 8a ba 2f 33 4b ba fc ef 6e 3a
       0.0035157655 -0.0010585419 -0.00077514624 0.000911474
000280 2e 2c 9a bb 6a 84 8d ba cb 28 89 ba 2d 2b 1e bb
       -0.0047049737 -0.0010796909 -0.0010464428 -0.0024134621
000290 3f da 87 ba d4 f8 3d b9 a1 77 69 3a f6 4a 05 3a
       -0.0010364725 -0.0001811714 0.0008906071 0.00050847174
0002a0 95 95 ac bb ba 25 ff 3a a8 bc 3f 39 cc c5 a9 ba
       -0.005266855 0.00194662 0.0001828546 -0.0012952625
0002b0 76 6e 29 ba 76 6f 4a b9 08 54 a8 3a ba 69 91 ba
       -0.00064632983 -0.00019305744 0.0012842426 -0.0011094131
0002c0 7e dd 7c b9 cd f7 26 bb 75 ca 1a 38 f8 ab a7 3a
       -0.00024115105 -0.002547729 3.6905014e-05 0.001279234
0002d0 4b 6d 63 3a de bc 8b bb 4a 27 88 ba 30 3d 7c bb
       0.0008675649 -0.004264458 -0.0010387686 -0.003848862
0002e0 2c 25 c6 3a 8a e2 1a bb 45 d5 97 3b d6 34 03 bb
       0.0015117279 -0.0023633563 0.004633578 -0.0020020506
0002f0 2a ec 6e bb 8b a7 2e bb b1 4a 95 ba 94 7f 30 bb
       -0.0036456683 -0.0026650156 -0.0011390058 -0.0026931511
000300 d4 03 65 bb 81 3b 38 3a 76 5b 7e b9 e7 a9 6a 3b
       -0.0034944909 0.000702791 -0.000242574 0.0035806836
000310 46 d0 b6 bb f4 3a 8e 3b 58 de d7 ba 12 34 c6 ba
       -0.0055790273 0.004340524 -0.0016469462 -0.0015121719
000320 fd 18 21 3b 7c b9 5d ba c8 af c1 ba 80 92 b7 ba
       0.0024581545 -0.000845812 -0.0014777118 -0.0014005452
000330 dc 5a b7 ba b0 68 c0 ba 28 25 f4 3a 73 91 54 b8
       -0.001398887 -0.0014679637 0.0018626796 -5.06802e-05
000340 57 90 ff ba 33 71 d2 3a 25 4c f4 ba 00 d7 38 3a
       -0.0019497973 0.0016055465 -0.0018638415 0.00070510805
000350 78 7d 26 3b 79 ef ce ba 51 fe c7 3a ef ec c6 ba
       0.0025404375 -0.0015787921 0.0015258287 -0.0015176813
000360 54 b6 f6 ba 3b 14 8a 3a 72 bc cf ba 50 ae 5c 3a
       -0.0018822649 0.0010534594 -0.0015849008 0.00084183086
000370 6f 2a cc ba 08 90 5e 3a 29 e9 09 3b 43 a1 ac ba
       -0.0015576611 0.000849009 0.0021043515 -0.0013170618
000380 6f 87 9b ba 7e 66 c6 b9 10 99 21 bb 79 f4 89 ba
       -0.0011865924 -0.00037841866 -0.0024657883 -0.0010525129
000390 21 a8 54 ba b2 6c 85 ba c4 56 00 bb 72 1c ad ba
       -0.00081122114 -0.0010179488 -0.0019582966 -0.001320733
0003a0 f8 50 2e 3a 95 f6 51 ba 5b 27 89 ba 13 06 59 3a
       0.00066496385 -0.0008009461 -0.0010463999 0.0008278798
0003b0 7f 90 a3 ba 67 41 b9 b8 6f 38 3a 3a 58 9a 57 ba
       -0.0012478976 -8.8336696e-05 0.0007103746 -0.0008224598
0003c0 5d fc 57 3a 18 e7 9f b9 c8 d1 be b8 2f e7 8b b9
       0.0008239204 -0.00030499022 -9.098981e-05 -0.0002668439
0003d0 c1 47 ec b9 49 71 a4 39 36 f9 11 b8 d5 b5 ce ba
       -0.0004506689 0.00031364922 -3.480279e-05 -0.0015770743
0003e0 83 d5 9f ba cc 9a 91 ba 08 b4 9c b8 89 85 e5 b9
       -0.0012194369 -0.0011108755 -7.472193e-05 -0.00043777775
0003f0 d7 96 1f 3a 72 d0 d0 b9 83 04 d3 ba f8 4a d6 ba
       0.00060878455 -0.00039828155 -0.0016099367 -0.0016349247
