restricted_(Post)Conditional_RNN_models/models/model3.pt (torch_old, 175284 bytes, 35 tensors)

rnn1.weight_ih_l0 f4 [33, 1]
0.026732948 0.035501577 0.030657113 0.052308805 0.031016668 0.030661551 0.029803148 0.029187454
0.030101297 0.030268697 0.033565458 0.02375 0.030467536 -0.031326294 0.030415043 0.031747587
0.047127575 0.024185998 0.024096904 0.028011244 0.026207957 0.031055816 0.025554804 0.029678378
0.023250425 0.029673174 0.026337205 0.03650726 0.029617146 0.03334052 0.062982365 0.025929263
0.02637149
00000000: 0eff da3c 1a6a 113d a024 fb3c c241 563d
00000010: ab16 fe3c ef2d fb3c bb25 f43c 871a ef3c
00000020: ff96 f63c 0ff6 f73c ef7b 093d 5c8f c23c
00000030: 0e97 f93c 0050 00bd f828 f93c c209 023d
00000040: d808 413d b721 c63c df66 c53c d677 e53c
00000050: 12b2 d63c c468 fe3c 4f58 d13c 1220 f33c
00000060: ad77 be3c 2815 f33c 1fc1 d73c a388 153d
00000070: a89f f23c 1290 083d e6fc 803d 9b69 d43c
00000080: 0609 d83c

rnn1.weight_hh_l0 f4 [33, 33]
0.017089669 0.0010973094 0.021874717 -0.011814397 0.0164769 0.02394674 0.017108101 -0.00493919
0.018798785 0.005723507 0.008555587 -0.002481464 0.008674367 -0.007885743 -0.013085311 0.023687795
-0.014963106 0.00957602 0.00037377607 0.0023477876 -0.016394366 0.0154430475 0.018166723 0.002912182
0.0034406437 -0.004689691 0.008112501 -0.010581047 -0.009365443 -0.009613943 -0.021221519 0.0030375351
0.014327344 -0.046637155 -0.0022564074 -0.05784187 0.0213236 -0.0020896106 -0.06674445 -0.014361585
-0.06767802 -0.061740763 -0.086366385 -0.019377874 -0.032211587 -0.0770405 0.07629855 -0.076760024
-0.08558942 0.015184955 -0.024137974 -0.035488836 -0.05384294 -0.049643327 -0.08041584 -0.044561066
-0.021285903 -0.029507728 -0.05757708 -0.03437926 0.0066419104 -0.0575642 0.0032098223 0.03235116
-0.058904573 -0.051657476 0.015573347 0.011161171 0.04092318 -0.018529393 0.004844895 0.021654256
0.015962321 0.01244868 0.01461987 0.010452748 0.013592799 0.017164113 0.0024872008 -0.0042665456
0.009285923 0.02936009 -0.024350226 0.007263436 0.0022593553 0.009947407 0.018687904 0.032581974
0.020019239 0.0065141376 0.014661393 0.011278297 -0.0019407603 -0.004085052 -0.0071397363 -0.0024086346
-0.008367009 0.016542234 0.0062806783 -0.12328882 -0.13651901 -0.12541482 0.016646672 -0.12736481
-0.12785362 -0.12484274 -0.13286465 -0.12602618 -0.13849083 -0.12996611 -0.1042813 -0.13078044
0.119333774 -0.12962066 -0.12627548 -0.068989374 -0.1067015 -0.10762868 -0.118796475 -0.11645886
-0.1262898 -0.11576831 -0.11893629 -0.103875816 -0.12402609 -0.110823564 -0.14646311 -0.12356083
-0.13324244 0.098044015 -0.119137086 -0.11234579 -0.04045133 0.008104446 -0.038026694 0.008594159
0.04856458 -0.037864476 0.009195749 -0.047321875 -0.06145786 -0.06576468 0.0013470096 -0.046363804
-0.06554998 0.0733382 -0.07450542 -0.074362166 0.0023515273 -0.01013714 -0.031980213 -0.034541603
-0.049799442 -0.053040285 -0.015323048 -0.010863911 -0.015172022 -0.04597261 -0.037942946 0.009932409
-0.052506253 0.007896944 0.01920097 -0.026266031 -0.026956705 0.010269793 -0.0024698805 0.013193826
-0.019135121 0.018985266 0.03100611 0.015077617 0.020123372 0.024510546 0.01082861 0.008532135
0.022982128 0.017615039 0.0011875518 0.0132410005 0.021458684 -0.018918134 0.02109544 -0.0028333524
0.024407554 0.019670991 0.012102011 0.03790855 0.008533563 0.019877981 0.018033713 0.009066505
-0.0049896073 0.0046019508 -0.003244503 -0.0074196435 0.002693804 -0.0020502883 -0.040198192 -0.0051397285
-0.035392083 0.017194096 0.012673552 -0.023990888 0.02432125 -0.049346775 -0.032400116 -0.047525972
0.008530578 -0.0470525 -0.063885294 0.04592094 -0.04908197 -0.052164342 0.017065117 -0.020591145
-0.02235582 -0.043793924 -0.031842783 -0.05051136 -0.02386365 -0.011007536 -0.030883834 -0.03948445
-0.03984083 0.012355207 -0.049062602 -0.008090285 0.030431828 -0.039556716 -0.036427878 0.02005223
-0.023853304 0.041355457 -0.020880576 -0.008435677 0.027319808 -0.0067606024 0.027019218 0.032184333
0.022473792 -0.039748512 0.016273187 0.022677539 -0.013651802 0.028408332 0.0060583563 -0.015308338
0.018940767 0.0031118894 0.0143204415 0.03523337 0.018298218 0.019855805 0.019081486 0.01726322
00000000: a2ff 8b3c 98d3 8f3a 9b32 b33c 2c91 41bc
00000010: 90fa 863c f42b c43c 4a26 8c3c eed8 a1bb
00000020: e9ff 993c 428c bb3b bc2c 0c3c 0fa0 22bb
00000030: ef1e 0e3c 3433 01bc c663 56bc e80c c23c
00000040: d127 75bc bde4 1c3c 60f7 c339 57dd 193b
00000050: 7a4d 86bc d604 7d3c 61d2 943c 4eda 3e3b
00000060: 6c7c 613b fbab 99bb 4cea 043c 215c 2dbc
00000070: 8471 19bc cd83 1dbc c0d8 adbc 6211 473b
00000080: 3cbd 6a3c 9a06 3fbd 3ce0 13bb 99eb 6cbd
00000090: d5ae ae3c d9f1 08bb 50b1 88bd da4c 6bbc
000000a0: c69a 8abd e2e3 7cbd dce0 b0bd 59be 9ebc
000000b0: 4cf0 03bd 69c7 9dbd 6a42 9c3d 5c34 9dbd
000000c0: 8149 afbd 51ca 783c 00bd c5bc be5c 11bd
000000d0: 6a8a 5cbd cd56 4bbd 0fb1 a4bd aa85 36bd
000000e0: c65f aebc 31ba f1bc f2d5 6bbd 44d1 0cbd
000000f0: 62a4 d93b 70c8 6bbd e25b 523b a682 043d
00000100: ec45 71bd ca96 53bd 5a27 7f3c 58dd 363c
00000110: 109f 273d f4ca 97bc edc1 9e3b 4464 b13c
00000120: 6ac3 823c 8cf5 4b3c 2e88 6f3c 0142 2b3c
00000130: 55b4 5e3c c19b 8c3c 4e00 233b 61ce 8bbb
00000140: fc23 183c 9284 f03c 207a c7bc 1e02 ee3b
00000150: b111 143b 73fa 223c 6017 993c ad74 053d
00000160: 63ff a33c 8c74 d53b 5736 703c 9bc8 383c
00000170: 1c61 feba e6db 85bb 73f4 e9bb 2fda 1dbb
00000180: c815 09bc 9483 873c 26ce cd3b d97e fcbd
00000190: a4cb 0bbe be6c 00be 9a5e 883c ec6b 02be
000001a0: 0fec 02be 8dad ffbd ac0d 08be 020d 01be
000001b0: 8ad0 0dbe d615 05be 6f91 d5bd 4feb 05be
000001c0: 4465 f43d 47bb 04be 5c4e 01be 4d4a 8dbd
000001d0: 5186 dabd 6d6c dcbd 914b f3bd fc81 eebd
000001e0: 1d52 01be f017 edbd df94 f3bd d8bc d4bd
000001f0: 6401 febd 77f7 e2bd 6dfa 15be 760d fdbd
00000200: b570 08be 4dcb c83d 25fe f3bd 8d15 e6bd
00000210: 4bb0 25bd 83c8 043c e1c1 1bbd 84ce 0c3c
00000220: a7eb 463d c817 1bbd c4a9 163c 95d4 41bd
00000230: 3dbb 7bbd a2af 86bd 248e b03a f9e7 3dbd
00000240: 113f 86bd 5732 963d 4c96 98bd 314b 98bd
00000250: 151c 1a3b 3f16 26bc affd 02bd 7f7b 0dbd
00000260: 80fa 4bbd c540 59bd 860d 7bbc 8cfe 31bc
00000270: 1394 78bc c74d 3cbd 106a 1bbd 8bbb 223c
00000280: cc10 57bd 2f62 013c 5a4b 9d3c dc2b d7bc
00000290: 4fd4 dcbc a242 283c b8dd 21bb eb2a 583c
000002a0: 42c1 9cbc fd86 9b3c 8700 fe3c 1c08 773c
000002b0: c5d9 a43c 57ca c83c 7b6a 313c 5eca 0b3c
000002c0: 0445 bc3c 6a4d 903c a0a7 9b3a c8f0 583c
000002d0: 1fca af3c 34fa 9abc 58d0 ac3c c4af 39bb
000002e0: 5af2 c73c 0f25 a13c 8347 463c ff45 1b3d
000002f0: 5cd0 0b3c 26d7 a23c 70bb 933c ae8b 143c
00000300: dc7f a3bb f6cb 963b baa1 54bb 7b20 f3bb
00000310: 888a 303b 215e 06bb dca6 24bd 2b6b a8bb
00000320: 4af7 10bd a2da 8c3c bba4 4f3c 8a88 c4bc
00000330: 5c3d c73c d81f 4abd fcb5 04bd 98aa 42bd
00000340: d6c3 0b3c 1fba 40bd 4bd6 82bd 9817 3c3d
00000350: 2d0a 49bd 47aa 55bd 25cc 8b3c c3ae a8bc
00000360: 8d23 b7bc 4261 33bd 946d 02bd 00e5 4ebd
00000370: b47d c3bc f458 34bc 1800 fdbc 72ba 21bd
00000380: 2330 23bd 7f6d 4a3c def5 48bd 1d8d 04bc
00000390: 2b4c f93c 3906 22bd 6635 15bd 9344 a43c
000003a0: 0168 c3bc 5764 293d be0d abbc cb35 0abc
000003b0: cacd df3c 0b88 ddbb 6857 dd3c b8d3 033d
000003c0: f51a b83c 56cf 22bd 594f 853c 3fc6 b93c
000003d0: cfab 5fbc 97b8 e83c 2d85 c63b d3cf 7abc
000003e0: ab29 9b3c d7f0 4b3b 49a0 6a3c de50 103d
000003f0: 25e6 953c a4a8 a23c c750 9c3c 996b 8d3c

rnn1.bias_ih_l0 f4 [33]
-0.079619825 -0.1472844 -0.06817503 -0.1631929 -0.14010496 -0.06876859 -0.12838815 -0.07960401
-0.06597436 -0.07325415 -0.14174855 -0.09433414 -0.06077523 0.05585243 -0.07324015 -0.063095346
-0.18558484 -0.10849667 -0.08441398 -0.083553486 -0.088646024 -0.067756146 -0.073174566 -0.12539183
-0.09226864 -0.07044011 -0.107272685 -0.1499933 -0.07300465 -0.13214533 -0.18978356 -0.082690924
-0.11119141
00000000: b80f a3bd b9d1 16be 5a9f 8bbd 0a1c 27be
00000010: ad77 0fbe 8cd6 8cbd 2f78 03be 6d07 a3bd
00000020: 911d 87bd 4606 96bd 8826 11be 4232 c1bd
00000030: 73ef 78bd 85c5 643d effe 95bd 2238 81bd
00000040: f409 3ebe 8133 debd 3de1 acbd 171e abbd
00000050: 0c8c b5bd bcc3 8abd 8cdc 95bd b766 00be
00000060: 57f7 bcbd e842 90bd c8b1 dbbd d897 19be
00000070: 7683 95bd 1b51 07be 9f56 42be dc59 a9bd
00000080: 52b8 e3bd

rnn1.bias_hh_l0 f4 [33]
-0.07961993 -0.14728783 -0.06817495 -0.17652562 -0.1401047 -0.0687686 -0.1283875 -0.07960388
-0.06597439 -0.07325417 -0.14175509 -0.09433415 -0.060775213 0.055852383 -0.073240526 -0.063095406
-0.18497033 -0.108496636 -0.0844139 -0.08355345 -0.088646136 -0.06775624 -0.07317452 -0.12539099
-0.09226864 -0.070440136 -0.107272685 -0.14998344 -0.07300465 -0.13214669 -0.1880132 -0.08269091
-0.11119143
00000000: c60f a3bd 9fd2 16be 4f9f 8bbd 22c3 34be
00000010: 9b77 0fbe 8dd6 8cbd 0378 03be 5c07 a3bd
00000020: 951d 87bd 4806 96bd 3f28 11be 4332 c1bd
00000030: 6eef 78bd 78c5 643d 21ff 95bd 2a38 81bd
00000040: dd68 3dbe 7c33 debd 32e1 acbd 121e abbd
00000050: 1b8c b5bd c9c3 8abd 86dc 95bd 7f66 00be
00000060: 57f7 bcbd eb42 90bd c8b1 dbbd 4295 19be
00000070: 7683 95bd 7651 07be 8886 40be da59 a9bd
00000080: 55b8 e3bd

rnn1.weight_ih_l0_reverse f4 [33, 1]
0.07526291 0.050656777 -0.079240315 -0.08521936 -0.08670301 -0.07644624 -0.07606973 -0.07603123
0.05053013 0.16774355 -0.07695314 -0.07473634 0.054450676 -0.076028824 -0.07995972 -0.077393636
-0.07750749 -0.071755156 -0.07672658 0.17107762 0.07362863 0.00082483905 -0.08847454 -0.07459932
-0.17175274 0.1718888 -0.08415806 -0.07843384 0.054519188 0.06320074 -0.04018153 0.046946283
-0.17203021
00000000: 7123 9a3d 7b7d 4f3d bf48 a2bd 7d87 aebd
00000010: 5991 b1bd d98f 9cbd 72ca 9bbd 43b6 9bbd
00000020: aef8 4e3d f7c4 2b3e 9c99 9dbd 5e0f 99bd
00000030: ac07 5f3d 00b5 9bbd ecc1 a3bd 8e80 9ebd
00000040: 3fbc 9ebd 5ef4 92bd d322 9dbd f92e 2f3e
00000050: 9bca 963d 033a 583a 2432 b5bd 87c7 98bd
00000060: f3df 2fbe 9e03 303e 105b acbd eca1 a0bd
00000070: 834f 5f3d 646f 813d 6395 24bd bf4a 403d
00000080: b028 30be

rnn1.weight_hh_l0_reverse f4 [33, 33]
0.004075022 -0.1527424 0.12209946 0.116784744 0.12084429 0.124213636 0.12407678 0.1260667
-0.15731402 -0.12578763 0.124854945 0.111764036 -0.15692498 0.11993801 0.12183246 0.12292433
0.13203907 0.10785248 0.12649596 -0.11810172 -0.02546767 0.004163425 0.10975868 0.11986988
0.1198915 -0.13070679 0.11244639 0.11425359 -0.17156279 -0.123156264 0.112856634 -0.13876206
0.116328 0.22682197 -0.02686795 0.08224927 0.070044905 0.081372425 0.074711435 0.07889792
0.07275619 -0.019478593 -0.079320304 0.08389507 0.08090675 -0.0011988358 0.06639126 0.075290434
0.07141631 0.08797227 0.0672425 0.083902895 -0.07533618 0.21888731 0.00095435884 0.07982587
0.07399148 0.07394933 -0.09730336 0.07978146 0.07073713 -0.018378079 0.1156831 0.05076835
-0.025237573 0.080956474 -0.029821534 -0.038397215 -0.026955528 -0.015887544 -0.018401092 -0.039770167
-0.034635633 -0.039468057 -0.032956995 0.06284266 -0.038754918 -0.026228728 -0.0340552 -0.02696145
-0.028524566 -0.030214984 -0.04020373 -0.024385367 -0.041149877 0.06409428 -0.034197938 -0.005920516
-0.015482074 -0.03131111 -0.063583165 0.06328451 -0.021026434 -0.01457815 -0.033440545 -0.029910361
0.037231807 -0.034198903 -0.06586568 -0.0594999 -0.055841174 -0.041315805 -0.032047257 -0.033568043
-0.051311392 -0.04775711 -0.051804427 -0.051966134 0.0770126 -0.050794024 -0.041704576 -0.05366453
-0.04264276 -0.04410466 -0.044360373 -0.05195296 -0.03901886 -0.052435085 0.07819193 -0.062158387
-0.0044640265 -0.03003621 -0.044699695 -0.07836436 0.077363856 -0.035898745 -0.029953549 -0.053482056
-0.054757107 0.047473002 -0.052190006 -0.08006491 -0.05668816 -0.05468536 -0.0413828 -0.03106382
-0.0333275 -0.05132266 -0.04750563 -0.051813263 -0.05079615 0.07772312 -0.050341576 -0.04097605
-0.0528225 -0.042042874 -0.043468893 -0.043385707 -0.0518587 -0.038353458 -0.052297626 0.078556694
-0.05950785 -0.0049003046 -0.0296347 -0.044529088 -0.07900474 0.078971736 -0.035557456 -0.029557727
-0.0523055 -0.05286207 0.046979845 -0.051696923 -0.08110764 0.015395428 0.0024502247 3.0248837e-05
0.0040916023 0.0025560868 -0.0076778624 -0.0054202364 -0.006999446 0.0072080586 0.023343334 -0.010090507
0.003180976 0.008576448 2.8671311e-05 0.0017909452 -0.0059562363 -0.009605866 -0.0015816934 -0.010743358
0.023314737 0.010313047 -0.0042497725 0.0028521672 -0.0026116748 -0.020401103 0.01968079 0.0017546505
0.002006176 0.007995386 0.015110718 0.0021148766 0.0054753753 -0.022100437 -0.0024459923 -0.016073715
-0.008329635 -0.0023231946 -0.0037790122 -0.021901615 -0.017490614 -0.020751644 -0.0095506525 0.042235903
-0.023506658 -0.009405714 -0.008294587 -0.009190462 -0.011223412 -0.01647148 -0.022869028 -0.0101640215
-0.02538869 0.044050217 -0.008229122 -0.005594283 -0.002052683 -0.014697094 -0.041765448 0.03896892
-0.0059633334 -0.0007303388 -0.008745249 -0.002700704 0.018852284 -0.0095502855 -0.043472953 0.013236659
-0.0005405639 -0.001324525 0.0038043628 0.00198362 -0.010909602 -0.007777369 -0.009860538 0.0042812903
0.027816284 -0.012729632 0.0011331815 0.0054801702 -0.0014550101 -0.00029722473 -0.0072692307 -0.012294188
-0.0025216134 -0.013823191 0.028386792 0.007998852 -0.004237252 0.002473595 -0.00468758 -0.02546816
00000000: c387 853b 8168 1cbe 480f fa3d d72c ef3d
00000010: 367d f73d b863 fe3d f81b fe3d a117 013e
00000020: ed16 21be 79ce 00be f3b3 ff3d 8be4 e43d
00000030: f1b0 20be 0fa2 f53d 4c83 f93d c0bf fb3d
00000040: 4035 073e c3e1 dc3d 2888 013e 51df f1bd
00000050: 93a1 d0bc 576d 883b 29c9 e03d 577e f53d
00000060: ad89 f53d 00d8 05be 4b4a e63d c9fd e93d
00000070: 28ae 2fbe 5a39 fcbd 6121 e73d a417 0ebe
00000080: 603d ee3d 0544 683e 2d1a dcbc 4e72 a83d
00000090: b473 8f3d 96a6 a63d 4f02 993d 3c95 a13d
000000a0: 3301 953d 9291 9fbc af72 a2bd 2ed1 ab3d
000000b0: 70b2 a53d 4122 9dba 24f8 873d df31 9a3d
000000c0: b742 923d ce2a b43d 70b6 893d 48d5 ab3d
000000d0: db49 9abd ff23 603e f02d 7a3a bf7b a33d
000000e0: d888 973d bf72 973d fc46 c7bd 7664 a33d
000000f0: a1de 903d a08d 96bc 43eb ec3d 79f2 4f3d
00000100: 07bf cebc 82cc a53d 4a4c f4bc 6646 1dbd
00000110: d7d1 dcbc 9826 82bc e3bd 96bc 0be6 22bd
00000120: 18de 0dbd 42a9 21bd eafd 06bd a7b3 803d
00000130: 7abd 1ebd a1dd d6bc 777d 0bbd 42de dcbc
00000140: 5aac e9bc 6a85 f7bc abac 24bd d2c3 c7bc
00000150: c68c 28bd dd43 833d 2313 0cbd e300 c2bb
00000160: 86a8 7dbc 1440 00bd e437 82bd 4f9b 813d
00000170: a13f acbc 31d9 6ebc f4f8 08bd 9306 f5bc
00000180: 6180 183d 2614 0cbd 96e4 86bd 2bb6 73bd
00000190: b7b9 64bd c33a 29bd fc43 03bd a57e 09bd
000001a0: e52b 52bd f69c 43bd e130 54bd 71da 54bd
000001b0: c8b8 9d3d 650d 50bd 6bd2 2abd 57cf 5bbd
000001c0: 2daa 2ebd 17a7 34bd 39b3 35bd a1cc 54bd
000001d0: 3dd2 1fbd 2cc6 56bd 1723 a03d cb99 7ebd
000001e0: f846 92bb 7f0e f6bc 0717 37bd 7e7d a0bd
000001f0: f170 9e3d 900a 13bd 2561 f5bc 0010 5bbd
00000200: fd48 60bd 0d73 423d 30c5 55bd 12f9 a3bd
00000210: d831 68bd c2fd 5fbd 0381 29bd 8d79 febc
00000220: 6b82 08bd b637 52bd 4395 42bd 253a 54bd
00000230: a00f 50bd 4d2d 9f3d f832 4ebd 81d6 27bd
00000240: 685c 58bd 2635 2cbd 700c 32bd 36b5 31bd
00000250: ca69 54bd 8418 1dbd 0936 56bd 55e2 a03d
00000260: 81be 73bd bc92 a0bb 78c4 f2bc 2264 36bd
00000270: 3dcd a1bd efbb a13d b2a4 11bd 0c23 f2bc
00000280: 4b3e 56bd e685 58bd f06d 403d 27c0 53bd
00000290: c31b a6bd 1b3d 7c3c f393 203b e2be fd37
000002a0: d912 863b 0584 273b 9496 fbbb 3d9c b1bb
000002b0: 9c5b e5bb 9431 ec3b 853a bf3c a752 25bc
000002c0: ec77 503b 3b84 0c3c 2c83 f037 26be ea3a
000002d0: 882c c3bb ec61 1dbc d350 cfba e904 30bc
000002e0: 8cfe be3c 0ef8 283c ad41 8bbb 6deb 3a3b
000002f0: a228 2bbb 3720 a7bc 9c39 a13c 4dfc e53a
00000300: 0c7a 033b 14ff 023c f292 773c be99 0a3b
00000310: c76a b33b fa0b b5bc f14c 20bb 06ad 83bc
00000320: 0579 08bc bd40 18bb 4ea9 77bb 046b b3bc
00000330: 7a48 8fbc 5aff a9bc 577a 1cbc 8eff 2c3d
00000340: 0991 c0bc 6d1a 1abc 05e6 07bc 9793 16bc
00000350: 67e2 37bc 32ef 86bc d457 bbbc ff86 26bc
00000360: f1fb cfbc 006e 343d 70d3 06bc 3f50 b7bb
00000370: 4e86 06bb 15cc 70bc 3f12 2bbd e09d 1f3d
00000380: 1168 c3bb 3574 3fba 3c48 0fbc 4bfe 30bb
00000390: 1b70 9a3c cd78 1cbc b210 32bd 92de 583c
000003a0: a1b4 0dba af9b adba 9e52 793b 9fff 013b
000003b0: 30be 32bc 4dd9 febb 188e 21bc 114a 8c3b
000003c0: fade e33c f28f 50bc 4387 943a 0093 b33b
000003d0: 0ab6 beba d4d4 9bb9 ba32 eebb 906d 49bc
000003e0: a741 25bb aa7a 62bc 6b8b e83c 9e0d 033c
000003f0: a5d8 8abb 0a1c 223b 459a 99bb 9aa2 d0bc

rnn1.bias_ih_l0_reverse f4 [33]
-0.1109177 -0.07150492 0.06583303 0.0811741 0.08303543 0.019516982 0.040008858 0.024871288
-0.07242443 0.010734502 0.025788618 0.05565735 -0.08111175 0.057261974 0.0652155 0.057975877
0.02067608 0.053454787 0.026133547 0.010642798 -0.11309126 0.0002877104 0.084732465 0.042690273
-0.010864643 0.011178574 0.07828095 0.069968745 -0.08230099 -0.098152876 0.042775996 -0.06358218
-0.010774265
00000000: d228 e3bd 2c71 92bd 78d3 863d 9b3e a63d
00000010: 7b0e aa3d 14e2 9f3c 54e0 233d dfbe cb3c
00000020: 4253 94bd c4df 2f3c a742 d33c f6f8 633d
00000030: eb1d a6bd 888b 6a3d b48f 853d 1d78 6d3d
00000040: e260 a93c 68f3 5a3d 0516 d63c 215f 2e3c
00000050: 649c e7bd d6d7 9639 3788 ad3d ffdb 2e3d
00000060: 9e01 32bc 5626 373c c351 a03d c64b 8f3d
00000070: 6c8d a8bd 6004 c9bd e235 2f3d 6037 82bd
00000080: 8b86 30bc

rnn1.bias_hh_l0_reverse f4 [33]
-0.11271507 -0.07150103 0.06583307 0.08117323 0.083035395 0.019516991 0.04000889 0.024871299
-0.07241976 0.010734506 0.02578861 0.05565732 -0.081006266 0.057261962 0.06521549 0.057975844
0.020676075 0.053454757 0.026133558 0.010642795 -0.11360407 0.00028772146 0.08473039 0.04269029
-0.010864642 0.011178576 0.07828094 0.06996872 -0.08250771 -0.09869486 0.04277601 -0.06355914
-0.010774264
00000000: 29d7 e6bd 226f 92bd 7dd3 863d 273e a63d
00000010: 760e aa3d 19e2 9f3c 5de0 233d e5be cb3c
00000020: d050 94bd c8df 2f3c a342 d33c eef8 633d
00000030: 9de6 a5bd 858b 6a3d b38f 853d 1478 6d3d
00000040: df60 a93c 60f3 5a3d 0b16 d63c 1e5f 2e3c
00000050: 40a9 e8bd 52d9 9639 2087 ad3d 03dc 2e3d
00000060: 9d01 32bc 5926 373c c251 a03d c34b 8f3d
00000070: cdf9 a8bd 8820 cabd e635 2f3d 4b2b 82bd
00000080: 8a86 30bc

rnn1.weight_ih_l1 f4 [33, 66]
-0.017280556 -0.0069244327 -0.025818724 0.018886147 -0.0083044395 -0.024348278 -0.0085159745 -0.025591789
-0.022312338 -0.023077734 -0.007879902 -0.006944427 -0.025537914 0.022758465 -0.02540736 -0.022729414
0.0037490088 -0.009099546 -0.008587873 -0.018834766 -0.015386337 -0.025477251 -0.012263828 -0.009016674
-0.009278529 -0.021025497 -0.008101967 -0.0100730155 -0.020491516 -0.009106955 0.029822152 -0.012844191
-0.00535092 -0.05249197 -0.10242683 0.09041301 0.13135946 0.13017088 0.02020154 0.04824424
0.025161337 -0.09997009 0.04238448 0.029944686 0.08304109 -0.098545544 0.077585235 0.0853946
0.07062211 0.021994827 0.085309505 0.029030323 0.043173097 -0.0532449 0.002591737 0.14576454
0.056672156 -0.04301984 0.043364406 0.12222797 0.121931784 -0.10334406 -0.07241402 0.103354424
-0.100945845 -0.0427992 0.0016104556 0.032526854 0.019713882 -0.060904913 0.027773429 0.023427414
0.02705815 0.022359103 0.018015603 0.021028878 0.032716837 0.0006380394 0.022980012 -0.023582011
0.01826794 0.020354107 -0.010427005 0.010882852 -0.0011634387 0.007463268 0.0027646357 0.02420967
0.0032739933 0.023379507 8.72298e-05 0.012180792 0.0100518 0.037340753 0.011272775 0.033680983
-0.13563627 -0.00020612554 0.01288235 0.2950941 0.27544808 -0.02219199 -0.030993441 -0.02901492
-0.0010391966 -0.013862179 -0.00568228 0.28856167 -0.036061466 -0.0067918813 -0.021753175 0.30749154
-0.018537723 -0.018242877 -0.01620726 -0.004193196 -0.022663064 -0.007816816 -0.036315065 0.29759243
-0.00014776264 -0.03880409 -0.015101197 0.036395684 -0.03662297 -0.028446369 -0.030687071 0.3185195
0.3254573 -0.1578908 0.25337037 0.035923216 0.001179999 0.0010954618 0.0013269874 -0.00023958409
0.0007186632 0.0011435655 0.0014420052 5.9098205e-05 0.002136042 0.001207659 0.0014644956 -0.00063232664
0.0015601766 -0.0008806315 0.0028178946 0.001948445 0.00083970826 0.0008808973 0.0028974798 0.0011286689
0.0020954052 0.0028344581 0.0027060295 0.00091348914 0.00015267341 0.0018998798 -0.0003102854 0.00042380192
0.0019604184 0.0018801558 -0.0019551178 0.0023142428 0.0013293435 -0.0033100182 0.0031018546 0.00057095627
0.0014220087 0.0015736695 -0.0011436979 -0.00042917187 -0.001000237 0.0029345627 0.0013632872 -0.00093125744
0.00040767912 0.00263447 0.00021635133 0.00046556367 0.00014327503 -0.0011343283 0.00026612083 -0.0008896683
0.0013155688 -0.0027335254 0.0022484085 0.0018506219 -0.00015289278 -0.001307201 0.0013122888 0.0012839969
0.0008929785 0.0029901678 0.0006272062 -0.0045458567 0.0032418321 -0.001300573 -0.0004527441 -8.816342e-05
4.2958538e-05 -0.00116921 0.0008511158 0.00013131548 -0.000240021 0.00039847055 -0.0006259529 0.00013484208
9.870239e-05 0.0008374526 -4.8121736e-05 0.00057501503 -0.0012005827 -0.00029863612 0.00033111474 0.0004047546
-0.0016891091 0.00031596617 -0.0005302642 -0.0014263993 -0.0013116003 -0.00016327061 7.34936e-05 -0.00048489898
0.0010146835 0.0006929413 -0.00045873484 -0.0013840146 -0.0020027193 -0.0010945797 -0.0011346568 0.002448909
0.0028029992 -0.0011685421 -0.0015393628 -0.0016133193 0.0010505506 -3.861443e-05 0.0008487679 0.0029508665
-0.0029154883 0.0007507478 -0.00096744485 0.0030243953 -0.0009230738 -0.0010879373 -0.00077598705 0.0010176438
-0.0009324182 0.0007891743 -0.0029241801 0.002560747 0.008813723 -0.0016069893 -0.0003343724 0.0029267042
00000000: f48f 8dbc 5ae6 e2bb ca81 d3bc 1fb7 9a3c
00000010: 580f 08bc 0a76 c7bc 9686 0bbc dfa5 d1bc
00000020: 5dc8 b6bc 840d bdbc b41a 01bc 138e e3bb
00000030: e334 d1bc f66f ba3c 1923 d0bc 0933 babc
00000040: eeb1 753b 4316 15bc 26b4 0cbc 5e4b 9abc
00000050: fa16 7cbc abb5 d0bc 39ee 48bc acba 13bc
00000060: f904 18bc aa3d acbc 1dbe 04bc 4a09 25bc
00000070: d3dd a7bc 5635 15bc 964d f43c 7170 52bc
00000080: c556 afbb d201 57bd 28c5 d1bd 752a b93d
00000090: 1883 063e 844b 053e b37d a53c c19b 453d
000000a0: 261f ce3c 1ebd ccbd 599b 2d3d 8f4e f53c
000000b0: 7211 aa3d 3fd2 c9bd 02e5 9e3d 5de3 ae3d
000000c0: 53a2 903d 7f2e b43c c0b6 ae3d 00d1 ed3c
000000d0: 46d6 303d 5317 5abd 22da 293b 4d43 153e
000000e0: 1021 683d 9235 30bd e09e 313d a852 fa3d
000000f0: 5fb7 f93d 0da6 d3bd cd4d 94bd 7cab d33d
00000100: b2bc cebd 374e 2fbd ec15 d33a e13a 053d
00000110: 027f a13c 6e77 79bd 1a85 e33c d9ea bf3c
00000120: 0ea9 dd3c 702a b73c 7595 933c c144 ac3c
00000130: 1702 063d 1942 273a 9440 bc3c 102f c1bc
00000140: a6a6 953c a8bd a63c 07d6 2abc fd4d 323c
00000150: 867e 98ba 6e8e f43b e42e 353b 5c53 c63c
00000160: 7e90 563b 6186 bf3c 24ef b638 f291 473c
00000170: 4eb0 243c 9ef2 183d 72b1 383c 12f5 093d
00000180: 3ce4 0abe 6723 58b9 7e10 533c 9316 973e
00000190: 8807 8d3e facb b5bc f5e5 fdbc b3b0 edbc
000001a0: a735 88ba 311e 63bc 6b32 babb 5bbe 933e
000001b0: 30b5 13bd 6e8e debb b733 b2bc 886f 9d3e
000001c0: 6cdc 97bc 1672 95bc 16c5 84bc 1467 89bb
000001d0: e4a7 b9bc 1a12 00bc 1bbf 14bd 095e 983e
000001e0: bbf0 1ab9 0af1 1ebd 036b 77bc a413 153d
000001f0: f801 16bd 5c08 e9bc 7463 fbbc fd14 a33e
00000200: 57a2 a63e 20ae 21be c3b9 813e 3924 133d
00000210: 32aa 9a3a 9995 8f3a 4fee ad3a dd38 7bb9
00000220: ac64 3c3a b1e3 953a aa01 bd3a 37e0 7738
00000230: d7fc 0b3b 504a 9e3a 51f4 bf3a b9c2 25ba
00000240: d77e cc3a 2eda 66ba 6dac 383b f762 ff3a
00000250: de1f 5c3a 04ec 663a a5e3 3d3b d8ef 933a
00000260: 1153 093b 51c2 393b a457 313b 3877 6f3a
00000270: f516 2039 6305 f93a cdad a2b9 bb31 de39
00000280: 5d7a 003b 8f6f f63a 6f21 00bb 8daa 173b
00000290: 5e3d ae3a e4ec 58bb 7c48 4b3b 3aac 153a
000002a0: b262 ba3a 9643 ce3a 22e8 95ba 7902 e1b9
000002b0: 621a 83ba cb51 403b 54b0 b23a a11f 74ba
000002c0: c4bd d539 12a7 2c3b 5edc 6239 e616 f439
000002d0: 193c 1639 bead 94ba 2286 8b39 a138 69ba
000002e0: 2a6f ac3a f224 33bb 095a 133b 9190 f23a
000002f0: d851 20b9 6356 abba 1b01 ac3a c94b a83a
00000300: c616 6a3a b1f6 433b 186b 243a 69f5 94bb
00000310: eb74 543b fd77 aaba 495e edb9 60e4 b8b8
00000320: 612e 3438 2d40 99ba 6a1d 5f3a bbb1 0939
00000330: 26ae 7bb9 d0e9 d039 fd16 24ba 6564 0d39
00000340: 71fe ce38 7e88 5b3a 52d6 49b8 9bbc 163a
00000350: df5c 9dba 4392 9cb9 7899 ad39 3e35 d439
00000360: 1965 ddba 43a8 a539 6e01 0bba 05f6 baba
00000370: 01ea abba 9f33 2bb9 9320 9a38 0a3a feb9
00000380: 21ff 843a 81a6 353a 5982 f0b9 d367 b5ba
00000390: 0e40 03bb 0078 8fba c4b8 94ba e07d 203b
000003a0: 86b2 373b c429 99ba 72c4 c9ba 0376 d3ba
000003b0: a1b2 893a eef5 21b8 d97f 5e3a 5363 413b
000003c0: c711 3fbb d5cd 443a 209c 7dba ef34 463b
000003d0: 6ffa 71ba 1e99 8eba 9c6b 4bba 7662 853a
000003e0: 876d 74ba 97e0 4e3a 9aa3 3fbb 35d2 273b
000003f0: 6f67 103c 9da1 d2ba b44e afb9 f3cd 3f3b

rnn1.weight_hh_l1 f4 [33, 33]
-0.0350856 -0.017082855 0.007499492 0.009999884 0.007308569 -0.06176611 -0.03686225 -0.0055962144
0.011552767 -0.008395097 -0.008402561 -0.04200364 -0.0799397 -0.01195096 0.012727395 0.045008205
-0.046525214 0.015357067 0.068223424 -0.02706941 -0.03606111 -0.014727682 -0.060822543 0.00097320887
-0.0034576592 -0.008850495 -0.0067297495 -0.0029562465 -0.031654354 -0.008069066 -0.039970536 0.006134873
0.007041195 -0.23935275 0.117674924 7.186028e-05 -0.0006443956 -0.0058983783 0.1689211 0.051018983
-0.0011879798 -0.0042213975 0.06743764 0.123825505 0.07578027 -0.032826405 0.080027334 -0.004947879
0.18992932 0.00492329 0.053181823 0.28981224 0.2233112 0.0823533 0.07357676 0.03314397
0.0882873 0.0027479273 -0.023071121 -0.18851045 0.0013826735 0.2144904 -0.008872645 -0.11745387
-0.0048024263 -0.0022976042 -0.010213469 0.006621975 -0.0333052 -0.020360662 0.0052394005 0.012205612
-0.00245868 0.012112014 -0.00012961404 -0.008137238 0.0013651553 -0.006924942 -0.009888186 0.00990669
0.008684038 -0.00969202 0.007627897 -0.003841421 0.0036808194 -0.008953271 -0.009059393 -0.0017956566
0.0038588964 0.005885721 0.0016398457 -0.0030434541 -0.014496305 -0.0017573345 -0.0020213034 0.001601
0.0047592786 0.0020143823 0.009239275 0.010558629 -0.0029507705 0.015227875 -0.005076188 -0.0092134345
-0.012356295 0.0047553014 -0.0024303596 -0.004208123 0.0052512717 0.00066616014 -0.0060101133 0.0060597863
-0.0011065447 0.0025897801 0.0047229487 -0.009502155 -0.0019090544 -0.0113555575 0.0058229426 0.011334941
-0.005915938 -0.009232997 0.006092892 0.009280101 0.0047416445 -0.003505478 -0.0027873123 0.0037404508
0.014785284 -0.006174629 0.0088423565 -0.007327062 -0.0010256403 -0.00018584219 0.0009518705 0.0012869643
-0.012295921 0.00173608 -0.0012882272 0.0016974937 0.00026407852 0.004192602 0.0012860732 -0.0028079783
-0.005309639 0.0017014496 0.0038391757 0.004844632 0.0051936824 -0.0046516624 0.004784648 -0.0035695557
0.00016502225 -0.004073315 -0.0056029176 0.0035042495 0.0056639947 -0.0039323634 -0.0024338407 -0.0029254165
-0.009699742 0.0038803816 0.00796938 0.011755514 0.00022786608 0.094829395 0.012394562 0.0009438448
-0.005875942 0.014592921 0.116815165 0.046391666 -0.00650978 0.005413537 -0.0032297166 0.019929359
0.15009443 -0.009803217 -0.01635008 0.005487373 -0.095502384 0.19057693 -0.030881133 -0.14789248
0.13736938 0.02830436 0.0013491847 0.010558167 -0.027183905 0.0047651604 -0.04604185 0.021792842
0.001713333 0.1938683 -0.004869005 0.12644288 0.009773981 -0.0049808263 0.054926958 -0.1131248
0.020463604 0.015243239 0.012973551 0.09425641 0.039122526 -0.007102321 0.01044443 0.017939674
0.05519758 0.11721802 0.029989915 -0.0021241547 0.0083122235 -0.04368552 0.12068282 0.1266582
-0.08377967 0.09072438 0.014317164 0.0035210308 0.030376198 0.05365599 -0.0033336016 0.024858002
-0.002508647 0.004395806 0.09151921 -0.008443457 0.032868978 -0.00084363285 -0.0038306972 -0.0033561513
-0.005363887 -0.0025703816 0.0014727506 -0.003955212 -0.008743565 0.00033949764 -0.00993954 0.0014178315
0.002316138 0.0011710734 0.00075072964 0.0014463553 0.003158073 0.0020806277 0.0070594177 -0.0050378293
0.0035368232 0.0062854374 0.0012651982 0.011272978 -0.003969351 -0.007177077 -0.0064820834 0.00086602446
00000000: ebb5 0fbd 58f1 8bbc 4cbe f53b 8ed6 233c
00000010: b87c ef3b 76fe 7cbd dffc 16bd 7360 b7bb
00000020: d147 3d3c 978b 09bc e5aa 09bc 020c 2cbd
00000030: 6db7 a3bd f6cd 43bc 9086 503c 865a 383d
00000040: 3991 3ebd 359c 7b3c b9b8 8b3d abc0 ddbc
00000050: d1b4 13bd 604c 71bc 0f21 79bd f11e 7f3a
00000060: e599 62bb ab01 11bc 3b85 dcbb 96bd 41bb
00000070: ffa7 01bd 1e34 04bc 25b8 23bd 0b07 c93b
00000080: d3b9 e63b e318 75be 8dff f03d b2b3 9638
00000090: a8ec 28ba 2f47 c1bb a7f9 2c3e 48f9 503d
000000a0: fdb5 9bba a653 8abb bf1c 8a3d 3a98 fd3d
000000b0: b032 9b3d fb74 06bd 5fe5 a33d d121 a2bb
000000c0: d57c 423e 8d53 a13b 2fd5 593d 4562 943e
000000d0: b1ab 643e d9a8 a83d 6aaf 963d f9c1 073d
000000e0: f9cf b43d 9216 343b a6ff bcbc e208 41be
000000f0: d33a b53a 5fa3 5b3e 925e 11bc a88b f0bd
00000100: ac5d 9dbb 6793 16bb 6556 27bc 27fd d83b
00000110: 096b 08bd 67cb a6bc 47af ab3b 0cfa 473c
00000120: ce21 21bb 7871 463c 01e9 07b9 0d52 05bc
00000130: 03ef b23a a0ea e2bb 0f02 22bc ab4f 223c
00000140: 7f47 0e3c 47cb 1ebc 70f3 f93b 5ac0 7bbb
00000150: e739 713b beb0 12bc d96d 14bc 3d5c ebba
00000160: 8ae5 7c3b 02dd c03b 17f0 d63a b074 47bb
00000170: e981 6dbc 5c56 e6ba d877 04bb a5d8 d13a
00000180: b9f3 9b3b ba03 043b 5460 173c 1afe 2c3c
00000190: b761 41bb 567e 793c 2756 a6bb f2f3 16bc
000001a0: 0f72 4abc 5cd2 9b3b ab46 1fbb 4be4 89bb
000001b0: dc12 ac3b 40a1 2e3a 7cf0 c4bb 2c91 c63b
000001c0: 7b09 91ba 4db9 293b f7c2 9a3b edae 1bbc
000001d0: 3c39 faba a90c 3abc 62ce be3b 30b6 393c
000001e0: 7cda c1bb ff45 17bc e2a6 c73b 910b 183c
000001f0: cc5f 9b3b 29bc 65bb 57ab 36bb 5a22 753b
00000200: fa3d 723c 8b54 cabb 88df 103c da17 f0bb
00000210: c76e 86ba a2de 42b9 f386 793a 5baf a83a
00000220: d574 49bc 2e8d e33a bbd9 a8ba 707e de3a
00000230: 0574 8a39 1862 893b 7591 a83a 0f06 38bb
00000240: 7bfc adbb 2d03 df3a ae9a 7b3b b8bf 9e3b
00000250: c42f aa3b f96c 98bb 89c8 9c3b 35ef 69bb
00000260: d309 2d39 7179 85bb ae98 b7bb 8da7 653b
00000270: 0899 b93b 0edb 80bb 1281 1fbb 58b8 3fbb
00000280: abeb 1ebc 004e 7e3b 0192 023c 339a 403c
00000290: 56ef 6e39 ea35 c23d 9012 4b3c 5a6c 773a
000002a0: f98a c0bb 2617 6f3c ca3c ef3d 3005 3e3d
000002b0: fe4f d5bb 0a64 b13b a7a9 53bb e542 a33c
000002c0: 5bb2 193e ac9d 20bc 9af0 85bc 6ccf b33b
000002d0: c196 c3bd 9926 433e 6efa fcbc 2071 17be
000002e0: 8faa 0c3e 8cde e73c 20d7 b03a 29fc 2c3c
000002f0: c8b0 debc 1025 9c3b 6196 3cbd e786 b23c
00000300: ea91 e03a 6985 463e 2d8c 9fbb 3e7a 013e
00000310: 0c23 203c 3336 a3bb 17fb 603d faad e7bd
00000320: 4aa3 a73c c7be 793c 048f 543c 8109 c13d
00000330: f13e 203d 96ba e8bb 1d1f 2b3c 39f6 923c
00000340: dc16 623d 0010 f03d 69ad f53c 6735 0bbb
00000350: fe2f 083c 96ef 32bd 8e28 f73d b0b2 013e
00000360: ad94 abbd b4cd b93d 8a92 6a3c 18c1 663b
00000370: 81d7 f83c 62c6 5b3d 8e78 5abb 02a3 cb3c
00000380: 1d68 24bb b20a 903b 6c6e bb3d 6d56 0abc
00000390: 9fa1 063d 3e27 5dba 6f0c 7bbb e0f2 5bbb
000003a0: 8cc3 afbb d973 28bb 4f09 c13a b99a 81bb
000003b0: 2b41 0fbc 9afe b139 74d9 22bc 88d6 b93a
000003c0: 59ca 173b b47e 993a 9dcc 443a a193 bd3a
000003d0: acf7 4e3b 245b 083b b052 e73b 6014 a5bb
000003e0: 0cca 673b 12f6 cd3b 02d5 a53a 4cb2 383c
000003f0: 5411 82bb af2d ebbb a867 d4bb eb05 633a

rnn1.bias_ih_l1 f4 [33]
0.05369096 -0.040595774 0.00014367576 -0.0028171055 0.00019665222 0.014565238 0.009669579 -0.0023046813
-0.00017846271 -0.019127049 -0.013111166 0.10605431 0.009634882 -0.010589021 0.00033631915 -0.037331987
-0.0022556074 -0.052830413 -0.046649776 -0.035273634 -0.0021732182 -0.007047118 -0.030904766 -0.07249365
0.0018129034 -0.08910547 0.04081572 0.00064501876 -0.04965633 0.00016950237 0.0938725 0.0019505562
-0.0018400582
00000000: 0deb 5b3d c147 26bd aba7 1639 309f 38bb
00000010: 6e34 4e39 09a3 6e3c 276d 1e3c 230a 17bb
00000020: b821 3bb9 54b0 9cbc 37d0 56bc 0133 d93d
00000030: a0db 1d3c 937d 2dbc fe53 b039 6de9 18bd
00000040: d0d2 13bb b464 58bd d613 3fbd 167b 10bd
00000050: 8d6c 0ebb 83eb e6bb fe2b fdbc 8d77 94bd
00000060: f29e ed3a ee7c b6bd 622e 273d 7a16 293a
00000070: 7064 4bbd 72bc 3139 3a40 c03d cea9 ff3a
00000080: 1c2e f1ba

rnn1.bias_hh_l1 f4 [33]
0.05367623 -0.040690925 0.0001436602 -0.002817108 0.00019664863 0.014567594 0.009669742 -0.0023046774
-0.00017847343 -0.019152848 -0.012441197 0.10779944 0.009642437 -0.010589801 0.00033632305 -0.037331916
-0.0022480807 -0.027693922 -0.046644792 -0.029257191 -0.002177232 -0.0070460807 -0.030291097 -0.07244431
0.0018128941 -0.08884481 0.040844195 0.0006450155 -0.05077729 0.00016950358 0.0938726 0.0019505671
-0.0018400586
00000000: 9bdb 5b3d 87ab 26bd 7ea3 1639 3b9f 38bb
00000010: 7733 4e39 ebac 6e3c d66d 1e3c 120a 17bb
00000020: 9924 3bb9 6fe6 9cbc 2ad6 4bbc f4c5 dc3d
00000030: 50fb 1d3c d880 2dbc 8454 b039 5ae9 18bd
00000040: 8954 13bb 5dde e2bc 9c0e 3fbd c7ac efbc
00000050: e4af 0ebb cfe2 e6bb 0925 f8bc af5d 94bd
00000060: a29e ed3a 45f4 b5bd 3e4c 273d 4216 293a
00000070: d9fb 4fbd c5bc 3139 4740 c03d 2caa ff3a
00000080: 1f2e f1ba

rnn1.weight_ih_l1_reverse f4 [33, 66]
0.00074171793 0.0017010622 0.00071654946 -0.00074978697 0.0019699559 0.0007977737 0.00143485 0.00084675645
0.000702138 0.0007070638 0.0017076032 0.0011875835 0.0004482357 -0.0005297501 0.00047895123 0.0005557537
0.00023128404 0.0017095628 0.00089106744 0.00064279157 0.00051579427 0.0006854227 0.00061672815 0.0015024658
0.0011507575 0.0005026522 0.0015375249 0.0016836458 0.0005113522 0.001297805 -0.00095207157 0.00057834154
0.0015301129 0.0014111055 -0.0012090151 -0.0023181236 -0.0027702423 -0.0028196012 -0.00037138155 -0.0012683009
-0.0005683549 -0.0012322823 -0.0010830883 -0.00062725425 -0.0021367741 -0.0010773491 -0.0020834906 -0.002219211
-0.0019614964 -0.0003986455 -0.0021373667 -0.0006111801 -0.00109358 0.0012934498 0.0007903849 -0.0028559663
-0.0015396322 0.0010942847 -0.0010939421 -0.0026997519 -0.0025822509 -0.0012189109 4.298381e-06 0.0018115446
-0.0014121121 0.0010948838 0.0021991243 0.002400166 0.0017402633 -0.0004905946 0.0027391065 0.0014518461
0.0022800611 0.0010790279 0.0014222807 0.0017001983 0.0026366005 0.0024234813 0.0013325012 -0.0014231957
0.0015181839 0.0015218814 0.000697219 0.0025640551 0.0023153196 0.0020140798 0.0024113595 0.0012396477
0.0021956565 0.0026956599 0.0021568385 0.0018306896 0.0031951405 0.0026755547 0.0021298756 0.0020568948
-0.0011142576 0.002256265 0.0021183619 0.0014062988 -0.0025863543 -0.0024514887 -0.0022873506 -0.0024095222
-0.0020301759 -0.0023330776 -0.002101944 -0.0023852922 0.00038619203 -0.0021382475 -0.00223812 -0.0022006494
-0.0023729159 -0.0025034428 -0.0024773264 -0.002061955 -0.0020490552 -0.0021405222 0.00036490313 0.0012668999
-0.0013837385 -0.0022300303 -0.0023617428 -0.00036173363 0.0003628068 -0.002338706 -0.0019050507 -0.002307796
-0.00049326906 0.0030806854 -0.0026885283 -0.0003595553 -0.00018073495 0.0016993457 -0.00017146139 -0.0014197747
0.0018642768 -9.8675955e-05 0.0012273955 -0.00012803284 -0.00031892228 -0.00015439666 0.0017311232 -0.0001316097
-0.00039165068 0.0004141074 -0.00035069612 -0.00032938758 -0.00016486923 0.00091754465 -0.0003818191 -0.00014574404
-0.0006997134 -0.00023897724 -0.0003773099 0.0011633555 -3.833795e-05 -0.00029687048 0.0009095688 0.0018581145
-0.0003135503 0.0010579235 -0.0015818239 -0.00068369566 0.00054413575 0.0026153782 -0.00031704668 -0.0012955222
-0.0016458143 -0.0017174915 -0.00019851916 -0.0006573841 -0.0002830105 -0.00032882893 -0.00113036 -0.00034637025
-0.0011837172 -0.0003598827 -0.0010826283 -0.0012337508 -0.0010417526 -0.0002483705 -0.0011413627 -0.00037704306
-0.0011480614 0.0023444504 0.0025660922 -0.001813367 -0.00080335065 0.0011508594 -0.0011496854 -0.001605889
-0.0015016565 -0.00039142184 0.00043729003 0.0005662953 -0.00030822947 0.001151863 0.03449905 -0.0016729226
0.04383657 -0.011567821 0.0044062417 0.04529591 0.004013702 0.045811504 0.042094357 0.044089653
-0.0003580281 0.023350256 0.041971546 -0.043672945 0.04299672 0.044172868 -0.008090451 0.014241582
0.023408208 0.03943892 0.028455833 0.045344416 0.029765414 0.007308404 0.019454481 0.039522413
0.016711235 -0.0012534758 0.038868353 7.2643204e-05 -0.013718574 0.028408825 0.0117038805 0.007739008
0.031662773 -0.061101466 -0.07446664 -0.07562525 -0.03568278 -0.04797433 -0.03841501 0.029172413
-0.020886377 -0.040559094 -0.057360567 0.030324068 -0.05605209 -0.060068455 -0.05471327 -0.037095077
-0.055429205 -0.040405452 -0.02136772 0.008463481 -0.00016350632 -0.08076435 -0.050654188 0.02199024
00000000: d96f 423a 2df6 de3a d2d6 3b3a 5a8d 44ba
00000010: 601a 013b b021 513a 9411 bc3a ddf8 5d3a
00000020: af0f 383a 405a 393a a8d1 df3a b1a8 9b3a
00000030: 2d01 eb39 edde 0aba bf1b fb39 00b0 113a
00000040: d684 7239 6913 e03a 8696 693a 0381 283a
00000050: 5e36 073a f0ad 333a edab 213a 63ee c43a
00000060: 04d5 963a 6bc4 033a c686 c93a c7ad dc3a
00000070: 440c 063a 1c1b aa3a 7194 79ba d89b 173a
00000080: 128e c83a d8f4 b83a d177 9eba a9eb 17bb
00000090: f48c 35bb 0fc9 38bb fdb5 c2b9 1e3d a6ba
000000a0: a7fd 14ba 8884 a1ba 6af6 8dba 526e 24ba
000000b0: 1f09 0cbb d635 8dba 2c8b 08bb 2f70 11bb
000000c0: 738c 00bb 4b01 d1b9 1013 0cbb 9a37 20ba
000000d0: 7556 8fba f988 a93a d531 4f3a 2a2b 3bbb
000000e0: 7ccd c9ba 1a6e 8f3a 9b62 8fba 52ee 30bb
000000f0: fb3a 29bb ddc3 9fba d03a 9036 5a71 ed3a
00000100: 9f16 b9ba 3482 8f3a 2f1f 103b 1a4c 1d3b
00000110: 8c19 e43a 3f9b 00ba 9582 333b df4b be3a
00000120: 146d 153b 2b6e 8d3a d26b ba3a 30d9 de3a
00000130: d1ca 2c3b 45d3 1e3b 52a7 ae3a 868a baba
00000140: ccfd c63a de79 c73a 93c5 363a b509 283b
00000150: 9ebc 173b a7fe 033b e607 1e3b ad7b a23a
00000160: 01e5 0f3b aba9 303b bf59 0d3b c0f3 ef3a
00000170: 9065 513b 5c58 2f3b 6295 0b3b f8cc 063b
00000180: 480c 92ba d8dd 133b 37d4 0a3b 8f53 b83a
00000190: d37f 29bb 28a9 20bb 60e7 15bb 13e9 1dbb
000001a0: b30c 05bb 8ce6 18bb c5c0 09bb 9052 1cbb
000001b0: d179 ca39 d721 0cbb 6cad 12bb c538 10bb
000001c0: ec82 1bbb cd10 24bb a45a 22bb dd21 07bb
000001d0: 7149 06bb 0148 0cbb 7850 bf39 1b0e a63a
000001e0: 8f5e b5ba b325 12bb 78c7 1abb 11a7 bdb9
000001f0: 1b37 be39 fa44 19bb e5b2 f9ba 643e 17bb
00000200: ba4e 01ba 53e5 493b 0532 30bb b282 bcb9
00000210: ab83 3db9 94bc de3a 51ca 33b9 bc17 baba
00000220: c05a f43a 40f0 ceb8 8fe0 a03a 8e40 06b9
00000230: 0635 a7b9 8ae5 21b9 dbe6 e23a b600 0ab9
00000240: 7756 cdb9 8e1c d939 a3dd b7b9 a7b1 acb9
00000250: bfe0 2cb9 6187 703a e42e c8b9 ded2 18b9
00000260: f96c 37ba f795 7ab9 add1 c5b9 bc7b 983a
00000270: 0fcd 20b8 48a5 9bb9 2170 6e3a fa8b f33a
00000280: 0264 a4b9 06aa 8a3a 3455 cfba 0a3a 33ba
00000290: 55a4 0e3a c466 2b3b 4939 a6b9 83ce a9ba
000002a0: 5db8 d7ba 741d e1ba 9529 50b9 4d54 2cba
000002b0: 0761 94b9 ac66 acb9 9628 94ba 0799 b5b9
000002c0: f526 9bba a3ae bcb9 fae6 8dba cfb5 a1ba
000002d0: 6b8b 88ba b937 82b9 c799 95ba ddad c5b9
000002e0: 8c7a 96ba 5aa5 193b e22b 283b 80ae edba
000002f0: f397 52ba 6fd8 963a 0ab1 96ba b17c d2ba
00000300: 3bd3 c4ba c037 cdb9 1344 e539 6f73 143a
00000310: dc99 a1b9 1cfa 963a e04e 0d3d f845 dbba
00000320: fa8d 333d f586 3dbc 3c62 903b 3488 393d
00000330: 5f85 833b d8a4 3b3d 226b 2c3d 5a97 343d
00000340: b8b5 bbb9 0949 bf3c 5bea 2b3d 67e2 32bd
00000350: 541d 303d 9cee 343d d08d 04bc 8655 693c
00000360: 92c2 bf3c b48a 213d 351c e93c 11bb 393d
00000370: 99d6 f33c 567b ef3b 015f 9f3c 41e2 213d
00000380: 00e6 883c ab4b a4ba 6c34 1f3d 0658 9838
00000390: dfc3 60bc a0b9 e83c a2c1 3f3c 8197 fd3b
000003a0: d3b0 013d 8845 7abd f781 98bd 69e1 9abd
000003b0: 1b28 12bd bb80 44bd 0f59 1dbd fcfa ee3c
000003c0: e819 abbc 4b21 26bd eaf2 6abd 2e6a f83c
000003d0: e096 65bd 570a 76bd 061b 60bd 02f1 17bd
000003e0: bc09 63bd 3080 25bd 5b0b afbc 6aaa 0a3c
000003f0: e572 2bb9 c867 a5bd c47a 4fbd e024 b43c

rnn1.weight_hh_l1_reverse f4 [33, 33]
-0.012422955 -0.0049445964 -0.014445974 0.0057978258 -0.0076715113 0.005566607 -0.007620353 -0.00025030648
0.017371653 -0.015989222 -0.006995428 -0.012601748 -0.011433128 -0.0076465737 0.0018523318 0.0037163575
0.002652801 -0.0013273584 -0.007017882 0.012474445 -0.0005624066 -0.0019515795 -0.020544559 -0.0031915396
-0.007858046 -0.0012534781 -0.009652458 0.01288566 7.897365e-05 -0.013975597 0.0032653692 -0.009864441
-0.03111481 0.011257207 -0.027310869 -0.0031595877 -0.013455386 -0.015226895 0.018426169 0.015692225
-0.0011683638 -0.021307066 0.005923129 -0.018683389 0.0027106663 -0.012778185 0.007959547 -0.014545694
-0.00041487935 0.013106799 0.014532755 0.002020329 -0.0013885708 -0.0007558982 0.0072487765 0.0030798765
-0.02640852 0.0023090413 -0.007523105 0.0029876244 -0.016877268 0.011929835 -0.007024676 0.011568559
0.0032872816 0.0043580607 -0.0067875935 -0.002878664 -0.019255467 0.01152417 -0.011237881 -0.0003722006
0.017314956 0.0032860653 0.015976613 -0.013599539 -0.009176531 -0.0046168 -0.005961786 -0.010759529
0.0030067703 -0.0004840125 0.011051319 -0.0026963146 0.0035286543 0.0019948056 0.0020868995 -0.011604889
-0.01484179 0.028088212 0.018452978 0.008627155 0.0024829633 0.025777766 0.0063009537 -0.0071734516
0.00823931 0.0009704899 -0.021299059 -0.005122633 -0.010729381 0.009969855 0.0013122681 0.0052332454
-0.0056308447 0.0039561205 0.007209381 0.0057237605 0.0060877684 0.0020156235 0.0031471911 -0.0038618515
0.010316486 0.009706825 0.0014883974 -0.011886353 -0.0011348083 -0.014917923 -0.00062210375 0.008114512
0.007890423 0.0035244823 -0.006384824 -0.009285664 -0.005892269 0.0042765727 -0.001308836 0.0064130733
-0.0032427732 -0.007974576 -0.010067131 0.01054243 0.0041890168 0.004039229 0.0020212447 -0.006270901
-0.002497026 -0.0041970946 -0.010016413 -0.0060402853 0.020112112 -0.0046562892 0.0028790392 -0.0053471853
0.0030719275 0.006266958 0.008375829 0.005766862 -0.0128160715 -0.0041816607 -0.00061157707 -0.011129798
0.0057838694 0.005407098 0.009635262 -0.009322743 -0.0053406097 0.0038460973 0.0029717549 -0.0018129783
0.006836432 4.0219813e-05 -0.00020966881 0.0010261285 -0.0030611395 -0.0018210813 -0.0028759686 0.0011216678
0.0055540414 -0.0060963845 0.002709631 -0.0046474617 -0.0022818926 0.010496491 -0.008589838 -0.005011244
-0.010987912 -0.01268673 -0.0073864534 0.0010236826 0.0002991912 -0.0008154625 0.0017157489 -0.005596082
0.008910322 -0.0012943478 -0.0013235989 -0.013697008 -0.0040537165 -0.0019711694 -0.0029999912 -0.0012639259
0.0070167286 -0.00030773415 -0.0126878945 0.0062188245 -0.007051586 -0.022419734 -0.0014820779 -0.0018959501
0.012109152 -0.01046341 -0.0015329774 0.00036568128 -0.022331806 -0.0032752631 0.009907056 0.0022807738
0.009159252 -0.0075437897 0.0010697307 0.011831079 0.003989099 0.006439825 -0.014695889 0.0013093051
-0.012869043 0.002452813 0.0010922007 0.008257263 0.004050223 -0.031157792 -0.020603543 -0.008237948
-0.0051933066 -0.014738837 -0.00024613144 -0.0011065274 -0.005894287 -0.0062250183 0.0032461456 -0.0057332576
0.011940831 0.0002885528 0.009348258 0.010678648 -0.002644218 0.003932797 0.0072266487 -0.016879415
0.008422713 0.011896598 0.012357229 0.0067809657 -0.002752143 -0.0038877234 -0.0036882767 0.009939885
-0.0016581046 0.010208527 -0.0022030568 -0.0033287862 -0.006666525 0.00021557239 0.019705217 0.013828078
00000000: a689 4bbc 4806 a2bb ceae 6cbc b0fb bd3b
00000010: 4d61 fbbb 1668 b63b 27b4 f9bb 913b 83b9
00000020: ff4e 8e3c d4fb 82bc e739 e5bb 9077 4ebc
00000030: 0452 3bbc 1c90 fabb f1c9 f23a 228e 733b
00000040: 9eda 2d3b c2fa adba 43f6 e5bb 9d61 4c3c
00000050: 786e 13ba 24cc ffba 104d a8bc 2629 51bb
00000060: 09bf 00bc bf4b a4ba 5825 1ebc 601e 533c
00000070: a89e a538 e7f9 64bc ceff 553b 779e 21bc
00000080: 7ce4 febc 2670 383c 0bbb dfbc 1611 4fbb
00000090: fb73 5cbc 3a7a 79bc 7af2 963c fb8c 803c
000000a0: c923 99ba 288c aebc cf16 c23b e80d 99bc
000000b0: 6fa5 313b 985b 51bc c368 023c 1051 6ebc
000000c0: 2a84 d9b9 e6bd 563c cb1a 6e3c 7f67 043b
000000d0: b400 b6ba 7827 46ba 2587 ed3b c1d7 493b
000000e0: ae56 d8bc 4953 173b 6184 f6bb 05cc 433b
000000f0: 3242 8abc 5b75 433c 412f e6bb 0e8a 3d3c
00000100: 6f6f 573b 10ce 8e3b 766a debb f8a7 3cbb
00000110: a4bd 9dbc dfcf 3c3c 171f 38bc eb23 c3b9
00000120: 18d8 8d3c 075b 573b 63e1 823c 9ad0 5ebc
00000130: 2959 16bc 8748 97bb 165b c3bb bc48 30bc
00000140: 3c0d 453b 0fc3 fdb9 9710 353c a7b4 30bb
00000150: ff40 673b 49bb 023b 5dc4 083b 6f22 3ebc
00000160: fb2a 73bc 4019 e63c b32a 973c e958 0d3c
00000170: 36b9 223b e52b d33c 3b78 ce3b 460f ebbb
00000180: 2cfe 063c 7a68 7e3a 5d7b aebc c3db a7bb
00000190: 49ca 2fbc 9a58 233c 6900 ac3a a57b ab3b
000001a0: f382 b8bb 58a2 813b ac3c ec3b 628e bb3b
000001b0: e77b c73b 8d18 043b 1b41 4e3b 1e17 7dbb
000001c0: 7a06 293c 6009 1f3c 5416 c33a fabe 42bc
000001d0: d9bd 94ba 4e6a 74bc ad14 23ba bbf2 043c
000001e0: d546 013c 00fb 663b c937 d1bb e622 18bc
000001f0: ef13 c1bb 7e22 8c3b 408d abba c224 d23b
00000200: b584 54bb cca7 02bc 9cf0 24bc 28ba 2c3c
00000210: 0544 893b 825b 843b dc76 043b 217c cdbb
00000220: 25a5 23bb c887 89bb e21b 24bc 96ed c5bb
00000230: 28c2 a43c c993 98bb 43ae 3c3b 7137 afbb
00000240: 6452 493b 0e5b cd3b c63a 093c f2f7 bc3b
00000250: 80fa 51bc 5006 89bb 3e52 20ba c259 36bc
00000260: 9d86 bd3b 072e b13b 38dd 1d3c 6bbe 18bc
00000270: 4800 afbb ce0e 7c3b c6c1 423b 75a1 edba
00000280: 2604 e03b b2b1 2838 8bda 5bb9 297f 863a
00000290: 669d 48bb 59b1 eeba bf7a 3cbb ed04 933a
000002a0: adfe b53b 2ec4 c7bb 1194 313b bc49 98bb
000002b0: ce8b 15bb 79f9 2b3c 64bc 0cbc 5d35 a4bb
000002c0: a506 34bc 01dc 4fbc 100a f2bb 172d 863a
000002d0: c3dc 9c39 c3c4 55ba fbe2 e03a 575f b7bb
000002e0: 99fc 113c 1ba7 a9ba 9c7c adba 6a69 60bc
000002f0: 0ad5 84bb bc2e 01bb 809b 44bb 51aa a5ba
00000300: 96ec e53b 6157 a1b9 e3e0 4fbc 48c7 cb3b
00000310: fe10 e7bb 97a9 b7bc 4842 c2ba 8781 f8ba
00000320: 7765 463c b96e 2bbc 30ee c8ba e9b8 bf39
00000330: 31f1 b6bc cca5 56bb 3451 223c 0979 153b
00000340: b010 163c e531 f7bb 3536 8c3a 24d7 413c
00000350: fdb6 823b 2b05 d33b 07c7 70bc fd9c ab3a
00000360: aed8 52bc 60bf 203b 2d28 8f3a 7949 073c
00000370: bcb7 843b a03e ffbc c3c8 a8bc 75f8 06bc
00000380: 9d2c aabb 2a7b 71bc 340b 81b9 e608 91ba
00000390: dd24 c1bb 3dfb cbbb 49bd 543b 0dde bbbb
000003a0: 7aa3 433c e748 9739 7029 193c 7ff5 2e3c
000003b0: 9e4a 2dbb b1de 803b 86cd ec3b b346 8abc
000003c0: 6bff 093c f3e9 423c fa75 4a3c dd32 de3b
000003d0: 4c5d 34bb 2dc9 7ebb 04b7 71bb e6da 223c
000003e0: c254 d9ba aa41 273c 2961 10bb c427 5abb
000003f0: dd72 dabb 460b 6239 d66c a13c 2a8f 623c

rnn1.bias_ih_l1_reverse f4 [33]
-0.001229024 5.88845e-05 -0.0013740971 -0.030222842 -0.0017704685 -0.00093460287 3.8934308e-05 0.0007865154
8.7830005e-05 -0.0010840236 -0.04151993 -0.02830533 -0.00016928154 0.00082430424 -0.00085425586 -0.0006107393
-0.024458488 0.00056664745 -0.0004108553 -0.022010444 0.0021713455 -0.0006917232 -0.031134041 0.00081025506
0.00073235406 -0.002109942 -0.036513343 0.0011086495 0.00034458222 -0.0011574798 0.0009572165 0.00061237847
0.0003662342
00000000: 3417 a1ba c0fa 7638 0c1b b4ba e595 f7bc
00000010: 110f e8ba 2300 75ba 654d 2338 282e 4e3a
00000020: 6031 b838 cc15 8eba cd10 2abd 94e0 e7bc
00000030: 2b81 31b9 1f16 583a 24f0 5fba 051a 20ba
00000040: 2b5d c8bc 118b 143a 1168 d7b9 3f4f b4bc
00000050: 224d 0e3b c254 35ba d10c ffbc 4c67 543a
00000060: 73fb 3f3a f446 0abb 048f 15bd 1b50 913a
00000070: 0ba9 b439 94b6 97ba b6ed 7a3a 0688 203a
00000080: 1f03 c039

rnn1.bias_hh_l1_reverse f4 [33]
-0.0012290275 5.8886802e-05 -0.0013741034 -0.030674566 -0.001770465 -0.0009346109 3.894544e-05 0.0007865132
8.783349e-05 -0.0010840261 -0.040763345 -0.028324496 -0.00016927808 0.00082430005 -0.00085425796 -0.00061073655
-0.025285903 0.0005666456 -0.0004108565 -0.022010323 0.0021713437 -0.0006917259 -0.031134339 0.0008102553
0.00073235756 -0.0021099413 -0.036818225 0.0011086516 0.0003445833 -0.0011574818 0.00095721596 0.00061238365
0.0003662335
00000000: 5217 a1ba 39fd 7638 421b b4ba 3a49 fbbc
00000010: f30e e8ba ad00 75ba 5959 2338 022e 4e3a
00000020: 3f33 b838 e115 8eba 77f7 26bd c608 e8bc
00000030: 3d80 31b9 d715 583a 48f0 5fba d619 20ba
00000040: 6224 cfbc f18a 143a 3a68 d7b9 fe4e b4bc
00000050: 1a4d 0e3b f054 35ba 710d ffbc 5067 543a
00000060: affb 3f3a f146 0abb b5ce 16bd 2d50 913a
00000070: 30a9 b439 a5b6 97ba aded 7a3a 5f88 203a
00000080: 0703 c039
